Models_mario/Mario Bias_exp0_DL_temporal.pth (torch, 133589 bytes, 10 tensors)

weight_ih_l0 f4 [200, 5]
0.17609577 0.15690997 0.11175675 0.4625398 0.17563774 0.39659655 0.31220788 0.41647765
0.50128776 0.110241786 0.28971794 0.2569132 0.2594956 0.044657912 0.3059761 0.35988256
0.23680407 0.4113326 0.07972118 -0.16473757 -0.21824536 -0.23340523 -0.343741 0.06166502
0.2564088 0.3920332 0.4473312 0.34473395 0.566074 0.27793506 -0.077539556 -0.045000754
0.037367664 -0.11571044 0.3997635 0.23527065 0.20757042 0.20944606 0.4464317 0.09224105
0.25932595 0.4159361 0.36575162 -0.085170925 0.17754184 0.37348717 0.48984948 0.37059417
0.40096885 0.4457562 0.4091738 0.3396061 0.4278886 0.58246994 -0.09047526 0.034373295
0.09164775 0.06550305 0.44014594 0.5863959 0.21134385 0.37090048 0.24590403 0.25178945
0.35677606 0.15601371 0.23663251 0.24003056 0.167457 -0.18952528 0.27907467 0.2025723
0.38423622 0.11252468 0.19624983 0.39193338 0.479835 0.6131406 0.5518206 0.6364902
0.50142586 0.6262587 0.73316324 0.17545946 0.19406939 -0.31616682 -0.24138062 -0.16236736
-0.27374032 0.22503288 -0.09992392 0.0028750189 -0.070768476 0.2243722 0.2817138 0.031748354
0.11911829 0.27163297 0.96783155 0.32396495 0.2617394 0.3207034 0.37984234 0.062325306
0.028462978 -0.023070484 -0.22124873 -0.13347581 -0.21374655 -0.051349908 0.5601192 0.4774104
0.45658597 0.63988507 0.309833 -0.01130068 -0.15008184 -0.090415396 0.024048053 0.1357429
0.27952534 0.27731517 0.37199265 0.60238963 -0.19879676 -0.02260065 0.13012807 0.13294461
0.043185733 -0.07329668 0.74532837 0.8670374 0.93314534 0.69073904 0.80866355 0.19225636
0.1780637 0.26997373 0.36778167 -0.20053768 0.07660088 0.12285939 0.16746268 0.36932367
-0.2935264 -0.13872787 -0.0134566305 -0.08533087 0.6038617 0.35506418 0.50852966 0.5497607
0.5506749 0.16226073 0.10710359 -0.046217836 0.0034411766 -0.052569825 0.086955935 0.40335062
0.26842606 0.21897888 0.21927832 0.34877685 0.36311048 0.2606211 0.110869616 0.16793548
0.23559894 -0.0780657 -0.19528009 -0.19674686 -0.17963134 -0.37067556 0.29965425 0.5204161
0.5091614 0.39197767 0.788977 0.40949026 -0.19698936 -0.16505504 -0.1091486 -0.029646235
0.18161975 -0.3228843 -0.1429979 -0.2178284 -0.2710755 0.15638264 0.5465884 0.63575673
0.510383 0.4187457 0.3132519 0.49562058 0.52785736 0.48712814 0.1712631 0.14414215
-0.17254485 -0.04920355 -0.079470076 -0.1514251 0.16639437 0.2559537 0.32248765 0.125122
0.7432434 0.4058364 0.24044417 0.23352611 0.31747293 -0.057511337 0.2977662 0.30962667
0.32542336 0.27821803 0.62730837 0.36187065 -0.1888863 -0.05985712 -0.24824426 -0.09602748
0.07479319 0.13561663 0.18425353 0.27564302 0.43979034 0.43987274 -0.09655918 0.03154349
-0.051542714 0.66661537 0.37806493 0.0016974149 0.18436146 0.21207505 0.48915014 0.48349744
-0.27407348 -0.13191803 -0.05141929 -0.080835864 0.06514615 -0.15253152 -0.19731082 -0.14613275
0.17119078 0.06247189 0.27060097 0.13840635 0.35409126 0.18896759 -0.10540776 -0.4287768
00000000: 7352 343e 02ad 203e b9e0 e43d 04d2 ec3e
00000010: 61da 333e b40e cb3e b6d9 9f3e 8f3c d53e
00000020: 6554 003f 72c6 e13d e955 943e 208a 833e
00000030: 9bdc 843e 37eb 363d e6a8 9c3e 8742 b83e
00000040: c47c 723e 309a d23e dc44 a33d f7b0 28be
00000050: b67b 5fbe c801 6fbe d2fe afbe 7694 7c3d
00000060: 0448 833e 93b8 c83e 9808 e53e f880 b03e
00000070: 3aea 103f 814d 8e3e 0fcd 9ebd b652 38bd
00000080: d60e 193d 98f9 ecbd cdad cc3e caea 703e
00000090: 578d 543e 0779 563e b292 e43e e0e8 bc3d
000000a0: 5fc6 843e 94f5 d43e cc43 bb3e 186e aebd
000000b0: 87cd 353e b639 bf3e 8dcd fa3e 85be bd3e
000000c0: ca4b cd3e 283a e43e 3a7f d13e dae0 ad3e
000000d0: 3714 db3e c01c 153f 184b b9bd 03cb 0c3d
000000e0: d1b1 bb3d 7726 863d cf5a e13e 0b1e 163f
000000f0: 866a 583e abe6 bd3e 44ce 7b3e 8cea 803e
00000100: 5aab b63e 0fc2 1f3e cb4f 723e 92ca 753e
00000110: d979 2b3e ea12 42be e0e2 8e3e 1d6f 4f3e
00000120: 9cba c43e 5773 e63d b7f5 483e 7eab c83e
00000130: efac f53e c8f6 1c3f 1d44 0d3f 06f1 223f
00000140: 725d 003f 7d52 203f 96b0 3b3f a5ab 333e
00000150: 20ba 463e 9ee0 a1be 7b2c 77be a143 26be
00000160: b127 8cbe 056f 663e eaa4 ccbd d06a 3c3b
00000170: 10ef 90bd d3c1 653e cb3c 903e 900a 023d
00000180: 4af4 f33d 7a13 8b3e cfc3 773f bcde a53e
00000190: b502 863e 3c33 a43e b27a c23e d248 7f3d
000001a0: 312b e93c 50fe bcbc 078f 62be e2ad 08be
000001b0: 60e0 5abe 4854 52bd f963 0f3f 236f f43e
000001c0: a3c5 e93e 82cf 233f 6ea2 9e3e 7d26 39bc
000001d0: 0eaf 19be b52b b9bd 6c00 c53c 3000 0b3e
000001e0: f21d 8f3e 41fc 8d3e d275 be3e 3536 1a3f
000001f0: 6191 4bbe 0025 b9bc 4b40 053e a222 083e
00000200: 86e3 303d 921c 96bd d7cd 3e3f 2af6 5d3f
00000210: 9de2 6e3f 46d4 303f 9304 4f3f dade 443e
00000220: 5556 363e ff39 8a3e e14d bc3e c059 4dbe
00000230: ece0 9c3d b49d fb3d 567b 2b3e fe17 bd3e
00000240: 1849 96be ae0e 0ebe 3379 5cbc f3c1 aebd
00000250: ae96 1a3f f9ca b53e 002f 023f 1ebd 0c3f
00000260: 08f9 0c3f ad27 263e 2159 db3d ea4e 3dbd
00000270: 5d85 613b 7553 57bd f415 b23d f983 ce3e
00000280: 246f 893e 003c 603e 7f8a 603e e192 b23e
00000290: 9ee9 b93e 2170 853e 9c0f e33d 47f7 2b3e
000002a0: d940 713e e9e0 9fbd 81f7 47be 0278 49be
000002b0: 47f1 37be 30c9 bdbe 486c 993e fd39 053f
000002c0: 6758 023f 4cb1 c83e 66fa 493f b5a8 d13e
000002d0: 94b7 49be 3004 29be 4d89 dfbd a9dc f2bc
000002e0: 87fa 393e 1751 a5be 0b6e 12be 680e 5fbe
000002f0: 68ca 8abe c522 203e 38ed 0b3f f4c0 223f
00000300: 76a8 023f d665 d63e 8e62 a03e fbc1 fd3e
00000310: a921 073f dc68 f93e 985f 2f3e 009a 133e
00000320: 99af 30be a989 49bd 35c1 a2bd 2e0f 1bbe
00000330: 4963 2a3e 5d0c 833e 1a1d a53e fb1f 003e
00000340: 3345 3e3f cac9 cf3e ff36 763e 7821 6f3e
00000350: d08b a23e 0291 6bbd d074 983e 6387 9e3e
00000360: e49d a63e 9872 8e3e 4897 203f 1c47 b93e
00000370: 696b 41be bd2c 75bd be33 7ebe 0eaa c4bd
00000380: 2c2d 993d 16df 0a3e f5ac 3c3e 1521 8d3e
00000390: 332c e13e 0037 e13e d2c0 c5bd bf33 013d
000003a0: 741e 53bd 4ea7 2a3f ba91 c13e cb7b de3a
000003b0: 40c9 3c3e 342a 593e e371 fa3e fa8c f73e
000003c0: 5c53 8cbe 8515 07be 099d 52bd 468d a5bd
000003d0: 586b 853d 3931 1cbe d90b 4abe d3a3 15be
000003e0: a34c 2f3e 86e2 7f3d 368c 8a3e 65ba 0d3e
000003f0: 734b b53e b880 413e 06e0 d7bd a288 dbbe

weight_hh_l0 f4 [200, 50]
0.1156543 0.051170025 -0.31680298 0.32141837 0.015364948 -0.1649253 0.13791652 -0.1723647
-0.059951108 0.06793823 0.35868442 -0.027979767 0.07227327 -0.062271483 0.2509206 -0.018084988
-0.0014854268 -0.18433964 -0.039010007 0.046123378 -0.11254966 -0.35139477 0.2892807 0.16146983
-0.078039974 0.12604843 0.19656928 0.11945521 0.0795919 0.24823797 0.10145493 0.32643503
0.10671179 -0.040659647 -0.17699794 -0.12042561 -0.32692418 0.21780398 0.17268282 0.011462758
0.02034508 -0.048170842 -0.0014819931 -0.42078736 0.23310788 0.14520755 0.11553465 -0.019503582
-0.090764835 0.06050055 0.09495204 0.19063364 0.5334165 -0.17506488 0.60445184 -0.7074499
0.055236246 0.55583334 -0.18658693 -0.32030377 0.30405048 -0.013552368 0.4273324 -0.56974494
-0.4293066 -0.7173695 -0.5764012 -0.086647555 0.34059742 0.013227061 0.9031044 -0.12081606
0.39047348 0.33340037 -1.0833359 0.29027453 0.5927978 -0.8933392 -0.8200749 0.91021705
-1.0571347 0.3109493 0.005580334 0.656 -0.08077882 0.1142891 -0.2196101 0.21548235
-0.287269 -0.81146556 0.2309602 0.3503009 -0.5698673 -0.23877719 0.11424588 -0.2144507
0.029197322 0.08090962 0.18399605 0.02510042 0.21832779 -0.11459104 0.057289865 0.18425319
0.38154566 -0.24596715 0.050554007 0.024225872 0.19113623 -0.32696983 0.2143964 0.08636096
-0.04716189 -0.18113793 0.021840645 0.42348865 -0.006098304 -0.12718537 -0.042244118 -0.02906835
0.024758546 -0.22274287 -0.1427668 0.3321876 0.06668927 0.04085843 0.064319186 0.0023014394
-0.1823115 -0.109941415 -0.088766314 -0.0062920414 0.1695654 0.24628258 0.0791776 0.34345192
0.01869356 0.21108666 -0.20489049 -0.11998234 0.054711908 0.055038996 0.15872227 0.29474673
-0.16710995 -0.18582582 0.021304848 0.13360456 0.037786286 -0.1584446 -0.06474846 -0.15614922
0.06422214 -0.1954812 0.0016518359 0.27718785 -0.0148389125 -0.033879828 -0.44489175 -0.29889375
0.054463524 -0.1275927 0.42190936 -0.03444915 -0.2018814 0.23713097 -0.22940604 0.29833335
0.21294528 0.1386369 0.16064346 0.25162554 0.113059126 -0.1657609 -0.1818101 -0.20529471
0.2863657 0.33175743 0.3339171 -0.18960312 -0.080002405 -0.017199999 0.19021727 -0.18892099
0.15865496 0.11383721 0.2758024 -0.3460183 -0.30561668 -0.2591481 -0.16871619 -0.117460415
-0.110060014 -0.048888914 -0.17074122 0.20530406 -0.108903944 0.01952345 0.11205244 -0.314763
-0.39873946 -0.21399163 0.1850769 0.06972992 -0.16323939 0.27016532 0.25844926 0.2618209
0.31891894 0.043674115 0.40310934 -0.20908931 0.036709312 -0.09205972 -0.18370108 0.13194299
-0.13105507 0.09472 0.55011773 0.36792314 0.0041821604 0.18456464 0.4228764 0.10730329
-0.26842192 0.068627544 0.3663968 -0.03260657 0.1089854 0.25772798 -0.10478728 -0.25207254
0.35257667 0.23573002 0.27635238 -0.11704056 0.070171475 0.1637398 0.47985741 -0.21951652
0.10285021 -0.49406263 -0.14002852 0.12086222 -0.05705981 0.18991853 0.20988958 0.74947983
0.18149962 -0.53457534 0.0039001794 0.65531796 0.35648412 -0.09802881 0.5482506 -0.75045526
00000000: 29dc ec3d a997 513d 0034 a2be f390 a43e
00000010: 43bd 7b3c 2ee2 28be fd39 0d3e 5f80 30be
00000020: 4b8f 75bd 3323 8b3d 7ca5 b73e d335 e5bc
00000030: 0204 943d 6210 7fbd aa78 803e f826 94bc
00000040: a7b2 c2ba 88c3 3cbe f5c8 1fbd deeb 3c3d
00000050: 7080 e6bd 04ea b3be 9a1c 943e 5958 253e
00000060: 6cd3 9fbd d712 013e 7549 493e efa4 f43d
00000070: 1401 a33d 1832 7e3e 9ac7 cf3d 7e22 a73e
00000080: b68b da3d bb8a 26bd f33e 35be b4a1 f6bd
00000090: 9b62 a7be 0208 5f3e c4d3 303e 4bce 3b3c
000000a0: baaa a63c ca4e 45bd 703f c2ba 7171 d7be
000000b0: d5b3 6e3e 4ab1 143e 6e9d ec3d fac5 9fbc
000000c0: eae2 b9bd 6dcf 773d 3776 c23d 7735 433e
000000d0: fc8d 083f 3544 33be 5bbd 1a3f 701b 35bf
000000e0: 673f 623d 184b 0e3f a510 3fbe dbfe a3be
000000f0: 81ac 9b3e c00a 5ebc 50cb da3e ceda 11bf
00000100: 13ce dbbe 87a5 37bf 078f 13bf 4674 b1bd
00000110: c962 ae3e 51b6 583c da31 673f 696e f7bd
00000120: 24ec c73e 74b3 aa3e c0aa 8abf dd9e 943e
00000130: 99c1 173f e1b1 64bf 6ef0 51bf fc03 693f
00000140: 3150 87bf bf34 9f3e 3cdb b63b 9eef 273f
00000150: 5e6f a5bd 6710 ea3d 78e1 60be 68a7 5c3e
00000160: ec14 93be 35bc 4fbf d580 6c3e a45a b33e
00000170: d3e2 11bf 0282 74be bef9 e93d f798 5bbe
00000180: 392f ef3c f1b3 a53d 7669 3c3e 659f cd3c
00000190: 5291 5f3e b5ae eabd c7a8 6a3d deac 3c3e
000001a0: f459 c33e d0de 7bbe b811 4f3d 5675 c63c
000001b0: 37b9 433e 9768 a7be bb8a 5b3e 04de b03d
000001c0: d32c 41bd 397c 39be 27eb b23c 81d3 d83e
000001d0: 48d4 c7bb e23c 02be 2b08 2dbd c020 eebc
000001e0: 6fd2 ca3c b516 64be 7631 12be 7e14 aa3e
000001f0: 6294 883d 2b5b 273d c7b9 833d bfd3 163b
00000200: deaf 3abe f728 e1bd 1dcb b5bd 782d cebb
00000210: 8da2 2d3e 8031 7c3e de27 a23d eed8 af3e
00000220: 3d23 993c 1a27 583e d0ce 51be 4db9 f5bd
00000230: 9819 603d 9270 613d 1788 223e 0be9 963e
00000240: df1e 2bbe 2049 3ebe 8187 ae3c a2cf 083e
00000250: cbc5 1a3d 4d3f 22be d79a 84bd 95e5 1fbe
00000260: e686 833d 392c 48be 6a82 d83a 91eb 8d3e
00000270: e91e 73bc 93c5 0abd dac8 e3be 9a08 99be
00000280: 2515 5f3d a9a7 02be 8104 d83e 8d1a 0dbd
00000290: ffb9 4ebe 76d2 723e 6be9 6abe 26bf 983e
000002a0: 540e 5a3e d5f6 0d3e b87f 243e 10d5 803e
000002b0: 8b8b e73d 3abd 29be 6d2c 3abe c738 52be
000002c0: 869e 923e 1cdc a93e 2ff7 aa3e 5227 42be
000002d0: 4dd8 a3bd 03e7 8cbc 51c8 423e 8174 41be
000002e0: 7276 223e 7c23 e93d f935 8d3e 5029 b1be
000002f0: ca79 9cbe 0faf 84be f0c3 2cbe 168f f0bd
00000300: 2567 e1bd be3f 48bd c9d6 2ebe 3a3b 523e
00000310: 0809 dfbd a4ef 9f3c c07b e53d 9e28 a1be
00000320: 9427 ccbe 9f20 5bbe cd84 3d3e 8fce 8e3d
00000330: 3a28 27be 1c53 8a3e 7653 843e 640d 863e
00000340: 5849 a33e a1e3 323d 5964 ce3e 821b 56be
00000350: 815c 163d ce89 bcbd 231c 3cbe 101c 073e
00000360: 4d33 06be 8ffc c13d 84d4 0c3f 6c60 bc3e
00000370: 810a 893b 83fe 3c3e 4183 d83e d4c1 db3d
00000380: 996e 89be 998c 8c3d 5d98 bb3e 778e 05bd
00000390: bd33 df3d ecf4 833e b79a d6bd a70f 81be
000003a0: ee84 b43e 3663 713e 0f7e 8d3e f6b2 efbd
000003b0: 10b6 8f3d 68ab 273e dfaf f53e f0c8 60be
000003c0: 22a3 d23d c7f5 fcbe a363 0fbe 9d86 f73d
000003d0: 8cb7 69bd 017a 423e 4bed 563e e9dd 3f3f
000003e0: 09db 393e eed9 08bf 279a 7f3b ebc2 273f
000003f0: 1685 b63e 54c3 c8bd 275a 0c3f d61d 40bf

bias_ih_l0 f4 [200]
0.19137022 0.25308916 0.30427724 -0.14721213 0.052525267 0.41658044 0.24614069 0.3277588
0.21484248 0.42813808 0.1983021 0.47288442 0.450377 -0.10441755 0.14471774 0.83566076
0.33855656 -0.08736494 0.19399254 0.38426816 0.09076057 0.075243376 0.32529217 0.021227553
0.11119701 0.11261279 0.6804258 -0.05516681 0.07933671 0.36717644 0.33855292 0.24993263
0.32983413 -0.021982126 -0.03730683 0.6105452 0.16666833 -0.014928504 0.5234696 0.2789374
0.13102904 0.35597372 0.2886822 0.38064238 0.10718339 0.3024282 0.5113376 0.36992848
0.10659286 0.032962594 0.1483963 -0.2258511 0.008547487 0.019333826 0.09952791 -0.16361924
0.14103654 -0.019320592 0.28732005 -0.16626547 -0.05692954 -0.28841445 0.0063142222 -0.015222854
0.12297458 -0.22271642 -0.1688233 0.075587794 -0.0908964 -0.235201 0.16502398 0.21370105
-0.07022891 0.13474305 0.11201356 0.31812432 -0.1650485 -0.07342458 0.12655734 -0.03614639
0.14210068 0.0054964586 -0.12642245 0.17937918 0.24811341 -0.24407673 0.31192777 0.0353687
-0.29453814 0.29297873 -0.07504652 -0.21047293 0.3872405 0.0033385963 0.023229688 -0.2437863
-0.11545269 -0.4357085 0.16269314 -0.06963452 -0.13190852 -0.10858086 0.023548175 0.025898745
0.15359184 0.14262778 -0.15848644 0.16809076 -0.13136609 -0.22868498 0.1117854 0.026601769
0.22276725 -0.005596068 -0.15633625 0.06989602 -0.090413794 -0.009967496 -0.048634607 0.13196287
0.085605 0.0250581 0.08373159 -0.08315589 -0.12948112 -0.06763443 0.110060945 0.06546967
-0.029175641 -0.026224617 -0.35830927 0.13596626 -0.10710415 0.057268757 0.038888168 0.22997929
-0.11802502 0.14799556 0.19739752 -0.18157706 0.021140398 0.020058494 0.048529822 0.1312198
-0.012156308 -0.0063865064 -0.021763774 -0.101930685 0.072971486 -0.16281746 0.20120515 0.29824778
0.08716276 -0.07444174 0.2974911 0.35840377 0.0059509147 0.11198214 -0.0098143965 0.51978624
0.25769895 0.52544016 0.29837668 -0.02365466 0.34895012 0.6102193 0.34349042 0.18401009
0.47978628 0.46832958 0.24121381 -0.0026604456 0.38278848 0.055602986 0.048883457 -0.0016005049
0.7240017 0.17625245 -0.12905814 0.47623605 0.06256291 0.4064547 0.31351146 0.105194
0.064909115 0.8549871 0.022222986 -0.009405028 0.4393317 0.015732989 -0.03884868 0.620601
-0.013707141 0.40650636 0.08975209 0.51669025 0.41842377 0.51363295 0.21032104 0.33275157
00000000: 8ef6 433e e794 813e 3aca 9b3e c7be 16be
00000010: bc24 573d 084a d53e 4e0c 7c3e 00d0 a73e
00000020: abff 5b3e ea34 db3e b50f 4b3e e81d f23e
00000030: d097 e63e ded8 d5bd e330 143e dded 553f
00000040: 4957 ad3e 64ec b2bd fba5 463e ccbe c43e
00000050: ade0 b93d 3319 9a3d b28c a63e 68e5 ad3c
00000060: 42bb e33d 89a1 e63d 6330 2e3f 98f6 61bd
00000070: 497b a23d 8dfe bb3e cf56 ad3e 57ee 7f3e
00000080: 05e0 a83e dc13 b4bc 0ccf 18bd b14c 1c3f
00000090: 1aab 2a3e af96 74bc 1b02 063f e2d0 8e3e
000000a0: 7a2c 063e 3042 b63e 27ce 933e 8fe3 c23e
000000b0: f782 db3d ded7 9a3e 05e7 023f 4467 bd3e
000000c0: 5b4d da3d c903 073d 33f5 173e 8345 67be
000000d0: c20a 0c3c f961 9e3c 4ad5 cb3d cd8b 27be
000000e0: e26b 103e 3846 9ebc 9d1b 933e 7f41 2abe
000000f0: f32e 69bd 0fab 93be 89e7 ce3b 4769 79bc
00000100: 19da fb3d c60f 64be 04e0 2cbe c6cd 9a3d
00000110: e427 babd 88d8 70be 0cfc 283e 73d4 5a3e
00000120: 2dd4 8fbd 15fa 093e 5e67 e53d 31e1 a23e
00000130: 7902 29be a05f 96bd 3f98 013e 3d0e 14bd
00000140: d782 113e a31b b43b e374 01be 2daf 373e
00000150: 7111 7e3e 40ef 79be ffb4 9f3e c5de 103d
00000160: b4cd 96be 4f01 963e fdb1 99bd 3786 57be
00000170: 6344 c63e 5acc 5a3b 304c be3c 1ea3 79be
00000180: 7672 ecbd 2f15 dfbe 0899 263e 8b9c 8ebd
00000190: 0713 07be a45f debd 1ae8 c03c 9b29 d43c
000001a0: 2e47 1d3e 040d 123e 454a 22be fc1f 2c3e
000001b0: d584 06be 652c 6abe beef e43d f4eb d93c
000001c0: 191d 643e 395f b7bb 9c16 20be a525 8f3d
000001d0: de2a b9bd b54e 23bc 1535 47bd 4621 073e
000001e0: ad51 af3d a546 cd3c 787b ab3d a34d aabd
000001f0: b396 04be ec83 8abd a267 e13d f614 863d
00000200: c101 efbc 02d5 d6bc 5074 b7be bd3a 0b3e
00000210: 6c59 dbbd a592 6a3d 3349 1f3d b17f 6b3e
00000220: 1ab7 f1bd 268c 173e 9322 4a3e 56ef 39be
00000230: a12e ad3c b651 a43c 35c7 463d 7c5e 063e
00000240: 402b 47bc e645 d1bb f149 b2bc 09c1 d0bd
00000250: 1372 953d 9fb9 26be b908 4e3e efb3 983e
00000260: 6482 b23d e974 98bd c150 983e b380 b73e
00000270: e4ff c23b e456 e53d 90cc 20bc b610 053f
00000280: 1ef1 833e 3f83 063f d4c4 983e 6bc7 c1bc
00000290: 97a9 b23e 5537 1c3f fadd af3e 246d 3c3e
000002a0: 8ca6 f53e e5c8 ef3e c100 773e df5a 2ebb
000002b0: dafc c33e f5bf 633d 053a 483d 08c8 d1ba
000002c0: 2d58 393f 867b 343e d127 04be 36d5 f33e
000002d0: fc20 803d d51a d03e 9384 a03e f46f d73d
000002e0: 12ef 843d 6fe0 5a3f fb0c b63c 8c17 1abc
000002f0: 16f0 e03e 78e2 803c cb1f 1fbd b5df 1e3f
00000300: eb93 60bc 9a21 d03e f2cf b73d d045 043f
00000310: a43b d63e 737d 033f 665e 573e 6a5e aa3e

bias_hh_l0 f4 [200]
0.23389742 0.24015467 0.19514245 -0.024837323 0.027648676 0.3971207 0.27963763 0.18586294
0.2298867 0.40400374 0.21119505 0.52197415 0.36613086 -0.0612792 0.13677646 0.6466174
0.21082778 0.03530536 0.36986184 0.39961788 0.024274115 0.046354655 0.29118893 0.090699844
0.14004904 0.0095737735 0.7717449 -0.061783627 -0.051641718 0.5073674 0.23708017 0.32464
0.32900023 0.050148208 0.045093924 0.6534802 -0.034082007 0.1307435 0.3634333 0.12017995
0.097202815 0.52563214 0.29999027 0.2434752 0.0638282 0.06362049 0.5077835 0.50164723
-0.08034498 0.123061374 -0.0060061906 -0.14592613 -0.016796716 0.21071598 0.0493069 -0.15205687
0.19855735 0.076394014 0.35172427 -0.087976374 -0.20959204 -0.21281062 0.007020571 -0.019243643
0.07077917 -0.17860433 -0.01391522 0.24479033 -0.27364913 -0.040314928 0.19121009 0.147841
-0.0231417 0.22053479 0.046701282 0.42862114 -0.17175123 0.13014781 0.15048635 0.00026988963
0.12694633 -0.15522835 -0.17880309 0.32896388 0.023422768 -0.13170157 0.1464887 -0.104313426
-0.27165687 0.28453875 0.046907336 -0.3972326 0.15424325 -0.103526644 0.23532955 -0.040374074
-0.03858033 -0.30616838 0.21647374 -0.19730774 -0.1161584 -0.1299795 0.25263518 -0.031561635
0.15351877 -0.027744364 -0.15383883 0.14158337 -0.031066226 -0.1776635 0.073454656 0.15486862
0.20950085 -0.087541975 -0.12909001 0.23171715 -0.08536797 -0.05306094 0.099443585 0.18430057
0.20353787 0.0045702676 0.079895996 0.121275 -0.16169776 -0.06910729 0.10056024 0.07452888
0.04070722 -0.11604758 -0.091299295 -0.009967177 0.14035808 -0.056824945 -0.13718806 0.18693244
0.00030824423 0.13338692 0.12598448 -0.09215799 0.032513585 0.05931416 -0.0046634413 0.07379553
-0.1427488 0.026646852 -0.10394647 0.13840555 -0.10235614 0.01839004 0.18013199 0.2253329
0.22500771 -0.034602374 0.43575385 0.36882123 0.089992054 0.15960509 0.17661358 0.4379144
0.19849901 0.5113031 0.33325547 -0.0067475247 0.3993903 0.77909946 0.30391806 0.17512754
0.3556487 0.45287478 0.27347064 0.1616771 0.48879576 0.005475322 0.031591553 0.18593241
0.80634433 0.022463407 0.040871665 0.49169758 0.16975275 0.29114226 0.40096536 -0.001652525
0.029341891 0.6890459 0.18919165 0.104168445 0.4754686 0.04546586 -0.05470989 0.501496
-0.0049066674 0.29914796 -0.010838803 0.5635593 0.2640972 0.5818345 0.2353441 0.24525794
00000000: ce82 6f3e 1beb 753e 6cd3 473e a477 cbbc
00000010: 7a7f e23c 6853 cb3e aa2c 8f3e db52 3e3e
00000020: 6b67 6b3e 94d9 ce3e 8443 583e 19a0 053f
00000030: 8175 bb3e e6ff 7abd 210f 0c3e b888 253f
00000040: 3de3 573e 5a9c 103d 885e bd3e b79a cc3e
00000050: 82da c63c 61de 3d3d b716 953e d7c0 b93d
00000060: 0469 0f3e 51db 1c3c 1391 453f d410 7dbd
00000070: 4486 53bd d4e2 013f 25c5 723e 3737 a63e
00000080: b872 a83e 3568 4d3d 68b4 383d 7a4a 273f
00000090: 9399 0bbd a0e1 053e ee13 ba3e e820 f63d
000000a0: 4512 c73d d48f 063f 5398 993e 9051 793e
000000b0: 5cb8 823d 764b 823d 19fe 013f f46b 003f
000000c0: e98b a4bd 9a07 fc3d 94cf c4bb a96d 15be
000000d0: 4499 89bc eec5 573e 08f6 493d ccb4 1bbe
000000e0: 9e52 4b3e 7774 9c3d 3415 b43e f52c b4bd
000000f0: 4c9f 56be 07eb 59be d10c e63b d8a4 9dbc
00000100: abf4 903d 0ee4 36be aafc 63bc 51aa 7a3e
00000110: bd1b 8cbe 4421 25bd 94cc 433e a263 173e
00000120: aa93 bdbc dfd3 613e d849 3f3d 3b74 db3e
00000130: 8edf 2fbe 7845 053e 1819 1a3e f97f 8d39
00000140: 38fe 013e 2ef4 1ebe 2818 37be f46d a83e
00000150: 1be1 bf3c c7dc 06be 2201 163e 47a2 d5bd
00000160: 9c16 8bbe 10af 913e e821 403d 1262 cbbe
00000170: f1f1 1d3e c705 d4bd 3bfa 703e 495f 25bd
00000180: 6806 1ebd 1ac2 9cbe 4bab 5d3e 0a0b 4abe
00000190: 75e4 edbd 5919 05be 6659 813e c646 01bd
000001a0: 0634 1d3e 2648 e3bc ed87 1dbe 3bfb 103e
000001b0: 997e febc 6ced 35be 656f 963d e195 1e3e
000001c0: 6487 563e 3549 b3bd 2c30 04be 4347 6d3e
000001d0: 67d5 aebd 6e56 59bd 14a9 cb3d 4ab9 3c3e
000001e0: 3b6c 503e 2fc2 953b 83a0 a33d 075f f83d
000001f0: 1994 25be 1f88 8dbd 87f2 cd3d 99a2 983d
00000200: 9dbc 263d 5baa edbd 20fb babd 5f4d 23bc
00000210: 07ba 0f3e 46c1 68bd 077b 0cbe 386b 3f3e
00000220: d79b a139 9596 083e 1302 013e 54bd bcbd
00000230: f72c 053d 68f3 723d c8cf 98bb 1c22 973d
00000240: be2c 12be 804a da3c e3e1 d4bd 2fba 0d3e
00000250: 19a0 d1bd b6a6 963c 8574 383e abbd 663e
00000260: 6c68 663e 38bb 0dbd 211b df3e 23d6 bc3e
00000270: c14d b83d 846f 233e 31da 343e 5136 e03e
00000280: 5343 4b3e c3e4 023f 76a0 aa3e 571a ddbb
00000290: e37c cc3e 1073 473f 269b 9b3e a254 333e
000002a0: 9617 b63e 34df e73e 5804 8c3e af8e 253e
000002b0: 7043 fa3e 546a b33b 2566 013d 1165 3e3e
000002c0: 956c 4e3f 2e05 b83c 0c69 273d c9bf fb3e
000002d0: aad3 2d3e 9910 953e 554b cd3e 8a99 d8ba
000002e0: 685e f03c 5065 303f 75bb 413e 4456 d53d
000002f0: 9f70 f33e 693a 3a3d 7a17 60bd 0b62 003f
00000300: 1cc8 a0bb ec29 993e 3c95 31bc 6c45 103f
00000310: c037 873e 1bf3 143f 0bfe 703e e624 7b3e

weight_ih_l1 f4 [200, 50]
0.052630447 0.17323732 0.13640088 3.7015518e-05 0.35612753 -0.3456207 0.115068495 0.20702776
-0.0025731013 -0.104095936 0.065241046 0.2154494 0.03701879 -0.06632982 -0.38460895 -0.7560274
-0.32232866 0.07334225 -0.5518951 -0.3981219 0.13078587 0.08865215 -0.094710305 0.051919524
-0.12188103 -0.019452129 -0.16849276 -0.4099141 -0.33820868 0.14933307 -0.3646435 0.13872166
-0.14545248 0.21488605 -0.07297211 0.5646886 0.117961764 0.11064982 -0.2562989 -0.26618388
0.17446053 0.23636828 -0.23902613 0.15368135 0.0234406 -0.54407454 -0.32939267 -0.3699227
0.09602031 0.6001591 0.009303235 -0.33170977 0.0041844533 0.25168458 0.33193696 0.304967
-0.21310912 0.08649182 -0.70886755 -0.010207383 0.14389321 0.09378574 0.475939 -0.034363896
0.24120207 0.091695525 -0.22641544 -0.06882746 0.07362351 -0.0655947 -0.044703767 -0.25684708
0.102789626 0.22492218 0.13690196 0.1708579 -0.06117411 -0.17465597 -0.008057218 -0.04924838
-0.1652957 0.12409865 0.25885832 0.021715075 -0.07992047 0.09246332 -0.018662391 0.30570018
-0.03450307 0.09025615 0.15941514 -0.119093925 -0.2558964 -0.081599645 0.21974166 0.009183912
0.27800095 0.45809862 -0.1676323 0.21689448 -0.15990901 0.24766552 0.10669074 -0.2675686
0.32111672 -0.27319613 -0.14415164 0.2263871 -0.27721524 -0.18951915 0.21649766 0.04400461
0.26541716 0.38520604 0.115839615 0.10700391 -0.120677985 -0.16854773 0.054520268 0.05074204
0.24663404 -0.16850893 0.25592634 0.017294422 -0.28765285 0.19577315 -0.17307708 -0.19867037
-0.12948957 0.23100647 -0.28759387 0.21928251 0.09072263 -0.040244192 -0.2854107 -0.17631741
0.011137724 0.17556345 0.23857778 -0.028273912 0.24128264 0.2573238 -0.10276194 -0.34785944
0.17243534 0.0034091764 -0.26669848 -0.14223814 0.058486085 0.021837777 -0.6083513 -0.30541113
0.16614793 -0.112558976 0.5755782 0.16381867 -0.43221474 0.41701803 -0.30253974 -0.6649264
0.6315847 0.5073382 0.5845124 0.12240159 -0.29423663 0.27233186 -0.6897711 -0.52279526
-0.29360563 -0.037816882 0.61693907 -0.21524037 0.8239208 0.035857942 -0.23475088 -0.014174436
0.34500396 -0.07652512 0.01424445 -0.29223424 -0.3062072 0.35447758 -0.016893972 -0.09107736
-0.23065451 0.2508403 -0.13870221 0.3917101 0.26296356 -0.24298398 0.24934883 0.033692792
-0.25117192 -0.035586875 -0.030480333 0.113543876 -0.18148462 -0.27325064 -0.35146803 0.37804323
-0.17828041 0.21803585 0.44527406 0.45107117 0.053219404 -0.04177809 -0.17308967 0.29681754
-0.089711055 -0.022675278 0.27519435 0.31714934 0.22078495 -0.21143802 -0.15988468 -0.4490891
0.050374042 -0.08930681 -0.59638804 -0.08106318 0.123728625 -0.19886093 -0.15108962 0.2975264
0.0100646615 0.2555694 -0.040632088 -0.012720458 -0.081390925 0.025860094 -0.22497673 0.32483166
-0.251984 0.09662618 -0.29945362 0.59524405 -0.07131132 0.0694106 0.15592286 -0.2737039
0.36631897 0.41547093 -0.31532976 0.22080092 0.0417708 -0.47274098 0.21530584 -0.50234693
-0.039549213 0.45518073 -0.19714166 0.1611406 0.37828287 0.27075604 0.34198207 0.11213761
00000000: 0693 573d 2065 313e acac 0b3e 1c41 1b38
00000010: 5956 b63e 32f5 b0be 08a9 eb3d 16ff 533e
00000020: 7aa1 28bb 4030 d5bd 199d 853d c49e 5c3e
00000030: 04a1 173d eed7 87bd 77eb c4be 038b 41bf
00000040: 4308 a5be 7634 963d ff48 0dbf a2d6 cbbe
00000050: bbec 053e 428f b53d 7af7 c1bd 91a9 543d
00000060: c39c f9bd 125a 9fbc 5e89 2cbe 43e0 d1be
00000070: b029 adbe c5ea 183e 8eb2 babe 0d0d 0e3e
00000080: 7ff1 14be 170b 5c3e 6772 95bd 6f8f 103f
00000090: f095 f13d 5f9c e23d 9c39 83be 4149 88be
000000a0: c8a5 323e 870a 723e 44c3 74be a55e 1d3e
000000b0: 8006 c03c 7848 0bbf 28a6 a8be 8266 bdbe
000000c0: 4ca6 c43d 07a4 193f 996c 183c ddd5 a9be
000000d0: bd1d 893b cddc 803e a4f3 a93e a224 9c3e
000000e0: 4739 5abe a022 b13d 5878 35bf de3c 27bc
000000f0: be58 133e bd12 c03d 47ae f33e 28c1 0cbd
00000100: adfd 763e ddca bb3d 73d9 67be 69f5 8cbd
00000110: ecc7 963d 8456 86bd 4c1b 37bd 7681 83be
00000120: 5e83 d23d 0052 663e 0730 0c3e 60f5 2e3e
00000130: b491 7abd 04d9 32be 6c02 04bc abb8 49bd
00000140: 4743 29be 6f27 fe3d 1489 843e d0e3 b13c
00000150: 58ad a3bd 695d bd3d dfe1 98bc bc84 9c3e
00000160: 1753 0dbd 37d8 b83d b93d 233e 84e7 f3bd
00000170: da04 83be b71d a7bd f503 613e 1e78 163c
00000180: 2456 8e3e e78b ea3e cda7 2bbe 9619 5e3e
00000190: 30bf 23be 089c 7d3e ad80 da3d c0fe 88be
000001a0: 6969 a43e 5de0 8bbe 7d9c 13be 05d2 673e
000001b0: 28ef 8dbe 4f11 42be 90b1 5d3e 2e3e 343d
000001c0: c2e4 873e ba39 c53e 523d ed3d de24 db3d
000001d0: 0526 f7bd c797 2cbe a550 5f3d e3d6 4f3d
000001e0: a28d 7c3e 9b8d 2cbe c708 833e 08ad 8d3c
000001f0: 3c47 93be c278 483e 1e3b 31be 3f70 4bbe
00000200: ea98 04be f68c 6c3e 813f 93be 988b 603e
00000210: c9cc b93d 18d7 24bd 5a21 92be 8d8c 34be
00000220: 007b 363c e8c6 333e bc4d 743e b19e e7bc
00000230: cc12 773e f2bf 833e da74 d2bd a21a b2be
00000240: e492 303e 7d6c 5f3b b48c 88be e0a6 11be
00000250: 1b8f 6f3d 23e5 b23c e9bc 1bbf d95e 9cbe
00000260: af22 2a3e 5285 e6bd 1859 133f 15c0 273e
00000270: 404b ddbe 6383 d53e 7de6 9abe 9e38 2abf
00000280: 89af 213f ebe0 013f 9ba2 153f afad fa3d
00000290: 2fa6 96be 156f 8b3e d794 30bf e9d5 05bf
000002a0: 7a53 96be e0e5 1abd b8ef 1d3f f967 5cbe
000002b0: 79ec 523f c7df 123d 8962 70be e53b 68bc
000002c0: 5ca4 b03e 34b9 9cbd 8e61 693c ba9f 95be
000002d0: 31c7 9cbe 167e b53e 3a65 8abc c486 babd
000002e0: b230 6cbe 246e 803e f407 0ebe 3a8e c83e
000002f0: 29a3 863e cbd0 78be 4d55 7f3e 7401 0a3d
00000300: 9b99 80be 8bc3 11bd e4b1 f9bc b189 e83d
00000310: 1bd7 39be 82e7 8bbe 9ef3 b3be e28e c13e
00000320: 248f 36be ca44 5f3e f6fa e33e cdf2 e63e
00000330: 97fc 593d 811f 2bbd 6b3e 31be 78f8 973e
00000340: 6eba b7bd 81c1 b9bc 46e6 8c3e 6661 a23e
00000350: 7315 623e 3583 58be cfb8 23be 02ef e5be
00000360: 0355 4e3d 7de6 b6bd e3ac 18bf 7404 a6bd
00000370: 6f65 fd3d 33a2 4bbe 3db7 1abe 6155 983e
00000380: 40e6 243c fed9 823e d56d 26bd 7869 50bc
00000390: 49b0 a6bd 8cd8 d33c 4d60 66be 5650 a63e
000003a0: 0c04 81be f2e3 c53d fc51 99be ea61 183f
000003b0: ab0b 92bd 2527 8e3d 3eaa 1f3e eb22 8cbe
000003c0: 298e bb3e 9bb8 d43e e772 a1be a319 623e
000003d0: dc17 2b3d 1b0b f2be 2279 5c3e cf99 00bf
000003e0: 5bfe 21bd 730d e93e 81df 49be 0b02 253e
000003f0: 4bae c13e 89a0 8a3e 4618 af3e 67a8 e53d

weight_hh_l1 f4 [200, 50]
0.1068065 0.09154017 0.12553374 0.13530551 0.04710847 -0.21696305 0.036212657 0.03519923
-0.102345675 0.16991918 -0.18843354 0.06732192 -0.06813375 -0.33386746 0.110776596 -0.124036655
-0.27280438 0.20723589 0.07064085 -0.55936396 -0.02643509 -0.00027266593 -0.19695894 -0.038693577
0.043077074 -0.09498364 0.027900584 0.36925527 0.17382988 0.27409798 -0.27347827 0.0026122702
-0.26898247 -0.004849116 -0.2507283 -0.3005671 0.47456574 -0.32599974 -0.26875988 0.0657764
-0.075318724 0.31419146 -0.03418732 0.38595122 -0.075481094 -0.17526628 -0.031391688 -0.08853811
0.12544566 -0.10955479 -0.29374924 -0.17769878 0.1820883 -0.115178145 0.2827916 0.17444742
0.08903348 0.3829395 0.01189244 0.025205163 -0.0015881207 -0.0878448 0.029389653 0.39507008
0.17425516 0.23689605 -0.045577656 -0.20049028 -0.0038872766 0.1694079 -0.06982685 0.13923757
-0.062376622 0.29675144 -0.2516744 -0.06557547 0.22582905 0.03960689 0.013774039 0.06446276
-0.20224401 0.08354247 -0.10902848 0.20367141 0.08629604 0.39021373 0.093617134 -0.28079665
-0.102705434 -0.48925743 -0.0117576085 0.14581093 -0.08762611 0.2453911 0.14164338 -0.27547064
0.28514975 0.05879205 0.22090219 0.27005604 -0.15093045 -0.12133839 0.2899324 -0.017340355
0.13586192 0.16774833 0.081499755 0.09196024 -0.44176766 -0.26154682 -0.17417698 0.22079271
0.3188756 0.26376307 0.063083366 0.15514518 0.033784844 -0.19244847 0.111905046 -0.31624472
-0.10664512 -0.20177595 0.06668773 0.062930524 -0.06955782 -0.029163705 -0.1862961 -0.21824819
-0.073887 -0.06877278 -0.23555383 -0.016052382 -0.046019923 0.15109377 -0.24791132 -0.60359716
0.24016264 -0.21450807 0.45932475 -0.07696841 0.14706081 -0.2872326 -0.48215985 0.68911576
0.13987648 0.25680265 0.13794902 0.0619199 -0.15907769 0.108160414 -0.3837355 0.08498212
0.25399885 -0.05321454 -0.28055885 -0.19341715 -0.13698862 0.021517666 -0.015436509 -0.050816055
0.13475622 -0.3351325 -0.0812311 0.5998946 -0.081694834 -0.12139718 -0.0556415 -0.16823415
-0.033567406 0.36630762 -0.38126776 0.019779006 -0.039791085 -0.17764437 -0.60770667 0.23262468
-0.1378476 0.2594327 0.03638982 -0.15439256 0.14772423 0.11575902 -0.17385328 0.14316802
0.042322475 0.12032412 0.11627952 -0.33410767 -0.23718175 -0.33479822 0.23984733 0.10146188
-0.4046217 0.11791129 -0.037710536 0.14760375 0.120337285 0.38332325 0.0494806 0.53257143
-0.5806192 -0.13592812 0.12858547 -0.12497433 -0.012687587 -0.065760754 -0.042553995 -0.12961729
0.510991 0.11459777 -0.13997981 -0.1629101 0.19175507 0.39680457 0.12145429 -0.04990877
-0.19902073 -0.2950945 0.25911704 0.26971203 -0.16969998 0.02304846 0.13679387 0.2142569
-0.20412764 0.005270472 -0.08909922 0.09311145 0.03344139 -0.31203097 -0.18222927 -0.15167546
-0.27548218 0.34392148 0.16227339 0.16026717 -0.009382373 -0.046351347 -0.15451741 -0.124383084
0.13256307 0.24361643 -0.023699475 0.29954198 0.24238828 -0.1557096 0.0770114 0.1530903
0.11641612 0.355428 -0.16211486 -0.48090544 0.08551081 0.047291853 0.8696044 0.09713936
00000000: 5ebd da3d 6a79 bb3d eb8b 003e 878d 0a3e
00000010: d0f4 403d 902b 5ebe b953 143d 112d 103d
00000020: 9c9a d1bd 4bff 2d3e b9f4 40be 13e0 893d
00000030: b589 8bbd adf0 aabe d7de e23d ee06 febd
00000040: 04ad 8bbe a535 543e 26ac 903d 7a32 0fbf
00000050: 678e d8bc 9af4 8eb9 9baf 49be 287d 1ebd
00000060: 9671 303d c886 c2bd c48f e43c 070f bd3e
00000070: 7600 323e 9256 8c3e 5805 8cbe 9f32 2b3b
00000080: 12b8 89be 55e5 9ebb 765f 80be eee3 99be
00000090: 48fa f23e 70e9 a6be e59a 89be c7b5 863d
000000a0: b440 9abd b4dd a03e 0108 0cbd 669b c53e
000000b0: d595 9abd 0179 33be 9294 00bd 7853 b5bd
000000c0: d474 003e 435e e0bd 4d66 96be abf6 35be
000000d0: 5b75 3a3e 85e2 ebbd 10ca 903e 58a2 323e
000000e0: 2f57 b63d a510 c43e 82d8 423c 0f7b ce3c
000000f0: 7d28 d0ba f9e7 b3bd 92c2 f03c a046 ca3e
00000100: f26f 323e e194 723e a3af 3abd 534d 4dbe
00000110: aec1 7ebb 4479 2d3e 6101 8fbd 4b94 0e3e
00000120: a17e 7fbd ceef 973e 78db 80be 6f4c 86bd
00000130: bb3f 673e d63a 223d 82ac 613c 0d05 843d
00000140: 0e19 4fbe 5118 ab3d 534a dfbd 3d8f 503e
00000150: fabb b03d 18ca c73e 57ba bf3d 94c4 8fbe
00000160: 3a57 d2bd f37f fabe fca2 40bc 764f 153e
00000170: 5175 b3bd ce47 7b3e f60a 113e 7d0a 8dbe
00000180: 26ff 913e efcf 703d 2f34 623e c944 8a3e
00000190: 838d 1abe 4380 f8bd 0572 943e 5c0d 8ebc
000001a0: 631f 0b3e 38c6 2b3e 58e9 a63d a655 bc3d
000001b0: 5f2f e2be 77e9 85be 735b 32be 7c17 623e
000001c0: aa43 a33e f40b 873e da31 813d 61de 1e3e
000001d0: fa61 0a3d 3611 45be 792e e53d d4ea a1be
000001e0: c268 dabd 5b9e 4ebe 9493 883d b8e1 803d
000001f0: 5574 8ebd b9e8 eebc 68c4 3ebe 747c 5fbe
00000200: 1152 97bd bed8 8cbd 0635 71be 4980 83bc
00000210: 637f 3cbd 53b8 1a3e 77dc 7dbe 5885 1abf
00000220: 32ed 753e 01a8 5bbe 9d2c eb3e 9da1 9dbd
00000230: 1c97 163e 2710 93be a8dd f6be e469 303f
00000240: c83b 0f3e a37b 833e 8242 0d3e b99f 7d3d
00000250: 43e5 22be 3583 dd3d fb78 c4be 1b0b ae3d
00000260: 230c 823e 7df7 59bd 69a5 8fbe 250f 46be
00000270: bf46 0cbe d145 b03c 69e9 7cbc 7f24 50bd
00000280: 89fd 093e 7d96 abbe 7e5c a6bd b192 193f
00000290: 9f4f a7bd 169f f8bd 57e8 63bd 9345 2cbe
000002a0: fa7d 09bd ac8c bb3e 8735 c3be 9507 a23c
000002b0: fafb 22bd 68e8 35be aa92 1bbf 2a35 6e3e
000002c0: ec27 0dbe 5dd4 843e 7e0d 153d 1519 1ebe
000002d0: 0545 173e 1113 ed3d 9806 32be a39a 123e
000002e0: 555a 2d3d 7e6c f63d f523 ee3d 2910 abbe
000002f0: c6df 72be ac6a abbe 8a9a 753e 3fcb cf3d
00000300: 932a cfbe 797b f13d 5d76 1abd 7025 173e
00000310: 6573 f63d f242 c43e 2bac 4a3d 9a56 083f
00000320: 76a3 14bf be30 0bbe e9ab 033e 8bf2 ffbd
00000330: 99df 4fbc 93ad 86bd 194d 2ebd 65ba 04be
00000340: 4ed0 023f 3cb2 ea3d de56 0fbe e8d1 26be
00000350: 715b 443e f829 cb3e 07bd f83d 236d 4cbd
00000360: 17cc 4bbe a016 97be fdaa 843e b217 8a3e
00000370: d5c5 2dbe 20d0 bc3c b113 0c3e 2966 5b3e
00000380: d606 51be ecb3 ac3b a779 b6bd 37b1 be3d
00000390: d7f9 083d 86c2 9fbe 4f9a 3abe d050 1bbe
000003a0: 000c 8dbe 7a16 b03e ff2a 263e 141d 243e
000003b0: 86b8 19bc e9da 3dbd d039 1ebe 8fbc febd
000003c0: 9dbe 073e 9676 793e 6725 c2bc 915d 993e
000003d0: a234 783e 5672 1fbe 27b8 9d3d b4c3 1c3e
000003e0: 936b ee3d a9fa b53e 7001 26be 3d39 f6be
000003f0: 4b20 af3d 1ab5 413d 659e 5e3f 00f1 c63d

bias_ih_l1 f4 [200]
-0.19201745 0.2714227 0.16220242 0.5474313 0.09711215 0.21473642 0.09752389 0.19711821
0.61746264 0.27187774 0.62358826 -0.069755696 0.4290936 0.639882 0.1201058 -0.07880928
0.2632147 0.07809021 0.09202752 0.062460877 -0.062709115 0.42807457 0.19298184 0.22936854
0.43712866 0.06681609 0.20616066 0.3245122 -0.0825323 0.083752245 0.08583697 -0.056393567
0.25292757 0.16890526 0.090380706 0.17447549 0.5400001 0.38053045 0.39810202 0.6114117
0.2965608 0.20035124 0.1992518 0.14883386 0.40906855 0.16243233 0.16466528 -0.083558
0.27331778 -0.10230779 0.19694787 0.3486963 0.19302209 0.17045394 0.030077498 0.09879535
0.23625617 0.32608092 -0.21213226 0.27572405 0.0010035062 0.29671627 0.25466263 0.0775301
0.23592418 -0.016233189 0.3119699 0.20685083 0.11045383 0.19396998 0.4220583 0.019702913
0.13256343 0.324177 0.36447477 0.20657592 0.23210165 0.06070428 0.11499616 0.40606648
0.0883235 0.08166786 0.17866188 0.3653499 0.050662193 0.2532025 0.05250974 0.30495575
-0.079715475 0.19677915 0.13621472 -0.089986734 0.18584678 0.23227784 0.19787222 0.11186211
-0.004417075 0.028488792 0.22719848 0.3384459 0.032596476 -0.22256066 0.36186966 -0.00933988
0.036645498 -0.13938534 0.03449194 0.099588946 -0.22844027 0.11279839 0.12746818 0.058530565
0.014483469 0.49634635 0.091049865 -0.07838735 0.19550954 -0.18891737 -0.103501484 -0.07968449
-0.27345616 0.21604283 0.1571549 0.14807492 -0.18719655 -0.08566005 -8.5130945e-05 0.17143093
0.06409622 0.052767828 -0.26178685 -0.016896628 -0.35160565 0.061216407 0.0789382 -0.004528146
0.2565635 -0.29671535 0.36975247 -0.18738948 0.0050707674 -0.11431843 -0.5300383 0.29614606
0.33797503 0.06337977 0.07807691 -0.06268401 0.004398145 -0.0792122 0.2122306 0.19599938
0.33862972 0.365042 0.16167748 0.22481276 0.09260224 0.28825632 0.78905535 0.1749491
0.58255696 0.45631596 0.15992369 0.67850196 0.22640084 0.14805104 0.38935137 0.11544886
0.18181303 0.18454833 0.30120197 0.33877626 0.21036042 0.34419987 0.31803042 0.29817328
0.14801025 0.48044822 -0.07638217 0.039984595 0.36689717 0.13511564 0.1661326 -0.042793673
0.25636193 0.33792284 0.4760532 0.2925824 0.39632183 0.29877862 0.23248425 0.21255085
0.33681688 -0.22246468 0.21639495 0.2743946 -0.003276359 0.10068009 -0.15188071 0.3169862
00000000: 39a0 44be ebf7 8a3e 6418 263e 7524 0c3f
00000010: bce2 c63d dde3 5b3e 9bba c73d 5bd9 493e
00000020: 0812 1e3f 8f33 8b3e 7ba3 1f3f 13dc 8ebd
00000030: 28b2 db3e 4fcf 233f 08fa f53d c366 a1bd
00000040: 14c4 863e c3ed 9f3d ed78 bc3d fad6 7f3d
00000050: a36d 80bd 972c db3e 089d 453e 96df 6a3e
00000060: 54cf df3e e0d6 883d c81b 533e 7726 a63e
00000070: b206 a9bd 4c86 ab3d 4bcb af3d f1fc 66bd
00000080: b97f 813e 80f5 2c3e 8519 b93d b4a9 323e
00000090: 723d 0a3f e3d4 c23e 07d4 cb3e 7a85 1c3f
000000a0: d1d6 973e e028 4d3e aa08 4c3e e767 183e
000000b0: 6f71 d13e a954 263e 049e 283e 7520 abbd
000000c0: 4ff0 8b3e bf86 d1bd b4ac 493e 5288 b23e
000000d0: 95a7 453e 7a8b 2e3e 1665 f63c 3755 ca3d
000000e0: 23ed 713e 14f4 a63e 3339 59be b42b 8d3e
000000f0: 1588 833a 32eb 973e 2463 823e 1ac8 9e3d
00000100: 1c96 713e 77fb 84bc 85ba 9f3e b4d0 533e
00000110: 9e35 e23d 11a0 463e 0718 d83e 0168 a13c
00000120: b5be 073e 87fa a53e 709c ba3e a388 533e
00000130: 0eac 6d3e 0da5 783d 1b83 eb3d f2e7 cf3e
00000140: f3e2 b43d 7b41 a73d 24f3 363e 240f bb3e
00000150: 2983 4f3d c2a3 813e 7414 573d 2923 9c3e
00000160: de41 a3bd 7980 493e df7b 0b3e f74a b8bd
00000170: 9e4e 3e3e 3eda 6d3e 049f 4a3e f617 e53d
00000180: 1cbd 90bb 5461 e93c b8a6 683e c848 ad3e
00000190: e283 053d f1e6 63be fb46 b93e 4c06 19bc
000001a0: 9719 163d 08bb 0ebe 6c47 0d3d 4af5 cb3d
000001b0: 3fec 69be d802 e73d 0587 023e bfbd 6f3d
000001c0: 124c 6d3c 1c21 fe3e 5a78 ba3d 8c89 a0bd
000001d0: a733 483e 8e73 41be 96f8 d3bd 9f31 a3bd
000001e0: 7202 8cbe 553a 5d3e 37ed 203e f4a0 173e
000001f0: 74b0 3fbe 896e afbd 5488 b2b8 978b 2f3e
00000200: e144 833d 1423 583d ed08 86be cc6a 8abc
00000210: a805 b4be 0ebe 7a3d 5aaa a13d d760 94bb
00000220: 4b5c 833e 13eb 97be 3250 bd3e 07e3 3fbe
00000230: ae28 a63b c81f eabd 97b0 07bf 75a0 973e
00000240: 100b ad3e 41cd 813d c9e6 9f3d 7960 80bd
00000250: 501e 903b 023a a2bd fa52 593e 10b4 483e
00000260: e060 ad3e c9e6 ba3e c88e 253e 5135 663e
00000270: 3ea6 bd3d 5596 933e 88ff 493f db25 333e
00000280: 7422 153f 3fa2 e93e 09c3 233e 4eb2 2d3f
00000290: 9fd5 673e b19a 173e 1059 c73e 7470 ec3d
000002a0: 322d 3a3e 3dfa 3c3e 2537 9a3e 1574 ad3e
000002b0: b968 573e f73a b03e e2d4 a23e 2baa 983e
000002c0: 0090 173e 4ffd f53e 416e 9cbd e3c6 233d
000002d0: f2d9 bb3e c15b 0a3e aa1e 2a3e 6b48 2fbd
000002e0: df41 833e 3904 ad3e 3fbd f33e 5ccd 953e
000002f0: b2ea ca3e 83f9 983e 5a10 6e3e eea6 593e
00000300: 4373 ac3e c8cd 63be a396 5d3e 737d 8c3e
00000310: 2fb8 56bb 5d31 ce3d 9e86 1bbe 044c a23e

bias_hh_l1 f4 [200]
0.00081954466 0.02968224 0.17768219 0.3474798 0.03044997 0.13997774 0.13105641 0.04456583
0.4715314 0.19772975 0.4806953 0.079508625 0.24369727 0.72681993 0.10074495 -0.01955253
0.07705512 0.09768283 0.30296198 0.13954927 0.038898572 0.35242856 0.23327157 0.031434078
0.3385838 -0.009808283 0.22671753 0.4739942 -0.08493433 0.11061417 -0.029020399 0.14661661
0.3281265 0.1826646 0.24139114 0.17799473 0.5448675 0.28451467 0.44699964 0.7374282
0.19661343 0.13134296 0.30030617 0.391439 0.50857675 -0.04282172 0.10766915 0.10863852
0.39150313 -0.009686891 0.1806807 0.35390252 0.4088549 0.2079872 0.24252455 0.19063778
0.16014442 0.16510874 -0.1440865 0.2781404 -0.006334292 0.41509786 0.27673474 0.22615452
0.22471483 0.009983448 0.36315113 0.24410842 0.08712949 0.17580676 0.18218435 0.0705751
0.1308337 0.36897317 0.34126574 0.28746632 0.18433455 0.2018776 0.19824931 0.17436366
0.2756288 0.27345696 0.1344549 0.3869591 0.1668582 0.29795092 -0.03034018 0.4120589
0.056503557 0.035381347 0.22461814 -0.120353445 0.34825447 0.21166308 0.31168038 0.2612676
-0.055928014 0.107689194 0.32172486 0.32757747 -0.021567212 0.0045524384 0.35670552 -0.08735126
0.08865653 -0.030568147 -0.07049138 0.12267139 -0.19535403 0.1663945 0.22395577 0.07716677
0.23253092 0.47930032 0.034242548 -0.070751615 0.33152288 -0.13315344 -0.0044833776 -0.00092685857
-0.21279103 0.07941807 0.037461195 0.100012586 -0.23140858 0.005097295 0.04655444 -0.060803313
0.10089125 -0.043089222 -0.022515059 0.09037266 -0.25207373 0.19887213 -0.029039945 0.036838092
0.10637403 -0.13745087 0.44103378 -0.20663433 0.034831308 -0.36207128 -0.51282406 0.19592744
0.5327871 0.15618633 0.010414325 0.104978025 0.1409816 0.096295126 0.16044049 0.26112217
0.15140483 0.19998997 0.18210723 0.32517716 0.18569206 0.23324369 0.77453226 0.12209807
0.68301046 0.2255641 0.2769432 0.52144325 0.11996547 -0.008526297 0.49273908 0.07955215
0.16878362 0.14587367 0.18864043 0.30956036 0.38520494 0.24255827 0.34828997 0.23112015
0.27323374 0.48158053 0.1745217 -0.05097221 0.34164882 0.18656486 0.2328074 0.045044497
0.32191214 0.12332548 0.48471245 0.26490137 0.57857287 0.33165833 0.20992735 0.4377407
0.39578778 -0.20084956 0.18658361 0.2717534 0.021381658 0.018970095 0.04351787 0.30064464
00000000: b6d6 563a 2b28 f33c 52f2 353e dfe8 b13e
00000010: 3772 f93c 5356 0f3e a733 063e a98a 363d
00000020: 906c f13e ab79 4a3e b21d f63e 6bd5 a23d
00000030: c78b 793e df10 3a3f 5e53 ce3d a12c a0bc
00000040: 13cf 9d3d f00d c83d d51d 9b3e 01e6 0e3e
00000050: 1c54 1f3d 8471 b43e bede 6e3e 05c1 003d
00000060: db5a ad3e ecb2 20bc a428 683e 5eaf f23e
00000070: 0df2 adbd af89 e23d 30bc edbc aa22 163e
00000080: 3200 a83e 6e0c 3b3e 3d2f 773e 4044 363e
00000090: 707c 0b3f e8ab 913e 23dd e43e 18c8 3c3f
000000a0: 0855 493e c57e 063e bbc1 993e b16a c83e
000000b0: 1632 023f d465 2fbd a581 dc3d df7d de3d
000000c0: 1973 c83e c4b5 1ebc 5d04 393e b632 b53e
000000d0: 6e55 d13e 99fa 543e 5b58 783e 8d36 433e
000000e0: e6fc 233e 4412 293e 698b 13be 6b68 8e3e
000000f0: e48f cfbb b587 d43e 2db0 8d3e 0d95 673e
00000100: a51b 663e 9e91 233c f2ee b93e 8ff7 793e
00000110: f270 b23d b006 343e 898e 3a3e ae89 903d
00000120: 45f9 053e 0dea bc3e 62ba ae3e c92e 933e
00000130: 32c2 3c3e 00b9 4e3e de01 4b3e 638c 323e
00000140: 381f 8d3e 8d02 8c3e 8cae 093e 811f c63e
00000150: e0dc 2a3e 068d 983e f88b f8bc 62f9 d23e
00000160: 4670 673d 08ec 103d 4c02 663e de7b f6bd
00000170: 694e b23e 35be 583e 9294 9f3e dec4 853e
00000180: c614 65bd 278c dc3d 1fb9 a43e 3cb8 a73e
00000190: b9ad b0bc 9f2c 953b 1ba2 b63e 38e5 b2bd
000001a0: 8e91 b53d 0d6a fabc c95d 90bd 233b fb3d
000001b0: e30a 48be 5263 2a3e a954 653e 9d09 9e3d
000001c0: 961c 6e3e da66 f53e ea41 0c3d 39e6 90bd
000001d0: 5ebd a93e 6059 08be 4ce9 92bb 6df8 72ba
000001e0: e4e5 59be f1a5 a23d e970 193d 66d3 cc3d
000001f0: 5ff6 6cbe 3607 a73b deaf 3e3d e50c 79bd
00000200: 12a0 ce3d 537e 30bd 8071 b8bc 4d15 b93d
00000210: cf0f 81be 23a5 4b3e 2ee5 edbc 8ae3 163d
00000220: a1da d93d ecbf 0cbe 2ecf e13e f397 53be
00000230: 46ab 0e3d 6861 b9be 7048 03bf 34a1 483e
00000240: bc64 083f 4fef 1f3e d8a0 2a3c b8fe d63d
00000250: 7b5d 103e 6136 c53d 834a 243e ceb1 853e
00000260: de09 1b3e 2cca 4c3e 517a 3a3e 9f7d a63e
00000270: 0f26 3e3e 6fd7 6e3e bf47 463f 8e0e fa3d
00000280: c6d9 2e3f 47fa 663e 80cb 8d3e 4e7d 053f
00000290: 75b0 f53d e2b1 0bbc 4c48 fc3e 3dec a23d
000002a0: 9dd5 2c3e e85f 153e f52a 413e b27e 9e3e
000002b0: 9539 c53e 3261 783e 1053 b23e c3aa 6c3e
000002c0: 4be5 8b3e b991 f63e d1b5 323e 3cc8 50bd
000002d0: 98ec ae3e dc0a 3f3e 1065 6e3e 9480 383d
000002e0: abd1 a43e 1292 fc3d 3b2c f83e 27a1 873e
000002f0: 5a1d 143f 1fcf a93e 32f7 563e 8d1f e03e
00000300: b2a4 ca3e 82ab 4dbe c60f 3f3e 4323 8b3e
00000310: 9628 af3c 2c67 9b3c cb3f 323d 18ee 993e

weight f4 [10, 50]
-0.568089 -0.06815569 -1.9917095 -0.14745545 0.097921826 -1.3357949 1.5493475 0.8983045
-0.51827526 -0.8016256 -0.10407436 -0.2987405 -0.7005005 0.09292067 0.5539706 0.70084673
-1.1874607 0.69253 0.4845803 -0.51075435 -0.3731359 -0.8779904 -2.1443489 -0.024749247
0.5363982 1.164343 -0.44972754 -0.4110907 0.09481542 0.5981616 1.0374602 0.25910097
0.7382252 -0.44719678 1.3698477 -0.7156162 0.60208315 -0.3705773 0.42315638 -0.39980257
0.57256794 1.0530069 0.1611398 0.8268141 0.039474264 0.4977687 1.0317662 -0.9931391
0.7168981 -0.4564861 0.37021065 0.07078442 -0.10400721 -0.79318076 -0.39065164 0.20229226
-0.1944421 0.046095755 -1.4382391 -0.18138804 0.66942954 0.60596323 -0.7635343 0.3548711
0.17221165 -0.66513 1.0301489 0.21766752 -0.100472264 -0.7951111 -0.6022852 0.01252455
0.036129992 0.02669499 0.019089289 0.4242738 -0.5629834 -0.25818366 0.6988609 0.4388017
-0.22357409 0.37352857 0.23762013 0.0347357 -0.7532032 3.1766593 -0.025571255 -0.5587496
0.8815606 -0.7770707 0.18099895 -2.0009048 -0.62961787 -1.380377 0.004607091 0.25061122
0.32629552 -0.019571193 -0.86280644 0.03821197 -0.8647117 -0.34180018 -0.13322026 -0.3697441
-0.21046826 0.020865342 -1.3533753 0.33765832 1.5422685 0.15922184 0.0966187 0.39479762
-0.8888213 0.035103675 -1.0033404 -0.024830997 -0.014082644 -0.38550562 0.0061549856 -0.4034838
-0.2943654 0.21811683 0.6034849 0.61886674 -0.16518417 0.50173265 0.003751982 0.3717186
-0.83532935 -0.11060916 1.223264 0.079210855 -0.0035300944 0.0297353 2.2143934 3.1441796
-0.5755513 -0.10266956 0.0021550688 2.1926322 -0.39000818 -1.1099379 1.0341011 -2.3067245
0.52556425 -0.029094419 -0.38503402 -0.05883925 1.806176 -0.09860604 -0.4946009 0.50702703
0.33504936 0.9589386 1.7930195 -0.8907073 -1.2695696 0.5440966 -0.23471044 0.1119752
-0.33177543 0.016285928 0.54381114 -0.03258507 0.5195497 1.0838653 -1.143915 -0.023912555
0.44233942 1.1338553 0.17035854 -0.43002108 -0.54657066 0.35781434 1.103975 -0.18937203
-0.35430974 -0.20689239 -0.944731 0.3787424 -0.87591153 -0.7861688 0.45115024 -0.42342767
0.37146804 -0.34399736 0.022755316 -0.30729985 -5.752223 -0.61313695 0.14431618 0.59001833
-0.10244089 0.34388074 0.02442562 0.34684104 -0.071467444 0.32212308 2.0320983 0.06510756
0.7899434 0.18299003 0.18835403 -0.51693624 -1.2586439 1.0892816 0.70948213 -0.6934628
-0.14932892 -0.14218539 0.004919328 0.0155818155 0.49398515 -0.2968333 -0.06414767 -0.17495282
1.0540789 0.36403352 -0.0134326 -0.22651899 -0.2155342 0.19701664 0.63901925 0.29205394
-0.54502314 -0.06363773 0.39801657 0.23586303 0.76350474 -0.09839461 -0.10851465 0.78564537
-0.24825716 -0.3009488 -1.023197 -0.8020644 -0.32949546 0.1651958 1.2170303 -0.49574342
-0.22703871 2.2784846 -0.24823053 1.1405839 -0.77878463 -0.0722393 0.44058338 0.36828962
0.8886845 0.24165471 0.08505798 -0.52442926 0.18783024 0.08962537 -0.3026631 -0.3315601
00000000: 486e 11bf 3695 8bbd 56f0 febf 90fe 16be
00000010: 3d8b c83d 54fb aabf 0551 c63f 49f7 653f
00000020: b0ad 04bf 5637 4dbf f024 d5bd 84f4 98be
00000030: 0054 33bf 314d be3d 04d1 0d3f b16a 333f
00000040: b6fe 97bf a549 313f e91a f83e ccc0 02bf
00000050: ab0b bfbe fbc3 60bf 033d 09c0 efbe cabc
00000060: 6451 093f 3109 953f b042 e6be 7b7a d2be
00000070: 962e c23d 1e21 193f 7fcb 843f e2a8 843e
00000080: 54fc 3c3f faf6 e4be 2b57 af3f a032 37bf
00000090: 1f22 1a3f 4fbc bdbe f4a7 d83e ecb2 ccbe
000000a0: d093 123f eec8 863f d501 253e 17aa 533f
000000b0: c4af 213d 8adb fe3e ea10 843f 5d3e 7ebf
000000c0: a286 373f 8cb8 e9be 408c bd3e 6cf7 903d
000000d0: bb01 d5bd e50d 4bbf 7e03 c8be b425 4f3e
000000e0: d41b 47be e7ce 3c3d 3818 b8bf c9bd 39be
000000f0: bc5f 2b3f 6820 1b3f fc76 43bf aab1 b53e
00000100: 4058 303e f645 2abf ebdb 833f 3ce4 5e3e
00000110: 67c4 cdbd 678c 4bbf 5d2f 1abf c533 4d3c
00000120: 0bfd 133d 74af da3c 2461 9c3c 6a3a d93e
00000130: ae1f 10bf a630 84be 8ce8 323f 9eaa e03e
00000140: 9bf0 64be 233f bf3e b152 733e 0547 0e3d
00000150: edd1 40bf 634e 4b40 cf7a d1bc 370a 0fbf
00000160: f5ad 613f 1bee 46bf ca57 393e d30e 00c0
00000170: a32e 21bf 32b0 b0bf 15f7 963b 1d50 803e
00000180: 3510 a73e c453 a0bc e2e0 5cbf 2884 1c3d
00000190: bf5d 5dbf 6f00 afbe e46a 08be 194f bdbe
000001a0: fe84 57be cbed aa3c 673b adbf 8de1 ac3e
000001b0: 0e69 c53f 0d0b 233e 06e0 c53d ea22 ca3e
000001c0: cb89 63bf dfc8 0f3d 756d 80bf 606a cbbc
000001d0: e4ba 66bc fe60 c5be c3af c93b 6e95 cebe
000001e0: 10b7 96be 055a 5f3e fd7d 1a3f 0d6e 1e3f
000001f0: 0a26 29be 8d71 003f d0e3 753b e651 be3e
00000200: 25d8 55bf 0e87 e2bd ea93 9c3f 4d39 a23d
00000210: 2859 67bb 7297 f33c 9fb8 0d40 3d3a 4940
00000220: 5457 13bf 6b44 d2bd 0e3c 0d3b 1654 0c40
00000230: 27af c7be 7212 8ebf 6d5d 843f 60a1 13c0
00000240: 618b 063f 6b57 eebc 2e23 c5be 6d01 71bd
00000250: c630 e73f f7f1 c9bd 543c fdbe 86cc 013f
00000260: 978b ab3e 007d 753f aa81 e53f 6505 64bf
00000270: 4281 a2bf ea49 0b3f ef57 70be 4153 e53d
00000280: 78de a9be 116a 853c 3537 0b3f ec77 05bd
00000290: 3601 053f 19bc 8a3f cf6b 92bf 43e4 c3bc
000002a0: 507a e23e 2c22 913f 7872 2e3e b92b dcbe
000002b0: 0eec 0bbf 7133 b73e 0e4f 8d3f beea 41be
000002c0: 1668 b5be 99db 53be e4d9 71bf 86ea c13e
000002d0: bd3b 60bf 5c42 49bf 2afd e63e 83cb d8be
000002e0: 0f31 be3e 6c20 b0be 5b69 ba3c 6856 9dbe
000002f0: 3612 b8c0 8bf6 1cbf 9fc7 133e 710b 173f
00000300: 88cc d1bd 2311 b03e 3d18 c83c 2695 b13e
00000310: 865d 92bd 51ed a43e e60d 0240 1d57 853d
00000320: bb39 4a3f bd61 3b3e e1df 403e ef55 04bf
00000330: 3e1b a1bf 946d 8b3f 9fa0 353f c786 31bf
00000340: aee9 18be 0c99 11be 5032 a13b df4a 7f3c
00000350: 9feb fc3e 89fa 97be db5f 83bd d526 33be
00000360: 0fec 863f 9a62 ba3e 6814 5cbc 98f4 67be
00000370: ffb4 5cbe bbbe 493e c496 233f 1888 953e
00000380: a386 0bbf 8054 82bd d4c8 cb3e 1486 713e
00000390: 0c75 433f 1d83 c9bd ee3c debd 0e20 493f
000003a0: 2037 7ebe f615 9abe 1ff8 82bf 1854 4dbf
000003b0: a1b3 a8be 1629 293e a6c7 9b3f 15d2 fdbe
000003c0: d67c 68be b1d2 1140 2530 7ebe a7fe 913f
000003d0: 6e5e 47bf 33f2 93bd 2594 e13e 7590 bc3e
000003e0: d480 633f 5574 773e e132 ae3d ff40 06bf
000003f0: 9256 403e 828d b73d a8f6 9abe 3fc2 a9be

bias f4 [10]
-0.05642505 0.42159876 0.069551386 -0.13304958 -0.0819824 0.36462164 -0.074484885 -0.4573121
-0.09494814 -0.005147969
00000000: f41d 67bd cbdb d73e f570 8e3d 263e 08be
00000010: 63e6 a7bd b0af ba3e 888b 98bd d024 eabe
00000020: 2c74 c2bd 4bb0 a8bb
