Models_mario/Mario No Bias_exp0_TRANSF_classifier.pth (torch, 12913 bytes, 6 tensors)

weight f4 [3, 1, 7, 7]
-0.17423639 -0.15002564 0.004166655 -0.016140932 -0.042890463 -0.1738175 -0.12593947 -0.21177563
-0.08799059 0.033055976 0.0013563406 -0.032748077 -0.052136417 0.013144163 -0.06954424 0.037441038
-0.08777463 -0.045561347 -0.02720436 -0.12562555 0.019878192 -0.030834854 0.055168018 -0.012034745
-0.0013349148 -0.098701864 -0.14765966 -0.041458286 -0.0070954533 -0.12088121 0.10470852 -0.11593205
-0.05252789 -0.059705675 0.11673947 -0.032007456 -0.13068901 0.06985563 0.038904272 0.035304025
0.055466138 0.05772061 -0.11585599 0.085481256 -0.06683631 0.043381438 -0.14183038 -0.10931249
-0.042041764 -0.059677247 -0.12740879 -0.038826652 -0.056084033 -0.2317311 0.076553926 -0.020879481
-0.0691908 -0.25167844 -0.11788466 0.021246633 0.051988658 -0.03893584 -0.13266508 -0.10447224
-0.16753595 -0.04348554 0.03780691 -0.09545982 -0.16383883 -0.07040698 -0.21417232 0.0558708
-0.06381512 0.07540586 -0.005889204 -0.0024966074 -0.106786124 -0.11564961 -0.040246937 -0.021192592
-0.11584203 0.0785096 0.009956005 -0.043698244 -0.040850252 0.055144187 0.049321927 0.028931152
-0.08856687 0.03514077 -0.036476087 0.07817694 -0.038527887 -0.104184255 -0.09076066 0.15161704
-0.13628532 -0.104659736 0.13471507 0.016665163 0.10457337 0.17912434 -0.11482207 0.032209486
-0.06285831 0.203628 -0.00078286784 0.11331835 0.029978096 -0.18107684 0.019636972 0.01315103
0.05722987 -0.026735706 -0.035423327 -0.041464124 -0.18460768 0.2215115 0.0573031 -0.022235783
-0.04543829 -0.044775188 -0.02068145 0.034871574 -0.08336353 0.0663487 -0.060457088 0.019031692
-0.058096282 -0.10007968 -0.080151156 0.033990428 -0.055514164 -0.15011331 -0.20224306 -0.011652454
-0.09587843 -0.16914237 -0.17525585 0.050512105 -0.11564408 0.00014244157 -0.2015387 -0.04126938
-0.068511315 0.044559453 -0.13319233
00000000: 066b 32be 52a0 19be 6f88 883b fd39 84bc
00000010: e9ad 2fbd 37fd 31be 47f6 00be b6db 58be
00000020: 6934 b4bd b465 073d 3dc7 b13a d922 06bd
00000030: ff8c 55bd 9e5a 573c 366d 8ebd c65b 193d
00000040: 2fc3 b3bd 899e 3abd aedb debc fca3 00be
00000050: 97d7 a23c 6099 fcbc dcf7 613d 612d 45bc
00000060: 4ff8 aeba 3424 cabd 1834 17be 2ad0 29bd
00000070: fa80 e8bb 9190 f7bd 6c71 d63d c86d edbd
00000080: 7c27 57bd f08d 74bd 1a15 ef3d 401a 03bd
00000090: 57d3 05be 7810 8f3d 165a 1f3d f49a 103d
000000a0: 7630 633d 726c 6c3d e845 edbd cc10 af3d
000000b0: 7ae1 88bd bcb0 313d fc3b 11be 3adf dfbd
000000c0: fc33 2cbd 2170 74bd 7377 02be b208 1fbd
000000d0: 5fb8 65bd eb4a 6dbe 4ec8 9c3d 720b abbc
000000e0: e8b3 8dbd ffdb 80be 836d f1bd 6b0d ae3c
000000f0: 0ff2 543d 307b 1fbd 5bd9 07be 8bf5 d5bd
00000100: 8b8e 2bbe e51d 32bd 6bdb 1a3d 7080 c3bd
00000110: 5ec5 27be 8931 90bd fd4f 5bbe c8d8 643d
00000120: 80b1 82bd 636e 9a3d 39fa c0bb 1f9e 23bb
00000130: afb2 dabd b4d9 ecbd f9d9 24bd 169c adbc
00000140: 963e edbd a4c9 a03d 831e 233c eefc 32bd
00000150: 9852 27bd dfde 613d ca05 4a3d 0601 ed3c
00000160: 8c62 b5bd c5ef 0f3d f367 15bd 3b1b a03d
00000170: 6bcf 1dbd 8e5e d5bd bae0 b9bd 7f41 1b3e
00000180: 618e 0bbe d857 d6bd bff2 093e 6185 883c
00000190: 902a d63d 5f6c 373e d527 ebbd 18ee 033d
000001a0: dcbb 80bd dc83 503e 5f39 4dba 7313 e83d
000001b0: a094 f53c 356c 39be b7dd a03c 6b77 573c
000001c0: de69 6a3d d704 dbbc 0d18 11bd 49d6 29bd
000001d0: cc09 3dbe e9d3 623e a8b6 6a3d d127 b6bc
000001e0: 801d 3abd 3066 37bd 256c a9bc 7fd5 0e3d
000001f0: 80ba aabd d4e1 873d daa1 77bd 5ae8 9b3c
00000200: 5ef6 6dbd 93f6 ccbd 4a26 a4bd 8c39 0b3d
00000210: d262 63bd 4eb7 19be ce18 4fbe efe9 3ebc
00000220: e95b c4bd a833 2dbe 4576 33be c8e5 4e3d
00000230: ced6 ecbd 5e5c 1539 2960 4ebe 150a 29bd
00000240: a94f 8cbd f983 363d 9263 08be

bias f4 [3]
0.09151753 0.049631942 0.019671934
00000000: 8b6d bb3d dd4a 4b3d 0927 a13c

weight f4 [6, 3, 7, 7]
0.009256318 0.06566969 0.029676756 0.055653695 0.03749767 -0.039450515 -0.0106115835 -0.061272353
0.066585585 -0.010000773 -0.011648671 0.049172703 -0.018378468 0.012674462 0.024616638 0.023659974
-0.04075244 -0.02765914 0.009643854 -0.054261364 0.003082076 0.040979456 0.0498001 -0.05506594
-0.056263253 -0.0026696287 0.0575509 0.042364 0.0009931437 0.00047204763 -0.0063112406 -0.007438157
0.047066443 0.012887907 -0.00846304 0.019807428 0.0059028273 0.064775296 -0.035442404 0.05627501
-0.042142127 -0.03256564 -0.07600403 0.045122415 0.03254388 0.05386293 0.042065732 -0.07450645
-0.010356673 0.0007126147 0.03192029 -0.04504822 0.041765817 -0.07780813 0.034666624 0.0244757
-0.06114087 0.025172789 0.017243773 -0.028239382 0.06579178 0.06935353 -0.07035412 -0.036142204
-0.08800478 0.023979565 -0.018435907 0.06533446 0.008088001 0.00478093 -0.03744525 0.059390973
-0.032591585 0.031816393 0.07792084 0.06424449 0.0032521675 0.065613836 -0.06257148 0.033464894
-0.03737337 -0.029997868 0.030042415 -0.049064554 -0.01109447 0.07766629 0.0051191635 0.064997375
0.05884724 0.06479359 0.036748376 0.014218429 0.07011097 -0.0142176775 -0.062358648 0.0016362284
0.058789995 -0.0150940865 0.02153942 -0.05207701 0.02445467 0.027399639 -0.027631355 -0.042093504
-0.037659243 -0.0009934863 -0.034697168 0.029263986 -0.041769836 -0.09235907 0.06471483 0.05206568
0.032948807 0.023064991 0.010883143 -0.06586307 -0.012620216 -0.031640265 -0.10066532 -0.06341011
-0.034217466 -0.07843467 -0.08631941 -0.07276085 -0.023937656 0.006777559 -0.067034476 -0.03224542
-0.01846319 -0.13145219 -0.025774105 -0.09883136 -0.06628087 -0.035558347 -0.019967724 -0.10794285
0.054379247 -0.031831834 -0.08221002 -0.08844308 -0.0026480707 -0.09312587 -0.03520529 0.018402925
-0.06842878 0.04190129 -0.009876854 -0.10512635 0.056224216 0.0032463477 -0.0051853317 -0.09075786
-0.09328186 -0.005371944 0.030508798 5.9275088e-05 -0.049197923 0.024002912 -0.08021645 -0.014147195
-0.056591857 0.010757001 0.010029108 -0.08761429 -0.00901343 -0.03381361 0.0062139174 -0.009380247
0.023337124 -0.10402928 -0.08005701 0.042666346 -0.066154756 -0.090641394 -0.079950474 -0.05303595
-0.109330185 0.04347271 -0.08012203 -0.021364536 0.026111837 0.006342012 -0.08366563 -0.06784439
-0.025562782 -0.099130526 -0.040148042 0.011351157 -0.06383371 0.00047771703 -0.063310035 -0.037528638
0.03916578 -0.03553164 -0.04451893 -0.085581854 0.060834747 0.025775619 -0.0041460646 -0.0699192
-0.01461823 -0.015147648 0.048446916 0.01641748 -0.0050197733 -0.0070795626 0.02956986 0.01395338
0.050950017 0.04263983 -0.012371586 0.01567317 -0.08848787 -0.048631966 -0.014978563 0.040981926
0.004080425 0.012237442 -0.06434203 -0.084025845 0.013810473 -0.038132735 -0.0035894935 -0.056462765
0.06186536 -0.012919137 0.040429525 -0.082202405 -0.088402964 0.066822216 0.050359357 -0.050874714
0.039516725 -0.062464885 0.027359597 -0.08646894 0.035839707 -0.11094236 0.024103245 0.030759683
-0.024582451 -0.05713086 0.03779532 0.016612494 -0.09376511 0.029753553 0.009997564 0.042728085
-0.01760805 -0.00036532048 0.06338344 -0.015550087 -0.043656837 -0.11143038 -0.036445286 -0.06209861
00000000: d0a7 173c d57d 863d ab1c f33c 21f5 633d
00000010: 2897 193d dd96 21bd 35dc 2dbc b8f8 7abd
00000020: 065e 883d 48da 23bc 11da 3ebc 5169 493d
00000030: 718e 96bc 8ca8 4f3c d5a8 c93c 90d2 c13c
00000040: 08ec 26bd 6c95 e2bc 4101 1e3c 2a41 5ebd
00000050: a8fc 493b 13da 273d 31fb 4b3d d38c 61bd
00000060: 4c74 66bd f0f4 2ebb 7eba 6b3d e085 2d3d
00000070: 5f2c 823a 297d f739 86ce cebb c9bb f3bb
00000080: bec8 403d cd27 533c 90a8 0abc 3043 a23c
00000090: 816c c13b e9a8 843d 0e2c 11bd a080 663d
000000a0: 399d 2cbd 8c63 05bd 00a8 9bbd 48d2 383d
000000b0: bb4c 053d 609f 5c3d 1e4d 2c3d d696 98bd
000000c0: 09af 29bc c3ce 3a3a dabe 023d 7b84 38bd
000000d0: a212 2b3d de59 9fbd 97fe 0d3d 4381 c83c
000000e0: d96e 7abd 2a37 ce3c d042 8d3c 4756 e7bc
000000f0: d7bd 863d 3909 8e3d d215 90bd d909 14bd
00000100: da3b b4bd cb70 c43c e606 97bc 13ce 853d
00000110: 8983 043c 59a9 9c3b 3160 19bd f343 733d
00000120: c17e 05bd e851 023d f694 9f3d 9d92 833d
00000130: 5122 553b 8c60 863d 7a25 80bd 7c12 093d
00000140: d214 19bd 17be f5bc 831b f63c eaf7 48bd
00000150: 94c5 35bc 810f 9f3d a8be a73b 581d 853d
00000160: ce09 713d 80b2 843d 7785 163d 6af4 683c
00000170: 5796 8f3d 43f1 68bc c86b 7fbd b776 d63a
00000180: c7cd 703d 304d 77bc 7073 b03c b44e 55bd
00000190: 2955 c83c 3575 e03c 275b e2bc 3d6a 2cbd
000001a0: 9440 1abd de37 82ba 9e1e 0ebd 07bb ef3c
000001b0: d916 2bbd c126 bdbd 3589 843d d342 553d
000001c0: 54f5 063d cbf2 bc3c 364f 323c 38e3 86bd
000001d0: 06c5 4ebc 3999 01bd 9f29 cebd 29dd 81bd
000001e0: 9d27 0cbd 5ba2 a0bd 3bc8 b0bd a403 95bd
000001f0: e718 c4bc 4916 de3b 5f49 89bd c613 04bd
00000200: 1e40 97bc 679b 06be 3724 d3bc 1968 cabd
00000210: 44be 87bd a1a5 11bd 5a93 a3bc 2411 ddbd
00000220: c6bc 5e3d 1962 02bd ba5d a8bd a521 b5bd
00000230: 418b 2dbb c7b8 bebd 6c33 10bd bbc1 963c
00000240: 6324 8cbd b0a0 2b3d 87d2 21bc 7c4c d7bd
00000250: 5d4b 663d adc0 543b b7e9 a9bb 42df b9bd
00000260: 8f0a bfbd 2207 b0bb 96ed f93c 249e 7838
00000270: c383 49bd c1a1 c43c 8648 a4bd a3c9 67bc
00000280: ddcc 67bd 223e 303c 2151 243c 1f6f b3bd
00000290: 11ad 13bc 2480 0abd 1e9e cb3b 9caf 19bc
000002a0: 7f2d bf3c 4e0d d5bd eef4 a3bd e8c2 2e3d
000002b0: 257c 87bd 32a2 b9bd 13bd a3bd 393c 59bd
000002c0: 81e8 dfbd 7110 323d 0517 a4bd ae04 afbc
000002d0: 7ee8 d53c a7d0 cf3b e358 abbd 00f2 8abd
000002e0: 0a69 d1bc f204 cbbd 4672 24bd 34fa 393c
000002f0: 40bb 82bd 1876 fa39 b1a8 81bd a1b7 19bd
00000300: 4c6c 203d a089 11bd 7b59 36bd 8a45 afbd
00000310: db2d 793d 6427 d33c b6db 87bb cc31 8fbd
00000320: 4d81 6fbc d72d 78bc 4670 463d f37d 863c
00000330: e97c a4bb adfb e7bb 7e3c f23c b89c 643c
00000340: f7b0 503d 1aa7 2e3d 31b2 4abc 0565 803c
00000350: 2139 b5bd 5032 47bd a668 75bc aadc 273d
00000360: 16b5 853b 8d7f 483c c1c5 83bd be15 acbd
00000370: 5245 623c 1231 1cbd b53d 6bbb 8045 67bd
00000380: 8866 7d3d caaa 53bc 6e99 253d bc59 a8bd
00000390: 9d0c b5bd 16da 883d 9d45 4e3d 0162 50bd
000003a0: 4adc 213d 2edb 7fbd 3c21 e03c a116 b1bd
000003b0: a8cc 123d bf35 e3bd 2b74 c53c bbfb fb3c
000003c0: 2361 c9bc 0c02 6abd 44cf 1a3d ed16 883c
000003d0: ec07 c0bd b9bd f33c d3cc 233c a503 2f3d
000003e0: c23e 90bc 7c88 bfb9 2dcf 813d cbc5 7ebc
000003f0: 83d1 32bd 9c35 e4bd a747 15bd 1d5b 7ebd

bias f4 [6]
-0.097743906 -0.038456347 -0.08380712 0.05253593 0.0075914348 -0.009397993
00000000: f52d c8bd 6784 1dbd 11a3 abbd ea2f 573d
00000010: 92c1 f83b 0afa 19bc

weight f4 [10, 96]
-0.03566356 -0.08771325 -0.1157247 -0.02180296 -0.07756655 -0.037467096 -0.08750909 -0.06637867
-0.0010557378 -0.02849516 0.03570349 -0.04829648 -0.088353604 -0.030545505 0.085204534 -0.030644935
0.047983754 0.0037620813 0.06350583 -0.09513411 0.016840013 -0.06318187 0.023123777 0.08121124
-0.039012644 -0.0033193252 0.054292604 0.07232958 -0.07185254 0.040457953 -0.013491422 0.07422578
0.017807772 0.0810077 0.10766996 0.008915273 -0.07463675 0.07122679 0.013448976 0.05519575
-0.093886316 -0.040317103 -0.0242665 -0.091282494 -0.0150593845 -0.06234881 -0.033084072 -0.020397956
-0.059183992 -0.06767613 0.052058827 0.006528683 -0.053440265 -0.1028185 0.045846887 -0.106587164
-0.13875297 -0.010309858 -0.09130054 0.1385599 -0.12217716 0.039124366 0.03729478 -0.11522551
0.029795745 -0.017170334 0.06607728 0.027439216 -0.012816644 -0.120875984 0.025144713 -0.068997756
-0.09797257 -0.061184492 0.06964858 -0.12012573 -0.10752388 -0.12613986 -0.11928455 -0.11061391
0.22726925 0.17337394 0.05113989 0.1763744 0.03632721 0.16381453 0.058253016 0.08652637
0.23547266 -0.073986895 0.046979375 -0.023244498 -0.018023448 0.056755822 0.10774128 0.13273712
0.07258672 -0.07736947 -0.040873736 0.051825568 0.033523634 -0.038834803 0.04017511 0.03632515
-0.041629933 -0.059308108 0.009893008 -0.07973047 0.003230408 -0.07756656 -0.007744773 -0.057000976
-0.039654315 0.08119578 0.09565075 -0.03032573 0.07832973 -0.033296384 0.042438425 0.07960348
-0.03732887 -0.105244294 0.090282336 0.06348308 -0.017631624 -0.058298536 0.039719645 0.0869394
-0.11749902 -0.06013056 -0.00681682 0.0628438 -0.09106609 -0.021172194 -0.01965402 0.036470287
-0.016686682 -0.03598895 0.013036563 0.09819514 -0.06544649 -0.018728038 -0.07303195 0.0020063987
-0.039852772 0.033362392 -0.008725351 -0.023061687 -0.031645574 0.07945238 0.091497414 -0.09157226
0.0014097146 -0.0021713316 0.004428335 -0.105429836 -0.066768184 0.023206167 -0.049409516 -0.06654846
0.029046005 -0.10078996 -0.06861789 -0.099860266 0.07800347 -0.039384834 -0.04579305 -0.06843437
-0.029167425 0.048706472 0.040475655 -0.09612961 0.030536158 0.05840975 -0.111825965 -0.084057264
-0.03340126 -0.031026596 0.043625873 -0.07799746 0.048024558 0.07382783 -0.028015971 -0.0389782
-0.024603793 0.0057929326 0.0034586962 -0.09915167 -0.028592542 0.060338937 -0.087089635 -0.07958161
0.06185566 -0.12699957 -0.053218834 -0.023932304 -0.086756095 -0.038873985 0.049350392 -0.10800922
-0.06250552 0.0414565 0.036021013 0.056569073 -0.025501555 0.018803244 0.064209945 -0.0016494778
0.1323062 0.03461582 -0.034931965 0.025389763 -0.033893254 -0.024870237 -0.083034664 0.084946126
-0.048967887 -0.091745906 0.053993776 -0.056720782 -0.04290447 -0.015999036 0.022501245 0.023472205
0.071949385 -0.024638169 -0.08999282 0.11688245 -0.15145408 -0.0024198021 0.09906897 -0.026610076
-0.06292495 0.014016146 -0.052023955 0.05207258 0.107900426 -0.05497908 -0.07467303 -0.029817035
0.1270968 0.14171149 0.08206182 0.010274895 0.08264725 0.0788152 -0.021906491 0.20196769
0.044515245 -0.040204197 0.07192971 0.005498505 0.06452834 -0.029402431 0.0030132402 0.084154114
00000000: f413 12bd 01a3 b3bd 1201 edbd 1f9c b2bc
00000010: 36db 9ebd 1977 19bd f737 b3bd 8af1 87bd
00000020: af60 8aba af6e e9bc d33d 123d 88d2 45bd
00000030: bcf2 b4bd 913a fabc b77f ae3d 160b fbbc
00000040: 9d8a 443d 408d 763b 580f 823d acd5 c2bd
00000050: 11f4 893c 7f65 81bd 136e bd3c 1452 a63d
00000060: b9cb 1fbd 0989 59bb ec61 5e3d 8821 943d
00000070: 6d27 93bd 3db7 253d 200b 5dbc b003 983d
00000080: 9be1 913c 5de7 a53d 1182 dc3d 5d11 123c
00000090: 27db 98bd 5adf 913d 1859 5c3c f014 623d
000000a0: 7847 c0bd 8c23 25bd 8aca c6bc 51f2 babd
000000b0: a3bb 76bc 7761 7fbd 2a83 07bd 9d19 a7bc
000000c0: ea6a 72bd c899 8abd a33b 553d 90ee d53b
000000d0: 2ee4 5abd 8192 d2bd f2c9 3b3d 5f4a dabd
000000e0: 4215 0ebe aeea 28bc c7fb babd a5e2 0d3e
000000f0: 0538 fabd df40 203d 69c2 183d 5afb ebbd
00000100: 3516 f43c cda8 8cbc 8653 873d 35c8 e03c
00000110: e7fc 51bc d48d f7bd 49fc cd3c b24e 8dbd
00000120: d8a5 c8bd 979c 7abd eaa3 8e3d 7b04 f6bd
00000130: 7b35 dcbd cf2a 01be 754b f4bd 8c89 e2bd
00000140: 45b9 683e f088 313e 1078 513d 7e9b 343e
00000150: d7cb 143d ffbe 273e b79a 6e3d bd34 b13d
00000160: bf1f 713e 7186 97bd 726d 403d 3f6b bebc
00000170: e9a5 93bc cb78 683d 76a7 dc3d 3dec 073e
00000180: 59a8 943d e273 9ebd 386b 27bd 0c47 543d
00000190: 1450 093d 3e11 1fbd a88e 243d aec9 143d
000001a0: 2684 2abd 0fed 72bd 4816 223c bb49 a3bd
000001b0: 41b5 533b 37db 9ebd ddc7 fdbb db79 69bd
000001c0: 906c 22bd f949 a63d 8ae4 c33d aa6d f8bc
000001d0: 566b a03d ca61 08bd ead3 2d3d 2607 a33d
000001e0: 28e6 18bd 528a d7bd f2e5 b83d 6b03 823d
000001f0: 3270 90bc 72ca 6ebd 11b1 223d 490d b23d
00000200: 54a3 f0bd 764b 76bd a15f dfbb 40b4 803d
00000210: dc80 babd 4f71 adbc 7801 a1bc de61 153d
00000220: 82b2 88bc 2669 13bd 4f97 553c 891a c93d
00000230: cf08 86bd 8b6b 99bc c691 95bd c97d 033b
00000240: a93c 23bd 01a7 083d c6f4 0ebc ddeb bcbc
00000250: ca9e 01bd eeb7 a23d ff62 bb3d 3d8a bbbd
00000260: 2cc6 b83a e64c 0ebb 911b 913b 99eb d7bd
00000270: c2bd 88bd dc1a be3c a261 4abd 8f4a 88bd
00000280: e3f1 ed3c f76a cebd 8987 8cbd 8a83 ccbd
00000290: 49c0 9f3d fe51 21bd 7e91 3bbd 5227 8cbd
000002a0: 86f0 eebc 7080 473d cdc9 253d 9adf c4bd
000002b0: f726 fa3c 103f 6f3d 0305 e5bd 3726 acbd
000002c0: c2cf 08bd 7d2b febc 0bb1 323d 22bd 9fbd
000002d0: 66b5 443d 0c33 973d c081 e5bc 9ba7 1fbd
000002e0: e58d c9bc a4d2 bd3b 4bab 623b 0810 cbbd
000002f0: e83a eabc f625 773d 0d5c b2bd affb a2bd
00000300: 5c5c 7d3d 2d0c 02be fefb 59bd ae0d c4bc
00000310: 2ead b1bd 543a 1fbd a323 4a3d f033 ddbd
00000320: e502 80bd 4ace 293d c58a 133d f9b4 673d
00000330: a3e8 d0bc 4309 9a3c 8180 833d 4a33 d8ba
00000340: 477b 073e 51c9 0d3d d214 0fbd 31fe cf3c
00000350: a7d3 0abd abbc cbbc 140e aabd 3cf8 ad3d
00000360: 8d92 48bd 47e5 bbbd 9428 5d3d 0d54 68bd
00000370: 99bc 2fbd 6910 83bc 8854 b83c c848 c03c
00000380: 335a 933d fcd5 c9bc 284e b8bd 1160 ef3d
00000390: c716 1bbe 8b95 1ebb ace4 ca3d 60fd d9bc
000003a0: ccde 80bd faa3 653c 1217 55bd 0f4a 553d
000003b0: e6fa dc3d be31 61bd 2cee 98bd db42 f4bc
000003c0: aa25 023e d11c 113e 0710 a83d 0858 283c
000003d0: f642 a93d dd69 a13d 3e75 b3bc 9ed0 4e3e
000003e0: 9e55 363d 28ad 24bd e24f 933d ce2c b43b
000003f0: 6f27 843d 5edd f0bc c879 453b fe58 ac3d

bias f4 [10]
0.010876755 -0.012979339 0.10311649 -0.06790867 0.07037479 -0.0021353413 0.12909485 -0.015268063
0.005926683 -0.00018989957
00000000: 6b34 323c 4ba7 54bc bd2e d33d b313 8bbd
00000010: a820 903d 15f1 0bbb 7131 043e e626 7abc
00000020: 9f34 c23b c71f 47b9
