Models_mario/Mario No Bias_exp1_NS_classifier.pth (torch, 12865 bytes, 6 tensors)

weight f4 [3, 1, 7, 7]
00000000: 3dd1 933d 0e75 ae3d 6413 0e3d 77e1 db3d
00000010: aa1e 37bc aaeb 373d fff4 023e 2fcd 5e3e
00000020: 2d5b ee3d d484 163d 05c3 d93d 5260 9c3d
00000030: 87b3 133e 7a78 ca3d c4c0 0b3e 11c8 5f3e
00000040: 5ba8 a13c 265d 9e3d f4a4 f43d 5f13 b63d
00000050: 48c6 8d3d ec73 3cbd 6101 34bd 32c4 51bd
00000060: 1b5c 83bd a245 75bd 42dc 00bd 8f9d 5dbd
00000070: 9732 74bd 6076 103e 78f6 233e 17e2 2e3e
00000080: 25d5 183e 04a4 003e 29db 0a3e 83ba 853b
00000090: 9d35 623e 1b7b a73d d4ae 613e c946 133e
000000a0: 5804 5d3e 3fd6 5a3e 8279 143d ca1e 2b3d
000000b0: 7e8f d33d 4b97 a63d fb2e e03d 6c3e 313e
000000c0: ed9d babc a481 8d3d ac5f 00bd efe3 5b3e
000000d0: 5b34 abbc 2bf2 d43d 3c11 223d f4ce 0d3e
000000e0: d400 c63d e700 c43d 9169 4e3e afee 5c3e
000000f0: 1be3 fbbc 1a68 8fbd 9bf7 723d b876 123e
00000100: 6eaa 073e ded2 613e 23c8 173e 522b 01bc
00000110: a4cb 18bd 4700 223e d23b 6d3e 5802 9f3c
00000120: 4c2a 8bbc 9e33 e83d fd14 4dbd 0e3e b73c
00000130: 9922 c6bd 3bc0 083e dd40 243d 0a8a 87bc
00000140: 0cc6 e5bc 43bf a3bb d28d 063e 000e 433d
00000150: a1f3 653e 272c 213d 7fe0 fd3c 8fbd 523e
00000160: b440 93bd 1795 6e3b a026 0ebd 4145 643e
00000170: 34c6 213e 2e34 693c d7a7 9ebc baa3 a33d
00000180: 2041 a1bc c5bd 893d ccc5 673c 0753 493c
00000190: d06c c83d 4371 473e 5696 6c3e ffa9 0c3e
000001a0: dfd0 f13b cd0c 4b3e 45b1 3d3e 7ab9 353e
000001b0: 583f 5c3d 54b7 a33d 85b6 293e a557 1c3e
000001c0: f4ba 543e de5d 1f3d 3445 4c3e d104 0e3d
000001d0: 8dcc 973d 2105 383d 7190 7d3d c155 573e
000001e0: 7f81 683e efc2 0f3e 5f30 bdbc 7816 a03c
000001f0: 57e8 323e e266 233d fac2 babc 2438 033e
00000200: e972 16bd 3ca1 ba3d f0c2 7d3d 1468 a23d
00000210: f6f2 363d 3b91 863d 7ee4 823c 0805 10ba
00000220: 01c0 073e 61b9 533e 6eb8 8ebc dda2 58bd
00000230: 8f41 db3b eb67 623e d9e7 503e 05ad 6dbd
00000240: 8187 e43d baf8 ce3d 0058 4b3e
0.072176434 0.0851842 0.03468646 0.107363634 -0.0111767445 0.04490248 0.12788771 0.21757959
0.11638484 0.03674777 0.106329 0.07635559 0.14423953 0.0988626 0.13647753 0.21853663
0.019733598 0.077326104 0.11945525 0.088904135 0.06922585 -0.04600899 -0.043946628 -0.051212497
-0.06414052 -0.05988086 -0.031460054 -0.054105338 -0.05961856 0.14107656 0.16011989 0.17078434
0.14925058 0.12562567 0.13560165 0.004081072 0.22090764 0.081777774 0.22039348 0.14382471
0.21583688 0.21370791 0.03624869 0.04177741 0.10330103 0.081343256 0.10946461 0.17308968
-0.022780383 0.069094926 -0.03134124 0.21473669 -0.020898988 0.103977524 0.039567217 0.13848478
0.09668127 0.095704846 0.20157458 0.21575426 -0.03074794 -0.07002278 0.059318166 0.143031
0.13248608 0.22053096 0.1482244 -0.0078838635 -0.03730358 0.15820418 0.23167351 0.019410297
-0.016987942 0.1133797 -0.050068844 0.022368457 -0.09674568 0.1335458 0.04010092 -0.016545314
-0.028048538 -0.0049971654 0.13140038 0.047620773 0.22456218 0.039348748 0.030990837 0.20580123
-0.071900755 0.0036404782 -0.034704804 0.22292043 0.15798265 0.014233632 -0.019367142 0.07990213
-0.019684374 0.06725649 0.01414628 0.012287862 0.09786379 0.194768 0.23104224 0.13736723
0.0073796357 0.19829102 0.18524654 0.17746535 0.053771347 0.079939514 0.16573532 0.15267809
0.20774442 0.038907878 0.19948274 0.034672562 0.07412062 0.044926766 0.06190533 0.21028806
0.22705649 0.14039205 -0.023094354 0.019541964 0.17471443 0.03989304 -0.02279805 0.12814385
-0.03673068 0.09112784 0.061953485 0.079300076 0.0446653 0.06570669 0.015978094 -0.0005493914
0.13256837 0.20676185 -0.017421927 -0.052889694 0.006691165 0.22109954 0.20400943 -0.058026332
0.11158658 0.101060346 0.19857788

bias f4 [3]
00000000: 197d a1bb df2b 143e f621 983c
-0.004928243 0.1446986 0.018570881

weight f4 [6, 3, 7, 7]
00000000: 6cee 113c 8288 c03d c5ea 513d 9a16 9a3d
00000010: 797f 2e3d 038d a6bc 0261 d03d efed d93d
00000020: 093a 033e f1d2 c93d 96e8 63bc 2702 38bc
00000030: 03f4 443d c3da 8e3d 8379 993c 60d4 103e
00000040: f0c4 123d 56d5 b53d 319b dbbb 106b ab3d
00000050: 03af ad3d 14a3 0b3e 6228 da3d a43d d43c
00000060: 70cf 163e 136a 563c 5039 eb3d dd4d 4c3c
00000070: a1a1 003e 2545 e23d a7a7 c93d 85db 2c3d
00000080: 7489 083e 2b6e 053e e846 103d a0bd 9e3d
00000090: 7956 013e 4362 2e3e 68cb 3f3e dd84 383e
000000a0: 45fc f13d 2f81 a63d 5c75 143d ca9a f43c
000000b0: 1b5f 0f3e 2180 253c be26 a33d 868c 0e3e
000000c0: eb7a 0fbc a075 24bd 1ceb 67bd 3e5a 9f3d
000000d0: 3c56 943d 6e67 923d 25b4 3a3c 7526 a4bc
000000e0: e0d9 bf3d bf81 87bc 618e 33bc b094 be3d
000000f0: f18f 243e d000 f4ba 6e56 9bbd 9e60 403d
00000100: 8295 283d 5b7e 8b3d 040f 963d 0ceb 713d
00000110: b2ac 96bc 443c 6c3c 4f39 b63d 7901 8d3d
00000120: 8304 8abc c1fc 623d abf4 693d 6d5d cebc
00000130: 10d8 803d 4e00 8b3d 04df f43d c540 ec3d
00000140: a224 4f3d 2d13 72bc ef00 bd3d 1b02 b63d
00000150: be7e e83d 0c54 dd3d 05d8 e93d 993b a43d
00000160: 9eac 9a3d 0815 db3d 82a2 52bd f847 843d
00000170: aab6 773d 8f13 b03d 9fc2 333d cf34 dd3d
00000180: 9fe2 b93d a6c5 d7bc 3f69 743d faad bb3d
00000190: 5f2c 4abc f68b 123d 4039 f43d 340e 863d
000001a0: b8cf bbbd 4f3f 793d d59b 16bb a73e 073e
000001b0: 2f20 c33c c20d 6c3d b127 233d 02b0 debc
000001c0: bbf3 093e dc67 933c cb68 b3bc 88c4 d73d
000001d0: b99c 423d 4b69 4c3d 6a99 b3bd 027f 9b3c
000001e0: 5642 003e e8bc d33d c632 8cbc 28a8 af3d
000001f0: 88e7 ed3c 84a8 88bd 8c87 1a3e 6911 543d
00000200: d17e 9b3d e74c 223e 043e 813d cda5 de3d
00000210: 9020 b53d b1b4 4d3d b404 f53d 0d7d fd3d
00000220: d37b 023e 08f7 0c3d 2b06 953d 8c91 3d3e
00000230: 7105 763d 9ebf 633d 49b1 db3c 14f3 c03d
00000240: 2fa1 133e 7f5e d63d 5b60 c73d 5651 fd3d
00000250: 394b 063e c52b 063e 3ded 763d 33c3 22bb
00000260: 554e 883d 36bf 013d 51c0 f23d 8dee cb3d
00000270: 8ed2 ab3d 0fdf b43d 080f e2bc 6f8a 803c
00000280: aa03 ce3d 6a2a 3a3d e574 a53d 5052 e63d
00000290: c4b0 dc3d f56c 973b 0757 bb3d 410b 9a3d
000002a0: 42bc b23d 62fb ff3d e454 e73d 0e26 45bc
000002b0: b819 aa3d 5579 2fbc 6291 e23d 4d05 acba
000002c0: b544 193e 437b 183c 8bdc c43d ca39 cb3d
000002d0: 2c5d a63d a99f 063e d6e1 b93d ccaa 28bc
000002e0: a78e d23b 7d7d 273e 1fb4 bd3d 8f72 783d
000002f0: 6608 813d c335 de3d c071 893d d2bb eb3d
00000300: bf69 163d 9394 d53d ab38 513d 5e01 0c3e
00000310: 5915 de3d bd13 a23d f783 083d 4e81 91bd
00000320: 35dc 7fbc c5a1 6bbd 76cd 7cbd 264a 903d
00000330: 6a12 1cbd d1ce 1f3c 9ca9 ecbc 355d 87bb
00000340: d762 103a 0316 3abd c5e7 b63d 3cfc 933d
00000350: 2f16 72bd fd3b a7bd 98fd 493d 703a 91bc
00000360: 2015 273d fcd1 1f3d eaf5 903c 3f4e d53c
00000370: 084c 67bc aff2 8b3d ae36 a83d 0d3d 703d
00000380: 3b20 943d ab28 56bb b4f1 cd3d 1913 e73d
00000390: 5e3c d73d 613f 583c 16f5 18bc 2076 893c
000003a0: 70a4 ed3c 7d38 953d 0c38 db3d 0409 073e
000003b0: 0674 073e 4103 f73c b0b0 e23d fcd9 e43c
000003c0: 017c f3ba 28b5 0ebd c342 f03d 7b57 673d
000003d0: f34e a53d ac89 e13c e468 303e 222e f93c
000003e0: aa2b b73d 8de6 473d dec2 fbbc 8268 093d
000003f0: 7c29 1c3e 4af5 b23d ff63 ba3d 50ac 8abb
0.008906942 0.09401037 0.051249284 0.07523842 0.042602036 -0.020330912 0.10174753 0.10641085
0.12815107 0.09854687 -0.013910433 -0.011230982 0.04808427 0.06975319 0.0187347 0.14143515
0.035832345 0.08878581 -0.00670185 0.0837003 0.084806465 0.13636428 0.10652234 0.025908299
0.14727569 0.0130868135 0.11485541 0.012469736 0.12561657 0.110483445 0.0984643 0.042201538
0.13333684 0.13030307 0.03522387 0.07751012 0.12630643 0.17029671 0.18729937 0.18019433
0.11815695 0.081301086 0.036244735 0.029858965 0.14001124 0.010101349 0.07966374 0.13920793
-0.008757333 -0.04015124 -0.056620702 0.07780884 0.072430104 0.07148634 0.011395489 -0.020037869
0.09367728 -0.01654136 -0.010959239 0.09305704 0.16070534 -0.0018615965 -0.075848445 0.04696714
0.041158207 0.0681121 0.07327083 0.05906205 -0.018392894 0.014418665 0.088976495 0.068850465
-0.016847854 0.055416826 0.0571181 -0.025191033 0.06291211 0.067871675 0.11956599 0.11535791
0.050572045 -0.01477508 0.09228694 0.0888712 0.11352299 0.10807046 0.114181556 0.0801918
0.07552455 0.10697371 -0.05142451 0.064590394 0.060476936 0.085974805 0.043886777 0.10801088
0.09076428 -0.026339363 0.059670683 0.09164043 -0.01233968 0.03577801 0.11924982 0.06545678
-0.091704786 0.06085139 -0.0022981067 0.13207494 0.023819057 0.057630308 0.039832775 -0.027183536
0.13471882 0.01799386 -0.021900555 0.10535532 0.047512744 0.049905103 -0.08769496 0.01898146
0.12525305 0.103387654 -0.017114054 0.08576995 0.029041067 -0.06672767 0.1509077 0.051774416
0.07592548 0.15849648 0.06310657 0.10871468 0.088441014 0.05022115 0.11963788 0.12377367
0.12742548 0.034415275 0.07276567 0.18512553 0.060063783 0.055602662 0.026817935 0.094213635
0.14416955 0.104672424 0.09735175 0.12369029 0.13114633 0.13102634 0.06028484 -0.0024835586
0.06655566 0.031676494 0.11853088 0.09957609 0.083897695 0.088316076 -0.027595058 0.01569101
0.100592926 0.045450605 0.080789365 0.112461686 0.10775903 0.004621143 0.091474585 0.07521678
0.087273136 0.12499119 0.112954885 -0.012032999 0.08305687 -0.01071008 0.11062886 -0.0013124138
0.14967616 0.009306732 0.09612378 0.09923132 0.0812324 0.13146843 0.09076278 -0.010294627
0.006425697 0.16356464 0.09262871 0.060656127 0.0630043 0.10850098 0.06711149 0.11510433
0.03672194 0.10428729 0.051079433 0.13672397 0.108439155 0.07913921 0.033328976 -0.07104741
-0.015616466 -0.057527322 -0.06171938 0.07045393 -0.0381035 0.009753899 -0.02888947 -0.004130984
0.00055078923 -0.04543115 0.08930925 0.07225844 -0.059103187 -0.08165739 0.04931411 -0.01772806
0.04079163 0.039018616 0.017695386 0.026038287 -0.014117248 0.068333976 0.08213554 0.058651973
0.0723271 -0.0032678049 0.10055867 0.112829395 0.10509561 0.013198704 -0.009335777 0.01677996
0.029009074 0.07286165 0.107040495 0.13187033 0.13227853 0.030152919 0.11068857 0.027935974
-0.0018576385 -0.034840733 0.11731484 0.056479912 0.08071699 0.027531467 0.17227513 0.030417506
0.08943875 0.048803855 -0.030732568 0.033546932 0.152502 0.087381914 0.09101104 -0.004231967

bias f4 [6]
00000000: 9ab5 233d b5c8 61bd a5d7 a83d 3655 07bd
00000010: 7675 123e 9e71 023e
0.03996811 -0.05512305 0.08244256 -0.033040248 0.1430262 0.12738654

weight f4 [10, 96]
00000000: 104f 343e 7d22 42bd c965 7a3d fe9f 313d
00000010: 18ea e53c 70f4 533d 4be4 3dbd 7dc9 2f3d
00000020: 79c4 abbc 8bda dfbc beb2 1a3d 0f67 e7bc
00000030: bc6d b1bb 8db2 b33d 85b4 52bd 0ec7 923b
00000040: 68bb 38bd b35a a0bd 31f7 8e3d a178 cc3d
00000050: 9524 5bbc c20e 51bc 4d14 17bd 3d7e 0c3d
00000060: 0c1a 033d e576 ccbc 7f12 833d a2ee aa3d
00000070: 384d 093d c305 faba 2fec f3bd cbfc 833d
00000080: 419e aabb dc5b 443d ef56 16bd 764d ed3d
00000090: 76e6 ce3d 4a8c 95bd 1c3b 8a3d f73f 6d3b
000000a0: 6d34 a63c 1893 f3bc cfef c13d a1e6 973d
000000b0: b8d3 f53d 7e34 be3d 1f6b 3e3d d0bf 8e3d
000000c0: a669 693e c69f 5e3e 18f6 7f3e f613 ab3d
000000d0: c8bf b83d d8bf 573e 9e20 843d b3ee 0b3e
000000e0: 7bbe 873e 2161 8f3e 7d95 603d 1e36 2a3e
000000f0: b4cb 1c3e ce01 613e 3dee 9d3d bcb2 9b3d
00000100: cb2f 033c b51d b43d d74f 8abc 3555 113e
00000110: b0a4 c43d b484 75bb 9f24 0a3e 0b5a e53d
00000120: e229 4a3d f66c fe3d e23d 553d 0bba 5cbc
00000130: 9367 d33d 48db 883d 1faf 943d 2f2a 213d
00000140: f321 b83d a7ed e53d 460e 183e 7a90 223e
00000150: 4cbf 9c3d 095a 1fbc 5ecc 2cbd 66fa bbbc
00000160: 6847 be3d b9db 9c3d 350b cc3d 4d1f c93d
00000170: 39cc 9cbc 5dc5 873d 0dbe 1c3d 34a6 26bd
00000180: 30a6 df3c 5dd9 04be f3fc 56bc 5cbd b03d
00000190: 5156 a63c 63ac 94bd 87a8 9e3d 1a4a 6e3d
000001a0: 4f29 aabd 81dc 9fbc 51fe b63d c858 423c
000001b0: 9673 78bd b5ef 48bd baf7 51bd c00c 86bd
000001c0: 5c9d 9c3d ba3e aebd 37f3 e7bc a744 3139
000001d0: 8fd4 abbc a758 b73d 9acf a2bd db1f 53bb
000001e0: 5204 a53d 05fd 51bc 54bd 00bb adbb b0bc
000001f0: 950f cebd 7b21 bfbd 1ca7 7fbd 929b babd
00000200: d9f2 1ebc 7511 a4bd d44d ce3c 21eb 313c
00000210: 208f 93bd a612 adbd 8b26 c33d 31dd 4a3d
00000220: d8bf b4bd b0b5 513d 4f9a af3b 7050 42bd
00000230: 35eb 9d3d 2ed6 2fbd c182 b73d 891b 5dbd
00000240: d3ea a5bd 9c45 0cbd 73a9 343d 47ec 283d
00000250: 1ae9 ad3c 7126 3a3d 8949 cdbd 4e35 713d
00000260: 0d51 9a3b 1b8b 5bbd bc37 873d d26b 193d
00000270: bda8 3cbd b5d2 39bd 5fe6 a7bd 0f42 6a3d
00000280: 98f8 c13c 5af1 c0bd 186b be3d f214 6f3d
00000290: ae31 1d3d 4b90 0cbd b482 db3c e931 4c3d
000002a0: 5a8a e93c 3272 ae3d 0350 61bd 4835 2cbd
000002b0: f5b0 323d 0c06 203c 617f b9bc bd2a ad3d
000002c0: f32c 3fbd 2573 a6ba 2c9a cfbd f85b d33c
000002d0: 513c 8cbd 72f4 7ebd d37d c4bd da11 1b3d
000002e0: d920 90bc 9428 c13d 3ea4 593d dbfb 053c
000002f0: 1ee8 a9bd 2edf 3cbd aa9f f73c ceda b73c
00000300: 7f31 b23d fc0f e6bd 3099 6ebd f388 333d
00000310: 9fb8 34bd 228b 76bd 4d74 8a3d d229 e63c
00000320: e77d 213d 6df8 6f3d acec 53bd cda6 143c
00000330: bf71 583d 25f7 8fbd bc7e 763d 7d6b dcbd
00000340: e7ee 083c c232 523d a9db c13c a88a 633d
00000350: 3753 49bd 7f5f b33d 1ff1 e8bc f09e 963d
00000360: 2d2a d7bb 35fa 24bd dd32 27bd 8b25 993d
00000370: 386c dfbc 9b26 a6ba d8fb 01bc 5aa7 c0bd
00000380: 9232 33bd 4b5d b53c 348e 623d 14f0 9ebc
00000390: ec21 cdbd ab0c debb a564 f9bc d088 a33d
000003a0: 3df1 92bd 9c74 c5bd 8ece 61bb 8658 a43d
000003b0: 4d8b 583d 0dce f9bc 4c1e 1c3d 404e 55bd
000003c0: 1cfb 4e3c aa21 cfbd a925 323d 3d22 aabd
000003d0: acf6 693d 54dd cd3d 20e6 493c 3b67 2c3d
000003e0: d45f 55bb 7e21 aebd c4c7 a73d dd3b 3ebd
000003f0: a51c 633d a724 bdbd 8a82 033d c1b1 823d
0.17608285 -0.04739617 0.061132226 0.04336547 0.028065726 0.051746786 -0.046360295 0.042916764
-0.020967709 -0.02732589 0.037768118 -0.028247384 -0.0054146927 0.0877429 -0.051441688 0.0044792956
-0.0451006 -0.078297995 0.06980742 0.09983946 -0.013375421 -0.012759866 -0.036884595 0.034300078
0.032007262 -0.024959037 0.06400012 0.08346297 0.033520907 -0.0019075203 -0.11910283 0.06444701
-0.0052068536 0.047939166 -0.036704 0.1158704 0.10102551 -0.07302149 0.067495555 0.0036201456
0.02028867 -0.029733226 0.09469568 0.07417036 0.12003273 0.09287356 0.046488877 0.06970179
0.22794208 0.21740636 0.24996221 0.083534166 0.09020954 0.21069276 0.06451534 0.13665275
0.26512513 0.2800379 0.054830063 0.16622207 0.15312082 0.21973345 0.07711456 0.0760245
0.008007 0.08794729 -0.016883774 0.1419266 0.09601724 -0.003746313 0.13490532 0.11198815
0.04935635 0.124231264 0.05206097 -0.0134720905 0.103224896 0.066824496 0.07259964 0.03934687
0.0899085 0.11226969 0.14849195 0.15875426 0.076536745 -0.009726056 -0.042187087 -0.022946548
0.092909634 0.07659096 0.09963075 0.09820423 -0.01914035 0.06629441 0.038267184 -0.040685847
0.027300924 -0.12973543 -0.013121831 0.086298674 0.02030483 -0.07259443 0.07746988 0.058176138
-0.0830866 -0.019514324 0.08935226 0.011861987 -0.060657106 -0.049056727 -0.05126164 -0.065454006
0.076472014 -0.08508058 -0.028314216 0.0001690561 -0.02097538 0.08952456 -0.07949753 -0.0032215032
0.08057465 -0.012816672 -0.0019644098 -0.021573866 -0.10061566 -0.09332558 -0.062415227 -0.09111704
-0.009701454 -0.08011142 0.025183596 0.010859282 -0.07205033 -0.084508225 0.09528836 0.04952735
-0.08825654 0.05119866 0.005358971 -0.047439992 0.07710878 -0.042928867 0.08960486 -0.053981338
-0.0810143 -0.034246072 0.044106912 0.041240957 0.021229316 0.045446817 -0.10023791 0.058888726
0.004709369 -0.05359946 0.06602427 0.03745634 -0.04605936 -0.04536696 -0.08198237 0.057191905
0.023678109 -0.09421034 0.0929777 0.058369584 0.038377456 -0.034317296 0.026795723 0.049852286
0.028508354 0.08517875 -0.055007946 -0.042043 0.04362579 0.009767067 -0.022643747 0.08455417
-0.046673726 -0.0012699111 -0.10136828 0.02580069 -0.06847442 -0.06224484 -0.095943116 0.03785882
-0.017593788 0.09431568 0.05313515 0.008177723 -0.08296226 -0.04611128 0.030227501 0.022443201
0.08700847 -0.112335175 -0.05825156 0.043831777 -0.04412138 -0.06019128 0.06760464 0.028096113
0.03942671 0.058586527 -0.05173938 0.0090729715 0.05284285 -0.07029561 0.060179457 -0.10762689
0.00835774 0.051317938 0.023664312 0.055552155 -0.049151625 0.08758449 -0.028435288 0.07354534
-0.006566307 -0.04027768 -0.04081999 0.07477864 -0.027273282 -0.00126763 -0.007933579 -0.0940692
-0.0437494 0.022139212 0.055311397 -0.019401588 -0.10016236 -0.0067764125 -0.030443499 0.07985079
-0.07174919 -0.09641382 -0.0034455392 0.08024697 0.052867223 -0.03049376 0.03811483 -0.05207658
0.012633111 -0.10113843 0.043492947 -0.08307312 0.05712001 0.100519806 0.0123229325 0.042090636
-0.0032558339 -0.08502482 0.08192399 -0.04644381 0.05544724 -0.092355065 0.032106914 0.0638156

bias f4 [10]
00000000: 6154 02bd a33f 1c3d 6a52 a3bd 5bee 1a3e
00000010: 5685 a9bd f78f 243d ef0c cc3c 1462 8f3d
00000020: b55c 59bd 31b4 9abc
-0.03181875 0.038146626 -0.079747036 0.15129988 -0.08277385 0.040176358 0.024908511 0.07001129
-0.053066928 -0.01888475
