Models_mario/Mario No Bias_exp1_DL_classifier.pth (torch, 12865 bytes, 6 tensors)

weight f4 [3, 1, 7, 7]
00000000: e648 ccbd 4779 753d e963 513e 9ca8 c13d
00000010: 36f4 983d ad33 44bd a1e0 4cbe fd0f 5f3e
00000020: 9cd4 043e 48e7 e9bc 0784 0b3e 3950 a2bd
00000030: 3f3c 8abd aa64 60bc c03c 8c3e 13ae 9d3e
00000040: 8a83 28bd aea0 febc 6d96 db3c 7462 66bd
00000050: beab 14be 4233 873e 62aa 523e 9dfe a7bb
00000060: 44e3 8b3d 4b42 0e3e 6809 4f3d 223a 4f3e
00000070: 05e2 313c c9e8 213d bb21 3bbe 23f8 01bc
00000080: 6a11 c5bd e9eb 3a3e 947c ebbc c2e0 c1bd
00000090: a4a9 123d 6678 c23d 86e3 763d e9b2 d23d
000000a0: d58e 633d 13b7 343e 07f0 a5bd 3c03 3fbe
000000b0: 29de c73d 46e2 eabc 7ff0 1d3c 300e 17be
000000c0: f11c fabc 34bb 46bd 998b c83e 4a66 ca3e
000000d0: e0e1 843e 9a5e 91bd bc33 d1bd 6231 02be
000000e0: 774b 2fbc e605 cf3d 2682 dd3d dedc fc3d
000000f0: fdb4 16be 2e77 3bbe 1dbb 3ebd a6f0 4bbe
00000100: 7855 dc3a e927 0cbe 7d61 063a b860 91bc
00000110: 84f7 673d aa4f a43c 7ffc e53d 69c7 02bd
00000120: ad5f 0bbe e098 09bd 5aa4 c23c a156 ef3d
00000130: 3fc9 c0bd 2449 31bb a843 9fbd 3b7b 09bd
00000140: 8af1 73bd 243b 13be 586b b7bd 8765 68bc
00000150: 5bf4 7b3e bec8 413e 48d0 0fbc ed70 1c3e
00000160: 7ef3 f73d 9b17 483d 815a 873e 0fdd d53e
00000170: 82f2 483e 05dc b63d f950 503e 41a3 ba3d
00000180: 5b5d 693c 26dc 4c3e 8db0 493e 9814 34bd
00000190: fb1f fabb d89f 323e 6483 7f3e a9fa 043e
000001a0: 78a6 2d3e db2f 9f3e 82d8 413e a895 553e
000001b0: 97b4 e33c 5eb4 2e3e aaed fe3d 0e79 c5bb
000001c0: ee49 3a3e b616 af3d dc6d f7bc 3569 1d3d
000001d0: 7afe f4bd 6e8f 6d3c 725d aabd 38e2 5e3e
000001e0: 2bda f7bb 8172 b1bb 7866 9fbd 56e8 91be
000001f0: 555c b6be e5b3 83be 1957 863e 32b5 7e3e
00000200: a6b1 8bbe b750 05bd 2715 dabe 98ad d3be
00000210: abbe bbbe df43 11be 5d4a 16be 2990 24be
00000220: 5692 81be fe78 b7be ad81 adbe 6a46 78be
00000230: c99d 26be efab e23c 23d2 c4bc 7d96 f9bd
00000240: 2782 83be 93f3 9ebe 8aca 5fbe
-0.09974842 0.059930112 0.20448269 0.09455988 0.074684545 -0.047900844 -0.20007564 0.21783443
0.12971729 -0.028552666 0.13624583 -0.079254575 -0.06749772 -0.013695875 0.273901 0.3079687
-0.04114107 -0.031082477 0.026805127 -0.056246236 -0.1451864 0.26406294 0.20572808 -0.005126788
0.06830457 0.13892476 0.05054608 0.2023702 0.01085711 0.03952864 -0.18274586 -0.007932696
-0.09622462 0.18254055 -0.028745927 -0.09466697 0.035806313 0.094956204 0.060275577 0.10288031
0.055556137 0.17647962 -0.08102422 -0.18653578 0.097591706 -0.028672349 0.009639858 -0.14751506
-0.030531378 -0.048518375 0.39169005 0.39531165 0.2595358 -0.07098122 -0.10214946 -0.1271415
-0.010699145 0.10108547 0.108158395 0.123468146 -0.14717479 -0.18307182 -0.046565164 -0.19916019
0.001681014 -0.136871 0.0005126221 -0.017746314 0.056632534 0.020057518 0.112298004 -0.031928454
-0.13610716 -0.03359306 0.02376001 0.11686445 -0.09413385 -0.0027051652 -0.07776576 -0.033564787
-0.05955652 -0.14378029 -0.08956021 -0.014184362 0.24604933 0.18924233 -0.008777685 0.15277453
0.12106989 0.048850637 0.26436237 0.41770217 0.1962376 0.08928684 0.20343389 0.091131695
0.014243449 0.20005855 0.19696255 -0.043964952 -0.007633207 0.17443788 0.24952465 0.12986244
0.16958034 0.31091198 0.18930247 0.2085787 0.027796073 0.17060992 0.124476746 -0.0060263937
0.18192264 0.08549254 -0.030203752 0.03843041 -0.119626 0.014499528 -0.083186045 0.21765983
-0.0075638494 -0.0054152613 -0.07783216 -0.2849757 -0.3561732 -0.25723186 0.26238325 0.24873808
-0.27283973 -0.03254768 -0.42594263 -0.4134338 -0.36668906 -0.14186047 -0.14676805 -0.16070618
-0.25306958 -0.35834497 -0.33887997 -0.24245611 -0.16271128 0.027669875 -0.024025982 -0.121869065
-0.25685236 -0.31045207 -0.21854606

bias f4 [3]
00000000: 3530 2dbe c34b 18be ce16 463e
-0.16912921 -0.14872651 0.19344637

weight f4 [6, 3, 7, 7]
00000000: de01 a7bc 5620 e2bd 4b4c bdbc 5936 5b3d
00000010: 744e 9ebd 7da1 713d 85f2 113e bbae febd
00000020: 26c9 e7bd 1d09 bf3c 5229 24bb 8598 e33d
00000030: dc7d d13d 84b8 103c 67d5 b5bd 635e 54bd
00000040: 45e6 1cbd af59 febb ac23 3c3e a25c 063c
00000050: a501 183e aa3b 3b3d fc76 e4bd 1734 e23c
00000060: 4827 4e3d e258 4e3d d582 40bd d645 e43d
00000070: 1022 12be 8d11 1fbd 8617 123c e102 343c
00000080: b015 a6bd 6add c3bd bbfb 1bbd 7105 2bbe
00000090: 4b44 70be bae0 48be 5c89 a5bd 509a 3abe
000000a0: ab6b ddbd e2be 56be 4f1a 3bbe 83ee 2cbd
000000b0: 18d7 f9bc 79aa 31bd f8df 19be 152a 3cbe
000000c0: 7312 f8bd 01dd 9c3d 1275 5dbb d2c9 03bd
000000d0: d79c 673e 5b8c d93b fac6 23bc cf90 813d
000000e0: fdf5 303e ce0d ea3c c1c4 a73d 2318 7b3d
000000f0: b2e4 153e 18fe 0d3e 880e 873d c6e8 793c
00000100: d814 17be 5c20 2ebe 0702 043d 27e3 e6bc
00000110: 462c ccbd 0d40 07bd bfa6 d6bc d9d4 68be
00000120: 6d4d f13c 4ead 2ebd 3ce5 07bd 2425 5cbd
00000130: 338f e73d 9615 8c3a 2530 08bd 3495 153c
00000140: 857d d33c 6db8 cbbd defa 37bd e85a d6bd
00000150: 1f40 75be e005 91be 9619 8abe 2044 77be
00000160: 249d 36be 3d23 50bc 892f 0dbe 58f5 c5bd
00000170: 87bd 87bb 7834 cb3b 641e 8ebe ac42 60be
00000180: 3843 01bb 4316 8ebe ec72 993e cc38 223e
00000190: 0c3c 923d 12fd adbd 56f4 973e 052d 113e
000001a0: 7ccf cd3e a5b6 74bd 2b69 57be 1a6a bcbc
000001b0: 0c77 bc3c db0c 743e cdf5 cbbc 7fb5 c93e
000001c0: 33ea 01bd 76ec 3ebe 5109 403e c9e4 283e
000001d0: 5c58 513e 23c5 5e3e 03ec d93e 9bc8 383e
000001e0: 8e61 363e 4740 f83e 60c2 c83e f2b3 ac3e
000001f0: 86e6 f43e bcb3 893e 380e 243e 00fd a63d
00000200: 4739 b43e d118 de3e 1197 d63e 5d47 0a3f
00000210: 8f2d ba3e c40e 1d3e 04a9 8a3d cc3c 303e
00000220: ca45 be3d 5d53 15bc e965 553e daad 3f3e
00000230: 9ed0 9c3d 35e4 623d da9f 26bb 66ea 0a3e
00000240: 520b dcbb 9eb9 c03d 9917 cf3d 8764 f23c
00000250: ac5d 383d d962 f6bd dc1e 193c ec9a 11bc
00000260: 1b35 aa3d 0bbb ed3d 64ef 8d3d 6e12 a7be
00000270: a6ed d33c c7fe 1c3e aee2 88be 9e0e 65bd
00000280: 5295 f33d 6bc2 dfbd 954a 213d aea7 9cbd
00000290: 1301 8ebd 29f5 b4bd 85ba 183d 8a44 d03d
000002a0: 1473 bebd eaed d33d 994c dcbe a237 1c3e
000002b0: b457 023e f1ef acbc b8d2 0ebd 0b6b 34be
000002c0: 4108 d2be 430e 22bd 3ab1 e83c 311f 473c
000002d0: 83f1 9dbe e88b 3d3e 1726 d7be 20ab b3bc
000002e0: 948d 5e3e f864 9b3e 6936 b4bd 4d57 93bb
000002f0: dd49 4d3d 22b4 39bd fb47 5d3c cfb7 e73e
00000300: 550f eb3e 377e 713e d3f0 eb3d 04de 02be
00000310: 1993 d7bd 1767 bfbe c144 bc3d be05 a03e
00000320: ae47 3dbe c362 493e 8236 313e 4e70 5f3e
00000330: 90b9 013f 99df c1be 765d 32bd 6445 043e
00000340: 5115 4dbc 674c a5bc 88e6 21be 1d9c d0bd
00000350: c838 a2bc 39c1 e3bd e4c4 9abe 83d5 3d3e
00000360: f9d8 25be 957a a6be d7e4 34bf 34c5 63be
00000370: 3133 31be 6957 31be a8df dfbd dc34 9b3e
00000380: b8f2 0b3f c499 fdbe 3bf6 01bc cb3d 053f
00000390: d6ac a63e ea8e 03bf 50c4 653e d2bc f13d
000003a0: 8fc7 203e 5d73 3a3e b822 58bb 750b 54be
000003b0: 869f bebd ccdf 3ebd 8ae2 ecbe 9bdf 17bd
000003c0: ab43 ef3d ab57 ce3d 4601 1ebe 85d4 18be
000003d0: df5f a23d 4729 5d3e ce39 563e 119f a3be
000003e0: f40d 88bd d5b3 1abe 1eec a3be a3ca e9bc
000003f0: e6c0 123d abde 85bd f340 2d3e a659 bebc
-0.020386633 -0.11041324 -0.023107668 0.053518627 -0.077298075 0.058991898 0.1425267 -0.12435671
-0.11317663 0.023319775 -0.0025049043 0.11113075 0.10229084 0.008833054 -0.08878594 -0.051847827
-0.03830554 -0.007762156 0.18372983 0.008200796 0.14844377 0.045711197 -0.11155507 0.027612729
0.05033043 0.050377734 -0.04699977 0.11146133 -0.14270806 -0.038835097 0.008916741 0.0109870145
-0.08109605 -0.09563716 -0.038081866 -0.16701294 -0.23463552 -0.19616976 -0.0808284 -0.18222928
-0.10811552 -0.20971254 -0.18271755 -0.04221965 -0.030498073 -0.043375466 -0.15026844 -0.18375428
-0.12112894 0.07659341 -0.0033791703 -0.032174893 0.22618423 0.006639046 -0.00999617 0.06326448
0.17281337 0.028571036 0.08191825 0.061302315 0.14638022 0.1386646 0.065945685 0.015253251
-0.14754045 -0.17004532 0.032228496 -0.028184487 -0.09969382 -0.033020068 -0.026202558 -0.22737445
0.029455865 -0.042645745 -0.0331776 -0.053746358 0.1130661 0.0010687585 -0.03324904 0.009129811
0.025816688 -0.09947286 -0.04491698 -0.10466558 -0.23950242 -0.28324795 -0.26972646 -0.24147081
-0.17833382 -0.012703714 -0.13787664 -0.09665936 -0.0041424665 0.006201323 -0.2775756 -0.21900433
-0.0019723903 -0.2775136 0.2997049 0.15841979 0.07140359 -0.08495535 0.296786 0.1417733
0.4019736 -0.059744496 -0.21036212 -0.022999812 0.023005985 0.23833029 -0.02489748 0.39396283
-0.03171749 -0.1864489 0.18753554 0.16493525 0.20443863 0.21754889 0.42562875 0.18045275
0.17810652 0.4848654 0.39210796 0.33731037 0.47832125 0.2689494 0.16021049 0.08153725
0.3519995 0.43378308 0.4191213 0.5401514 0.36362883 0.15337664 0.067705184 0.17210692
0.09290655 -0.009114114 0.20839657 0.18718663 0.07656978 0.055393416 -0.0025424869 0.13565978
-0.0067152167 0.09410404 0.10111923 0.02958895 0.045011207 -0.120305724 0.009345736 -0.008887034
0.0831091 0.11607941 0.06930426 -0.32631248 0.025870156 0.15331565 -0.26735443 -0.055922143
0.11893715 -0.10925754 0.039377768 -0.0764917 -0.06933799 -0.08835823 0.037287254 0.10169323
-0.09299293 0.10348113 -0.4302719 0.15255597 0.12728769 -0.021110507 -0.034868926 -0.17618959
-0.41021922 -0.039564382 0.02840482 0.012153433 -0.3084832 0.18510401 -0.42021248 -0.021932185
0.21733695 0.3035047 -0.087994404 -0.004496491 0.05011927 -0.045337804 0.013505931 0.45257422
0.45910135 0.23583303 0.11520543 -0.12780005 -0.105261035 -0.3738334 0.09192801 0.3125438
-0.18484375 0.19666581 0.1730595 0.21820185 0.5067377 -0.37865904 -0.043546163 0.12917095
-0.012517289 -0.020178033 -0.15810597 -0.10186026 -0.019802466 -0.11120839 -0.3022834 0.1853848
-0.1619605 -0.32515398 -0.7066168 -0.22243196 -0.17304684 -0.173185 -0.10931331 0.30313766
0.54667234 -0.49531376 -0.007932241 0.52047414 0.32553738 -0.51389945 0.22438169 0.11803593
0.15701126 0.1820807 -0.0032979678 -0.20707496 -0.093077704 -0.046600148 -0.46266586 -0.03707848
0.116828285 0.10075315 -0.15430173 -0.1492482 0.07928442 0.21597777 0.20920488 -0.31957296
-0.06643286 -0.15107663 -0.3201608 -0.028539008 0.035828494 -0.06536611 0.16919307 -0.023236107

bias f4 [6]
00000000: cbd9 ab3c 8de9 b63e 31b4 99bd d101 fe3d
00000010: c6a4 273e e9b1 763e
0.020977875 0.3572506 -0.07505072 0.1240269 0.1637145 0.24091305

weight f4 [10, 96]
00000000: 8c4b 4b3e 1ec7 8d3e 6aef 823e 14c6 293e
00000010: 512d a13b 8d1c 873e b71b 093e 6572 cf3d
00000020: ba39 433e 99af a23d d612 793d 7eea 32be
00000030: 6bd7 043d 132a 433d 34bd ec3d c14f b8bd
00000040: a660 4d3d 7934 183f 54ed b4bd 6afe 1fbd
00000050: 30a2 1a3e 22ec 67bb 3419 f1bd e7cd a3be
00000060: 049b 263e 9137 6e3e 69ff 4e3e f4da 60be
00000070: d619 ca3d c323 c9bd 4e25 80be d52c a2be
00000080: 4878 7c3e 7650 173e 303f a63e e408 b33e
00000090: 339b a43d e8e0 923e 2fe1 543e 1e2f 9dbd
000000a0: 232a 7cbd 0541 593d 074d 38bd e744 f4be
000000b0: 070d c73d 936b 013e 2596 bd3d 0bb0 89bd
000000c0: e8c5 62bd c893 1c3e 1923 563d 841b 383e
000000d0: bfb5 82bd b0f6 66bd a3a4 c5bb 92a8 e03e
000000e0: 6c75 ef3d ed6e a7be 6fc4 65be e670 b73d
000000f0: 2f40 74be 4814 9fbe a1fb c1be 68a9 7dbc
00000100: cdbd 863e a4d4 143e b2bf 443e 620a 1bbe
00000110: 44fa 69bf 9350 7f3e b306 823e 9b4c 363d
00000120: 6135 403e 293b c83e e323 70bd 9ee4 93bd
00000130: f6ad b3bd 5063 763e 2d10 7e3e 873e ac3e
00000140: c472 c93e adf5 603e af35 a53e 3cbd 253e
00000150: a4ab 793d 2e37 07be 5bed b6bd 7f5c a9bd
00000160: 1541 ca3d a692 9e3d 1928 69bd 535d 03bd
00000170: 2ce1 c43d b1de b83c 209d 463e 2744 bbbc
00000180: 2008 713d f81c afbc f7c1 0ebd 5c8a 7a3d
00000190: dc43 1ebd da6e 5cbe 5e81 75bd da39 77bd
000001a0: 14a0 80bd 45c7 adba 9a6e 77be e9a4 8c3c
000001b0: 4b8a d63d cbff 98bd 1ca5 92bc a7a7 b13d
000001c0: 636c a5be 5eec 373f bf55 d6bd 4a56 023e
000001d0: d429 3b3e db83 0c3c 1d4b 2b3e 3b0a 493e
000001e0: 2ea3 133e ef2b 203e 2a17 893d c3bc 593e
000001f0: 21d2 213e 5835 103e b76c 56ba 997b 3a3f
00000200: ef0c 013e f8d9 4dbe af69 14bb 1963 98be
00000210: fc3d 37be b97f 7dbe 3d6c 64be c7db ebbd
00000220: e45f 753e 4a2f 8dbd 7668 093c 8404 fcbd
00000230: 2363 a5bd b20c efbd e435 20be 13ce 303e
00000240: c680 583d a7f0 6c3e 73a7 e0bd 33f1 a9bd
00000250: e210 863e 1519 893e de36 d5bb 5756 5f3e
00000260: dc53 653d 347d 4cbe 7863 d73d 5c0a 003e
00000270: e5e6 8dbd b458 74bd 1571 733d 8aa6 543e
00000280: 035c 073f 602f a03e 5058 1fbe 6c79 cf3e
00000290: 8d5c b5bd 4767 da3e f4cc 5c3b 450e 8c3e
000002a0: 0a7b c5bc ddde a23e 183a 74bd a4ef 41be
000002b0: 5750 5d3e 39f8 e13c d81c 2c3f 8aec 55be
000002c0: ca5b 023f 4ff2 6b3c fa8d f43d fdda ca3e
000002d0: 8ff1 c6be 0302 043f 08f7 76be 2d35 823e
000002e0: ede5 053d bd24 63bd 05ef b53d 8ea2 35bd
000002f0: d388 413e 3194 03be b2fa 1ebe 314a a13d
00000300: 9aac d4bd 4907 373d 4452 673d f981 bbbd
00000310: ac1e 5c3d 880f 26bd 6ae2 e8bb af06 55bd
00000320: 054f 6c3d 3485 85bc 61bf c0bc 113f 91bd
00000330: 2585 543d ff1a 83bb b2b0 dbbc 6395 3e3d
00000340: b856 f93c 37de 7fbb a0f6 c23c 5b52 79bb
00000350: 12c0 a13d 3e3d a9bd 0ecc a0bd 06f9 a0bd
00000360: ec32 793d 3291 a03b f728 323d a48c adbc
00000370: e813 253d 83ca b8bd 4a1f 583d 9968 d3bd
00000380: cbde abbd 0409 bcbc cfde d1bc de33 30bc
00000390: 6245 9dbd 57f0 943d 1e2b a93d 6d17 adbd
000003a0: 370a a53d d552 953d 280f abbc 3d2a 5c3d
000003b0: 789c e6bd 7430 53bd ed02 cfbd 49d0 f5bd
000003c0: 6019 d73c efa8 83bd e183 63bd 1c2b ba3c
000003d0: 0a98 92bd 0660 0f3d dc94 633d defa 5cbc
000003e0: d850 ac3d 27b0 1dbc 4d03 01bd 8ebe 03bd
000003f0: 93a1 973c 3ac9 693d 6bda 34bc e7c9 aa3d
0.19853038 0.27690977 0.25573283 0.16579467 0.004918732 0.2638897 0.13389479 0.10129241
0.1906499 0.07943649 0.06080898 -0.17472264 0.032432 0.047647547 0.11559525 -0.08999587
0.050141 0.59455067 -0.08834329 -0.039060988 0.15100932 -0.003538855 -0.11772385 -0.3199303
0.16270071 0.23263384 0.20214619 -0.21958524 0.09868209 -0.09821274 -0.2502846 -0.3167483
0.24655259 0.14776787 0.32470083 0.3496772 0.080374144 0.28687215 0.20789026 -0.076750025
-0.061563622 0.053040523 -0.044995334 -0.47708818 0.09719282 0.12638693 0.092571534 -0.06723031
-0.05536452 0.15290749 0.052279565 0.17979246 -0.063823216 -0.056387603 -0.006031589 0.4387861
0.11692318 -0.32701817 -0.22438215 0.089570805 -0.23852609 -0.3107016 -0.3788729 -0.015482284
0.26316682 0.14534241 0.19213751 -0.1514068 -0.913975 0.2493308 0.25395736 0.04450665
0.18770362 0.39107636 -0.058627974 -0.0722134 -0.08773415 0.24061322 0.24810858 0.33641455
0.39345372 0.21968718 0.3226752 0.16185468 0.060954705 -0.13204643 -0.08931991 -0.08269595
0.09875695 0.07742815 -0.056923006 -0.032071423 0.096132606 0.022567125 0.19395876 -0.022859646
0.05884564 -0.021376118 -0.034852948 0.061167106 -0.038638934 -0.21526662 -0.059937827 -0.060357906
-0.062805325 -0.001325824 -0.24163285 0.017168479 0.10475596 -0.07470664 -0.017900996 0.08674555
-0.32309255 0.7184504 -0.104655735 0.12728229 0.18277675 0.008576359 0.16727872 0.19632809
0.14417717 0.1564176 0.06693871 0.21263413 0.15802814 0.14082849 -0.0008179652 0.72844845
0.1260259 -0.2010268 -0.0022646 -0.29763106 -0.17894739 -0.24755754 -0.22306915 -0.115165286
0.2396236 -0.06893785 0.008386722 -0.12305549 -0.080755495 -0.11672343 -0.15645558 0.17266111
0.052857183 0.23138677 -0.109694384 -0.08297958 0.26184756 0.2677695 -0.006506785 0.2181028
0.055988178 -0.19969636 0.10517019 0.12503952 -0.06928805 -0.059654906 0.059434015 0.20766655
0.52874774 0.31286144 -0.15561032 0.40522325 -0.08855543 0.4265692 0.0033691498 0.27354637
-0.024106521 0.31810656 -0.059625715 -0.18939072 0.21612678 0.027584182 0.6723151 -0.20891014
0.5092131 0.014401033 0.119411424 0.396202 -0.3885617 0.5156557 -0.24117672 0.25431195
0.032689977 -0.05545496 0.0888348 -0.044344477 0.1889985 -0.128495 -0.1552532 0.07875479
-0.10384484 0.044684682 0.05647494 -0.0915565 0.05374019 -0.040542156 -0.007107069 -0.052008327
0.057692546 -0.016298868 -0.023528757 -0.07092107 0.05188479 -0.004001021 -0.026817653 0.046529185
0.030436859 -0.0039042362 0.02379924 -0.0038043472 0.07897963 -0.08263634 -0.0785142 -0.078599975
0.06083958 0.004900121 0.0434961 -0.021185227 0.040302187 -0.09023001 0.052764215 -0.10322685
-0.08392104 -0.022953518 -0.025618939 -0.010754554 -0.07679249 0.07272404 0.08260177 -0.08451734
0.08058589 0.072911896 -0.02088125 0.05375122 -0.11260313 -0.05155988 -0.1010798 -0.12002618
0.026257217 -0.06428706 -0.05554569 0.022725634 -0.071579054 0.035003684 0.055561885 -0.013487546
0.08413857 -0.0096245175 -0.03149729 -0.03216415 0.018509662 0.05707667 -0.011038403 0.08339291

bias f4 [10]
00000000: fad6 5a3d 8943 923e d4c2 ccbd 278c 3abd
00000010: 9cfc d8bc 696b 173d 2ce4 933d 967e 1abe
00000020: 53c9 87bd 5aec 063c
0.053427674 0.2856715 -0.09998098 -0.045543816 -0.026487641 0.03696767 0.07221255 -0.15087351
-0.066301964 0.008235062
