Models_mario/Mario No Bias_exp0_DL_temporal.pth (torch, 137648 bytes, 10 tensors)

weight_ih_l0 f4 [200, 10]
0	0x3ce5a2ab	0.028031668
1	0xbdec1937	-0.11528247
2	0x3d1d87fd	0.038459767
3	0x3f148007	0.58007854
4	0x3ecc88fa	0.39948255
5	0x3d6a685b	0.057228427
6	0xbb3ec72e	-0.002911042
7	0xbe471cc3	-0.19444565
8	0x3df33d4c	0.11876926
9	0xbe462670	-0.193506
10	0x3ea90c38	0.33017135
11	0x3eb4bfb5	0.3530251
12	0x3e101433	0.14070205
13	0xbdd167a3	-0.10224845
14	0x3e06a1c3	0.13147645
15	0x3e31eae8	0.17374766
16	0x3e7a4204	0.24439245
17	0x3e88457c	0.26615512
18	0x3e9a1689	0.30095318
19	0x3f46e5c8	0.7769437
20	0x3d8cd27e	0.06876086
21	0x3df99e38	0.12188381
22	0x3e4996e3	0.19686465
23	0x3dcb0c6d	0.099144794
24	0x3e5be681	0.21474649
25	0xbdb80e86	-0.08987145
26	0x3d66cb76	0.05634638
27	0x3d481e6d	0.04885714
28	0xbc0f72e3	-0.0087554185
29	0x3e8517dd	0.2599477
30	0xbd01d0a7	-0.031693127
31	0x3d521f1e	0.051299207
32	0x3e56d85d	0.20980974
33	0x3ef3f968	0.4765122
34	0x3e755751	0.2395909
35	0xbd889460	-0.06668925
36	0xbb22ad32	-0.002482247
37	0xbc8927df	-0.016742645
38	0xbe82f7ef	-0.25579783
39	0x3e4516c9	0.19246973
40	0x3cbebb4e	0.023282673
41	0xbe0e5d6d	-0.13902827
42	0x3d4ee0b7	0.050507274
43	0x3ee043f6	0.4380185
44	0x3e200f38	0.15630805
45	0x3dd25b8b	0.10271367
46	0xbdde5c21	-0.10857416
47	0x3e0edf35	0.13952334
48	0x3eb846cc	0.35991514
49	0xbe699db7	-0.2281407
50	0x3bd1c5f0	0.00640177
51	0xbdbc8abb	-0.09206148
52	0x3eca7ffe	0.39550775
53	0x3c07a22a	0.008278409
54	0xbe7961bb	-0.24353687
55	0x3d288ee2	0.04115189
56	0x3e434df0	0.190727
57	0x3ea7bf9a	0.32763368
58	0x3ea2fee1	0.31835082
59	0x3f641d1c	0.8910692
60	0xbdbe9a85	-0.09306816
61	0xbd5c3d65	-0.053769488
62	0xbc16c5df	-0.00920245
63	0x3ebc025a	0.36720544
64	0xbe5b6594	-0.21425468
65	0xbda3f75a	-0.08006163
66	0xbe44f791	-0.19235064
67	0xbdbdb876	-0.09263699
68	0xbcbc1189	-0.02295758
69	0xbea11d44	-0.3146764
70	0xbdb946f9	-0.0904674
71	0xbdf197e6	-0.117965505
72	0x3f19dad1	0.6009951
73	0x3ee353bf	0.4439983
74	0xbe2fbb8f	-0.17161392
75	0x3e2c6ab7	0.16837583
76	0x3d97be4c	0.07409343
77	0x3e60d1fa	0.219551
78	0x3d84cf1d	0.06484816
79	0x3ef2f614	0.47453368
80	0x3d9162a2	0.07098891
81	0xbe022227	-0.1270834
82	0x3dfed8bf	0.12443685
83	0x3ddc7532	0.10764541
84	0x3da0b884	0.078476936
85	0x3d954d7f	0.07290172
86	0xbcf01b3b	-0.02930986
87	0x3c1cd5c1	0.009572447
88	0x3e39cb0f	0.18143867
89	0x3e256690	0.16152406
90	0x3c00789c	0.0078412555
91	0xbc967861	-0.018367948
92	0x3dc89468	0.09793931
93	0xbe603a7e	-0.21897313
94	0x3e220b38	0.15824592
95	0xbe060d7f	-0.13091086
96	0x3dcb36ed	0.09922586
97	0x3dde7113	0.10861411
98	0x3dbbe750	0.09174979
99	0x3eb60277	0.35548756
100	0xbd271fd0	-0.040801823
101	0x3d51eac9	0.0512493
102	0xbdb54e38	-0.0885281
103	0x3e690dcc	0.2275917
104	0xbdbab5ad	-0.09116683
105	0xbe1eb6ad	-0.15499373
106	0xbe05f35a	-0.13081113
107	0x3da359e8	0.07976133
108	0xbda8815c	-0.08227798
109	0x3e52e03e	0.20593354
110	0xbdb3f5a5	-0.08787087
111	0x3d2b5af4	0.041834787
112	0x3d17a956	0.037026726
113	0x3f02831f	0.50981325
114	0xbe1356c4	-0.14388567
115	0xbd69fc20	-0.05712521
116	0xbce1f4ac	-0.027582489
117	0x39e54902	0.0004373268
118	0xbe144694	-0.14480048
119	0xbea6c3af	-0.3257117
120	0x3d73a7ad	0.05948608
121	0xbd0b3f67	-0.033996012
122	0x3ea11c1d	0.3146676
123	0x3d4b7493	0.04967172
124	0x3e30e09e	0.17273185
125	0xbd36b1e4	-0.044603243
126	0x3dbcd916	0.09221093
127	0x3ecf8ca9	0.40537003
128	0x3ea6164f	0.32438895
129	0xbe2b4e59	-0.16729106
130	0x3de86397	0.1134712
131	0xbb977363	-0.0046219095
132	0xbe936324	-0.28786576
133	0x3f07ed3f	0.53096384
134	0x3e83f3e0	0.25772
135	0x3b197723	0.0023416958
136	0x3df5e643	0.120068096
137	0xbf185b2e	-0.5951413
138	0xbec95276	-0.39320725
139	0x3f1a231c	0.6020982
140	0x3d82d016	0.063873455
141	0xbe02286f	-0.12710737
142	0xbcccb093	-0.02498654
143	0x3f0e5c0a	0.5560919
144	0x3b6ad083	0.003582985
145	0x3d045da2	0.032315858
146	0x3cacc8a8	0.021091774
147	0xbe94398c	-0.28950155
148	0xbcd7b3aa	-0.026330788
149	0xbe98a9ef	-0.2981715
150	0x3dcfc8dd	0.101457335
151	0xbe0a0765	-0.13479383
152	0x3ea54593	0.32279643
153	0x3eb760c1	0.35816005
154	0x3e1c28c3	0.15249924
155	0x3dc54793	0.09632792
156	0x3d9fd316	0.07803933
157	0x3e761271	0.24030472
158	0xbd97e63e	-0.07416962
159	0x3f40d429	0.7532373
160	0x3dca632a	0.09882195
161	0x3bc89c49	0.0061221463
162	0x39fe0a8a	0.00048454507
163	0x3eb99a15	0.36250368
164	0x3c08323d	0.008312759
165	0x3e7c468d	0.24636288
166	0x3e119eb6	0.142207
167	0x3df0aff5	0.11752311
168	0x3c42afc4	0.011882726
169	0xbe9ff167	-0.31238863
170	0xbe2c20b3	-0.16809349
171	0xbccfa029	-0.025344925
172	0xbdc6abde	-0.0970075
173	0x3dc4d094	0.096100956
174	0xbe354a6f	-0.17704175
175	0xbe833dbb	-0.25633034
176	0xbda7bb14	-0.08189979
177	0x3caa2497	0.0207694
178	0xbdc0ca73	-0.09413614
179	0x3eb42d18	0.35190654
180	0xbe02948d	-0.1275198
181	0xbe665bbb	-0.2249593
182	0xbebe2974	-0.37141
183	0x3ee590cd	0.44837037
184	0x3eaba5bb	0.3352488
185	0xbd80dbca	-0.062919214
186	0xbde38435	-0.11109201
187	0x3ca9017b	0.020630589
188	0x3da6f622	0.08152415
189	0xbde57365	-0.112036504
190	0xbd80f154	-0.0629603
191	0xbd41ac48	-0.04728344
192	0x3e10f2fb	0.1415519
193	0xbd94e968	-0.07271081
194	0xbdffdb1a	-0.12492962
195	0xbdb8da77	-0.09026044
196	0xbdeea151	-0.116518624
197	0xbcc45e30	-0.023970693
198	0x3d5f1fa9	0.054473553
199	0x3ee47242	0.44618422
200	0x3d77f63f	0.060537573
201	0x3d869bd8	0.065726936
202	0x3d8777fe	0.066146836
203	0xbe2ec1dd	-0.1706614
204	0xbe851e99	-0.25999907
205	0xbd893957	-0.0670039
206	0xbd1cbc47	-0.038265493
207	0x3dbd404d	0.0924078
208	0xbd8cb612	-0.06870665
209	0x3f1f5663	0.6224119
210	0xbd97b476	-0.07407467
211	0x3c4e5643	0.012593809
212	0x3c486ad5	0.012232502
213	0x3e52d579	0.20589246
214	0x3d9b99cb	0.07597693
215	0x3e5cbe34	0.21556932
216	0x3b6a1648	0.0035718847
217	0x3de13aa9	0.10997517
218	0x3e3e4c72	0.18583849
219	0xbe3b3628	-0.18282378
220	0xbd361014	-0.044448927
221	0xbdc6fc60	-0.097161055
222	0x3e1121ad	0.14173003
223	0xbe1309cf	-0.1435921
224	0x3d6c8f4b	0.057753842
225	0xbde1083c	-0.10987899
226	0xbd8e244f	-0.06940519
227	0x3db544b9	0.088509984
228	0xbe22e140	-0.15906239
229	0xbc39ab77	-0.011332384
230	0x3e1a1fa5	0.15051134
231	0x3e9cb28a	0.30604964
232	0x3edd5718	0.4323051
233	0x3e71955c	0.23592132
234	0x3e9bbef9	0.30419138
235	0x3e9c9258	0.305804
236	0x3eb0c43e	0.3452472
237	0x3f1cade0	0.6120281
238	0x3f1129ef	0.5670461
239	0x3f1364f5	0.57575923
240	0xbccf5410	-0.025308639
241	0xbdc12f06	-0.09432797
242	0x3e16380c	0.14669818
243	0x3e8b5bcd	0.27218476
244	0xbe065f31	-0.1312225
245	0x3bf59630	0.0074947104
246	0x3ddb7ffe	0.10717772
247	0x3cb1fcf8	0.02172707
248	0x3d1c4718	0.038153738
249	0xbeba183c	-0.36346614
250	0xbdb5391c	-0.088487834
251	0xbcae3ab0	-0.021268219
252	0x3e76e32e	0.241101
253	0x3e7914b8	0.2432431
254	0x3f045a33	0.51700133
255	0xbc3c15d8	-0.011479817

weight_hh_l0 f4 [200, 50]
0	0x3e2799fd	0.16367336
1	0xbecffcdb	-0.406226
2	0x3c982683	0.018573051
3	0xbe241445	-0.16023357
4	0x3da0a16f	0.07843291
5	0x3e843b13	0.2582632
6	0x3f2f2047	0.68408626
7	0x3e851c87	0.25998327
8	0x3e95b2e8	0.29238057
9	0xbe49c430	-0.19703746
10	0xbeb55d6f	-0.35422847
11	0x3f221bc1	0.633236
12	0xbe20f1e4	-0.15717274
13	0xbe552ff8	-0.2081908
14	0x3f21cc74	0.63202596
15	0xbe1960e1	-0.14978363
16	0xbf1c8cc5	-0.611523
17	0xbea29ef3	-0.31761894
18	0x3e50ba98	0.2038368
19	0x3e74f871	0.23922898
20	0x3efbcacd	0.49178162
21	0xbd9e5b0f	-0.07732212
22	0xbdfef261	-0.12448574
23	0xbd5e7488	-0.05431035
24	0x3f338826	0.7012962
25	0xbe9039c8	-0.28169084
26	0xbede9f19	-0.43480757
27	0xbeaafda6	-0.33396643
28	0x3dcc4955	0.099749245
29	0xbe1cdd1b	-0.1531872
30	0x3c925d64	0.017866798
31	0xbe1baf6d	-0.15203638
32	0x3ec36f90	0.38171053
33	0xbe8bb2ce	-0.27284855
34	0xbf0e5e3c	-0.5561254
35	0xbc1e7a90	-0.009672776
36	0x3d139858	0.03603396
37	0x3e7b066f	0.24514173
38	0x3f3f09bd	0.74624234
39	0xbec3f0e1	-0.38269714
40	0x3ed2c935	0.41169134
41	0x3e5a672b	0.21328418
42	0x3e4b7f61	0.1987281
43	0xbe55619b	-0.20838015
44	0xbf016e6a	-0.50559103
45	0xbe577285	-0.2103978
46	0xbd93843d	-0.07202957
47	0xbe49403e	-0.19653413
48	0x3e317455	0.17329533
49	0x3e925156	0.2857768
50	0x3df108dc	0.11769268
51	0xbe22ca8c	-0.15897578
52	0x3e61437d	0.21998401
53	0xbd2380e4	-0.03991784
54	0xbd57790b	-0.05260567
55	0x3d8662d2	0.06561817
56	0x3e5cfff4	0.21582013
57	0x3ecf92ce	0.4054169
58	0x3cc80b4a	0.024419446
59	0xbd79a66b	-0.060949724
60	0xbe6103a2	-0.21974042
61	0x3e907f7c	0.28222263
62	0xbe30e4e1	-0.1727481
63	0xbd168a13	-0.03675277
64	0x3e2f44e5	0.17116125
65	0xbe56698a	-0.20938697
66	0xbe617bd4	-0.22019893
67	0xbe642de3	-0.2228313
68	0xbd1951db	-0.03743158
69	0x3e51b26e	0.20478222
70	0x3e09e9cf	0.13468097
71	0xbceb65d6	-0.028735083
72	0xbdba50a3	-0.090974115
73	0xbd2e2a7b	-0.04252098
74	0x3e0575f6	0.1303328
75	0xbe559f00	-0.20861435
76	0xbd741179	-0.059586976
77	0xbe275825	-0.16342218
78	0x3de1f8cc	0.11033782
79	0xbd8f2d32	-0.06991042
80	0xbaa965ae	-0.001292398
81	0x3d85426f	0.06506812
82	0x3cf9351c	0.030420832
83	0xbd84c4cf	-0.06482851
84	0xbd23d66e	-0.039999418
85	0x3d7d6337	0.061862197
86	0xbdd13571	-0.10215271
87	0x3d89a7ca	0.06721456
88	0x3dc46389	0.09589297
89	0xbe29c628	-0.16579497
90	0x3cc46e43	0.023978358
91	0xbddb339f	-0.10703205
92	0xbcf84036	-0.030304056
93	0xbe67d379	-0.22639264
94	0xbe9d21f7	-0.30689976
95	0x3da9cf47	0.08291488
96	0xbd11005a	-0.035400726
97	0xbe2b856f	-0.1675012
98	0x3d86c053	0.06579652
99	0x3e8ba401	0.27273563
100	0x3bf2e98a	0.007413094
101	0xbe742da2	-0.23845533
102	0x3c6cd9d0	0.014456227
103	0x3d536723	0.05161203
104	0x3d4d1e84	0.05007793
105	0xbd67a805	-0.05655672
106	0x3d67406c	0.05645792
107	0x3e4a6c0e	0.19767782
108	0xbb374a9e	-0.002796806
109	0x3dcf65a5	0.10126809
110	0x3be84977	0.007088836
111	0xbd010410	-0.031498015
112	0x3d0689ce	0.032846265
113	0x3de37dcc	0.11107978
114	0x3cc1b70f	0.02364686
115	0x3c174ade	0.009234158
116	0xbe183350	-0.14863324
117	0xbd9036c3	-0.07041695
118	0x3d80d3d8	0.06290406
119	0x3e03b42f	0.12861703
120	0xbdcae8f4	-0.099077135
121	0xbbfbf163	-0.0076886876
122	0xbdb598bb	-0.08867022
123	0x3de6644f	0.11249601
124	0x3c90ba29	0.017666893
125	0xbe02a2ac	-0.12757367
126	0x3cb9e201	0.022690775
127	0xbde11867	-0.109909825
128	0xbdb0130a	-0.085973814
129	0xbe5fa7f5	-0.21841414
130	0xbdd89f1c	-0.10577223
131	0xbdf42379	-0.11920828
132	0xbdb62b1a	-0.0889494
133	0x3d68da4d	0.056848813
134	0xbe213e7d	-0.15746494
135	0x3e393c90	0.18089509
136	0xbd06380c	-0.032768294
137	0x3dfbef3b	0.12301489
138	0x3b04289f	0.0020165814
139	0xbd115f95	-0.035491545
140	0xbd05f025	-0.032699723
141	0x3d493508	0.04912284
142	0x3d46f805	0.048576374
143	0xbdb37191	-0.087618954
144	0xbe43eddc	-0.19133705
145	0xbd2c6933	-0.042092513
146	0x3dbfb60e	0.09360896
147	0x3dcf61bc	0.10126063
148	0x3da8b2dd	0.082372405
149	0xb991cd5c	-0.0002780956
150	0x3e8e1de0	0.27757168
151	0xbeb422d4	-0.35182822
152	0x3d93ded5	0.07220236
153	0x3db0e8a1	0.086381204
154	0xbdb814ec	-0.089883655
155	0xbdc89d94	-0.09795681
156	0x3e881b72	0.2658344
157	0x3ea416fc	0.32048786
158	0x3d957553	0.072977684
159	0xbe01629c	-0.12635273
160	0xbebcfb16	-0.36910313
161	0x3ec3540d	0.38150063
162	0xbe41cae9	-0.1892506
163	0x3e4f78e2	0.20260957
164	0x3ebcd2d1	0.3687959
165	0xbdd79ced	-0.10527978
166	0xbe76b7cc	-0.2409355
167	0xbebe79fd	-0.37202445
168	0x3e3075b1	0.17232396
169	0x3ea51757	0.3224437
170	0x3e64f220	0.22357988
171	0xbc13e070	-0.009025678
172	0xbe9f354e	-0.31095356
173	0xbdc8253a	-0.097727254
174	0x3e99d6e7	0.3004677
175	0xbdc19aad	-0.0945333
176	0xbe22efad	-0.15911742
177	0xbeaf8864	-0.34283745
178	0x3d86a0ff	0.06573676
179	0xbcd79dee	-0.026320424
180	0xbe542685	-0.20717819
181	0xbe7e4843	-0.24832253
182	0x3e4f1e5e	0.20226428
183	0xbd395aeb	-0.04525272
184	0xbe1cfba5	-0.1533037
185	0x3d851f1e	0.06500076
186	0x3e5372a8	0.20649207
187	0x3e89cc33	0.26913604
188	0x3eb2d817	0.34930488
189	0xbef16cce	-0.47153324
190	0x3e3433fb	0.17597954
191	0x3e60b6b6	0.21944699
192	0xbb920b3d	-0.004456906
193	0xbe401500	-0.18758011
194	0xbe149c1c	-0.14512676
195	0xbe90716b	-0.2821153
196	0xbc810f79	-0.015754448
197	0xbd962af9	-0.07332415
198	0x3e6a811e	0.22900817
199	0x3e46c71f	0.19411896
200	0x3e128bd9	0.1431116
201	0xbecf5611	-0.4049535
202	0x3d112e53	0.03544457
203	0x3dac9794	0.08427349
204	0x3e8b3747	0.2719061
205	0x3db35da2	0.087580934
206	0x3e463892	0.19357517
207	0xbe0eb2d3	-0.13935404
208	0x3e35b074	0.17743093
209	0xbee40b71	-0.4453998
210	0xbec5672c	-0.38555276
211	0x3ed90b2d	0.4239134
212	0xbe4e347e	-0.20137212
213	0xbf2408da	-0.64076006
214	0x3e8a6ce5	0.27036205
215	0x3e94dde2	0.29075533
216	0xbef2fb2b	-0.4745725
217	0xbec71691	-0.38884404
218	0xbe1658e8	-0.14682353
219	0x3ec95d37	0.3932893
220	0x3f1e9fe0	0.619627
221	0xbe70d355	-0.23518117
222	0xbdf7761e	-0.12083076
223	0xbe0439f8	-0.12912738
224	0x3eabe940	0.33576393
225	0xbe6b498f	-0.22977279
226	0xbdd8958f	-0.10575401
227	0xbeba36c6	-0.36369914
228	0x3e485d1c	0.19566768
229	0xbef855af	-0.4850287
230	0x3dd96268	0.10614473
231	0x3e85ae78	0.26109672
232	0x3e07c3ca	0.13258281
233	0xbdf1c000	-0.11804199
234	0xbeccbf36	-0.39989632
235	0xbd644a38	-0.055734843
236	0x3e2e12ac	0.1699931
237	0x3ed1a78c	0.4094814
238	0x3ee0e308	0.4392321
239	0xbec6e5c6	-0.38847178
240	0x3e9dc946	0.30817622
241	0x3ca10c79	0.019659268
242	0x3d413a89	0.047174964
243	0xbf3b8a20	-0.7325764
244	0xbea397cb	-0.31951746
245	0xbe52e21a	-0.20594063
246	0xbd8f4837	-0.06996196
247	0xbe7dc7f2	-0.24783304
248	0x3ecc7ecf	0.39940497
249	0x3e2911d1	0.16510703
250	0x3d56c311	0.052432124
251	0xbedcc139	-0.43116167
252	0x3cf966cd	0.030444527
253	0x3e613f68	0.21996844
254	0xbbec0740	-0.0072030127
255	0x3e319678	0.17342556

bias_ih_l0 f4 [200]
0	0x3dd7e906	0.105424926
1	0x3e9664ef	0.2937388
2	0x3e98f170	0.29871702
3	0x3e8f8ba0	0.28036213
4	0x3e4349b7	0.19071089
5	0x3e8d7b3d	0.27633086
6	0x3ce4dfe1	0.027938785
7	0x3e0e4069	0.13891758
8	0x3df7f467	0.12107163
9	0xbcb741e1	-0.02237028
10	0x3e1318e0	0.14364958
11	0x3dbeb352	0.093115464
12	0x3d4c9607	0.049947765
13	0x3f3181ef	0.6933889
14	0x3e2ba0c5	0.16760547
15	0x3f07444d	0.52838594
16	0xbd1f8018	-0.03894052
17	0x3e63dd87	0.22252475
18	0x3e7824a6	0.2423273
19	0x3dddd3d5	0.108314194
20	0x3ea2ea47	0.31819364
21	0x3e90a0ab	0.2824758
22	0x3d5d2828	0.053993374
23	0x3f0cbb25	0.5497306
24	0x3df71411	0.12064374
25	0x3dfc8044	0.12329152
26	0x3d4056fd	0.04695796
27	0x3ded1f5f	0.11578249
28	0x3cae6068	0.021286204
29	0x3ebe9461	0.3722258
30	0x3c89d4fd	0.016825194
31	0x3e3b263b	0.18276303
32	0x3e2a35f4	0.16622144
33	0xbd7d395a	-0.061822273
34	0x3d50af9c	0.050948724
35	0xbc81abea	-0.015829045
36	0x3ec27ae2	0.37984377
37	0x3e59dbcf	0.21275257
38	0x3da76064	0.08172682
39	0x3da15069	0.07876665
40	0xbbc66757	-0.0060547995
41	0x3e621637	0.22078787
42	0xbca99226	-0.020699572
43	0x3ea68cc7	0.3252928
44	0x3df031e9	0.117282696
45	0x3dae9f54	0.08526483
46	0xbd0e5e10	-0.034757674
47	0x3d1af31c	0.037829503
48	0x3dd28d91	0.10280908
49	0x3d3b8a61	0.045786265
50	0x3d3ac79a	0.04560051
51	0x3d8351a2	0.064120546
52	0x3de96205	0.11395649
53	0xbd7b3559	-0.061330173
54	0x3d442b1f	0.047892686
55	0x3e0261d3	0.1273263
56	0xbd0f3553	-0.034962963
57	0xbe869f96	-0.2629363
58	0xbd92f798	-0.07176131
59	0xbda8d89e	-0.082444414
60	0x3d06ef9b	0.03294335
61	0xbd3368b5	-0.04380103
62	0x3bf48ff5	0.00746345
63	0xbe92d4a9	-0.28677872
64	0xbe09218d	-0.13391705
65	0xbe83b757	-0.25725815
66	0xbdbf11af	-0.09329545
67	0x3e2ae666	0.16689453
68	0x3d3dbd28	0.04632297
69	0x3e5469b0	0.20743442
70	0x3d9c46de	0.07630704
71	0xbd90b383	-0.07065489
72	0x3e4178b1	0.18893696
73	0xbd25c102	-0.04046727
74	0x3e0ea61c	0.13930553
75	0x3dee7717	0.11643808
76	0x3de8bc4e	0.11364041
77	0x3e306a30	0.17228007
78	0xbdda49e8	-0.10658628
79	0xbe39fb88	-0.18162358
80	0x3e02d951	0.12778212
81	0xbe3a18fc	-0.18173593
82	0xbdabb737	-0.08384555
83	0xbda42bb9	-0.08016152
84	0x3e5ccbf0	0.21562171
85	0x3d501b70	0.050807416
86	0x3c468c4e	0.012118412
87	0x3e143aff	0.1447563
88	0x3d755bad	0.059901882
89	0x3b2b4f47	0.0026139782
90	0x3e498ab5	0.19681819
91	0xbe523a24	-0.20529991
92	0x3e391d83	0.18077664
93	0x3d0c064c	0.034185693
94	0xbd6b9b4c	-0.05752115
95	0x3dd10ddc	0.102077216
96	0xbcd3fef0	-0.0258784
97	0xbc3148a4	-0.0108205415
98	0x3d7d39a0	0.061822534
99	0x3deb7683	0.11497214
100	0xbcb24ec7	-0.02176608
101	0xbea0cc9d	-0.31406108
102	0x3d0a8bf5	0.03382488
103	0x3d4c6186	0.049897693
104	0xbd74ee24	-0.05979742
105	0xbe13c7cf	-0.1443169
106	0xbdf8ad55	-0.121424355
107	0x3d5741e0	0.052553058
108	0xbcd1ab1c	-0.025594287
109	0xbde8b684	-0.11362937
110	0xbde1b5d8	-0.11021012
111	0x3d5c919f	0.053849813
112	0xbe0bf344	-0.13667017
113	0x3d1fc52a	0.03900639
114	0x3dc799fc	0.09746167
115	0x3daf53ce	0.08560906
116	0xbd07380b	-0.03301243
117	0x3d8818ac	0.06645331
118	0xbd960c9b	-0.07326623
119	0x3d92768a	0.07151516
120	0xbdaebb09	-0.08531768
121	0x3db221da	0.08697863
122	0xbd42b1e8	-0.047532946
123	0xbe1e98ad	-0.15487929
124	0xbd86ef64	-0.06588629
125	0xbdf5498e	-0.1197692
126	0xbd94b1a8	-0.07260448
127	0x3dc7f015	0.09762589
128	0x3d62b596	0.055348955
129	0xbd08ad91	-0.03336865
130	0xbd41660c	-0.04721646
131	0x3e30df3c	0.17272657
132	0x3d6cb61c	0.05779086
133	0x3d9e9b6d	0.07744489
134	0xbcc11f79	-0.023574578
135	0x3c31e5ef	0.010858043
136	0x3d9386c4	0.07203439
137	0xbd74c3a4	-0.05975689
138	0x3bd46cd9	0.006482702
139	0x3c05f67a	0.00817644
140	0xbd928935	-0.071550764
141	0x3e2437c1	0.16036893
142	0x3db85077	0.089997225
143	0x3d3babec	0.045818254
144	0xbb8a2fa4	-0.004217105
145	0xbd8acaf1	-0.06776989
146	0x3d64ec3e	0.05588936
147	0xbb89a693	-0.0042007654
148	0x3e235f68	0.15954363
149	0x3d02dabe	0.03194689
150	0x3e9f1ecf	0.31078193
151	0x3dece6ea	0.11567481
152	0x3e3fe76b	0.18740623
153	0x3e9973d8	0.29971194
154	0x3ebe22e0	0.37135983
155	0x3e3e92f6	0.18610749
156	0x3e2d8684	0.16945845
157	0x3ef529e4	0.47883523
158	0x3b19c41f	0.0023462845
159	0x3e37fdfa	0.17967978
160	0x3d80f5ff	0.0629692
161	0xbd91fd31	-0.071283706
162	0x3e51cf09	0.20489134
163	0x3f62d187	0.88600963
164	0xbdb906ff	-0.090345375
165	0x3f40fe4f	0.75388044
166	0x3cc31ed7	0.023818417
167	0x3dadad9e	0.084803805
168	0x3e5872ed	0.2113759
169	0xbd2efc0c	-0.04272084
170	0xbcb0f7d8	-0.021602556
171	0x3e373f70	0.17895293
172	0x3d9b0137	0.07568591
173	0x3f102768	0.5631013
174	0x3dca1a50	0.098683
175	0x3e6aecac	0.22941846
176	0xbcd05197	-0.02542953
177	0x3e51f296	0.20502695
178	0x3e136a20	0.14395952
179	0x3ddc24ad	0.10749183
180	0x3d51184d	0.051048566
181	0x3e84ef52	0.25963837
182	0x3d147d8f	0.036252555
183	0x3dd37d4f	0.10326635
184	0x3c2a301d	0.010387448
185	0xbe2461fb	-0.16053002
186	0x3f0dbcd1	0.55366236
187	0x3d9bb014	0.076019436
188	0x3de7a507	0.11310773
189	0x3bcb13ec	0.006197443
190	0x3e0da53f	0.13832568
191	0x3ede8d98	0.43467402
192	0x3e19a8b7	0.15005766
193	0x3eadb84e	0.33929676
194	0x3d6d5a4c	0.057947442
195	0x3ca18cbb	0.019720426
196	0x3d9e1b38	0.07720035
197	0x3d7009ee	0.05860322
198	0x3cd5f21b	0.026116421
199	0xbcedf125	-0.02904565

bias_hh_l0 f4 [200]
0	0x3e9a2581	0.30106738
1	0x3ee5ac67	0.44858095
2	0x3dbeef8d	0.093230344
3	0x3d958256	0.0730025
4	0x3d1d25da	0.038366176
5	0x3ecd516d	0.40101185
6	0x3b836d91	0.004010864
7	0x3e747da6	0.23876056
8	0x3e57c77a	0.21072188
9	0x3ce48fbe	0.027900573
10	0x3e1f7d57	0.15575157
11	0x3d2c200a	0.042022742
12	0x3e444104	0.19165426
13	0x3f0111ae	0.504176
14	0x3cd71c1b	0.026258519
15	0x3f1e112b	0.61744946
16	0x3e2bb4fe	0.16768262
17	0x3e3ad895	0.18246682
18	0x3ec4db2b	0.38448462
19	0x3d0e8c91	0.034802023
20	0x3e8024dc	0.2502812
21	0x3ea155e3	0.3151084
22	0x3db22c27	0.08699828
23	0x3eab1ea4	0.33421814
24	0x3e20c566	0.15700302
25	0x3e81e7a6	0.25372046
26	0x3d623167	0.055222895
27	0x3e108744	0.141141
28	0xbd85fe2a	-0.065426186
29	0x3e3d333e	0.18476579
30	0x3d8cbf38	0.068724096
31	0x3eae6e28	0.34068418
32	0x3c90f6e3	0.01769585
33	0x3e2458b0	0.16049457
34	0x3e4a56a5	0.19759615
35	0x3ccdf05f	0.025139032
36	0x3eb6d9e2	0.35713106
37	0x3e37013a	0.17871562
38	0xbd43e3ea	-0.047824778
39	0x3d14264d	0.03616934
40	0x3e2f2f5d	0.17107911
41	0x3ed46888	0.41486
42	0xbd853d8d	-0.065058805
43	0x3eb38234	0.35060275
44	0x3c75e2c5	0.015007679
45	0x3e296dfa	0.16545859
46	0x3df25f30	0.11834562
47	0x3da1cccf	0.07900392
48	0x3e27d47a	0.16389647
49	0xbd206960	-0.039162993
50	0x3c5aad8f	0.013347044
51	0x3e4b7f28	0.19872725
52	0x3e25cc42	0.161912
53	0xbe0ceb14	-0.1376155
54	0xbe13b554	-0.1442464
55	0x3d6eae01	0.05827141
56	0x3e1ad125	0.15118845
57	0xbe129902	-0.1431618
58	0x3c6eefd2	0.014583545
59	0x3da7d427	0.08194762
60	0x3dddcf7d	0.10830591
61	0xbdea96ac	-0.1145452
62	0x3c687782	0.014188649
63	0xbe7a004f	-0.2441418
64	0xbe1640af	-0.14673112
65	0xbe911bec	-0.28341615
66	0x3cafa65b	0.02144163
67	0x3e445114	0.19171554
68	0xbda72610	-0.08161557
69	0xbd3d4185	-0.046205062
70	0x3e35da6a	0.177591
71	0x3dca34e8	0.09873372
72	0xbccfc090	-0.025360376
73	0xbe091ea5	-0.13390596
74	0x3dd02fa0	0.10165334
75	0x3e1dc782	0.15408137
76	0x3de89020	0.11355615
77	0x3cc92165	0.024552057
78	0xbd9c21a5	-0.07623605
79	0xbe30b83d	-0.17257781
80	0x3b4120a0	0.002946891
81	0xbe412e85	-0.18865402
82	0xbdc35062	-0.09536816
83	0x3e0011d5	0.12506802
84	0xbd59201f	-0.05300915
85	0x3cbcee62	0.023062889
86	0x3da39d25	0.07988957
87	0x3d1295dd	0.035787452
88	0x3de8cc59	0.11367101
89	0x3d4db71e	0.050223462
90	0x3bf88cdc	0.007585151
91	0xbd2a876c	-0.041633055
92	0xbd17152d	-0.03688543
93	0xbba781e9	-0.005111922
94	0x3d03838c	0.032107875
95	0x3d24af4a	0.04020623
96	0x3d66d432	0.05635471
97	0x3e4c69ba	0.19962206
98	0x3d2407ba	0.04004643
99	0x3e16b11f	0.14716004
100	0xbc802cb8	-0.015646324
101	0xbe477db2	-0.19481543
102	0xbcc77b28	-0.024350718
103	0x3d00a5c0	0.03140807
104	0x3df67958	0.12034863
105	0xbdc5dede	-0.09661649
106	0x3dadb81c	0.08482382
107	0xbcb84d34	-0.02249775
108	0x3ced746f	0.028986184
109	0x3a2b9507	0.0006545339
110	0x3dc4d9fb	0.09611889
111	0xbd25b72a	-0.040457882
112	0xbdec2cb5	-0.11531965
113	0x3d5ef0e4	0.05442895
114	0x3e04585a	0.12924328
115	0x3c29430c	0.010330927
116	0x3d631886	0.05544331
117	0xbe0a5de6	-0.13512382
118	0xbdce3f8d	-0.10070715
119	0x3d305d14	0.043057516
120	0x3e3f02b5	0.18653376
121	0xbe32c161	-0.1745658
122	0x3cfe052c	0.031008326
123	0xbdf0afb8	-0.11752266
124	0xbd0bb39f	-0.034106847
125	0x3a6ccead	0.00090334826
126	0xba7d3072	-0.0009658403
127	0xbd2802e2	-0.041018374
128	0x3d448a5a	0.047983505
129	0xbe04cdff	-0.12969206
130	0xbd5d2ff1	-0.0540008
131	0xbd139c9c	-0.036038026
132	0x3d8586da	0.065198615
133	0xbdcce018	-0.1000368
134	0x3d58c607	0.05292323
135	0xbcea3841	-0.028591277
136	0xbe013630	-0.12618327
137	0x3e0f652b	0.14003436
138	0x3cebb4a8	0.028772667
139	0xbdb70ca4	-0.08937958
140	0x3df7893e	0.12086724
141	0xbdae7316	-0.08518045
142	0x3c0adb3f	0.008475124
143	0xbc1624a7	-0.009164012
144	0xbd13bd68	-0.036069304
145	0x3bb8bcd0	0.0056377426
146	0xbb17703a	-0.0023107664
147	0xbc8b8f2c	-0.017036043
148	0x3c3873c2	0.011258068
149	0xbd0697ed	-0.03285973
150	0x3da119fc	0.07866284
151	0x3e80aa80	0.2513008
152	0x3e85273e	0.26006502
153	0x3dc2f4b1	0.095193274
154	0x3e839711	0.25701192
155	0x3ed24fd6	0.41076535
156	0x3dc60962	0.096697584
157	0x3eda8588	0.4268
158	0xbd7e61a7	-0.062104847
159	0x3dd607aa	0.104506806
160	0xb9c2b039	-0.0003713386
161	0x3d446b90	0.047954142
162	0x3d938963	0.07203939
163	0x3f5fec09	0.87469536
164	0x3ca0673a	0.019580472
165	0x3f513594	0.8172238
166	0x3e2b9110	0.16754556
167	0x3daaf486	0.083474204
168	0x3ed2ee7f	0.41197583
169	0x3d1cfc0a	0.0383263
170	0x3e08043c	0.13282865
171	0x3e0b8857	0.13626228
172	0x3c8f7c32	0.017515276
173	0x3f03b224	0.51443696
174	0x3d681d7d	0.056668747
175	0x3e609e3a	0.21935359
176	0x3dc2e413	0.09516158
177	0x3d2a2d26	0.041546963
178	0x3dbb781f	0.09153771
179	0x3dd1738c	0.10227117
180	0x3d40d7a1	0.04708064
181	0x3ed5d8cd	0.41766968
182	0x3d99ccd5	0.07509772
183	0xbd540e7d	-0.05177163
184	0x3e3b6004	0.18298346
185	0xbe26040b	-0.1621248
186	0x3ecc27b5	0.39874044
187	0x3e304de4	0.17217213
188	0x3d55c084	0.05218555
189	0x3e5b0538	0.2138871
190	0xbb4cec27	-0.0031268687
191	0x3e9d72ed	0.30751744
192	0xbd9986b9	-0.074963994
193	0x3d9e6665	0.07734374
194	0x3d97b9e5	0.074085034
195	0x3c7f2097	0.015571735
196	0x3e26631f	0.16248749
197	0x3d4847b2	0.0488965
198	0x3e5a65c9	0.2132789
199	0x3d82af02	0.06381036

weight_ih_l1 f4 [200, 50]
0	0x3dc344f5	0.09534637
1	0xbf91be5a	-1.1386216
2	0xbeaea1b8	-0.34107757
3	0x3ee5341d	0.44766322
4	0x3eb34926	0.35016745
5	0x3e3776e8	0.17916453
6	0x3f2a1565	0.66438895
7	0xbdf0c687	-0.11756616
8	0x3f659ac3	0.8968927
9	0xbf2b9005	-0.6701663
10	0xbf3a3a54	-0.7274525
11	0x3f453d45	0.77046615
12	0xbf3fb1b9	-0.7488056
13	0xbf219fe1	-0.6313458
14	0x3f695d4c	0.91157985
15	0x3f02be15	0.5107129
16	0xbf06bc33	-0.5263092
17	0xbf5e3228	-0.8679528
18	0xbe9b8872	-0.30377537
19	0x3f87c16e	1.0605905
20	0x3f77e4a8	0.96833277
21	0xbed98390	-0.42483187
22	0xbf1775ce	-0.5916413
23	0xbe4333b7	-0.19062696
24	0x3f0d9f73	0.55321425
25	0xbea62f43	-0.32457933
26	0xbf22edf9	-0.6364437
27	0xbf28305f	-0.6569881
28	0x3f5cd4c3	0.8626215
29	0xbf74d1ea	-0.95632803
30	0xbd8c4b24	-0.068502694
31	0x3f19e479	0.60114247
32	0x3f037f0c	0.51365733
33	0xbf170337	-0.5898928
34	0xbf1b2531	-0.60603625
35	0xbe1e7f0b	-0.1547815
36	0x3e9295ad	0.2862982
37	0x3f5bd88e	0.8587731
38	0x3f458f00	0.77171326
39	0xbf7f40c1	-0.9970818
40	0x3f320b6a	0.69548666
41	0x3f11b369	0.56914383
42	0x3f386bfb	0.72039765
43	0xbf3a4561	-0.72762114
44	0xbf3b15a8	-0.7307992
45	0xbef9ba80	-0.487751
46	0x3e052a9c	0.13004535
47	0xbec7b5ec	-0.39005983
48	0x3f6b2ad2	0.91862214
49	0x3f3060b4	0.6889756
50	0x3e1f2cf3	0.1554449
51	0xbddbaaa2	-0.10725905
52	0xbf0ccf1f	-0.5500354
53	0x3f1f0149	0.62111336
54	0x3cb12354	0.021623291
55	0xbe2161a1	-0.15759899
56	0xbe1f04f9	-0.1552924
57	0xbec28b25	-0.37996784
58	0x3e2bf69d	0.16793294
59	0xbf09a5b8	-0.5376849
60	0xbecf7a25	-0.40522876
61	0x3dc2ea97	0.09517401
62	0xbf039360	-0.5139675
63	0x3d4e9bcc	0.05044155
64	0x3d230255	0.039797146
65	0x3e8b1e98	0.2717178
66	0x3e25622a	0.16150728
67	0xbea65398	-0.32485652
68	0xbe1989fb	-0.14994042
69	0x3e9c51a7	0.30531046
70	0x3e2c035e	0.1679816
71	0xbb1261d1	-0.0022336135
72	0xbef17b43	-0.47164354
73	0xbda34a73	-0.079731844
74	0xbe22f463	-0.15913539
75	0x3f0132bf	0.5046806
76	0xbe8c676c	-0.27422655
77	0xbea3eb37	-0.32015392
78	0x3f05c721	0.5225697
79	0xbf08a606	-0.5337833
80	0xbece75cb	-0.40324244
81	0x3ea632f0	0.32460737
82	0xbea03b36	-0.31295174
83	0xbf37640e	-0.71637046
84	0xbdf20a74	-0.118184
85	0xbed430ea	-0.41443568
86	0xbd1a78ad	-0.03771274
87	0x3ee6e8ad	0.45099393
88	0x3e24f352	0.16108444
89	0xbdf5a755	-0.11994807
90	0x3ee88615	0.45414796
91	0x3f0514c7	0.5198483
92	0x3f0cdec7	0.5502743
93	0xbe652ee1	-0.22381164
94	0x3d254921	0.040352944
95	0xbeee639d	-0.46560374
96	0x3e1a8d4a	0.1509296
97	0xbefd6a0d	-0.49494973
98	0x3f1af396	0.6052793
99	0x3dbac4d3	0.091195725
100	0x3caa0c91	0.020757945
101	0xbe08400b	-0.1330568
102	0xbeb0aacf	-0.34505317
103	0x3e0b614f	0.13611339
104	0xbd93fb71	-0.07225693
105	0x3ee09c17	0.43869087
106	0x3df3316d	0.118746616
107	0xbf1c81d8	-0.61135626
108	0x3ec0dd84	0.37669003
109	0xbed78d41	-0.42099956
110	0xbe4042dd	-0.18775506
111	0xbd9d52ae	-0.076817855
112	0xbc88e461	-0.016710462
113	0xbe0f6883	-0.14004712
114	0x3dc004fd	0.093759514
115	0x3ec6e884	0.3884927
116	0xbe128413	-0.14308195
117	0xbea56716	-0.3230521
118	0xbd16f50e	-0.036854796
119	0x3ee1f5c1	0.44132808
120	0x3f146743	0.57970065
121	0x3d98c9b1	0.074603446
122	0xbe9c02e2	-0.3047095
123	0x3ea5ec1c	0.324067
124	0x3d6f2cc2	0.058392294
125	0x3e804dcd	0.25059357
126	0xbe97bd1c	-0.29636467
127	0xbe902fef	-0.2816157
128	0x3e85b6ea	0.26116115
129	0xbebfe135	-0.37476507
130	0x3e196237	0.14978872
131	0x3e86cb1b	0.26326832
132	0xbea00927	-0.31256983
133	0x3c3b6817	0.011438391
134	0xbdd639b0	-0.10460222
135	0x3dde019e	0.10840152
136	0x3e81f226	0.25380057
137	0x3e26afa6	0.16277942
138	0x3e97c16a	0.2963975
139	0xbe6ac3c5	-0.22926243
140	0x3e6a7210	0.22895074
141	0x3f1bda5d	0.6088007
142	0x3e5450d1	0.20733954
143	0xbf05eead	-0.52317315
144	0xbd93d408	-0.07218176
145	0xbd92fb29	-0.07176811
146	0x3d930a8a	0.071797445
147	0xbe61a717	-0.22036396
148	0x3e6bc823	0.23025565
149	0x3ddb93c3	0.10721543
150	0x3e936d5d	0.28794375
151	0xbe0b1bca	-0.1358482
152	0xbe877076	-0.26452988
153	0x3e8d723e	0.27626222
154	0xbd9e51c9	-0.07730443
155	0x3e1b50ad	0.15167494
156	0x3e9c3bab	0.30514273
157	0xbdcd6a12	-0.10029997
158	0x3eea445a	0.45755273
159	0xbe8d19c3	-0.27558717
160	0xbeb10271	-0.34572175
161	0x3ee171fa	0.4403227
162	0xbe35d430	-0.17756724
163	0x3f53974d	0.8265274
164	0x3f03b978	0.5145488
165	0xbe244c85	-0.16044815
166	0xbe094c1f	-0.13407944
167	0xbeb0ab6d	-0.34505787
168	0x3ec44c40	0.38339424
169	0x3ebeca42	0.37263685
170	0x3e72f628	0.23726714
171	0xbe17e182	-0.14832118
172	0xbe96d45f	-0.294589
173	0x3de10764	0.10987738
174	0x3ef6dc9a	0.4821518
175	0xbe4f18f2	-0.2022436
176	0xbe605b05	-0.21909721
177	0xbe50ec9d	-0.20402761
178	0x3ebc0f94	0.36730635
179	0xbea68260	-0.32521343
180	0xbdc1ca55	-0.0946242
181	0xbea734d0	-0.3265748
182	0xbd8d5327	-0.06900626
183	0xbef86ea1	-0.48521903
184	0xbea7e089	-0.32788494
185	0x3dd63b00	0.10460472
186	0x3f18a50b	0.59626836
187	0x3ed56f83	0.4168664
188	0x3edefe02	0.43553168
189	0xbea2f62e	-0.31828445
190	0x3ebd6a0d	0.36994973
191	0x3ef27129	0.4735196
192	0x3eda935e	0.42690557
193	0xbdd5b89a	-0.104356006
194	0xbe92aeb2	-0.28648907
195	0xbebc13c2	-0.36733824
196	0x3e9866d2	0.29765946
197	0xbe9957ab	-0.29949698
198	0x3ec2be6d	0.38035908
199	0x3f054b1f	0.5206775
200	0xbf412b68	-0.7545686
201	0xbe91b7a4	-0.2846042
202	0xbcc3f9b4	-0.023922779
203	0x3d7d010d	0.06176858
204	0x3f03edcc	0.51534724
205	0x3e040633	0.1289299
206	0xbe89fddc	-0.26951492
207	0x3e8b6f01	0.27233127
208	0xbe157735	-0.14596255
209	0xbdf519c4	-0.11967805
210	0xbdb1920d	-0.08670435
211	0xbe932074	-0.28735697
212	0xbe9ece5b	-0.31016812
213	0xbf9495e3	-1.1608242
214	0xbdc12b5b	-0.094320975
215	0x3ec6b5ac	0.3881048
216	0x3e676b53	0.22599535
217	0x3da1fc30	0.07909429
218	0xbe86e852	-0.2634912
219	0x3dcfea68	0.10152131
220	0x3de12d67	0.10994988
221	0xbefc5055	-0.49280038
222	0xbd438f2e	-0.04774397
223	0xbf516f5c	-0.81810546
224	0xbcda0d05	-0.026617536
225	0xbe458ef9	-0.19292821
226	0xbced54c8	-0.02897109
227	0xbdc26b9b	-0.0949318
228	0x3e8ccdab	0.27500662
229	0xbe74d63c	-0.23909849
230	0x3e214a10	0.15750909
231	0x3eede84d	0.46466294
232	0x3f0d21f8	0.5512996
233	0x3c754186	0.014969235
234	0x3db646e0	0.08900237
235	0xbe23dd0b	-0.1600229
236	0xbf2e1d37	-0.6801333
237	0x3dcc36e6	0.099714085
238	0xbe84a005	-0.25903335
239	0x3b5a7fff	0.0033340452
240	0xbdd553c1	-0.104163654
241	0xbdbb7813	-0.09153762
242	0x3e5f4593	0.21803884
243	0xbd9c55a8	-0.07633525
244	0x3e0f4612	0.13991573
245	0xbd30b823	-0.043144356
246	0x3e42d18e	0.19025251
247	0xbea3c1a0	-0.31983662
248	0x3e9ed68b	0.31023058
249	0x3e1a45c7	0.1506568
250	0x3df43aa1	0.11925245
251	0xbe484f7f	-0.19561575
252	0xbe8a327f	-0.2699165
253	0x3da7065a	0.08155508
254	0xbc4fb9ad	-0.012678546
255	0xbda07b82	-0.07836057

weight_hh_l1 f4 [200, 50]
0	0xbe12a993	-0.143225
1	0x3eb0ae0c	0.34507787
2	0xbdf6446a	-0.12024768
3	0xbdf0af76	-0.117522165
4	0xbd994df6	-0.07485573
5	0xbee169ac	-0.44025934
6	0xbef897ef	-0.48553416
7	0x3eb9a239	0.3625658
8	0x3e1fa9b9	0.15592088
9	0x3d173e0c	0.036924407
10	0x3d35e86d	0.04441111
11	0xbf0ecc96	-0.55780923
12	0x3e95bf2a	0.2924741
13	0x3e4be0eb	0.19910018
14	0xbda4463b	-0.08021208
15	0x3dc3be02	0.095577255
16	0x3e62fec1	0.22167493
17	0x3c8eccca	0.017431635
18	0x3e6251e5	0.22101553
19	0xbf270008	-0.6523442
20	0x3c61eb6c	0.013789039
21	0xbe3311bd	-0.17487235
22	0x3ed8abf7	0.423187
23	0x3f02b2e1	0.510542
24	0xbd21adbc	-0.039472327
25	0xbe85b267	-0.26112673
26	0x3d51495e	0.05109536
27	0xbdd068a8	-0.101762116
28	0xbe4fd40e	-0.20295736
29	0xbe93b0cb	-0.2884582
30	0xbf22cd6a	-0.63594687
31	0x3e9aa8d7	0.3020694
32	0xbd11f52b	-0.0356342
33	0xbe8ff2a7	-0.28114817
34	0xbece461a	-0.40287858
35	0x3d7430d2	0.05961687
36	0x3dd76fdb	0.105193816
37	0x3e5f7228	0.21820891
38	0xbcc8f157	-0.024529142
39	0x3e841c82	0.25803
40	0x3c6587d0	0.014009431
41	0x3db61da3	0.088923715
42	0xbeb622b7	-0.3557336
43	0x3ebe253a	0.37137777
44	0x3dc3eb36	0.09566347
45	0x3d5f54ea	0.05452434
46	0xbd1d482c	-0.038398907
47	0x3e82b287	0.2552683
48	0xbe2ad85f	-0.16684102
49	0x3ec045ba	0.37553197
50	0xbe324a88	-0.17411244
51	0x3c9a67bb	0.01884829
52	0x3e20a2e6	0.15687141
53	0xbdd752aa	-0.10513814
54	0x3d6e311a	0.058152296
55	0xbdadd451	-0.08487762
56	0x3dc91d81	0.098200805
57	0x3e7e9d83	0.24864773
58	0x3e88b5c1	0.26701167
59	0xba817b6e	-0.0009878704
60	0x3d2bb857	0.041923847
61	0xbdee5f3b	-0.116392575
62	0xbd895826	-0.06706266
63	0x3daf54f5	0.08561126
64	0xbdeb07a6	-0.11476068
65	0xbe3626c4	-0.17788225
66	0x3eb6396d	0.35590687
67	0xbe81e623	-0.25370893
68	0xbe968d7d	-0.29404822
69	0x3e039b97	0.12852322
70	0x3cc050bf	0.023476003
71	0x3e6e87f0	0.23294044
72	0x3d996b9f	0.0749123
73	0x3d5e66ca	0.054297246
74	0xbcac309a	-0.021019269
75	0xbeb5b56e	-0.35489982
76	0x3e764891	0.2405112
77	0xbc97db08	-0.01853706
78	0x3e339be8	0.17539942
79	0x3e119ec3	0.14220719
80	0x3d622160	0.05520761
81	0x3e1b08ed	0.15140124
82	0x3d3e1473	0.04640622
83	0xbdca70c6	-0.09884791
84	0xbea12d2b	-0.31479773
85	0x3defbd3a	0.11706014
86	0x3d15d57c	0.036580548
87	0x3e29a650	0.1656735
88	0xbe8d7200	-0.27626038
89	0x3d952a83	0.07283499
90	0xbe1ba8bc	-0.15201086
91	0xbe03ede5	-0.12883718
92	0xbe8db80e	-0.27679485
93	0x3e902a31	0.2815719
94	0xbd95db45	-0.07317213
95	0xbdc89a00	-0.09794998
96	0xbd5d5e60	-0.05404508
97	0xbc1f5f16	-0.00972726
98	0x3d6a6e0d	0.05723386
99	0xbdf13504	-0.1177769
100	0xbdd0a12f	-0.10186993
101	0xbe3a3274	-0.18183309
102	0xbde2456e	-0.11048399
103	0x3e9c20b6	0.30493706
104	0xbe20d1d2	-0.1570504
105	0xbea89689	-0.3292735
106	0x3d70afbe	0.05876135
107	0xbd412fec	-0.047164842
108	0x3c74c300	0.01493907
109	0xbf0277ab	-0.5096385
110	0x3e558e64	0.20855099
111	0x3e2fb3cd	0.17158432
112	0x3e968151	0.29395536
113	0xbdb197ea	-0.086715534
114	0xbe006184	-0.125372
115	0xbd82a03e	-0.0637822
116	0xbe1cc64b	-0.15310018
117	0xbe0f7c3c	-0.14012235
118	0xbdb1ad66	-0.08675651
119	0xbde280f1	-0.1105975
120	0xbdb15431	-0.08658636
121	0xbcdf020b	-0.027222654
122	0xbcd44b93	-0.025914943
123	0x3e441df5	0.19152053
124	0x3b091f41	0.002092317
125	0x3e1d9287	0.15387927
126	0xbe6f2366	-0.23353347
127	0x3e6758d1	0.22592475
128	0x3dc2c2b0	0.0950979
129	0xbd497e64	-0.0491928
130	0x3ea22330	0.3166747
131	0x3e62a986	0.2213498
132	0xbe4a9711	-0.1978419
133	0x3d9f5a19	0.07780857
134	0xbdd333f0	-0.10312641
135	0xbdb45ed7	-0.08807152
136	0xbdd3898a	-0.10328968
137	0x3e952514	0.2912985
138	0x3dceedf0	0.10103977
139	0xbc1e339c	-0.009655859
140	0x3e24c03d	0.16088958
141	0xbe71f54a	-0.23628727
142	0xbee11948	-0.439646
143	0x3dbe3258	0.09286946
144	0x3dae3381	0.08505917
145	0x3c5527e3	0.013009998
146	0xbe2352ed	-0.15949602
147	0x3e56c606	0.20973977
148	0xbd9f6283	-0.077824615
149	0xbe476fa1	-0.19476177
150	0xbd13a677	-0.036047425
151	0xbe00df8f	-0.12585281
152	0x3e86025d	0.26173678
153	0xbe848282	-0.2588082
154	0xbec7223d	-0.3889331
155	0xbea153d0	-0.31509256
156	0x3bb2f902	0.005461813
157	0x3e1c1b4d	0.1524479
158	0xbe95714d	-0.29188004
159	0xbe5b2997	-0.21402584
160	0xbe216049	-0.15759386
161	0xbd569d55	-0.052396137
162	0x3e4424ab	0.19154613
163	0xbeb8fda9	-0.36131027
164	0x3db13976	0.08653538
165	0xbe821fa3	-0.25414762
166	0x3ee55e0c	0.44798315
167	0xbe2b6926	-0.1673933
168	0xbe4e9722	-0.2017484
169	0xbcf08097	-0.029358191
170	0x3dfd57a8	0.12370235
171	0xbe585f91	-0.21130206
172	0xbe40b452	-0.18818787
173	0x3dfea1e9	0.12433226
174	0x3de3a9ad	0.111163475
175	0xbe1db63a	-0.15401545
176	0x3ec67669	0.38762215
177	0xbe97e4c5	-0.29666725
178	0xbd1516d0	-0.03639871
179	0xbda60173	-0.08105745
180	0xbe4bd624	-0.19905907
181	0xbe08c2a3	-0.13355498
182	0x3db179ff	0.08665847
183	0xbf066797	-0.52501816
184	0xbe6ea30a	-0.23304382
185	0xbe636ab1	-0.22208668
186	0x3e327b72	0.17429903
187	0x3ecc4aad	0.39900723
188	0x3dd2ce59	0.10293264
189	0x3f0574fe	0.5213164
190	0xbdcc9898	-0.099900424
191	0xbe158dc4	-0.1460486
192	0xbf05261f	-0.52011293
193	0x3e16c1d7	0.14722382
194	0x3ddbdb4f	0.10735189
195	0xbdabe2eb	-0.083928905
196	0x3d496a1f	0.04917347
197	0x3d3944cc	0.045231625
198	0x3ecf73d1	0.40518048
199	0xbe25cd50	-0.16191602
200	0xbe0dfcfc	-0.13866037
201	0x3e49b13b	0.19696514
202	0xbe567340	-0.20942402
203	0xbd53f750	-0.051749527
204	0xbe790dad	-0.24321623
205	0x3c7225fb	0.014779563
206	0xbd8d0b13	-0.06886878
207	0x3debe4a0	0.11518216
208	0x3e3f81bb	0.18701832
209	0xbd90939f	-0.070594065
210	0x3bd034de	0.0063539585
211	0x3d9e515d	0.077303626
212	0x3df03596	0.11728971
213	0x3dba6f7c	0.09103295
214	0x3d995438	0.074867666
215	0x3d7e8fe3	0.06214894
216	0x3ddf660e	0.10908137
217	0xbdbfae56	-0.09359424
218	0x3e27f0c9	0.16400446
219	0xbd0b2e3b	-0.033979636
220	0xbdb8b236	-0.09018366
221	0xbd857823	-0.06517055
222	0x3e2e987c	0.17050356
223	0xbd34a087	-0.044098403
224	0xbde6915c	-0.11258194
225	0xbdb086ea	-0.08619483
226	0x3e36f075	0.17865165
227	0xbe10252e	-0.14076683
228	0xbe07f2ea	-0.13276258
229	0x3d12b1cb	0.035814088
230	0xbc8c4171	-0.017121049
231	0xbe6511dd	-0.22370096
232	0x3db94239	0.09045834
233	0xbd5120e6	-0.051056765
234	0xbd856ec5	-0.06515268
235	0xbdfd77a8	-0.12376338
236	0x3e4b7c10	0.19871545
237	0x3e0542ba	0.13013735
238	0xbe010474	-0.12599355
239	0xbce78495	-0.028261462
240	0x3e274666	0.16335449
241	0x3e5b7240	0.21430302
242	0xbe3c59e7	-0.1839367
243	0xbd8ea133	-0.0696434
244	0xbe5c85aa	-0.21535364
245	0xbdb8b167	-0.09018212
246	0xbdbbc36f	-0.091681354
247	0x3e68aace	0.22721407
248	0xbe015293	-0.12629156
249	0x3c0744b9	0.008256131
250	0xbb685e83	-0.0035456724
251	0xbc6e42e5	-0.014542316
252	0x3bde6351	0.006786742
253	0xbe85325a	-0.26014978
254	0xbe65605e	-0.22400042
255	0xbea1d527	-0.31607935

bias_ih_l1 f4 [200]
0	0x3f529e9b	0.8227326
1	0x3ef3f345	0.47646537
2	0x3cba1833	0.022716617
3	0x3e8f3754	0.279719
4	0x3e0ad838	0.13559043
5	0x3eb15310	0.34633684
6	0x3df38a81	0.11891652
7	0x3f26424d	0.64944917
8	0x3d0c18bc	0.034203276
9	0x3e6a3580	0.22871971
10	0x3e36d50e	0.17854711
11	0x3ee53afb	0.4477156
12	0x3ea79e18	0.32737803
13	0x3eab9fa5	0.33520237
14	0x3e661f6b	0.22472923
15	0x3dfc2691	0.123120435
16	0x3e702aa0	0.2345376
17	0x3e580643	0.21096139
18	0x3f3df423	0.7420065
19	0x3f32e181	0.6987534
20	0x3e292d37	0.16521154
21	0x3e86b31a	0.2630852
22	0x3e574556	0.21022543
23	0x3e6bf53c	0.23042768
24	0x3edae226	0.42750663
25	0x3e82d922	0.25556284
26	0x3ea34a15	0.31892458
27	0x3dd29d69	0.1028393
28	0xbd92ae90	-0.071622014
29	0x3d203d3e	0.039120905
30	0x3eaf1102	0.34192663
31	0xbcbad448	-0.022806302
32	0x3e9221fa	0.28541547
33	0x3e79691d	0.24356504
34	0x3eda584e	0.42645496
35	0x3eb9a52a	0.36258823
36	0x3eed62ea	0.46364528
37	0x3c237905	0.009977584
38	0x3d86f537	0.0658974
39	0x3ea80315	0.3281485
40	0x3f43d9b5	0.7650407
41	0xbb9b497d	-0.004738985
42	0xbde63136	-0.11239855
43	0x3f1feb9e	0.624689
44	0x3c844196	0.016144555
45	0x3e559341	0.20856954
46	0x3ed66a6e	0.41878074
47	0x3ea60ace	0.32430118
48	0x3e3bb1bb	0.18329518
49	0x3edccc78	0.43124747
50	0x3d64d15e	0.05586373
51	0x3de1aa15	0.11018769
52	0x3d2b1799	0.04177055
53	0x3c2dcca7	0.010607875
54	0x3e8b16a1	0.27165702
55	0x3e71ee0d	0.23625965
56	0xba8a3307	-0.0010543772
57	0x3e1726c1	0.14760877
58	0xbac13afd	-0.0014742311
59	0x3d7b55ef	0.06136125
60	0x3bf9fd98	0.0076291077
61	0x3eb22269	0.34791878
62	0x3e9d77ed	0.3075556
63	0x3e3695c6	0.17830572
64	0x3e146baa	0.14494196
65	0x3e666525	0.22499521
66	0x3dc19054	0.094513565
67	0x3e5157d8	0.20443666
68	0xbc93f324	-0.018060274
69	0xbcb20466	-0.021730613
70	0xbe17d04b	-0.14825551
71	0x3ddb5627	0.10709792
72	0x3e2c9ba5	0.16856249
73	0x3e957f4b	0.2919868
74	0xbbda086c	-0.006653836
75	0x3daab7f4	0.083358675
76	0xbe0f3aa9	-0.13987221
77	0x3e970476	0.2949559
78	0x3e9758e8	0.29560018
79	0x3e80efc2	0.2518292
80	0xbd5acd11	-0.053418223
81	0xbd323d4d	-0.043515492
82	0x3e757bbc	0.23972982
83	0x3c25aa99	0.010111474
84	0x3edd84f7	0.43265507
85	0x3e99e13c	0.30054653
86	0x3de75d8e	0.11297141
87	0x3d6d8e6c	0.057997152
88	0x3e654090	0.2238791
89	0x3e8777ef	0.2645869
90	0xbe446b31	-0.19181515
91	0x3ea6e1df	0.325942
92	0x3d66f995	0.056390364
93	0x3eb7d635	0.35905614
94	0x3d4c8549	0.049931798
95	0x3e843c88	0.25827432
96	0x3ebc9138	0.36829543
97	0x3d633442	0.05546976
98	0x3d02154e	0.0317586
99	0x3e4d7ce6	0.20067176
100	0xbe8e7458	-0.27823138
101	0x3e40058c	0.18752116
102	0xbc3e3b76	-0.011610856
103	0xbda6389d	-0.08116267
104	0x3e5cab9d	0.2154984
105	0x3dab0658	0.08350819
106	0xbe45d8ab	-0.19320934
107	0x3ec2f1ae	0.38075012
108	0xbc73003e	-0.014831601
109	0x3deaadfe	0.114589676
110	0x3d9da6f4	0.076978594
111	0x3db65384	0.08902648
112	0x3cbeea57	0.023305101
113	0x3e44baab	0.19211833
114	0xbe3f55d7	-0.18685089
115	0x3cc722f1	0.024308654
116	0x3d57fac2	0.052729376
117	0x3d860994	0.06544796
118	0x3de75405	0.11295322
119	0xbe5fc787	-0.21853457
120	0xbd654ca7	-0.055981304
121	0x3e1672fc	0.146923
122	0x3dc47f17	0.09594553
123	0xbde8d4c6	-0.11368708
124	0xbe913ff0	-0.28369093
125	0xbe2cdb19	-0.16880454
126	0x3e1b0c07	0.15141307
127	0x3c716bf6	0.014735213
128	0xbd0df858	-0.034660667
129	0xbda238a9	-0.07920963
130	0xbbd3939d	-0.006456806
131	0xbe2933ee	-0.16523716
132	0x3e80dffe	0.25170892
133	0x3de1d984	0.11027816
134	0xbeaabf6e	-0.33349174
135	0x3e64a179	0.22327222
136	0x3e1e6149	0.15466799
137	0xbd3be136	-0.045869075
138	0xbb15aa10	-0.002283696
139	0x3d977e2c	0.07397112
140	0x3cac7ef2	0.021056626
141	0xbd5c460f	-0.05377775
142	0x3c2e2486	0.010628825
143	0x3eebb9ee	0.4604029
144	0xbc47e757	-0.012201152
145	0x3d8c3ba6	0.068473145
146	0x3ad5fadb	0.0016325371
147	0xbe75a5ce	-0.2398903
148	0xbe329751	-0.17440535
149	0x3e723676	0.23653588
150	0x3f528e29	0.8224817
151	0x3ea94519	0.3306053
152	0x3c65008f	0.013977184
153	0x3f0b5c8d	0.54438096
154	0x3d945a35	0.07243768
155	0xbde7ce15	-0.11318604
156	0x3eee8de0	0.46592617
157	0x3e74a6c0	0.23891735
158	0x3df4e8e5	0.119584836
159	0x3ead1051	0.3380151
160	0x3ee96541	0.45585063
161	0x3e6b1033	0.22955398
162	0x3ebcbf86	0.3686487
163	0x3e98aea2	0.29820734
164	0xbaf92251	-0.001900742
165	0x3d4c6da3	0.049909245
166	0x3e90dbf4	0.2829281
167	0x3c34b5c6	0.011029666
168	0x3f401fd3	0.7504856
169	0x3e96b059	0.29431418
170	0x3ebe51e6	0.3717186
171	0x3ebd3505	0.36954513
172	0x3ee2344f	0.44180533
173	0x3e7cc15d	0.24683137
174	0x3eaf5059	0.34240988
175	0x3ea4f5f5	0.322189
176	0x3ebb9123	0.36634168
177	0x3e60fc40	0.21971226
178	0x3e180d75	0.14848883
179	0xbc1e7301	-0.009670974
180	0x3dc51af4	0.096242815
181	0x3e9dfd31	0.30857232
182	0x3f003a45	0.5008891
183	0x3ec95047	0.3931906
184	0x3e89259f	0.26786515
185	0x3ebde722	0.37090403
186	0x3ebfe4ee	0.37479347
187	0x3d84c693	0.064831875
188	0x3e554294	0.20826179
189	0x3e0a68e9	0.13516583
190	0x3f286e5c	0.65793395
191	0x3e1a0d22	0.15044072
192	0x3dae4daf	0.08510911
193	0x3ebcb70e	0.3685841
194	0x3e21cf23	0.15801673
195	0x3e94fcb8	0.2909906
196	0x3e1315b4	0.14363748
197	0x3ea98d8c	0.33115804
198	0x3e2fe1fa	0.17176047
199	0x3ef56b53	0.47933444

bias_hh_l1 f4 [200]
0	0x3f3ceb1b	0.7379624
1	0x3e9da9c4	0.30793583
2	0x3e69dc27	0.22837888
3	0x3e8c8a6b	0.27449355
4	0x3de4f221	0.11178995
5	0x3e15a7e4	0.14614826
6	0x3ea5d519	0.32389143
7	0x3f1ec8e5	0.6202529
8	0x3b094953	0.0020948246
9	0x3c7b2255	0.01532801
10	0x3e2dd848	0.16977036
11	0x3eae2266	0.3401062
12	0x3e9df01f	0.3084726
13	0x3ed5b31d	0.41738215
14	0x3d040eca	0.032240666
15	0x3e89659c	0.26835334
16	0x3e98ed70	0.2986865
17	0x3b7228b9	0.0036950542
18	0x3f321388	0.6956105
19	0x3f4b3e12	0.79391587
20	0x3dda029f	0.10645031
21	0x3e378e2e	0.17925331
22	0x3e37b0d8	0.17938554
23	0x3e7bd998	0.24594724
24	0x3ed68eb5	0.41905752
25	0x3dbf01f4	0.093265444
26	0x3e31c944	0.17361933
27	0x3dddaff5	0.10824577
28	0x3e2736f5	0.16329558
29	0x3d63a144	0.055573717
30	0x3ed8a944	0.4231664
31	0xbaf8037f	-0.001892194
32	0x3ef43cf1	0.47702745
33	0x3e58f2bf	0.2118635
34	0x3ec5e122	0.38648325
35	0x3ea33ef4	0.31883967
36	0x3eb664e4	0.35623848
37	0x3d4c903a	0.049942233
38	0x3de09be8	0.10967237
39	0x3e7d9448	0.24763596
40	0x3f41aef4	0.7565758
41	0x3e54c1e5	0.2077709
42	0xbdd1b573	-0.10239687
43	0x3f167d7a	0.5878521
44	0x3bc47bf4	0.0059962217
45	0x3edac16f	0.42725703
46	0x3e3945dd	0.18093057
47	0x3e8c8583	0.2744561
48	0x3e08bdcb	0.1335365
49	0x3eca85e8	0.39555287
50	0xbc0bf7bc	-0.008542951
51	0x3e81ab6e	0.25326103
52	0x3d10e6ed	0.035376478
53	0xbdb2df00	-0.0873394
54	0x3e37fc96	0.17967448
55	0x3da3487a	0.07972808
56	0x3ddaeb5b	0.10689422
57	0xbca7abce	-0.020467665
58	0x3d3676d7	0.04454693
59	0x3e4b8477	0.1987475
60	0xbe31981c	-0.17343181
61	0x3e8ee710	0.27910662
62	0x3e9223b8	0.28542876
63	0x3e4a949a	0.1978325
64	0x3e5e5e67	0.21715699
65	0x3c430886	0.011903888
66	0x3d7acf05	0.061232585
67	0x3e0c1c94	0.13682777
68	0xbcc65d00	-0.024214268
69	0x3e2b07ae	0.16702148
70	0xbe1ade60	-0.15123892
71	0x3e946b86	0.28988284
72	0x3d574183	0.05255271
73	0x3eaf4770	0.3423419
74	0xbe0010bd	-0.12506385
75	0x3e015534	0.12630159
76	0xbe2a5305	-0.16633232
77	0x3ea52b6c	0.3225969
78	0x3d1b7c53	0.03796036
79	0x3eaff9f4	0.34370387
80	0x3dbcfb98	0.09227675
81	0xbbb19117	-0.0054189074
82	0x3e8202f9	0.25392893
83	0x3dc443af	0.09583222
84	0x3ed5d406	0.41763324
85	0x3debacee	0.11507593
86	0x3e809335	0.2511231
87	0x3e5c1a66	0.21494445
88	0x3d5d0808	0.053962737
89	0x3d727e62	0.05920256
90	0xbcceea69	-0.02525826
91	0x3dc7d1bb	0.097568
92	0x3e8fb29c	0.28065956
93	0x3ee7d765	0.4528152
94	0x3b918523	0.00444092
95	0x3e9f76ad	0.3114523
96	0x3e88f9c0	0.26753044
97	0x3e397ce7	0.18114053
98	0x3e81a1dc	0.253188
99	0x3dd5a9a8	0.1043275
100	0xbe1a9f37	-0.15099798
101	0xbbae54cd	-0.0053201676
102	0xbdf54f34	-0.119779974
103	0xbe07f52f	-0.13277124
104	0x3ddc5f61	0.107603796
105	0xbdd9f753	-0.106428765
106	0xbdc734d1	-0.09726871
107	0x3eb3b926	0.35102195
108	0x3e7e365f	0.24825428
109	0x3e1d5b96	0.15366969
110	0xbe065814	-0.13119537
111	0x3d6769bc	0.05649732
112	0xbe710483	-0.23536877
113	0x3e665973	0.2249506
114	0xbe0c94c4	-0.13728625
115	0xbb2d60fc	-0.0026455512
116	0xbd45ceca	-0.048292913
117	0xbde6d86e	-0.112717494
118	0x3e85ed07	0.261574
119	0xbe6ce639	-0.23134698
120	0x3d90c1ef	0.0706824
121	0x3e6a4f29	0.2288176
122	0x3de04280	0.10950184
123	0xbdc6a603	-0.09699633
124	0xbe1eb04b	-0.15496938
125	0xbe01e5aa	-0.12685266
126	0x3e0f6f9c	0.1400742
127	0xbd804aa2	-0.06264235
128	0xba5c0064	-0.0008392392
129	0x3e034779	0.12820233
130	0xbe6562fa	-0.22401038
131	0xbcffa4f0	-0.031206578
132	0x3d9e8469	0.07740099
133	0xbda2ec01	-0.079551704
134	0xbeaf7662	-0.34270006
135	0x3dbed048	0.0931707
136	0x3e05c783	0.13064389
137	0x3de946f7	0.113904886
138	0xbe31f669	-0.17379154
139	0x3e14e22f	0.14539407
140	0xbdd7c231	-0.10535086
141	0x3df7330b	0.120702825
142	0xbd2fc86d	-0.04291575
143	0x3e92c0cb	0.28662714
144	0x3dc30838	0.09523052
145	0x3e762d34	0.24040681
146	0xbcf59f03	-0.02998305
147	0xbd16236d	-0.03665488
148	0x3da3b80c	0.079940885
149	0x3e5f8b77	0.21830545
150	0x3f4c9e26	0.79928815
151	0x3efc91da	0.49330026
152	0xbe5a4c14	-0.21318084
153	0x3eb5504a	0.35412818
154	0x3dfec88b	0.12440594
155	0xbd727d2f	-0.059201416
156	0x3ec96f71	0.39342836
157	0x3e830388	0.25588632
158	0x3d510706	0.05103209
159	0x3e376b11	0.17911936
160	0x3f1060f8	0.5639796
161	0x3de196e8	0.11015111
162	0x3e8ea233	0.27858123
163	0x3ed60a6b	0.41804823
164	0x3e82979d	0.25506297
165	0x3e86d7dc	0.26336563
166	0x3ebf3c44	0.37350667
167	0x3e699fa1	0.228148
168	0x3f2e9ff5	0.68212825
169	0x3dbbf8ab	0.09178289
170	0x3ed807d4	0.42193472
171	0x3e81d9d9	0.25361517
172	0x3e332d74	0.17497808
173	0x3e9dab60	0.3079481
174	0x3ea4689f	0.3211107
175	0x3e51b61c	0.20479625
176	0x3efa2456	0.48855847
177	0x3e1b567b	0.15169708
178	0x3e14d90e	0.14535925
179	0x3df0f205	0.117649116
180	0x3e7a7885	0.24460037
181	0x3e9c362d	0.30510083
182	0x3ec38d5f	0.38193795
183	0x3ebcf70d	0.36907235
184	0x3eb7b895	0.35883012
185	0x3e1a4c8a	0.1506826
186	0x3efcbd07	0.49362966
187	0x3e0e135a	0.1387457
188	0x3e8939d4	0.26801932
189	0x3e6aa768	0.22915423
190	0x3f482bec	0.7819202
191	0x3e0a137f	0.13484
192	0x3e72e5fd	0.23720546
193	0x3ea8957b	0.32926545
194	0xbd403584	-0.046926036
195	0x3ea787d7	0.32720825
196	0x3ec1b959	0.37836722
197	0x3e2c21ce	0.1680977
198	0x3d9ffb53	0.07811608
199	0x3ed8514c	0.42249525
