Models_mario/Mario Bias_exp1_GRU_classifier.pth (torch, 10857 bytes, 6 tensors)

weight f4 [3, 1, 7, 7]
0	0x3ea01970	0.31269407
1	0xbbf1600f	-0.0073661874
2	0xbe80687a	-0.2507971
3	0x3e069a68	0.13144839
4	0xbe26c61b	-0.16286509
5	0xbe7f6232	-0.24939802
6	0x3e051d51	0.12999465
7	0x3cdda446	0.02705587
8	0x3def0ff7	0.11672967
9	0x3e7f6fea	0.24945036
10	0x3f031652	0.51205933
11	0x3d5c7fa9	0.053832684
12	0xbdac63ee	-0.084174976
13	0xbe3241c5	-0.17407902
14	0x3e288c55	0.16459782
15	0x3e2770c3	0.16351609
16	0x3d6158f6	0.05501648
17	0x3e9dec1a	0.30844194
18	0x3e5e5820	0.21713305
19	0x3e5f0e12	0.21782711
20	0xbe1764e5	-0.14784582
21	0x3eb352dc	0.35024154
22	0xbeda9de9	-0.426986
23	0xbf003c66	-0.5009216
24	0x3e4a9ae0	0.19785643
25	0xbe633af5	-0.22190459
26	0xbe52b075	-0.20575126
27	0x3c9328b1	0.01796374
28	0x3ece9f95	0.40356126
29	0xbe4aaf86	-0.1979352
30	0xbe82288f	-0.2542157
31	0x3f038d1f	0.5138721
32	0x3e2ed3b8	0.17072952
33	0x3e6e6743	0.23281579
34	0xbe53c41e	-0.20680282
35	0x3cac1a8b	0.02100875
36	0xbf396520	-0.7241993
37	0xbf2edd1d	-0.6830614
38	0xbe09fd67	-0.13475572
39	0xbe302eaa	-0.17205301
40	0x3e277256	0.1635221
41	0xbdb8c6dc	-0.090223044
42	0x3e01ebb0	0.12687564
43	0xbf0efa28	-0.5585046
44	0xbf09ee24	-0.53879
45	0xbe582b5a	-0.21110287
46	0xbc0b2c56	-0.008494457
47	0x3e84a633	0.2590805
48	0x3e10af7e	0.14129445
49	0x3e2c3e3a	0.16820613
50	0x3e1fb994	0.15598136
51	0x3e91ba58	0.28462481
52	0x3e412567	0.18861924
53	0x3e45c5f0	0.19313788
54	0x3e8817f8	0.26580787
55	0xbdaa6fe3	-0.08322122
56	0xbe83f58d	-0.25773278
57	0xbdaccbb4	-0.08437291
58	0xbdc392cb	-0.09549483
59	0xbe842a49	-0.2581351
60	0xbec6f330	-0.38857412
61	0xbe24ca4a	-0.16092792
62	0x3b5ce0e8	0.003370339
63	0xbe46cddb	-0.19414465
64	0xbe3f56f6	-0.18685517
65	0xbda587ae	-0.080825195
66	0xbe690cbe	-0.22758767
67	0xbe342242	-0.17591193
68	0xbdbf7460	-0.09348369
69	0x3d097ca7	0.033566143
70	0x3e00f0c8	0.12591851
71	0xbdb407cc	-0.0879055
72	0xbe02ae51	-0.12761809
73	0xbe18cb1b	-0.14921229
74	0xbd9ee797	-0.07759016
75	0x3dfd2d99	0.12362213
76	0x3e9064c5	0.2820188
77	0x3eb81f77	0.35961506
78	0x3e022be0	0.1271205
79	0x3e6a02ce	0.22852632
80	0xbdb742cc	-0.08948287
81	0x3e9b39c0	0.30317497
82	0x3e36cfdc	0.1785273
83	0x3e973a84	0.2953683
84	0x3e86ba3f	0.2631397
85	0x3bb612fa	0.0055564614
86	0xbcdfd03c	-0.027320974
87	0x3dea11d2	0.1142918
88	0x3e22fbcf	0.1591637
89	0x3d4258be	0.047447912
90	0xbd481d2b	-0.04885594
91	0x3e98641c	0.29763877
92	0x3e6ca02f	0.2310798
93	0xbd5e813a	-0.05432246
94	0x3e7910e4	0.2432285
95	0x3e6f2913	0.23355512
96	0x3e15172a	0.14559618
97	0x3e35604e	0.17712519
98	0xbdec095d	-0.115252234
99	0x3d97dc1c	0.074150294
100	0xbc86f5f4	-0.016474701
101	0x3e8198f2	0.25312
102	0x3e4c9ee7	0.19982491
103	0x3e385486	0.18000993
104	0x3dffbbb1	0.12486971
105	0x3dfa0d96	0.122096226
106	0x3d496e0a	0.049177207
107	0x3e21e3c0	0.15809536
108	0x3c851016	0.016243022
109	0xbb459f53	-0.003015478
110	0x3e16cbd2	0.14726189
111	0x3e2046a1	0.15651943
112	0x3dc07543	0.09397366
113	0x3e7f3b2d	0.24924918
114	0xbdad5ead	-0.084653236
115	0x3e161d2f	0.1465957
116	0x3db743d2	0.089484826
117	0x3e0afce9	0.1357304
118	0x3e84f323	0.2596675
119	0xbe22c928	-0.15897048
120	0x3dadf241	0.08493472
121	0xbe203aa0	-0.15647364
122	0x3c0bb3b5	0.008526732
123	0x3c78345d	0.015149203
124	0xbced17c6	-0.028942
125	0x3e28229c	0.16419452
126	0xbe89fc6e	-0.269504
127	0xbe288acc	-0.16459197
128	0x3d76a1cf	0.060212906
129	0xbd317bb3	-0.04333086
130	0x3d99a74e	0.07502614
131	0x3e29ca6a	0.16581121
132	0x3e493c90	0.19652009
133	0xbe9018fb	-0.2814406
134	0xbea5c2d9	-0.3237522
135	0xbea224c4	-0.31668675
136	0xbd66fccb	-0.056393426
137	0xbdeea4fc	-0.11652562
138	0xbe3a687a	-0.18203917
139	0xbe5bd915	-0.21469529
140	0xbf2f097f	-0.68373865
141	0xbf328aa4	-0.697428
142	0xbeefb9d1	-0.46821454
143	0xbe7e3b49	-0.24827303
144	0xbe08140e	-0.132889
145	0xbe08a655	-0.133447
146	0x3d16095d	0.036630023

bias f4 [3]
0	0x3e0f272c	0.13979787
1	0xbd4dbdba	-0.050229765
2	0x3d1455ed	0.036214758

weight f4 [6, 3, 7, 7]
0	0xbc94368d	-0.018092418
1	0x3b51c0b9	0.003200574
2	0x3d0f7768	0.035025984
3	0x3ccd88c7	0.025089635
4	0xbd9206dd	-0.07130215
5	0x3ca60024	0.020263739
6	0xbca83890	-0.020534784
7	0xbdddfc0a	-0.10839088
8	0xbdf266ec	-0.11836037
9	0xbdef186a	-0.116745785
10	0xbd58ceb9	-0.05293152
11	0x3d2772ae	0.04088085
12	0xbdac6e79	-0.084195085
13	0xbd3dff98	-0.04638633
14	0xbd969986	-0.07353501
15	0xbcb43fbb	-0.022003045
16	0x3c80f7a8	0.015743092
17	0xbd1e0c03	-0.038585674
18	0xbbbce45f	-0.0057645286
19	0x3d0c6ec2	0.034285314
20	0xbb67cd0e	-0.0035370025
21	0xbda34c3e	-0.079735264
22	0xbcd7b0ef	-0.026329486
23	0xbc91f19d	-0.017815406
24	0x3cea678d	0.02861383
25	0xbd5837e9	-0.052787695
26	0xbde16eea	-0.11007483
27	0xbdb9c2f2	-0.09070386
28	0xbc371934	-0.0111754425
29	0xbd4c0010	-0.049804747
30	0xbd9191ae	-0.07107864
31	0x3d008a92	0.03138215
32	0x3d35b4fa	0.044362046
33	0xbde929c1	-0.11384917
34	0xbd6c7161	-0.057725314
35	0xbb966821	-0.00459005
36	0xbce78624	-0.028262205
37	0xbd92cbc4	-0.071677715
38	0x3d914d4f	0.070948236
39	0x3d073e59	0.033018444
40	0xbd543536	-0.05180856
41	0xbd843c5b	-0.064568244
42	0x3da96cbd	0.08272693
43	0xbd4927c5	-0.049110193
44	0xbd784941	-0.060616735
45	0x3d019a74	0.03164144
46	0xbc96b0ee	-0.018394914
47	0xbd4d8e72	-0.050184675
48	0xbdb47c48	-0.08812767
49	0x3d2be386	0.04196503
50	0xbd2e992b	-0.04262654
51	0xbd908c04	-0.07057956
52	0xbd86defe	-0.06585501
53	0xbdac863c	-0.08424041
54	0x3c57465a	0.013139332
55	0xbd808e0d	-0.06277094
56	0xbd0951fa	-0.033525445
57	0xbd1af230	-0.037828624
58	0xbdf9a187	-0.12189012
59	0xbe02b132	-0.12762907
60	0xbced5571	-0.028971406
61	0xbde2e718	-0.11079234
62	0xbb6f34c7	-0.0036499964
63	0x3d741354	0.059588745
64	0xbaa1ae3c	-0.0012335251
65	0xbd6496ff	-0.055808064
66	0xbd97927b	-0.07400986
67	0xbde7920f	-0.11307155
68	0xbd9b4bcd	-0.07582817
69	0xbd3f4be4	-0.046703234
70	0x3b495415	0.0030720283
71	0x3d34582d	0.044029403
72	0xbdd5cab6	-0.10439055
73	0xbd548fdb	-0.051895004
74	0xbdb0d219	-0.08633823
75	0xbca72fa4	-0.020408459
76	0x3d1a3add	0.037653793
77	0x3d7daef3	0.061934423
78	0x3a3435f3	0.0006874494
79	0x3d269d59	0.040677402
80	0x3a9f61d1	0.0012159889
81	0xbd89d8eb	-0.06730827
82	0xbd78c820	-0.06073773
83	0x3c845069	0.016151624
84	0xbd6d9da9	-0.058011685
85	0xbd4b5b8c	-0.049647853
86	0xbc9b17d1	-0.018932255
87	0x3d6ac91b	0.057320695
88	0x3c1d53a4	0.009602461
89	0x3cd4765c	0.025935344
90	0xbcbac0e4	-0.022797056
91	0x3c386f1a	0.011256957
92	0x3b9bb86f	0.004752211
93	0xbc487cb2	-0.012236761
94	0xbd346a69	-0.044046793
95	0x3c467abc	0.012114223
96	0x3c2c5a02	0.010519506
97	0xbda07d5e	-0.07836412
98	0x3d1154c7	0.03548124
99	0xbd2b0cc4	-0.04176022
100	0x3d903ff8	0.07043451
101	0xbd437d91	-0.04772717
102	0xbc8c52f7	-0.017129404
103	0x3b5dd372	0.0033847955
104	0x3aafb033	0.0013403952
105	0xbd1832b4	-0.03715773
106	0xbd6fbebf	-0.05853152
107	0xbc85fc47	-0.016355647
108	0xbe09f670	-0.13472915
109	0xbd4fb2a8	-0.05070749
110	0xbcece24a	-0.028916497
111	0x3d1112cf	0.035418328
112	0xbdaa4147	-0.08313232
113	0xbe0eb73c	-0.13937086
114	0xbdbdd349	-0.09268815
115	0xbdd34146	-0.10315184
116	0xbd684760	-0.056708694
117	0xbcc93ee0	-0.024566114
118	0xbd00b9b9	-0.03142712
119	0xbdeb47b0	-0.11488283
120	0xbd7da990	-0.061929286
121	0xbd4d2e35	-0.050092895
122	0x3c593375	0.013256897
123	0xbcac92de	-0.021066125
124	0x3c806891	0.015674861
125	0x3ba0eb06	0.0049108295
126	0x3c9457f6	0.01810835
127	0x3c3142bf	0.010819136
128	0x3bcd62f7	0.006267901
129	0xbcfb7633	-0.03069601
130	0x3c9ec79b	0.019382289
131	0xbd52c0bc	-0.051453337
132	0x3d39e40e	0.045383506
133	0xbdaf44cb	-0.08558043
134	0xbd5005a5	-0.050786633
135	0x3d87c70d	0.06629763
136	0x3d97e640	0.074169636
137	0xbc04a355	-0.008095582
138	0xbd503820	-0.050834775
139	0x3c9bc0b9	0.019012796
140	0x3d51615c	0.05111824
141	0xbbc0ff27	-0.0058897915
142	0x3d9aab5c	0.075522155
143	0xbdaf2d1a	-0.08553524
144	0xbc983682	-0.018580679
145	0xbd69e710	-0.057105124
146	0xbde4688b	-0.111527525
147	0xbd144e09	-0.036207233
148	0xbd1e888c	-0.03870444
149	0x3c5a3dcc	0.013320398
150	0xbdd9a76b	-0.106276356
151	0x3c8b00ae	0.016968098
152	0x3c92d01c	0.0179215
153	0x3cef1371	0.029184075
154	0xbdea7ea6	-0.114499375
155	0xbd7877ed	-0.060661245
156	0xbda045f6	-0.07825844
157	0x3c24fa0d	0.010069382
158	0xbdbab81c	-0.09117147
159	0xbd65534a	-0.055987634
160	0xbdd457d5	-0.10368315
161	0xbd04da67	-0.032434847
162	0xbda74875	-0.08168117
163	0xbd92ffea	-0.07177718
164	0xbd6b89db	-0.057504516
165	0xbc791343	-0.015202346
166	0xbdd5fd11	-0.10448659
167	0xbd1f5f61	-0.03890932
168	0xbdc1eadf	-0.09468626
169	0xbd143381	-0.03618193
170	0x3cf0adf7	0.029379828
171	0xbc62efd8	-0.0138511285
172	0x3bfb1188	0.007662002
173	0xbcf12d8b	-0.029440662
174	0xbc0fa90f	-0.008768334
175	0xbd471966	-0.048608206
176	0xbd4a8522	-0.04944337
177	0x3cb520a5	0.022110293
178	0x3c352fd4	0.011058766
179	0x3bbb82b5	0.0057223686
180	0x3d178aac	0.036997482
181	0xbd9db1f5	-0.07699958
182	0xbb85137b	-0.00406116
183	0xbdf06979	-0.11738867
184	0x3b9261d6	0.0044672294
185	0xbd81186b	-0.063034855
186	0xbb945f6b	-0.0045279763
187	0x3c952655	0.018206755
188	0xbd47feca	-0.04882697
189	0x3ca858ca	0.02055015
190	0xbdee6591	-0.11640466
191	0xbe0610b5	-0.1309231
192	0xbc288139	-0.010284715
193	0x3bea609e	0.007152631
194	0xbdb1d20a	-0.0868264
195	0xbdfffea8	-0.12499744
196	0xbc0a4e65	-0.008441542
197	0x3d3ea757	0.046546306
198	0xbd9892c9	-0.07449872
199	0xbd9d3176	-0.076754496
200	0xbd83974f	-0.06425344
201	0xbd998e1a	-0.07497807
202	0xbdb13bfe	-0.08654021
203	0x3bdf268a	0.006810014
204	0x3c649a6b	0.013952832
205	0xbd213f81	-0.039367203
206	0x3d201bab	0.039088886
207	0xbd816761	-0.06318546
208	0xbdaddf22	-0.08489825
209	0xbddbe765	-0.107374944
210	0x3d02c136	0.03192254
211	0x3cf2bb56	0.029630344
212	0xbb75f70e	-0.003753129
213	0xbdce0fce	-0.10061608
214	0x3bd613dd	0.0065331296
215	0xbde03d9d	-0.10949252
216	0x3cc748b8	0.024326667
217	0xbd92b3e5	-0.071632184
218	0xbd7f33ae	-0.062305145
219	0x3acd59aa	0.0015666981
220	0xbd9ffe96	-0.0781223
221	0xbd30ddb9	-0.0431802
222	0xbd789442	-0.060688265
223	0xbcb9a208	-0.02266027
224	0x3cc88393	0.024476802
225	0xbd15a2b0	-0.036532104
226	0x3c728717	0.014802716
227	0x3c0cd62c	0.008595984
228	0x3bfb6927	0.0076724472
229	0xbd4927c4	-0.04911019
230	0xbceca485	-0.028887043
231	0x3cd5f4e5	0.026117751
232	0xbd117709	-0.03551391
233	0x3c303158	0.010753952
234	0xbcbf7ac3	-0.023373967
235	0xbdf7a354	-0.12091699
236	0xbdd6ce4a	-0.10488565
237	0xbcee6c74	-0.029104449
238	0xbdcccfa1	-0.100005396
239	0xbd4dd34a	-0.05025033
240	0xbdc295e8	-0.095012486
241	0x3c9ef583	0.019404178
242	0xbde03dbe	-0.109492764
243	0x3cefe974	0.029286124
244	0x3d2a789d	0.041618932
245	0xbde1061c	-0.109874934
246	0x3d103266	0.035204314
247	0xbbe31e50	-0.0069311038
248	0x3d891301	0.06693078
249	0xbbc8e63f	-0.006130963
250	0x3d1e6331	0.038668815
251	0xbdb8c679	-0.09022231
252	0x3d5a836e	0.053347997
253	0x3d4baa53	0.04972298
254	0x3c800efe	0.015632149
255	0xbd9d38d4	-0.07676855

bias f4 [6]
0	0xbd00cf07	-0.031447437
1	0xbd842c93	-0.06453814
2	0xbdeed5d6	-0.1166188
3	0xbdc24e5d	-0.09487603
4	0xbdfddae3	-0.12395265
5	0x3d53b52c	0.05168645

weight f4 [5, 96]
0	0x3cb42e12	0.021994624
1	0x3cce7e09	0.025206583
2	0xbd344f3a	-0.04402087
3	0x3d7756b7	0.060385432
4	0x3d533935	0.05156823
5	0xbd84ab6d	-0.064780094
6	0xbdb80019	-0.089843936
7	0x3bcd2750	0.00626079
8	0x3c5aafa5	0.013347541
9	0xbcad915c	-0.021187477
10	0xbd52245a	-0.0513042
11	0x3d11814b	0.035523694
12	0x3d828b78	0.06374258
13	0xbdac421e	-0.08411048
14	0x3d3e8756	0.046515785
15	0x3d2d669e	0.04233419
16	0x3dbf071b	0.09327527
17	0x3ca90d40	0.0206362
18	0xbcd80144	-0.026367791
19	0x3cd941a1	0.026520552
20	0x3c338a1e	0.010958223
21	0x3cfa2ca3	0.030538863
22	0x3da78730	0.08180082
23	0xbdbdc11d	-0.09265349
24	0xbaef14f9	-0.0018240503
25	0xbde3b046	-0.11117606
26	0x3d977c06	0.073967025
27	0xbd50ad51	-0.050946537
28	0xbd3978bc	-0.045281157
29	0xbda76040	-0.08172655
30	0xbdd5568c	-0.10416898
31	0xbc9ecfca	-0.01938619
32	0x3dcfa6cc	0.10139236
33	0x3d8f1737	0.0698685
34	0xbd12aa33	-0.035806846
35	0x3d316bed	0.043315817
36	0xbcae681a	-0.021289874
37	0xbc20aad3	-0.009806353
38	0x3d3bf02a	0.045883335
39	0xbd1c83a3	-0.038211476
40	0x3a003748	0.000489105
41	0x3b812b05	0.003941896
42	0x3dbecd54	0.09316507
43	0x3c99cd1f	0.018774567
44	0xbb9420c3	-0.004520507
45	0x3c3823e6	0.011239028
46	0xbd076989	-0.03305963
47	0x3c8f8e7b	0.017523995
48	0xbcb00c07	-0.02149011
49	0xbd6c37d1	-0.05767042
50	0xbd810ba8	-0.063010514
51	0xbc9d8800	-0.019229889
52	0x3da516f8	0.080610216
53	0xbc8c030c	-0.017091297
54	0xbda7cc8c	-0.08193311
55	0x3d407498	0.046986192
56	0x3d4f4d77	0.050610986
57	0xbdb74ae0	-0.08949828
58	0xbc28335c	-0.010266151
59	0x3d3b3b50	0.04571086
60	0x3c4cce93	0.012500423
61	0x3d825ae9	0.06364996
62	0xbd9878c4	-0.07444909
63	0xbc3c7c46	-0.0115042385
64	0xbda4e0cc	-0.08050689
65	0xbd3159eb	-0.043298643
66	0xbc52d4b6	-0.012868097
67	0x3dbde158	0.092714965
68	0xbdaa31b5	-0.08310262
69	0x3da2a3fc	0.07941434
70	0xbd4323e5	-0.047641654
71	0xbd607f0d	-0.054808665
72	0x3da5ceaa	0.08096059
73	0xbd809745	-0.062788524
74	0xbda347bf	-0.07972669
75	0xbdb06bc6	-0.08614306
76	0xbd0fd17e	-0.035111897
77	0xbd9215f3	-0.07133093
78	0xbc7688f2	-0.015047299
79	0xbcb5475c	-0.022128753
80	0xbf3a60ac	-0.7280376
81	0xbe755cd8	-0.23961198
82	0x3e64e5fe	0.2235336
83	0x3e8a4941	0.27009013
84	0xbeea00d1	-0.45703748
85	0xbdf9e0d7	-0.12201088
86	0x3e29db0b	0.16587465
87	0xbe9f9baa	-0.3117345
88	0xbe516ca5	-0.20451601
89	0xbed19450	-0.40933466
90	0x3cdbfdde	0.026854452
91	0x3dfe8309	0.12427337
92	0x3e5194b4	0.20466882
93	0x3d2e6d2f	0.042584594
94	0x3e09d30f	0.13459419
95	0x3e32e9dc	0.17472023
96	0x3dc9e6a0	0.09858441
97	0xbc965676	-0.018351775
98	0x3d542359	0.051791523
99	0x3d38869a	0.04505024
100	0x3ddc6b90	0.107627034
101	0xbbc04e45	-0.0058687055
102	0xbd8ec688	-0.069714606
103	0xbac19dec	-0.0014771796
104	0x3d88cc75	0.06679622
105	0x3ce83452	0.02834526
106	0xbd5e7b05	-0.05431654
107	0x3daa05ee	0.08301912
108	0xbc2685bf	-0.0101637235
109	0x3a8ca196	0.0010729309
110	0x3d8fadd9	0.07015581
111	0xbd475804	-0.048667923
112	0xbdb291cd	-0.087192155
113	0x3d9c9b4c	0.07646808
114	0x3d5da6bf	0.0541141
115	0xbd0ad796	-0.033897005
116	0xbd8ae5a7	-0.06782084
117	0x3d095f01	0.03353787
118	0xbcd24008	-0.025665298
119	0x3c158ebf	0.009128272
120	0x3d60f37f	0.054919716
121	0x3c614b83	0.013750914
122	0x3d9114ee	0.0708407
123	0x3bfa8651	0.0076454063
124	0x3db007ea	0.085952595
125	0x3d018118	0.031617254
126	0xbc2cbc8f	-0.010543003
127	0x3daba995	0.083819546
128	0x3d2a46ab	0.0415713
129	0x3d7725c6	0.060338758
130	0xbc8d7592	-0.017267976
131	0x3db0ba5c	0.08629295
132	0x3db9ea47	0.09077888
133	0x3d34c7bf	0.044135805
134	0xbdc073af	-0.09397065
135	0x3d38fbc6	0.045161985
136	0xbdc4095b	-0.09572097
137	0xbcf10e1f	-0.029425679
138	0xbc417e96	-0.011809966
139	0x3db5ce1a	0.088772014
140	0x3d985d2d	0.07439647
141	0xbd2289d8	-0.03968224
142	0xbda1b89a	-0.07896538
143	0xbd50360f	-0.050832804
144	0x3c18e819	0.00933268
145	0x3daacb08	0.083395064
146	0x3d3b43de	0.04571902
147	0xbd3b2192	-0.045686312
148	0x3da42d28	0.08016425
149	0x3dab257b	0.08356758
150	0xbddaa409	-0.106758185
151	0xbde932d4	-0.11386648
152	0xbde1f84b	-0.11033686
153	0xbca1aecd	-0.019736672
154	0x3da58364	0.080817014
155	0xbdf159f8	-0.11784738
156	0xbd8aa50d	-0.06769762
157	0xbd898474	-0.067147166
158	0xbd2cb4e4	-0.0421647
159	0x3d6457fc	0.05574797
160	0x3d852c6e	0.06502615
161	0x3dad1630	0.084514976
162	0x3d991c30	0.074760795
163	0xbdd15ce7	-0.10222798
164	0xbc32081b	-0.01086619
165	0x3cd4977b	0.025951138
166	0xbd566fca	-0.052352704
167	0xbbb7aa11	-0.0056049903
168	0x3dbefc13	0.09325423
169	0x3c3aee1d	0.01140931
170	0xbca5ea5a	-0.02025335
171	0xbc25fa92	-0.010130541
172	0xbd90db46	-0.07073073
173	0xbba9b135	-0.0051785954
174	0xbd2754c3	-0.04085232
175	0xbd2cbaf2	-0.042170472
176	0xbd8dc69d	-0.06922648
177	0xbbb03c8a	-0.0053783106
178	0xbd1a1fa0	-0.037627816
179	0xbd3bf3ec	-0.04588692
180	0xbae1d7fa	-0.0017230504
181	0xbdda4ff4	-0.10659781
182	0x3ce4b09c	0.027916245
183	0xbde6e675	-0.11274425
184	0xbc7a0bf0	-0.015261635
185	0xbd93bfa1	-0.07214285
186	0xbdffcd86	-0.12490372
187	0x3cad6e8d	0.021170879
188	0xbe0cb9c1	-0.13742734
189	0xbd26b478	-0.040699452
190	0xbd440e2c	-0.047865078
191	0x3cadd44f	0.0212194
192	0xbdacc8d6	-0.08436744
193	0xbd1f5351	-0.038897816
194	0x3d6a25ed	0.057165075
195	0x3d72d3d5	0.05928405
196	0x3d93b95a	0.072130874
197	0x3db46db2	0.08809985
198	0xbd2f21e4	-0.04275693
199	0xbbc8e5fb	-0.0061309314
200	0x3d963ceb	0.07335838
201	0x3c81e7b3	0.015857553
202	0x3d4258eb	0.04744808
203	0x3ccdc37c	0.025117628
204	0x3ca42947	0.020039214
205	0xbd6ba362	-0.05752886
206	0xbd968884	-0.07350257
207	0x3c8a0440	0.01684773
208	0x3d27486e	0.04084056
209	0xbd92c63c	-0.071667165
210	0x3da90965	0.08253745
211	0x3d89a128	0.06720191
212	0xbdcac7b5	-0.09901372
213	0xbd165cfd	-0.036709774
214	0xb9f0e8fc	-0.00045949954
215	0xbd694e87	-0.056959655
216	0xbdab4a27	-0.08363753
217	0x3db2ac3f	0.087242596
218	0xbc9f4a06	-0.019444477
219	0xbd92c1a9	-0.07165844
220	0x3cab620c	0.020920776
221	0xbd8812ea	-0.066442326
222	0xbbc9b62c	-0.00615575
223	0x3da4b21d	0.08041785
224	0xbd2ccd11	-0.042187754
225	0xbda45d6d	-0.08025632
226	0xbc6c7873	-0.014433014
227	0x3d9719ed	0.07377992
228	0x3cbae5f8	0.022814736
229	0xbcfafd96	-0.030638497
230	0xbd006464	-0.03134574
231	0xbdcbb514	-0.09946647
232	0xbc859082	-0.016304258
233	0xbddf6437	-0.10907786
234	0x3d3bd295	0.045855124
235	0xbc9ad1b4	-0.018898822
236	0xbd87fc00	-0.06639862
237	0x3d0b97de	0.03408038
238	0xbd8401c4	-0.06445649
239	0x3d84c8c3	0.06483605
240	0x3db9c7a0	0.090712786
241	0x3d4ded43	0.0502751
242	0x3cfeeec4	0.031119712
243	0x3d43ae95	0.047773916
244	0xbd6e1bb2	-0.05813188
245	0x3d29a64c	0.04141836
246	0x3cbc478a	0.022983331
247	0x3d192b09	0.037394557
248	0xbd612a3b	-0.054971915
249	0xbd2ce68b	-0.04221205
250	0xbdbedbb5	-0.093192495
251	0xbbe80807	-0.007081035
252	0x3bd85473	0.006601864
253	0x3db47484	0.08811286
254	0x3c9f3398	0.019433782
255	0xbd7bfc91	-0.061520163

bias f4 [5]
0	0x3e9d77b6	0.30755395
1	0x3d8b5db9	0.068049856
2	0x3ceb2ab2	0.028706882
3	0x3defd296	0.11710088
4	0xbd33ccca	-0.043896474
