Models_mario/Mario Bias_exp1_DL_temporal.pth (torch, 133589 bytes, 10 tensors)

weight_ih_l0 f4 [200, 5]
0.63617915 0.30669203 0.21697861 -0.03461906 0.36742014 0.20829782 0.0024757648 0.008261892
0.48283032 0.12336283 0.42303467 0.17569976 0.07739714 -0.2999343 0.033859435 0.25454605
0.16078216 0.2910551 0.49804774 -0.15561157 -0.10770484 -0.20481518 -0.12246604 0.038648985
0.24238943 -0.09118241 -0.040529672 -0.17183901 0.007912502 -0.06967877 0.26524237 0.3262307
0.38323885 -0.2882413 0.29087296 -0.39208785 -0.9018045 -0.65498805 0.2066967 0.479079
-0.20054264 0.020188827 -0.095020264 0.19610332 -0.32016972 0.17022383 0.006714464 0.110253006
-0.39018178 0.75459564 0.2142928 0.013187926 -0.16409262 0.16882128 0.09773307 0.21094206
0.14235625 0.16038962 0.1600261 0.14893852 0.17343338 0.060965523 0.17386253 0.2853773
0.0856518 0.8339988 0.7006249 0.49991247 -0.11732723 0.67943525 -0.30712977 -0.27590576
-0.08745033 0.23110418 -0.30996674 -0.25809044 0.01590007 0.10631015 0.31114334 0.45575
-0.48228234 -0.59483945 -0.620196 0.6991022 1.3473837 0.69006425 0.48283505 0.20696752
0.20285544 0.030597618 0.69784206 0.2748336 0.2734355 0.35164648 0.32127616 0.07345016
0.08723917 0.12243779 0.28924224 0.047014434 -0.19612548 -0.17320472 0.008449776 0.22920607
0.0582004 -0.007351262 -0.07364443 0.005154851 0.4941355 -0.40285704 0.12488308 0.03142275
-0.111631095 0.12525554 -0.08552417 0.1466403 0.13362235 -0.07177405 0.30187693 -0.34476236
0.89288086 0.42127937 0.48450515 0.2024674 0.564595 0.16554733 -0.08703126 0.111923434
0.10399143 -0.037214573 -0.21415664 -0.14935994 -0.13231097 0.24469347 -0.34914002 -0.19931506
-0.046515718 -0.12725918 0.3372458 -0.011482908 0.080848016 -0.051168427 -0.09752719 0.15491948
0.04030258 0.3968034 0.43427727 0.383872 0.32800156 -0.035866044 0.3638297 0.029199665
-0.1987095 0.34820402 0.37458566 0.86445427 0.5134519 0.38706383 0.2999269 1.2348655
0.0025252711 0.030242095 -0.12605959 -0.08602714 0.42406613 0.001408389 0.060902126 -0.052823678
-0.14819984 -0.06833547 0.1822044 0.16335864 0.071049616 0.14065237 0.4341977 -0.14242978
-0.23460509 -0.26502705 0.28044298 -0.22446969 0.103370585 0.25170973 0.054216884 -0.17211564
0.3862368 0.1421662 0.24899714 0.27157822 0.06822394 -0.090423666 -0.06342734 -0.17055309
-0.18983611 0.14832199 0.37463868 0.010667569 0.20413548 0.083633795 0.192124 -0.031740233
0.27670127 0.040850323 0.015920447 0.15770301 -0.0032248346 -0.035883468 -0.1872206 -0.09034834
0.27590963 -0.1737951 0.01605015 -0.0016360475 0.11880701 0.03580667 -0.21969952 0.0034558869
0.14386576 0.068944916 0.181487 -0.10608162 0.18619747 0.008636556 0.19823533 -0.06732984
-0.092680655 -0.20354852 -0.38405386 -0.36851513 0.1586513 0.36558363 0.1324228 -0.15930164
0.065840304 0.14938192 0.6548187 0.23088045 -0.093010284 -0.025245123 0.04985676 -0.44592142
0.45130002 0.3474061 0.35702774 0.35855538 0.17014627 0.16626398 0.061320752 -0.019460512
0.3159281 0.917102 -0.20240967 -0.19598746 -0.13500762 -0.3648337 0.28839615 0.14123121
00000000: a3dc 223f bd06 9d3e a42f 5e3e b7cc 0dbd
00000010: 7e1e bc3e 064c 553e 7140 223b e35c 073c
00000020: 8935 f73e a7a5 fc3d 0098 d83e a3ea 333e
00000030: 6482 9e3d fd90 99be 31b0 0a3d dc53 823e
00000040: 14a4 243e 2d05 953e 1d00 ff3e a458 1fbe
00000050: 5b94 dcbd 12bb 51be 7acf fabd 664e 1e3d
00000060: ef34 783e d8bd babd 7102 26bd 91f6 2fbe
00000070: 70a3 013c beb3 8ebd d9cd 873e b607 a73e
00000080: e237 c43e 5d94 93be 4ded 943e bdbf c8be
00000090: a9dc 66bf 4cad 27bf 4da8 533e d849 f53e
000000a0: 0d5b 4dbe 0a63 a53c fc99 c2bd 4fcf 483e
000000b0: 49ed a3be 284f 2e3e 0205 dc3b 54cc e13d
000000c0: e8c5 c7be 2e2d 413f 926f 5b3e 2c12 583c
000000d0: e507 28be 7cdf 2c3e 4728 c83d 3201 583e
000000e0: d6c5 113e 2d3d 243e e2dd 233e 5783 183e
000000f0: 8598 313e fcb6 793d 0509 323e f91c 923e
00000100: 366a af3d f280 553f 275c 333f 87f4 ff3e
00000110: 4249 f0bd 78ef 2d3f 1d40 9dbe 8543 8dbe
00000120: 2919 b3bd 93a6 6c3e f6b3 9ebe 6e24 84be
00000130: dd40 823c 23b9 d93d 2e4e 9f3e 1058 e93e
00000140: b6ed f6be 6647 18bf 2ac5 1ebf 5df8 323f
00000150: 1277 ac3f 0da8 303f 2836 f73e 4bef 533e
00000160: 56b9 4f3e dba7 fa3c c7a5 323f fdb6 8c3e
00000170: bdff 8b3e 020b b43e 4f7e a43e 0a6d 963d
00000180: 73aa b23d aac0 fa3d 8f17 943e 3592 403d
00000190: 1ed5 48be 945c 31be ee70 0a3c ffb4 6a3e
000001a0: 8b63 6e3d dbe2 f0bb e4d2 96bd 06ea a83b
000001b0: 54ff fc3e 4743 cebe b3c2 ff3d 24b5 003d
000001c0: d89e e4bd fd42 003e 4c27 afbd e028 163e
000001d0: 4cd4 083e 46fe 92bd 9d8f 9a3e b184 b0be
000001e0: d793 643f eeb1 d73e 0f11 f83e 9d53 4f3e
000001f0: 4c89 103f 3d85 293e 723d b2bd 1d38 e53d
00000200: 75f9 d43d 4f6e 18bd e14b 5bbe d0f1 18be
00000210: 877c 07be ed90 7a3e 7bc2 b2be 3f19 4cbe
00000220: 4487 3ebd 3b50 02be 7bab ac3e cf22 3cbc
00000230: a593 a53d fc95 51bd 56bc c7bd 36a3 1e3e
00000240: 5114 253d d129 cb3e 9759 de3e df8a c43e
00000250: d2ef a73e 46e8 12bd e347 ba3e 2334 ef3c
00000260: 817a 4bbe cc47 b23e b1c9 bf3e e04c 5d3f
00000270: 9571 033f 3b2d c63e 0590 993e 1310 9e3f
00000280: 057f 253b 45be f73c c415 01be ff2e b0bd
00000290: 321f d93e b199 b83a 8274 793d a45d 58bd
000002a0: b3c1 17be 78f3 8bbd ca93 3a3e 7d47 273e
000002b0: 7682 913d 2d07 103e 294f de3e 1dd9 11be
000002c0: 513c 70be a0b1 87be 3996 8f3e 62db 65be
000002d0: f5b3 d33d 19e0 803e 8612 5e3d 153f 30be
000002e0: d4c0 c53e 0494 113e 1bf9 7e3e 4d0c 8b3e
000002f0: feb8 8b3d 0b30 b9bd 31e6 81bd 78a5 2ebe
00000300: 6664 42be b8e1 173e a4d0 bf3e 07c7 2e3c
00000310: e408 513e 3248 ab3d 27bc 443e 0c02 02bd
00000320: caab 8d3e ab52 273d 996b 823c e67c 213e
00000330: bf57 53bb 8bfa 12bd c2b6 3fbe 8d08 b9bd
00000340: 0744 8d3e 58f7 31be 9b7b 833c a570 d6ba
00000350: 1751 f33d 04aa 123d e9f8 60be 297c 623b
00000360: 8c51 133e fe32 8d3d bad7 393e 5241 d9bd
00000370: 8daa 3e3e 5780 0d3c 34fe 4a3e 3ae4 89bd
00000380: 5bcf bdbd 066f 50be b5a2 c4be 04ae bcbe
00000390: 7d75 223e c72d bb3e d899 073e f81f 23be
000003a0: 48d7 863d 93f7 183e 33a2 273f ed6b 6c3e
000003b0: 2d7c bebd dcce cebc 9a36 4c3d d04f e4be
000003c0: cc10 e73e 36df b13e 57cc b63e 9294 b73e
000003d0: d33a 2e3e 1b41 2a3e 782b 7b3d a76b 9fbc
000003e0: 54c1 a13e 32c7 6a3f 7b44 4fbe f0b0 48be
000003f0: 703f 0abe 7ccb babe a9a8 933e ea9e 103e

weight_hh_l0 f4 [200, 50]
0.31952783 0.03417939 0.26478127 -0.15116207 -0.25357682 -0.24824826 -0.47561684 -0.21859993
0.4239928 -0.28668842 0.17765984 -0.037705775 0.4345708 0.19863458 0.31249928 -0.25345796
-0.31208023 0.03922937 0.15575047 0.2177168 -0.13075839 0.3765356 0.0069231535 -0.3976767
0.31302422 -0.3882645 -0.31275728 0.43009296 -0.16294548 0.105171725 0.08941496 -0.5242525
0.2924382 -0.10713588 -0.015454417 -0.4211516 0.018738953 -0.09969278 -0.115020856 0.3252895
0.27852753 0.15273161 0.18600042 -0.21537296 -0.103581436 0.27999848 0.69127023 -0.2067688
-0.37440568 0.26461542 0.17217036 -0.17406234 -0.10116455 -0.21004666 0.2929121 -0.07887547
0.12562452 0.11034415 0.2584701 -0.13859439 -0.028535863 0.11062519 0.12823728 -0.058538016
0.27059677 0.023148837 -0.040316332 -0.009487256 0.13302805 0.12727694 0.09768161 0.27372468
-0.031394042 -0.17014998 0.05729609 -0.21214885 -0.30324122 0.25854644 -0.043602772 -0.16517349
-0.28078917 0.09909747 0.02946115 0.010354195 0.036663715 -0.23719575 -0.25141266 -0.14169435
-0.0021169027 0.02884599 0.008269503 0.17609473 0.13195045 0.06952201 0.18844701 -0.12697916
0.07698057 -0.09783793 -0.09623724 0.033533785 0.013867309 0.09937672 -0.05861556 0.12520441
-0.107831 0.2562459 0.050639782 -0.1372598 -0.36956406 0.04655297 -0.21854414 -0.17494315
-0.18848689 0.11161631 -0.24733739 0.100163326 0.052349746 -0.019998927 0.05984092 -0.22253467
-0.037657328 -0.29307723 -0.08617285 0.22370727 0.1386772 0.26372716 0.23593616 -0.095999055
0.048216935 -0.07212546 -0.001559908 -0.084266186 0.053976934 -0.031190759 -0.09303265 0.23991193
0.14007558 0.18305358 -0.023283333 -0.07901445 -0.21592894 -0.25514138 0.09408711 0.13883826
0.24898957 0.20324183 0.025423609 0.15313913 0.042809725 -0.3020419 -0.18550396 -0.04865755
0.029212063 -0.14093186 -0.060064495 -0.20319073 0.063385874 0.10092278 0.4052292 -0.09294493
0.16541392 0.19222465 0.15535231 0.15732266 0.26947704 -0.14633517 0.35707766 -0.096885815
0.24046744 0.189203 -0.1144486 0.23920338 0.5164183 -0.30273554 0.12106488 -0.10499606
-0.31823418 0.26857826 0.31015128 0.18823776 -0.3362716 0.04426715 0.09152838 -0.08898418
0.0058509614 -0.3368475 -0.25977024 0.025249006 -0.18049492 0.13280481 0.44671473 0.22474322
-0.108900726 -0.00762192 -0.13077302 -0.11188698 -0.15002792 -0.375927 -0.438916 -0.31508565
0.28314775 -0.017361704 0.28637978 -0.49582404 -0.04325669 -0.45519084 -0.50798315 0.12576856
0.5612757 -0.4870692 0.32309127 0.10391323 0.34409034 0.3774417 0.23259458 0.09291078
-0.11685838 0.01976542 0.4678434 0.35045853 -0.3650516 0.64204836 -0.022914838 -0.28257397
0.280984 -0.36488888 -0.41673926 0.49733594 0.30150893 0.091340356 -0.19680847 -0.41708592
0.46520135 -0.33255708 -0.37477222 -0.38422403 0.14032498 -0.45655447 -0.10675177 0.39362812
0.41548404 0.24274158 0.11045531 -0.47741422 -0.013183539 0.27549618 0.17989431 -0.41356763
-0.42303106 -0.16775356 0.2891208 -0.15043561 0.14602934 0.010426262 0.07921026 -0.13368884
00000000: 2799 a33e b0ff 0b3d 6991 873e 3bca 1abe
00000010: d2d4 81be cb34 7ebe 0d84 f3be a9d8 5fbe
00000020: 9615 d93e d3c8 92be 76ec 353e 5f71 1abd
00000030: 1080 de3e dd66 4b3e e8ff 9f3e 3ec5 81be
00000040: fbc8 9fbe faae 203d 0d7d 1f3e 27f1 5e3e
00000050: 87e5 05be 46c9 c03e 9fdb e23b 489c cbbe
00000060: b644 a03e 9bca c6be b921 a0be 2535 dc3e
00000070: 2edb 26be 4664 d73d 311f b73d 6935 06bf
00000080: 76ba 953e 0e6a dbbd 8634 7dbc 2fa1 d7be
00000090: 6f82 993c ba2b ccbd 0e90 ebbd 588c a63e
000000a0: 299b 8e3e ad65 1c3e e576 3e3e bb8a 5cbe
000000b0: 8122 d4bd f65b 8f3e 16f7 303f 33bb 53be
000000c0: 1ab2 bfbe ac7b 873e 6d4d 303e 663d 32be
000000d0: 5c2f cfbd 7916 57be 93f8 953e 7689 a1bd
000000e0: b7a3 003e 1dfc e13d 3156 843e b0eb 0dbe
000000f0: 0bc4 e9bc 768f e23d a250 033e 8fc5 6fbd
00000100: a98b 8a3e a1a2 bd3c bd22 25bd 7070 1bbc
00000110: 8138 083e e354 023e 4c0d c83d a425 8c3e
00000120: 0a97 00bd cc3b 2ebe 4eaf 6a3d 8c3d 59be
00000130: 6f42 9bbe 3360 843e d298 32bd 3d23 29be
00000140: 99c3 8fbe 9df3 ca3d 8258 f13c a4a4 293c
00000150: b12c 163d 71e3 72be 29b9 80be 5318 11be
00000160: bcbb 0abb 6d4e ec3c cf7c 073c 2d52 343e
00000170: 051e 073e 8e61 8e3d 41f8 403e d306 02be
00000180: fda7 9d3d 415f c8bd 0818 c5bd b95a 093d
00000190: b633 633c 0686 cb3d df16 70bd 9635 003e
000001a0: 80d6 dcbd aa32 833e a96b 4f3d d58d 0cbe
000001b0: 8037 bdbe 54ae 3e3d 09ca 5fbe 4c24 33be
000001c0: b502 41be 1897 e43d 0346 7dbe 6e22 cd3d
000001d0: b06c 563d cad4 a3bc c11b 753d 21e0 63be
000001e0: 923e 1abd 380e 96be 647b b0bd 8513 653e
000001f0: 6501 0e3e 3f07 873e 4099 713e 279b c4bd
00000200: 1f7f 453d 83b6 93bd d475 ccba c093 acbd
00000210: eb16 5d3d c383 ffbc e787 bebd 79ab 753e
00000220: f96f 0f3e 6672 3b3e b0bc bebc 54d2 a1bd
00000230: 7a1c 5dbe e4a1 82be beb0 c03d 9e2b 0e3e
00000240: 1ff7 7e3e a01e 503e 2c45 d03c 81d0 1c3e
00000250: 4059 2f3d 3ca5 9abe c0f4 3dbe 244d 47bd
00000260: 234e ef3c 7150 10be 3006 76bd 3b11 50be
00000270: 74d0 813d 9ab0 ce3d 347a cf3e e959 bebd
00000280: 4462 293e 8ad6 443e ad14 1f3e 3119 213e
00000290: e5f8 893e e3d8 15be e2d2 b63e 126c c6bd
000002a0: 193d 763e 6ebe 413e 0764 eabd bbf1 743e
000002b0: fd33 043f 2700 9bbe ddf0 f73d 2d08 d7bd
000002c0: 97ef a2be 1783 893e 26cc 9e3e 66c1 403e
000002d0: cb2b acbe 7951 353d 3b73 bb3d 563d b6bd
000002e0: 6cb9 bf3b 4777 acbe 9b00 85be 01d7 ce3c
000002f0: a9d3 38be fcfd 073e cbb7 e43e 1623 663e
00000300: 5807 dfbd 4dc1 f9bb 5de9 05be 0025 e5bd
00000310: eba0 19be 8179 c0be 99b9 e0be e852 a1be
00000320: bef8 903e 223a 8ebc 5fa0 923e a6dc fdbe
00000330: ed2d 31bd c60e e9be 2f0b 02bf 79c9 003e
00000340: c4af 0f3f 2261 f9be 386c a53e 76d0 d43d
00000350: 9c2c b03e 0a40 c13e 462d 6e3e 0248 be3d
00000360: 7253 efbd 17eb a13c 2c89 ef3e 4d6f b33e
00000370: 0be8 babe 485d 243f e6b7 bbbc 89ad 90be
00000380: 23dd 8f3e b7d2 babe d95e d5be d1a2 fe3e
00000390: 615f 9a3e a710 bb3d 2988 49be 498c d5be
000003a0: df2e ee3e ec44 aabe 25e2 bfbe 03b9 c4be
000003b0: 5ab1 0f3e 82c1 e9be aca0 dabd a089 c93e
000003c0: 53ba d43e 4091 783e 6536 e23d a36f f4be
000003d0: c5ff 57bc d60d 8d3e 3736 383e 23bf d3be
000003e0: 8797 d8be 97c7 2bbe a407 943e cb0b 1abe
000003f0: b788 153e ead2 2a3c fd38 a23d bae5 08be

bias_ih_l0 f4 [200]
0.53303355 0.3530784 0.09151159 0.30194247 0.2065131 0.20649141 -0.0049373945 0.48006713
0.16910614 0.05962907 -0.007724997 0.30285925 0.25273404 0.255006 0.1526942 0.4205465
0.6457133 0.2641092 0.5776797 0.26100168 0.11453443 0.06022789 0.19743434 -0.06707165
0.4726888 0.0077525997 0.1053179 0.08358775 0.07804034 0.09399687 0.6109534 0.5899475
0.052706942 0.017596051 0.078165844 -0.028421776 0.22546156 0.09150479 0.104306586 -0.053765997
0.13947518 0.15738012 -0.011073273 0.15417245 -0.062431008 0.2820552 0.31747055 -0.04641318
0.40314603 0.37285188 -0.12186723 0.2586081 -0.034875136 0.07097023 0.025160924 0.03116231
0.07645131 -0.16252036 0.07254211 0.0643217 0.20692681 -0.07762889 0.29386672 0.13641252
0.099250995 0.053645715 -0.16056201 0.25659755 -0.21782017 0.078029804 -0.10303089 -0.0019645186
-0.06824107 -0.0069588292 0.084464 0.16557345 0.0995492 0.11859532 0.18241328 0.04523065
-0.124409735 -0.1777289 -0.011999221 0.10565107 0.018553903 -0.10648472 0.18947458 0.042849932
-0.010041095 -0.04134095 0.18904415 0.015417085 0.11933906 0.014713291 0.1842261 0.10192101
-0.16305168 -0.03032792 -0.06385297 0.09171034 0.07306964 0.2191589 -0.14785555 -0.108964086
-0.010042236 -0.17551881 -0.093150064 -0.10588061 0.20972583 -0.23256072 0.01737828 -0.18602541
-0.004490846 0.110430196 -0.028930675 -0.13179576 0.06474116 -0.063690834 0.18116719 0.101435915
0.08291198 0.106747024 -0.21929382 -0.005372092 0.09565265 -0.16563538 -0.14722458 0.07561495
-0.06172375 -0.17995149 -0.14889334 -0.06748887 -0.043133475 0.095600024 0.031325065 -0.042103875
-0.17838603 -0.11349581 -0.19485892 0.24499942 -0.05107543 0.05081029 -0.027208049 -0.10067945
0.11116318 -0.073182136 0.13491203 0.14111042 -0.228629 0.048617195 0.59536874 0.27461067
-0.07178059 0.20354106 0.08770156 0.19683233 0.23479192 0.44424778 0.0262045 -0.04795222
0.17446995 0.22891487 0.26353788 0.41917145 0.10082384 0.3511227 0.78967726 0.32583994
0.6024937 0.090722755 0.020722141 -0.025612814 0.1628123 0.04795707 0.4141654 0.20392513
-0.04473145 0.051451895 0.18540825 0.06402609 0.6368805 0.67335325 0.2386961 0.17481492
0.23996721 0.12549686 0.37891218 -0.0371078 0.23742838 -0.040109817 0.20984182 -0.052995753
0.072398104 0.17976378 0.2773306 0.17411393 0.27963772 0.034311872 0.21100163 0.52430034
00000000: e374 083f b1c6 b43e 6e6a bb3d 3498 9a3e
00000010: 2c78 533e 7c72 533e dec9 a1bb 5ccb f53e
00000020: 292a 2d3e 9d3d 743d f921 fdbb 5e10 9b3e
00000030: 5b66 813e 2590 823e de5b 1c3e df51 d73e
00000040: 784d 253f 5239 873e d1e2 133f 03a2 853e
00000050: 0791 ea3d 85b1 763d 3a2c 4a3e dc5c 89bd
00000060: 4404 f23e 8509 fe3b e9b0 d73d 0e30 ab3d
00000070: 9dd3 9f3d 6e81 c03d 7167 1c3f cd06 173f
00000080: 3ce3 573d 9825 903c 6a15 a03d c9d4 e8bc
00000090: 65df 663e dd66 bb3d b19e d53d bc39 5cbd
000000a0: 95d2 0e3e 4128 213e ac6c 35bc 62df 1d3e
000000b0: a8b7 7fbd 8a69 903e 808b a23e bf1b 3ebd
000000c0: 2869 ce3e 71e6 be3e 8795 f9bd 4868 843e
000000d0: 3bd9 0ebd d758 913d 481e ce3c 1a48 ff3c
000000e0: 8192 9c3d bd6b 26be f590 943d 18bb 833d
000000f0: 9fe4 533e e5fb 9ebd b375 963e b9af 0b3e
00000100: 1b44 cb3d 9cbb 5b3d 5e6a 24be c160 833e
00000110: 400c 5fbe 17ce 9f3d dc01 d3bd 27bf 00bb
00000120: f9c1 8bbd e406 e4bb 76fb ac3d 168c 293e
00000130: 73e0 cb3d 1ae2 f23d 8cca 3a3e c643 393d
00000140: 88ca febd 91fe 35be 6198 44bc 975f d83d
00000150: 5bfe 973c a914 dabd a005 423e 6983 2f3d
00000160: 6883 24bc 2155 29bd ca94 413e f197 7c3c
00000170: 0968 f43d 0410 713c c4a5 3c3e f6bb d03d
00000180: 05f7 26be 4272 f8bc 59c5 82bd a1d2 bb3d
00000190: 89a5 953d 316b 603e 7267 17be 9028 dfbd
000001a0: 3188 24bc 34bb 33be 76c5 bebd efd7 d8bd
000001b0: 5ec2 563e 6624 6ebe e55c 8e3c 727d 3ebe
000001c0: f227 93bb 3a29 e23d 0600 edbc 78f5 06be
000001d0: 0397 843d 5770 82bd e483 393e a2bd cf3d
000001e0: c2cd a93d 2f9e da3d 8f8e 60be 6008 b0bb
000001f0: 89e5 c33d 529c 29be 0ac2 16be 03dc 9a3d
00000200: 0bd2 7cbd 3445 38be 7f77 18be 9b37 8abd
00000210: baac 30bd f2c9 c33d b64e 003d 1d75 2cbd
00000220: d4aa 36be 7e70 e8bd 1989 47be 21e1 7a3e
00000230: 7834 51bd 731e 503d 6ae3 debc 0731 cebd
00000240: 85a9 e33d 84e0 95bd 6126 0a3e 407f 103e
00000250: b81d 6abe d322 473d 166a 183f c599 8c3e
00000260: b401 93bd 116d 503e e09c b33d 6a8e 493e
00000270: 4b6d 703e 7274 e33e d2aa d63c 8c69 44bd
00000280: 40a8 323e a968 6a3e 70ee 863e a49d d63e
00000290: bb7c ce3d 5bc6 b33e 4a28 4a3f 7ed4 a63e
000002a0: 073d 1a3f dacc b93d 7bc1 a93c f7d1 d1bc
000002b0: 44b8 263e a26e 443d 7d0d d43e c0d1 503e
000002c0: 5338 37bd 39bf 523d a9db 3d3e 1c20 833d
000002d0: 9a0a 233f e160 2c3f c06c 743e af02 333e
000002e0: f7b9 753e 4082 003e c700 c23e 59fe 17bd
000002f0: 6d20 733e 314a 24bd c6e0 563e 1312 59bd
00000300: 7545 943d ff13 383e 47fe 8d3e ec4a 323e
00000310: ad2c 8f3e 9b8a 0c3d d010 583e 8c38 063f

bias_hh_l0 f4 [200]
0.5423466 0.16791692 0.05852854 0.1611187 0.26170063 0.050266705 0.18708928 0.44546506
0.17633253 0.07189814 -0.019736936 0.14015627 0.022715561 0.44369674 0.059469 0.55117226
0.63197607 0.15827438 0.69600976 0.24033915 0.24489807 0.13503253 0.13274764 -0.0086492
0.44867164 0.058956042 0.10327199 0.045099687 0.13930392 0.09548036 0.58381975 0.8568066
0.2572385 -0.07355045 0.24301447 0.09811104 0.19551429 -0.014549132 0.16179533 -0.0477463
0.13739184 0.105868295 0.09919239 0.12086008 0.17705867 0.3197265 0.51296383 0.083888926
0.4111924 0.384807 -0.038507678 0.2905411 -0.07781548 0.09876536 0.19491948 0.16089535
0.007993758 -0.23238303 0.041608658 0.118030824 -0.03505576 -0.11485111 0.21094212 -0.03255423
0.07842685 0.18216115 -0.11847184 0.005930626 -0.2126616 0.10750875 -0.056231856 0.20379335
-0.07490906 0.035435416 0.007695665 0.17937303 0.025372665 -0.04917915 0.07827667 0.16394827
0.05019294 -0.06966408 -0.07001068 -0.060142998 0.022378258 0.16804732 -0.04644931 0.0045961854
-0.13823272 -0.06988281 -0.046950344 -0.0036902071 0.18024926 -0.017030958 0.11187638 0.0807506
0.11501783 0.0018005879 0.05590249 -0.02680764 -0.06414613 0.15322793 -0.12930657 -0.13354032
-0.025638042 -0.1200847 -0.03106333 0.15238617 0.07397812 -0.2876597 -0.16744272 -0.19013922
0.02132159 0.14770499 0.16976869 -0.07798716 -0.10391262 -0.022738067 -0.033727005 0.13232905
-0.080406316 0.18304332 -0.13030672 -0.004988689 0.17437294 -0.107765205 0.026980117 0.08663432
-0.097943604 -0.09688846 -0.013669293 -0.20934327 0.12215718 -0.12691791 0.052643728 -0.10149129
0.028358852 -0.15851748 -0.044295136 0.18791106 -0.08202489 -0.0035453024 0.09331041 -0.07443902
-0.047657397 0.1121396 0.08686203 0.054663744 -0.20540656 0.015993176 0.47007686 0.25149408
-0.13286991 0.21566364 0.09427187 0.104091376 0.11083164 0.27907243 -0.041762944 0.053549387
0.009261074 0.4086923 0.26473677 0.19209568 -0.048712753 0.3162556 0.5659621 0.29498604
0.5430723 0.22915429 0.07368596 -0.04352278 0.1261366 -0.081292324 0.4903845 0.16177168
-0.038311116 0.09105626 0.10761699 0.171963 0.45691773 0.70997405 0.16560273 -0.07261338
0.06101429 0.16521917 0.24882255 0.08978457 0.13804369 0.006832057 0.0017675852 -0.02824144
-0.019225216 -0.08056812 0.042198274 0.25744823 0.37692523 0.026604708 0.25785947 0.2984973
00000000: 3ad7 0a3f 6af2 2b3e 9fbb 6f3d 4dfc 243e
00000010: a0fd 853e 76e4 4d3d 5594 3f3e ff13 e43e
00000020: 8490 343e 553f 933d 5baf a1bc 2085 0f3e
00000030: fc15 ba3c 382c e33e c495 733d a019 0d3f
00000040: 2fc9 213f ae12 223e b22d 323f 771b 763e
00000050: 8fc6 7a3e f845 0a3e ffee 073e 60b5 0dbc
00000060: 4ab8 e53e e47b 713d 4480 d33d 73ba 383d
00000070: b0a5 0e3e 358b c33d 3675 153f ad57 5b3f
00000080: c4b4 833e 9ea1 96bd c9d8 783e 71ee c83d
00000090: e634 483e 7c5f 6ebc adad 253e a091 43bd
000000a0: 72b0 0c3e 7ad1 d83d 6125 cb3d 7d85 f73d
000000b0: de4e 353e 31b3 a33e 9951 033f f5cd ab3d
000000c0: cf87 d23e 6c05 c53e 3aba 1dbd cec1 943e
000000d0: b95d 9fbd 7e45 ca3d f998 473e c0c1 243e
000000e0: 40f8 023c d1f5 6dbe d76d 2a3d 25ba f13d
000000f0: a196 0fbd 0f37 ebbd 3601 583e 9657 05bd
00000100: 429e a03d 7488 3a3e 5da1 f2bd b255 c23b
00000110: f6c3 59be 8c2d dc3d 6053 66bd 34af 503e
00000120: ec69 99bd ba24 113d eb2b fc3b 90ad 373e
00000130: 56da cf3c 1470 49bd 854f a03d 0ee2 273e
00000140: 1d97 4d3d 0bac 8ebd c261 8fbd 8158 76bd
00000150: 9c52 b73c 9914 2c3e a241 3ebd 999b 963b
00000160: e18c 0dbe b81e 8fbd 014f 40bd 67d7 71bb
00000170: 4393 383e 8284 8bbc 721f e53d 9260 a53d
00000180: 788e eb3d b401 ec3a 02fa 643d b29b dbbc
00000190: 0c5f 83bd c8e7 1c3e f168 04be cbbe 08be
000001a0: df06 d2bc f8ee f5bd 8678 febc 1f0b 1c3e
000001b0: d781 973d 2248 93be 1b76 2bbe dbb3 42be
000001c0: 9daa ae3c fa3f 173e d8d7 2d3e bbb7 9fbd
000001d0: 24d0 d4bd 2f45 babc 5425 0abd 4481 073e
000001e0: 11ac a4bd b56f 3b3e 206f 05be 2878 a3bb
000001f0: d28e 323e 01b4 dcbd 6805 dd3c 566d b13d
00000200: a896 c8bd 756d c6bd 2cf5 5fbc 155e 56be
00000210: 8b2d fa3d c5f6 01be f3a0 573d aada cfbd
00000220: d350 e83c 6852 22be d16e 35bd c26b 403e
00000230: aafc a7bd 4e58 68bb 8719 bf3d 7c73 98bd
00000240: 6734 43bd 72a9 e53d b8e4 b13d 17e7 5f3d
00000250: 1956 52be 1f04 833c eaad f03e d5c3 803e
00000260: 0d0f 08be eed6 5c3e 9c11 c13d dc2d d53d
00000270: b3fb e23d 95e2 8e3e 9f0f 2bbd 9a56 5b3d
00000280: c2bb 173c 1e40 d13e 948b 873e bbb4 443e
00000290: 0687 47bd 41ec a13e e4e2 103f 6908 973e
000002a0: c906 0b3f 6ca7 6a3e aae8 963d f144 32bd
000002b0: f429 013e 977c a6bd ad13 fb3e 7aa7 253e
000002c0: 1eec 1cbd b47b ba3d 4c66 dc3d 1217 303e
000002d0: 1ff1 e93e dcc0 353f c393 293e 53b6 94bd
000002e0: 1fea 793d 372f 293e 57cb 7e3e f9e0 b73d
000002f0: 535b 0d3e 73df df3b 51ae e73a 985a e7bc
00000300: 337e 9dbc e600 a5bd 19d8 2c3d 41d0 833e
00000310: 58fc c03e 1ef2 d93c 2806 843e a3d4 983e

weight_ih_l1 f4 [200, 50]
0.04446664 0.019176774 -0.27180368 -0.029188536 0.16388707 -0.383344 0.0462352 -0.022246856
0.12732144 -0.20603523 0.22654673 0.16340548 0.16550116 0.12848185 0.02906593 0.04795489
0.002515128 0.3423506 0.13076968 0.16540705 0.10778206 0.32651648 0.14286911 -0.11361721
0.16777793 -0.18310775 -0.34259912 0.22194876 -0.04427201 0.17332374 -0.103139944 0.07836584
-0.08695579 -0.05814148 -0.013597736 -0.17175847 -0.39756426 0.18485501 0.17629205 0.066738434
0.26171094 0.21204053 -0.015368998 -0.10349905 0.06650071 -0.12279968 0.012232632 -0.28329062
-0.0028574665 0.28062236 0.36472356 0.21107985 0.33943513 -0.14679965 -0.43348172 -0.030616438
-0.21281826 -0.28864345 0.12952791 -0.6124891 0.22063759 -0.2834469 0.09010474 0.22403929
0.20938128 -0.41653553 -0.746081 0.13098423 -0.38495123 0.14993139 0.25427222 0.1369275
0.005606311 -0.094466574 0.6189969 0.040465865 -0.19146904 0.2520104 -0.10874121 0.08797905
0.3477499 -0.5682998 0.20213556 -0.25330332 0.31095672 -0.10427606 -0.27975065 -0.20008281
-0.38853323 0.18014067 0.02832962 -0.069053374 0.10474578 0.14901888 -0.10915922 0.63039875
0.76693666 -0.0951814 -0.014993398 0.4540594 0.055020448 -0.11696384 -0.16684632 -0.27494234
0.09661867 -0.28446952 -0.14044677 0.01924761 0.22137323 -0.05476946 0.10347019 -0.18278007
0.236255 0.3533243 0.111405335 -0.3039997 -0.59114325 -0.18039754 0.07172003 -0.18452464
-0.4550408 0.18801114 -0.39221603 -0.061515547 0.16054378 -0.27859107 -0.45177487 0.6908704
0.10468314 -0.2060172 -0.06659049 0.16747493 0.08344366 -0.15605244 -0.17395978 -0.44121778
-0.39628595 -0.38958433 -0.031992886 0.21258518 0.23646112 0.045137893 0.15082036 -0.6784483
-0.27900395 -0.18689457 -0.18993668 0.11775261 -0.71985996 0.2526114 0.19833066 0.30429983
0.082130976 -0.38319436 -0.2014235 0.035557218 -0.38728496 0.13753672 0.1268683 -0.02678519
0.04476364 -0.034541465 0.09283762 0.10885063 0.11918675 -0.029260887 0.390024 -0.1440735
0.15589708 -0.26920313 -0.44397056 0.16927841 -0.28049967 -0.0781259 0.08817021 -0.12814347
0.048595674 0.2738604 0.13935238 -0.32234773 -0.42592144 0.12733875 0.3397123 -0.30759388
-0.26291507 -0.17431277 -0.1801704 -0.5172649 -0.39633486 0.3742073 0.00051668537 0.035279498
0.31416747 -0.47642392 -0.30623618 -0.016101385 -0.09543239 0.02023134 -0.12695658 -0.5168833
-0.13788296 0.23209275 -0.43207988 -0.41267627 -0.34693545 -0.09928355 -0.52543736 0.5792537
0.22944713 -0.06716896 -0.09990868 -0.18633068 0.18565659 0.57885593 0.1171269 -0.19990627
0.98558515 -0.1621066 0.47869927 0.24466683 -0.8770559 0.20036373 -0.546419 -0.13784394
0.52505434 -0.25486487 0.004680511 0.79871935 -0.2528284 -0.15668444 -0.6150607 0.3035415
0.39043704 0.204055 -0.014156107 -0.5309691 -0.11429526 -0.44650516 0.09236297 0.680159
0.23353072 -0.097694285 0.39842436 -0.47565117 -0.32305065 -0.5376445 -0.14092322 0.25002038
-0.99770886 -0.349846 -0.045757763 0.2902488 -0.25116476 -0.6158311 0.45404202 -0.16930278
00000000: a722 363d 9c18 9d3c da29 8bbe cc1c efbc
00000010: 03d2 273e aa45 c4be 1f61 3d3d 0a3f b6bc
00000020: 8d60 023e e6fa 52be defb 673e c453 273e
00000030: 2379 293e bf90 033e ac1b ee3c 596c 443d
00000040: d9d4 243b 9448 af3e 7de8 053e 7760 293e
00000050: d7bc dc3d 2b2d a73e 484c 123e 24b0 e8bd
00000060: facd 2b3e 9980 3bbe 2769 afbe 8946 633e
00000070: 9156 35bd c77b 313e 093b d3bd 457e a03d
00000080: e115 b2bd c325 6ebd 0ac9 5ebc 74e1 2fbe
00000090: 8b8d cbbe a24a 3d3e e785 343e 29ae 883d
000000a0: fafe 853e 2721 593e 40ce 7bbc 4ff7 d3bd
000000b0: 8631 883d 667e fbbd 616b 483c 780b 91be
000000c0: 5544 3bbb bcad 8f3e 0cbd ba3e 5125 583e
000000d0: 71ca ad3e a652 16be 51f1 ddbe 53cf fabc
000000e0: 08ed 59be 13c9 93be f7a2 043e 16cc 1cbf
000000f0: d2ee 613e f41f 91be d588 b83d 8e6a 653e
00000100: 0c68 563e 2544 d5be 2aff 3ebf bb20 063e
00000110: 5418 c5be 9d87 193e f82f 823e b936 0c3e
00000120: 25b5 b73b b177 c1bd 9576 1e3f 89bf 253d
00000130: 7610 44be 8207 813e b6b3 debd 5c2e b43d
00000140: 460c b23e 187c 11bf a0fc 4e3e f9b0 81be
00000150: b835 9f3e b08e d5bd 7a3b 8fbe 82e2 4cbe
00000160: d4ed c6be cc76 383e 8513 e83c db6b 8dbd
00000170: f584 d63d 6898 183e de8e dfbd d061 213f
00000180: f655 443f 77ee c2bd dfa6 75bc 797a e83e
00000190: 1f5d 613d bd8a efbd c3d9 2abe 3ec5 8cbe
000001a0: 02e0 c53d fda5 91be 47d1 0fbe 2aad 9d3c
000001b0: aaaf 623e f155 60bd 2ee8 d33d b32a 3bbe
000001c0: d5ec 713e ece6 b43e 7b28 e43d d9a5 9bbe
000001d0: 2a55 17bf 22ba 38be f3e1 923d 07f4 3cbe
000001e0: 1cfb e8be fe85 403e 8ad0 c8be baf7 7bbd
000001f0: 9765 243e 7da3 8ebe 094f e7be e2dc 303f
00000200: 1d64 d63d 2cf6 52be 9860 88bd 8c7e 2b3e
00000210: 82e4 aa3d 36cc 1fbe 8322 32be 4ce7 e1be
00000220: fee5 cabe 9977 c7be f90a 03bd eeaf 593e
00000230: dd22 723e 83e2 383d a770 1a3e caae 2dbf
00000240: 9bd9 8ebe 4a61 3fbe c37e 42be 4828 f13d
00000250: be48 38bf 4856 813e 3117 4b3e 30cd 9b3e
00000260: 4934 a83d 0d32 c4be f641 4ebe 72a4 113d
00000270: 374a c6be 6dd6 0c3e c3e9 013e 9d6c dbbc
00000280: 145a 373d 5a7b 0dbd a621 be3d 14ed de3d
00000290: 2f18 f43d 87b4 efbc 3ab1 c73e 0188 13be
000002a0: 7ca3 1f3e fed4 89be 1c50 e3be 5257 2d3e
000002b0: a79d 8fbe 7900 a0bd 9592 b43d 0b38 03be
000002c0: 420c 473d 6e37 8c3e 64b2 0e3e c30a a5be
000002d0: 6012 dabe 1765 023e c5ee ad3e f27c 9dbe
000002e0: ce9c 86be 0c7f 32be 977e 38be 796b 04bf
000002f0: 67ec cabe 1998 bf3e 2b72 073a 3c81 103d
00000300: 8fda a03e d6ed f3be fdca 9cbe 0de7 83bc
00000310: 0f72 c3bd 32bc a53c e800 02be 7752 04bf
00000320: 3131 0dbe b9a9 6d3e 9339 ddbe 4e4a d3be
00000330: 86a1 b1be 2d55 cbbd 1083 06bf f849 143f
00000340: 30f4 6a3e e18f 89bd ec9c ccbd 78cd 3ebe
00000350: c31c 3e3e e72f 143f 3ae0 ef3d 3bb4 4cbe
00000360: 4f4f 7c3f 46ff 25be 1218 f53e f189 7a3e
00000370: bc86 60bf 262c 4d3e 1ee2 0bbf f626 0dbe
00000380: f669 063f a67d 82be f95e 993b df78 4c3f
00000390: b972 81be e371 20be 9e74 1dbf cb69 9b3e
000003a0: 5de7 c73e cbf3 503e 04ef 67bc 97ed 07bf
000003b0: a213 eabd 539c e4be cc28 bd3d e61e 2e3f
000003c0: ad22 6f3e f113 c8bd 47fe cb3e 8d88 f3be
000003d0: e566 a5be 12a3 09bf 2d4e 10be ac02 803e
000003e0: d969 7fbf 041f b3be 7e6c 3bbd 7e9b 943e
000003f0: ab98 80be 1ba7 1dbf 3278 e83e b55d 2dbe

weight_hh_l1 f4 [200, 50]
0.06232411 -0.19152503 0.17495714 -0.5833357 0.14877656 0.40894163 0.16959785 -0.27768645
-0.17200103 -0.13431114 -0.18220893 0.07118153 0.25005105 -0.31151912 -0.19207789 0.7447914
0.37283036 -0.44859642 -0.061713673 -0.18243472 -0.20469552 -0.054088503 0.020312963 -0.0065325694
0.22851843 0.014832268 -0.5907883 0.12626785 0.19254147 0.46984604 0.1674274 0.31877047
0.03223837 -0.27676868 -0.00932119 0.40234 0.023567418 -0.16363235 -0.42992893 0.3291495
0.080263965 -0.0805407 -0.06207636 -0.34775004 0.35631618 -0.44486836 -0.0863037 -0.29631242
0.2098455 0.14150745 -0.2677094 0.032027338 -0.09364838 -0.40061542 -0.3277315 -0.006265227
0.015227292 -0.16571243 -0.19595271 0.25683782 -0.3915589 -0.16044089 -0.2701541 -0.07536863
-0.04375911 0.24561338 -0.004628652 0.27967545 -0.17392783 0.2806482 -0.017679732 -0.179699
0.18895677 -0.21872394 0.32991403 -0.039037418 0.11001605 -0.1927893 -0.24646991 -0.41205236
0.065062106 -0.22721732 0.6566274 0.78921443 -0.142065 -0.028689673 0.5353727 -0.47538334
0.1677949 -0.15764259 -0.11566456 0.048492912 -0.096364684 -0.0125159025 0.11205005 0.23193453
0.03916433 -0.4554808 0.4724923 0.46846634 0.0834022 0.12865189 0.028691165 -0.3159871
0.021839809 0.48649436 -0.03861018 -0.26692176 0.09757975 -0.15647063 -0.26240373 -0.021637479
0.007898485 -0.019354966 -0.14885218 0.3390238 0.066709734 -0.14080329 -0.24053109 0.04589185
0.13764161 -0.040052164 0.09478375 0.28295434 -0.010027188 -0.28364426 -0.024259554 -0.057060145
0.06112636 0.08352744 0.22483678 0.050629232 0.04217076 -0.027408766 0.10082759 0.2542612
0.028622454 -0.035944194 -0.5935475 0.24655461 0.18946527 0.015081535 0.29655534 -0.15741807
-0.1273162 -0.19803858 0.3613369 -0.0076718167 0.23462498 0.42721093 -0.22330448 -0.10435546
0.40777302 0.17820193 -0.34854656 0.027337587 -0.26182285 0.05111497 0.15985836 0.09748512
-0.18216711 -0.22660469 0.24982195 -0.31907114 -0.15621656 0.030373417 -0.020341227 -0.0022977225
0.14270385 -0.026007397 -0.35643822 -0.34647304 -0.04616591 0.19765998 -0.0010000803 0.3327062
0.25099108 -0.15435933 0.26789448 0.26411548 -0.013196312 0.04573315 -0.028601743 0.35121024
0.029822644 -0.20372976 0.14688313 0.06159427 -0.05894612 -0.08691061 0.25931942 0.09121334
0.009892579 0.51602256 -0.09041834 -0.29449418 0.0072114696 -0.17911895 -0.06687265 0.019809136
-0.06956068 -0.011384725 0.28733125 0.15984283 -0.77407646 0.33238927 -0.33661613 0.259753
0.22910702 0.7148356 0.25053954 -0.06964223 0.15019168 -0.08169252 -0.011192332 0.14359634
0.0064130463 0.11913834 0.080636844 0.12044562 -0.39031652 -0.49198973 0.27720746 0.68459487
-0.15925409 0.7954044 -0.043111272 -0.31120664 -0.18789713 -0.17607279 -0.03213536 -0.044456474
-0.23170458 0.553838 -0.13218632 0.16599028 0.1899237 0.12092662 -0.57485926 -0.16261509
0.41885084 0.07808697 -0.17546508 0.21174903 -0.11880425 -0.7267069 0.053526666 0.05862742
0.015049688 0.1504968 0.025293712 0.18245302 0.1624299 -0.48030004 -0.1715611 0.18626548
00000000: 9147 7f3d 231f 44be f727 333e 7d55 15bf
00000010: e258 183e cc60 d13e 0fab 2d3e eb2c 8ebe
00000020: 0a21 30be dc88 09be fa94 3abe 9fc7 913d
00000030: b106 803e 6f7f 9fbe 11b0 44be a6aa 3e3f
00000040: 9fe3 be3e 6eae e5be 7ac7 7cbd 2bd0 3abe
00000050: b49b 51be e88b 5dbd 5f67 a63c 2a0f d6bb
00000060: bc00 6a3e 0a03 733c e73d 17bf 5c4c 013e
00000070: 9729 453e a98f f03e 1772 2b3e e235 a33e
00000080: 620c 043d a0b4 8dbe e8b7 18bc 82ff cd3e
00000090: 7510 c13c 3d8f 27be a51f dcbe 4986 a83e
000000a0: 6f61 a43d 86f2 a4bd c843 7ebd 4b0c b2be
000000b0: 136f b63e c9c5 e3be ffbf b0bd 43b6 97be
000000c0: bde1 563e 54e7 103e 3511 89be 192f 033d
000000d0: b9ca bfbd 771d cdbe 6ccc a7be 894c cdbb
000000e0: e47b 793c 85b0 29be d4a7 48be 3f80 833e
000000f0: 687a c8be 9e4a 24be a351 8abe de5a 9abd
00000100: c13c 33bd 1382 7b3e f2ab 97bb 9f31 8f3e
00000110: 231a 32be 1fb1 8f3e 16d5 90bc 0403 38be
00000120: e27d 413e 2bf9 5fbe 7eea a83e b3e5 1fbd
00000130: 1850 e13d 8f6a 45be 9c62 7cbe 87f8 d2be
00000140: 483f 853d a8ab 68be bc18 283f f509 4a3f
00000150: 7d79 11be 9b06 ebbc 2f0e 093f 7265 f3be
00000160: 6dd2 2b3e 0f6d 21be 8ae1 ecbd 81a0 463d
00000170: d95a c5bd 800f 4dbc 7f7a e53d 3f80 6d3e
00000180: c76a 203d c834 e9be 83ea f13e d2da ef3e
00000190: c6ce aa3d 52bd 033e bc09 eb3c 10c9 a1be
000001a0: 66e9 b23c ca15 f93e b525 1ebd f8a9 88be
000001b0: e4d7 c73d d639 20be c859 86be 1541 b1bc
000001c0: a668 013c 4e8e 9ebc b56c 18be 8794 ad3e
000001d0: 1d9f 883d bd2e 10be c84d 76be 18f9 3b3d
000001e0: ecf1 0c3e bd0d 24bd fc1d c23d 64df 903e
000001f0: 1349 24bc d239 91be f9bb c6bc e6b7 69bd
00000200: a25f 7a3d 6f10 ab3d 9d3b 663e 9960 4f3d
00000210: 3fbb 2c3d 5988 e0bc b27e ce3d 862e 823e
00000220: a379 ea3c 383a 13bd bbf2 17bf d078 7c3e
00000230: 2f03 423e 8b18 773c 1ad6 973e 3432 21be
00000240: 2e5f 02be a0ca 4abe 2601 b93e dd63 fbbb
00000250: 8841 703e 64bb da3e eea9 64be 51b8 d5bd
00000260: a0c7 d03e 917a 363e b274 b2be 13f3 df3c
00000270: a50d 86be ee5d 513d e9b1 233e 47a6 c73d
00000280: 048a 3abe 0f0b 68be 53d1 7f3e 4b5d a3be
00000290: 3cf7 1fbe acd1 f83c a5a2 a6bc 6395 16bb
000002a0: f520 123e 770d d5bc 127f b6be ea64 b1be
000002b0: 7718 3dbd 6167 4a3e 2015 83ba 7858 aa3e
000002c0: e781 803e 5f10 1ebe 7729 893e 253a 873e
000002d0: 5835 58bc af52 3b3d 344e eabc d4d1 b33e
000002e0: 9e4e f43c 899e 50be 8868 163e 464a 7c3d
000002f0: 7d71 71bd 31fe b1bd 84c5 843e 0fce ba3d
00000300: 7c14 223c 0e1a 043f 402d b9bd f1c7 96be
00000310: 314e ec3b f56a 37be 87f4 88bd c546 a23c
00000320: d475 8ebd ff86 3abc 151d 933e d7ad 233e
00000330: e029 46bf ed2e aa3e f358 acbe 58fe 843e
00000340: 089b 6a3e 77ff 363f b846 803e 96a0 8ebd
00000350: d9cb 193e 684e a7bd 0b60 37bc eb0a 133e
00000360: 8824 d23b cdfe f33d ee24 a53d 31ac f63d
00000370: 91d7 c7be 14e6 fbbe 23ee 8d3e 9c41 2f3f
00000380: 8113 23be 9f9f 4b3f 7295 30bd 7a56 9fbe
00000390: 1b68 40be 6d4c 34be 5ea0 03bd fe17 36bd
000003a0: f743 6dbe 54c8 0d3f da5b 07be 5bf9 293e
000003b0: 5c7b 423e 60a8 f73d fa29 13bf 9284 26be
000003c0: 9e73 d63e 10ec 9f3d 1ead 33be bdd4 583e
000003d0: a54f f3bd 7709 3abf c73e 5b3d 4e23 703d
000003e0: f792 763c d51b 1a3e c234 cf3c f7d4 3a3e
000003f0: 0654 263e e3e9 f5be b7ad 2fbe 61bc 3e3e

bias_ih_l1 f4 [200]
0.16233878 0.4193785 0.3296571 0.13117428 0.35644388 0.67139065 -0.04551369 0.23282827
0.3328623 0.09612708 0.38591048 0.46966648 0.21718049 -0.0025164515 0.26635817 0.16064304
0.18220887 0.11052742 0.06670422 -0.020143647 0.3762695 0.59155846 0.107240096 0.40542173
0.22921568 0.31290475 0.22547331 0.2986959 0.4049726 0.2412318 0.10631439 0.24828021
0.2715266 0.5568268 0.35213283 -0.09766367 0.21891671 0.22120683 0.6410761 0.17801394
0.3566887 0.18934973 0.296423 0.39074984 0.07035473 0.50501645 0.23940322 0.43787113
0.25157812 0.23949811 0.0818552 -0.12109042 0.2436175 0.16930915 0.3866139 0.16518702
0.14259174 0.041797683 0.2249701 0.029910892 0.13013713 0.18813443 0.13584322 0.0012134891
0.006669413 0.22099693 0.16685519 0.12873363 0.1264899 0.18049914 0.34410682 0.056087766
-0.104972236 0.1797758 0.26916575 0.24977963 0.08194988 0.030178506 0.1789288 0.2079205
0.2845394 0.24719179 0.0061350768 0.18782386 0.21823543 0.012665005 0.17218554 0.16344787
-0.058897667 0.039755106 0.07652701 0.38035905 -0.15542589 -0.15967123 0.20835938 0.2407901
0.38571638 0.027261196 0.26038682 0.23241176 0.062125955 -0.041956764 -0.06848254 0.21864335
-0.24648038 0.04709508 -0.02826094 0.13939382 -0.10260591 0.117248714 -0.004959138 -0.043475322
-0.118504666 -0.10128521 0.06624481 0.060311403 -0.08872687 0.12934919 -0.030568887 0.01985973
-0.06644312 -0.33849454 0.106196 0.33740053 0.06371219 0.085691445 -0.14323543 -0.24890423
-0.26747409 -0.14330024 -0.1104971 -0.040286366 -0.026959093 0.1744222 0.11859772 -0.09893556
0.17836666 0.07621503 -0.23105821 -0.2658364 0.09352555 0.1598444 -0.1491595 0.0468033
-0.10238583 -0.118812956 0.1655497 0.21750768 -0.08985827 -0.11801073 0.25273728 0.38948256
0.34999922 0.1432615 0.7876065 0.45054278 0.28778872 0.25504556 0.08004494 0.22671297
0.8121865 0.17882101 0.28555575 0.22544731 0.23767681 0.15757269 0.3439751 0.20538445
0.33050197 0.30131343 0.32285887 0.2887116 0.26434752 0.32522604 0.31691617 0.6937958
0.055202942 0.22276781 0.21447082 0.15533423 0.18183295 0.033168714 0.38596186 0.47729456
0.21887842 0.10784888 0.05828255 0.16837098 0.11147231 0.317175 0.38700035 0.3664627
0.28967968 0.4217436 -0.0024650728 0.28803128 0.29877645 0.31242287 0.10561486 0.53191113
00000000: 233c 263e c7b8 d63e d1c8 a83e 8d52 063e
00000010: d07f b63e 42e0 2b3f 906c 3abd 896a 6e3e
00000020: ed6c aa3e 46de c43d 0f96 c53e 2078 f03e
00000030: 9064 5e3e 0deb 24bb 1960 883e 9c7f 243e
00000040: f694 3a3e 335c e23d 399c 883d 4a04 a5bc
00000050: 65a6 c03e 6070 173f b2a0 db3d 7093 cf3e
00000060: 84b7 6a3e 0d35 a03e 7ae2 663e abee 983e
00000070: 9258 cf3e 7805 773e 5cbb d93d 2b3d 7e3e
00000080: 8905 8b3e 338c 0e3f c14a b43e e403 c8bd
00000090: b42b 603e 0b84 623e 901d 243f 4949 363e
000000a0: e79f b63e e5e4 413e c1c4 973e 5d10 c83e
000000b0: 2416 903d c248 013f 1e26 753e a530 e03e
000000c0: d9ce 803e fe3e 753e b3a3 a73d 41fe f7bd
000000d0: de76 793e 615f 2d3e 42f2 c53e c926 293e
000000e0: 9203 123e 0c34 2b3d 905e 663e b007 f53c
000000f0: ab42 053e 50a6 403e 7c1a 0b3e f00d 9f3a
00000100: 178b da3b 054d 623e 16dc 2a3e c0d2 033e
00000110: 9186 013e c4d4 383e c52e b03e 49bc 653d
00000120: affb d6bd 2617 383e 18d0 893e 3bc6 7f3e
00000130: 57d5 a73d ea38 f73c 1d39 373e 1de9 543e
00000140: 26af 913e d81f 7d3e c108 c93b e654 403e
00000150: 1c79 5f3e e280 4f3c 6851 303e e15e 273e
00000160: ae3e 71bd 40d6 223d 31ba 9c3d 6cbe c23e
00000170: f727 1fbe db80 23be 295c 553e ae91 763e
00000180: 9e7c c53e df52 df3c 6c51 853e 59fd 6d3e
00000190: c977 7e3d dbda 2bbd 9340 8cbd 0be4 5f3e
000001a0: 5a65 7cbe c5e6 403d 7d83 e7bc 41bd 0e3e
000001b0: 0c23 d2bd 1820 f03d 4480 a2bb 2e13 32bd
000001c0: 93b2 f2bd 9f6e cfbd 5cab 873d 1709 773d
000001d0: 6fb6 b5bd 1d74 043e 9a6b fabc dfb0 a23c
000001e0: 5513 88bd 284f adbe 4a7d d93d c3bf ac3e
000001f0: 897b 823d ff7e af3d 4fac 12be c0e0 7ebe
00000200: 5df2 88be 4cbd 12be 4e4c e2bd 5103 25bd
00000210: 51d9 dcbc bc9b 323e 5de3 f23d ba9e cabd
00000220: c0a5 363e a016 9c3d 869a 6cbe b51b 88be
00000230: 538a bf3d 40ae 233e 45bd 18be d1b4 3f3d
00000240: a9af d1bd 3554 f3bd dc85 293e 55ba 5e3e
00000250: 9d07 b8bd 9caf f1bd c866 813e 426a c73e
00000260: 1933 b33e 25b3 123e 94a0 493f 8bad e63e
00000270: 0b59 933e 5595 823e 9aee a33d 7227 683e
00000280: 74eb 4f3f db1c 373e 5d34 923e a9db 663e
00000290: 8d61 733e bc5a 213e 811d b03e 4d50 523e
000002a0: 8e37 a93e c145 9a3e c24d a53e 02d2 933e
000002b0: 8f58 873e 0784 a63e d642 a23e 9a9c 313f
000002c0: 7b1c 623d 3f1d 643e 3d9e 5b3e f00f 1f3e
000002d0: 6b32 3a3e ebdb 073d cb9c c53e f45f f43e
000002e0: aa21 603e e0df dc3d afb9 6e3d 7169 2c3e
000002f0: 984b e43d c364 a23e e924 c63e 00a1 bb3e
00000300: e550 943e c7ee d73e 0f8d 21bb d678 933e
00000310: 3af9 983e e4f5 9f3e 9b4c d83d 542b 083f

bias_hh_l1 f4 [200]
0.026743082 0.23749883 0.5712889 0.3515063 0.37997916 0.61860675 -0.23113453 0.31622726
0.1877209 0.11224493 0.4633525 0.30778942 0.24291362 0.18231452 0.25013763 0.12219859
0.21389431 0.21175537 0.07959369 0.19015864 0.31476384 0.55430084 0.34860837 0.34059823
0.1982103 0.4908651 0.21620218 0.39858526 0.25353178 0.07497898 0.08643994 0.22748937
0.16306876 0.57079285 0.21172246 -0.09089571 0.23387285 0.13824092 0.7012848 0.22605546
0.2054263 0.4023692 0.2648292 0.3696596 0.06554056 0.270694 0.089605756 0.2558204
0.21712044 0.21869324 0.11575706 0.011951256 0.39088368 0.14554568 0.15805556 -0.023681432
0.034772243 0.010115872 0.10254568 0.17647845 -0.039846778 0.10054241 0.23831595 0.21104375
0.18404475 0.22477719 0.011315319 0.038539793 0.13986853 0.18056577 0.14515312 0.1811019
0.13128199 0.17394197 0.124280706 0.06752277 0.08514627 0.18340443 0.30784526 0.02882905
0.07963137 0.08959992 -0.0045096898 0.13526323 0.2585193 0.015425503 0.082699776 0.091071054
0.124588884 0.2334658 0.1011103 0.40460634 -0.092999555 -0.13135052 0.039687064 0.14250967
0.29719734 0.19844568 0.25008404 0.13814747 -0.007779825 0.043696493 0.17827627 0.14090121
-0.25598827 0.03927273 -0.051631365 0.12640862 -0.17426589 0.23701409 0.08800343 -0.13414502
0.000995871 -0.2678025 0.1666706 -0.09128025 -0.07697056 0.30923617 -0.016113179 0.03144146
-0.22691017 -0.435423 0.3803935 0.3640845 -0.16327056 0.20155844 -0.07453273 -0.28481644
-0.1873598 -0.014313037 -0.09783918 -0.10394158 0.16514595 0.20376968 0.013795093 -0.026849521
0.006780702 -0.12456001 -0.27555957 -0.17870848 0.17653593 0.2065467 -0.0936734 0.10818035
0.0029192958 0.077143595 0.19729534 0.1340599 -0.22661643 0.019468172 0.10606043 0.18699533
0.35006535 0.028641026 0.8552347 0.57515335 0.28511894 0.38010928 0.31320417 0.223961
0.79820156 0.3146128 0.21649389 0.27066734 0.3671794 0.31788036 0.31434676 0.010517531
0.18962663 0.13866653 0.2071033 0.38670444 0.13365868 0.30413726 0.43227896 0.69954485
-0.003141146 0.100953825 0.28822038 0.27924442 0.33416447 0.043359842 0.25128004 0.48528162
0.17739668 0.06566083 0.17461327 0.15917304 0.024037538 0.28096935 0.263693 0.20801842
0.34075597 0.5197725 0.09671691 0.15515456 0.29846925 0.22608814 0.18729655 0.30568695
00000000: 4f14 db3c e532 733e fd3f 123f a2f8 b33e
00000010: a18c c23e 035d 1e3f 88ae 6cbe 8ae8 a13e
00000020: e839 403e abe0 e53d 8a3c ed3e 9396 9d3e
00000030: 59be 783e a8b0 3a3e 0a12 803e 4143 fa3d
00000040: 1c07 5b3e 66d6 583e 0402 a33d f2b8 423e
00000050: ba28 a13e a9e6 0d3f cc7c b23e e462 ae3e
00000060: a4f7 4a3e ac52 fb3e 1b64 5d3e 5e13 cc3e
00000070: ebce 813e 948e 993d 6c07 b13d f9f2 683e
00000080: 7ffb 263e 7b1f 123f c6cd 583e 8827 babd
00000090: 5d7c 6f3e 078f 0d3e 6787 333f 157b 673e
000000a0: 465b 523e 5603 ce3e b197 873e 0644 bd3e
000000b0: 213a 863d 6798 8a3e 3983 b73d e4fa 823e
000000c0: d254 5e3e 1ff1 5f3e 0a12 ed3d 33cf 433c
000000d0: e821 c83e ed09 153e 51d9 213e 90ff c1bc
000000e0: 576d 0e3d 0bbd 253c 7803 d23d c4b6 343e
000000f0: 6036 23bd 2ee9 cd3d 1909 743e da1b 583e
00000100: 3a76 3c3e fe2b 663e e363 393c e7db 1d3d
00000110: b239 0f3e 3ce6 383e 05a3 143e c772 393e
00000120: c96e 063e d81d 323e e286 fe3d 6149 8a3d
00000130: 2b61 ae3d 5fce 3b3e e59d 9d3e e62a ec3c
00000140: c615 a33d 2a80 b73d 05c6 93bb 7282 0a3e
00000150: a45c 843e 40bb 7c3c 805e a93d 7683 ba3d
00000160: 7528 ff3d a911 6f3e eb12 cf3d 9028 cf3e
00000170: 8d76 bebd c080 06be e78e 223d 0eee 113e
00000180: 402a 983e 5835 4b3e 040b 803e 8876 0d3e
00000190: e7ed febb 18fb 323d 0e8e 363e 6848 103e
000001a0: e510 83be 71dc 203d 697b 53bd 4371 013e
000001b0: c272 32be d2b3 723e 243b b43d 505d 09be
000001c0: e387 823a 691d 89be b3ab 2a3e 24f1 babd
000001d0: bea2 9dbd 3454 9e3e c9ff 83bc c3c8 003d
000001e0: 245b 68be c3ef debe f0c2 c23e 4969 ba3e
000001f0: 6630 27be 5665 4e3e 9ea4 98bd 76d3 91be
00000200: 3fdb 3fbe 3a81 6abc e85f c8bd 53df d4bd
00000210: 051c 293e 00a9 503e d004 623c 87f3 dbbc
00000220: a730 de3b 5219 ffbd 2516 8dbe 5bff 36be
00000230: d6c5 343e fa80 533e d7d7 bfbd a98d dd3d
00000240: a851 3f3b 76fd 9d3d ca07 4a3e 0047 093e
00000250: 230e 68be b77b 9f3c 3636 d93d b47b 3f3e
00000260: c43b b33e 96a0 ea3c a9f0 5a3f 403d 133f
00000270: 1cfb 913e af9d c23e 4c5c a03e 0856 653e
00000280: f056 4c3f ee14 a13e 93b0 5d3e e994 8a3e
00000290: f0fe bb3e 37c1 a23e 0ff2 a03e b951 2c3c
000002a0: 7c2d 423e 99fe 0d3e e312 543e 20fe c53e
000002b0: d2dd 083e e1b7 9b3e ab53 dd3e 5f15 333f
000002c0: afdb 4dbb e1c0 ce3d 9f91 933e 20f9 8e3e
000002d0: 9b17 ab3e 179a 313d c7a7 803e d576 f83e
000002e0: 7aa7 353e 2f79 863d d2cd 323e 42fe 223e
000002f0: 5fea c43c 37db 8f3e c502 873e c802 553e
00000300: 9177 ae3e d00f 053f 8413 c63d d6e0 1e3e
00000310: f6d0 983e a683 673e abca 3f3e 0083 9c3e

weight f4 [10, 50]
-0.4070691 0.20140818 0.010906595 0.01773595 -0.45180044 -0.097044416 -0.6907281 -0.8314833
-0.29030538 0.5161163 0.7668611 -0.5055286 0.34031197 -0.41407153 0.59409076 -0.6065349
-0.5102478 -0.04755313 -0.22758828 0.29916427 0.004407103 -0.31761506 0.11889795 0.26984656
0.31445035 0.9929301 0.3220519 0.5907704 -0.57063514 -0.31348726 -0.65732676 -0.12161176
0.5783056 0.41023287 -0.34710526 -0.82475406 -1.5747968 0.9129564 -0.38393483 -0.5702126
0.35239518 -1.7423403 -1.2314965 0.61966586 0.73538166 0.25151956 -1.0226401 -0.089146286
-0.17223886 0.7383963 0.22988746 0.33884057 -1.2668756 0.09963501 -0.48935983 -1.6091697
-0.1102867 0.59963506 -0.71492636 0.18323393 -0.2703514 -0.24146828 -1.3314685 1.2492414
0.62382925 -0.32662085 -1.3620312 0.5240466 -0.25252193 0.45278364 -0.24457735 -0.39447534
1.2638748 -0.003576956 -0.38605168 0.39329076 -0.32635093 -0.64079094 -0.38904426 0.8813034
-0.15830635 -0.74403256 0.075424485 0.4522603 0.21078907 0.20705403 0.91605514 -0.26799503
1.8621037 -0.328486 -0.5773819 0.7196522 -0.6485203 0.29889864 0.17069979 0.7807172
0.48149848 0.7064603 -0.46822175 -0.77959865 -0.39830995 0.34327433 0.7038733 1.4086858
0.08352227 0.41857013 -0.19709915 0.3337046 0.48200452 0.1468542 -0.043583643 -0.056234743
0.6583893 -0.27537435 -0.09456281 0.17586829 0.005147898 -0.47973564 -0.7992075 -0.5215848
-0.56905293 -0.14753148 -1.3415601 0.042864006 -0.13987662 -0.95480424 -0.8720141 1.1824298
-0.7874151 -0.9018584 -0.63737595 0.430143 -0.06325549 0.057138838 -0.08555584 -0.44489634
-2.4357045 1.8251785 -0.88362515 -0.54248697 0.21252961 -1.294854 1.9564602 -0.5501767
-0.35876745 -1.4709197 -0.6014966 1.2492924 -0.3453669 1.4703135 -0.54187053 -0.69726884
-0.90359855 -0.47753465 -0.8570983 -1.824684 -0.027525388 0.31296414 -0.9907592 0.4586829
-0.7434431 -0.8149811 0.03234402 0.042310305 -0.5582134 0.10636296 0.9384767 0.3976978
0.4854709 0.2614576 1.5604337 0.759914 -2.1158254 -1.9776562 0.008208962 -2.1430047
0.85070646 -0.35837975 1.08221 0.60368806 -0.5868882 -0.28514764 0.37584192 -0.007795754
-0.99356294 -0.10742681 0.53916657 -0.661051 0.37454307 -0.646491 -0.8924781 0.31570494
-0.33781865 -0.64039975 0.18465227 0.16025582 0.37022436 -0.75325346 0.45475748 -0.3267716
-0.020151572 0.24690396 0.11845265 -0.72586334 -0.016111659 1.4892093 -0.31869936 -0.14846236
0.40054423 -0.33406356 0.41101554 0.16713072 -0.63357294 -0.4189595 -0.02462546 -0.01338989
0.06479397 -0.03472205 0.49817747 -0.42176503 -0.55489147 -0.4622965 0.295971 -0.004628829
0.44784084 0.31276533 0.38221192 -0.43534097 -0.6099693 -0.80661255 0.06520388 0.020911833
-0.21658903 0.25468022 -0.4577666 -0.004509789 0.44437474 -0.43259802 1.4074736 -0.23719661
0.6611873 0.6037202 -0.09218383 -0.70310247 0.41015506 1.4957762 -0.1710877 -0.25115776
0.46224454 -0.28650984 0.1759454 2.2675889 0.67984235 0.8844149 0.62296045 0.41198474
00000000: 5c6b d0be f23d 4e3e 93b1 323c fc4a 913c
00000010: 6352 e7be 39bf c6bd 8fd3 30bf 17dc 54bf
00000020: e8a2 94be 3320 043f 0251 443f 536a 01bf
00000030: 5f3d ae3e 2f01 d4be 5516 183f df45 1bbf
00000040: 9a9f 02bf 12c7 42bd e70c 69be 0f2c 993e
00000050: 7669 903b 719e a2be c580 f33d 5429 8a3e
00000060: a3ff a03e ab30 7e3f fde3 a43e bb3c 173f
00000070: 2515 12bf 6781 a0be 9146 28bf 960f f9bd
00000080: d60b 143f 0b0a d23e c8b7 b1be 1523 53bf
00000090: f192 c9bf 83b7 693f 1b93 c4be 74f9 11bf
000000a0: 246d b43e 0205 dfbf ada1 9dbf 6ca2 1e3f
000000b0: f941 3c3f 2cc7 803e dfe5 82bf 5492 b6bd
000000c0: 625f 30be 8a07 3d3f 9e67 6b3e 837c ad3e
000000d0: fb28 a2bf 710d cc3d 5f8d fabe 46f9 cdbf
000000e0: fedd e1bd af81 193f 6a05 37bf ada1 3b3e
000000f0: 806b 8abe 7643 77be 8f6d aabf 24e7 9f3f
00000100: 46b3 1f3f d93a a7be 0a57 aebf eb27 063f
00000110: 8e4a 81be 42d3 e73e 7c72 7abe acf8 c9be
00000120: a6c6 a13f 5d6b 6abb 91a8 c5be 685d c93e
00000130: 7817 a7be e00a 24bf cf30 c7be 1a9d 613f
00000140: 0f1b 22be eb78 3ebf 2778 9a3d a98e e73e
00000150: 17d9 573e f905 543e 9782 6a3f a536 89be
00000160: 6a59 ee3f 512f a8be 4dcf 13bf 203b 383f
00000170: 6d05 26bf 3e09 993e edcb 2e3e 15dd 473f
00000180: f886 f63e 95da 343f c3ba efbe c793 47bf
00000190: 48ef cbbe a7c1 af3e 0a31 343f d14f b43f
000001a0: b90d ab3d d34e d63e 5cd4 49be 54db aa3e
000001b0: 4cc9 f63e f360 163e c384 32bd 6756 66bd
000001c0: 338c 283f defd 8cbe 26aa c1bd d116 343e
000001d0: b3af a83b e99f f5be dd98 4cbf 9586 05bf
000001e0: 74ad 11bf 7e12 17be 3eb8 abbf 2b92 2f3d
000001f0: d13b 0fbe 0d6e 74bf 513c 5fbf dc59 973f
00000200: 0994 49bf 31e0 66bf 122b 23bf b43b dc3e
00000210: 188c 81bd 6a0a 6a3d e637 afbd 74c9 e3be
00000220: 95e2 1bc0 739f e93f 4235 62bf 6de0 0abf
00000230: 5da1 593e c7bd a5bf 4a6d fa3f 61d8 0cbf
00000240: 5eb0 b7be 1947 bcbf aefb 19bf d0e8 9f3f
00000250: eed3 b0be 3c33 bc3f 07b8 0abf 3680 32bf
00000260: 3c52 67bf 6c7f f4be cb6a 5bbf 3f8f e9bf
00000270: ec7c e1bc d63c a03e 65a2 7dbf 7cd8 ea3e
00000280: 4952 3ebf 9aa2 50bf 2a7b 043d 924d 2d3d
00000290: 13e7 0ebf d3d4 d93d 0240 703f 0c9f cb3e
000002a0: a48f f83e c5dd 853e 4bbc c73f b989 423f
000002b0: af69 07c0 d723 fdbf e27e 063c fd26 09c0
000002c0: e6c7 593f 8d7d b7be db85 8a3f 4d8b 1a3f
000002d0: 4e3e 16bf dffe 91be 5a6e c03e 8673 ffbb
000002e0: 245a 7ebf 9602 dcbd d206 0a3f a33a 29bf
000002f0: 1cc4 bf3e 6f80 25bf 7279 64bf 14a4 a13e
00000300: 91f6 acbe 3df1 23bf 7c15 3d3e 1a1a 243e
00000310: 0c8e bd3e 38d5 40bf f9d5 e83e 9b4e a7be
00000320: e914 a5bc 64d4 7c3e 4e97 f23d 2ed2 39bf
00000330: 99fc 83bc 699e be3f 902c a3be 8406 18be
00000340: 2214 cd3e 610a abbe a170 d23e 5124 2b3e
00000350: d631 22bf dc81 d6be 55bb c9bc 4561 5bbc
00000360: b3b2 843d b538 0ebd 1e11 ff3e 96f1 d7be
00000370: 5e0d 0ebf 20b2 ecbe 8389 973e 6fad 97bb
00000380: 654b e53e c722 a03e 48b1 c33e 03e5 debe
00000390: f326 1cbf 297e 4ebf 9d89 853d 4b4f ab3c
000003a0: 84c9 5dbe 7265 823e 6260 eabe dac6 93bb
000003b0: 1685 e33e 7d7d ddbe 1828 b43f abe3 72be
000003c0: 9243 293f 688d 1a3f e0ca bcbd 86fe 33bf
000003d0: d8ff d13e 9875 bf3f 9d31 2fbe c097 80be
000003e0: 51ab ec3e 6bb1 92be 082b 343e 2d20 1140
000003f0: 260a 2e3f 0469 623f 567a 1f3f aaef d23e

bias f4 [10]
0.2842032 0.3965129 -0.12101119 0.28470325 -0.20551425 0.13206173 -0.32071912 0.2609253
-0.03577657 -0.47612968
00000000: 1583 913e bd03 cb3e b7d4 f7bd a0c4 913e
00000010: 5472 52be 313b 073e 4c35 a4be 0098 853e
00000020: 748a 12bd 45c7 f3be
