Models_mario/Mario No Bias_exp1_DL_temporal.pth (torch, 137648 bytes, 10 tensors)

weight_ih_l0 f4 [200, 10]
00000000: 6f2f 943e 3249 363f 910a d43e a7ee 153f
00000010: 8994 b33e c588 093f 2bc9 963d 7948 c73e
00000020: 1d12 bc3e 40e8 0cbb 3ed4 9c3e 9489 923d
00000030: b6d5 ce3e bb35 ed3e 1427 d53e 38bc c83e
00000040: c67b fe3d 01c3 043f e463 d13e f37d a4be
00000050: 53dc fd3e 98c7 0f3e b38f 8bbd d82b fcbd
00000060: 42c3 92bd c0e1 3fbe 91ea 6ebe fa90 9abe
00000070: 1851 0dbe 5038 a63e 596e 613e a1c4 fc3d
00000080: 03cd 053e 4023 213e a458 423e 8b06 ae3d
00000090: 2451 88be f3bd ec3d d242 373e c1ef 993e
000000a0: 49af e63e a2c9 683e 76d1 c53e 61a8 623e
000000b0: 698f 983e 9731 793e d526 4c3d 9c1b b93e
000000c0: 6622 b73e b867 41bd 263a 26bf 6a9a d63c
000000d0: f924 a2bd cf7e 9bbe 4e73 92be 686d 8fbe
000000e0: 761f c43a 4c98 55bd 5a58 9bbe 97ac c23e
000000f0: 1dab df3e e9b7 3abf 6312 8abe ecf3 45be
00000100: c5eb 39be b237 99be d502 093e b327 28be
00000110: cd37 0dbe 6860 003f 95ef babd 33ce 043f
00000120: 435c ab3e 83ff c53e ba2c af3e 3886 943e
00000130: 155a a8bd eeb8 d83e 4e06 a83e fca6 00be
00000140: 58c7 233e cb8f 6a3e 3b24 753e 8f13 093e
00000150: 811b cf3e 54c5 653e 7094 f03c a42d 583e
00000160: bc2e ad3e 3e22 7bbe 1800 60bc 79f6 f03e
00000170: 3d03 093e 881d 913d 5e89 3d3e 4ca7 493e
00000180: cc2e b0bd 8e8c 8d3d b585 073e e2e6 703d
00000190: 846e 363e 427e 24be 314a 47be 1bbe 33be
000001a0: fe13 26be f5f6 a9be a28c 5ebe b208 a3bd
000001b0: 5477 60be 1b89 db3e 0617 55ba 2449 ec3e
000001c0: 5b41 583e 9c09 d03e ded6 473e cb97 833e
000001d0: d8c2 aa3d be2c 723e 292e b53e 758b a6be
000001e0: c259 01be 1579 b43e ddbf c93e de9e ac3e
000001f0: 8166 b33e 2436 763e cc3b 493e a332 893e
00000200: 6fab 303e 8233 b63d a300 3b3f 3f18 a43d
00000210: cafd 6c3e 0e60 a73e 6e63 253e 153a c33e
00000220: fb72 d03e 572e 473e b1b2 003e f161 0dbf
00000230: de23 963d 8388 ce3e 3dda ba3e 947d ff3e
00000240: 5ccb a83e eee2 023f be02 7a3e b0b2 ce3e
00000250: 2395 ec3e 03b1 be3d 6b14 9a3c 8da7 873e
00000260: f072 6c3e a859 c43e 93ef ad3e 265d c63e
00000270: 8d75 553e ae05 ab3e 5bff df3e fcd3 87bd
00000280: 9440 593e 6f98 173f dc9e c03e eb64 b33e
00000290: 825f e73e a205 ed3e b5c5 353e eb1a e23e
000002a0: f185 ac3e 0c86 6a3e c01f d93e 1549 dabe
000002b0: 93b0 62bd b567 b3bd 6cbf 143d 8293 113c
000002c0: 42b6 0b3e 76b4 debd 3bf6 20be 835b 4a3e
000002d0: 609f 0f3d 74d2 02be 780c 71be 2a7d c4bc
000002e0: b83d 7abe 8c0b b9bd 4bba 12be 88c0 65be
000002f0: 6b1f 07be e4e1 f63e d645 4d3e 2f00 233f
00000300: c972 d93e 7d2d 063f 49d2 b33e 2fbe 983e
00000310: 90ce 883e e14c a43e dc1e a33e 17da 4c3d
00000320: 7228 b63e c684 963e 579f 903e d283 563e
00000330: a6b1 4e3e c8e8 3b3e 483c 3b3e d697 3d3e
00000340: ffe7 863e 35c5 573d 7a01 1b3f dee7 3e3e
00000350: ff8a abbd 43cb 81bc 0a24 de3d b95a 23be
00000360: 944e 3d3e 449b 6b3d abf5 09be 47a0 953e
00000370: 0b59 a03d d6ac 9f3e 62e7 96be 55a3 8ebd
00000380: bb33 89be 81e9 81be 2d0d 44be 5203 25be
00000390: 88df a0be 6ee0 e33c 3627 103f 5fb1 743f
000003a0: 441e 173f 4c6f 213f ef04 043f 8963 f83e
000003b0: 8a20 1d3e 2b5e 2c3f 12ac 363f 65c2 7e3e
000003c0: 4c5d 69be 1097 0fbe 1c4c 56be d40a a6bd
000003d0: fd86 8dbe 1767 71bd c8de d8be e5c9 27be
000003e0: b6bc 14be 3148 973e 2f45 a9bc 5d49 823d
000003f0: cc5a a8bd fa7b 823d 5c24 4dbe 28c1 edbd
0.2894244 0.7120544 0.41414312 0.5856728 0.3507426 0.5372432 0.073625885 0.3892248
0.3673257 -0.0021500736 0.30630678 0.07155147 0.40397424 0.46330056 0.41631377 0.392061
0.12425952 0.5186005 0.40896523 -0.32127342 0.49582157 0.14040983 -0.06814518 -0.1231305
-0.07166149 -0.1873846 -0.23331667 -0.30188733 -0.13800466 0.32464838 0.2201475 0.123421915
0.13066487 0.15736103 0.18979126 0.08497342 -0.26624405 0.115596674 0.17896584 0.3006573
0.45055607 0.22733167 0.3863637 0.22134544 0.29796913 0.24335323 0.04984172 0.36153877
0.3576843 -0.047218055 -0.6493248 0.026196677 -0.07917208 -0.30370185 -0.28603595 -0.28013158
0.0014962989 -0.052147195 -0.30340844 0.380223 0.43685237 -0.72936875 -0.26967153 -0.1933133
-0.18156345 -0.29925305 0.13379987 -0.16421394 -0.13790818 0.50147104 -0.09127728 0.51877135
0.33468828 0.38671502 0.3421381 0.2900865 -0.08220307 0.4232859 0.3281731 -0.125637
0.15994012 0.22906415 0.23939602 0.13386367 0.4045067 0.22438556 0.029367656 0.2111116
0.33824718 -0.24524781 -0.013671897 0.47063044 0.13380142 0.07085711 0.18509433 0.19692725
-0.08602676 0.06911574 0.13234599 0.058813937 0.17815596 -0.16063789 -0.19461896 -0.17552988
-0.16218564 -0.33196226 -0.21733335 -0.07960643 -0.2192052 0.4287804 -0.0008128736 0.46149552
0.21118681 0.4063233 0.19515559 0.25701746 0.08337945 0.2364988 0.3538678 -0.32528272
-0.12631896 0.35248628 0.39404193 0.33714956 0.35039142 0.2404409 0.19651717 0.26796445
0.17252897 0.08896543 0.73047847 0.08012437 0.23143688 0.3269047 0.1615121 0.3813025
0.40712723 0.19451271 0.12568165 -0.5522757 0.0733106 0.40338525 0.36494628 0.49900496
0.3296765 0.5112752 0.24415109 0.40370703 0.46207532 0.09311106 0.018808564 0.2649502
0.2309072 0.38349652 0.33971843 0.38742942 0.20845623 0.3340277 0.43749508 -0.0663223
0.21216041 0.5921697 0.376212 0.35037932 0.45190054 0.4629336 0.177512 0.44161162
0.3369594 0.22902697 0.42407036 -0.42633882 -0.055344176 -0.08760015 0.036315367 0.008885266
0.13643745 -0.10874264 -0.1571893 0.19761471 0.0350641 -0.12775594 -0.23539913 -0.023985464
-0.24437606 -0.090354055 -0.14328878 -0.22436726 -0.13195579 0.48219216 0.20046172 0.63672155
0.42470387 0.5241316 0.35121372 0.298326 0.26720095 0.32089904 0.3185948 0.050012674
0.35577732 0.29398173 0.28246567 0.20948723 0.20184955 0.18350518 0.18284714 0.18514952
0.26348874 0.052678306 0.6054913 0.18643138 -0.08376121 -0.015843993 0.10846718 -0.15952577
0.18487006 0.05752112 -0.13472621 0.29223844 0.078294836 0.3118655 -0.29473406 -0.06964747
-0.2679728 -0.25373462 -0.19145651 -0.16114548 -0.3142054 0.027816977 0.5630983 0.95583147
0.59030557 0.6306045 0.5157003 0.4851344 0.15344444 0.6733119 0.7135631 0.24878843
-0.22789496 -0.1402247 -0.20927471 -0.08107534 -0.2764205 -0.058936205 -0.4235747 -0.1638561
-0.14525113 0.29547265 -0.020662872 0.06361649 -0.08220443 0.06371303 -0.20033401 -0.11609107

weight_hh_l0 f4 [200, 50]
00000000: 3b0f 6d3d 5f06 b7bd d6e1 32bc 4417 353e
00000010: 6039 213e 8020 8cbc 1e9d 03be b635 2b3d
00000020: 33d9 003d 8a77 5ebc 1eac 5d3d 33cc 6d3e
00000030: 8154 313e 3775 583e 1a44 6b3d d022 98bd
00000040: 23d3 a6bd 3dde eabd 12b0 b53d b2b3 e5bd
00000050: 1a9a 30be e7c0 64bc f9e8 003e c4ff b2bc
00000060: 6520 fa3d 5ca4 b7bd 241b 44bd d09d 3fbe
00000070: 3429 8aba 0c4e 0dbe 8f26 423e 5a14 583e
00000080: a5f4 273d 9b0b 24be 6161 e03d 44d5 2ebe
00000090: 9abc 9e3d b159 a33d ffef 7dbd 3e5a 773e
000000a0: 312b f83e 331f a43c efea 4b3e db00 a5bd
000000b0: fae6 c23d 70c6 8ebe 6079 9ebd 1254 aebc
000000c0: 985f 77bd 7ffb 523d 81f8 75be ae8f de3c
000000d0: 908e 7ebc 7023 cb3e 136e b53d 9ff1 17bc
000000e0: 78bc d23c acc2 d4bd 05d1 58bd 7dcb 7fbd
000000f0: 6d63 28be 113a d83d b0f1 3fbe 7d99 723d
00000100: 8fb7 a7bd e509 cdbb 6dc3 cabc cdbf 83bb
00000110: 2cbe 9f3c b462 3d3d 72dc 5f3d 3454 82bd
00000120: b5cb 38bd fb26 b7bd 97d8 413e 18b9 0fbe
00000130: 7fbc cabd 508a b8bd 06e9 063e fb93 31be
00000140: 9cc3 c33c cf70 4dbd f903 073e 46aa 773e
00000150: 79b7 b9bd 78d8 38be 5fd7 99be 6d9f 5b3d
00000160: 24c2 183d 1a3a 2a3e 7a9b cbbd fde4 debd
00000170: b8a1 443e 5897 0d3e d089 4ebe cb22 0a3d
00000180: 354e 7dbe 1ca1 aa3d df11 60bd dbc6 08be
00000190: 8c05 3ebf 5c1d 4e3f a908 433d 5c81 8e3e
000001a0: b143 a73e b76a c53e b423 3d3c b59d dc3e
000001b0: 4847 36bf e089 adbe c487 313f 3d86 b63e
000001c0: eed8 c53e dc36 ea3e 3796 02bf 8efb 47bf
000001d0: 8546 74be 1dea 133f f845 153f 821e b6be
000001e0: ceb2 8ebe 5f13 29bd 71bb cabd ff22 b1be
000001f0: 8feb 243f a510 28bf 55a3 8e3e 0331 12be
00000200: ab36 0e3f a264 00bf bbfe 363f 0a90 e1bd
00000210: a7bd d8bd e798 8fbd 1c16 f73d 2f24 a53e
00000220: dc74 883d d60a ff3e ee68 f93e fc70 153f
00000230: cf95 c7bd 0d4f c63e ef6a 6abe 8858 c7be
00000240: 5f6d 8a3f 50b0 f23e 9a71 fcbe 2591 e1bc
00000250: 0793 ce3e bd56 05bf c883 d8be bd38 5d3f
00000260: d12e d93d 3e7e 9b3d bca7 bf3e ea8b 263f
00000270: f431 3c3e 302e 053e 4279 f2be 2153 02be
00000280: c967 733f 8dd6 c33e f5c6 4a3e ea6b e23e
00000290: 4928 f7bd 5902 0dbf bc9f 703e 2d33 cc3e
000002a0: 6743 f03e bc9b 46be c6df 0dbe 235d 69bd
000002b0: 58b5 1abe 513b 80be d4ad 5b3f f445 12bf
000002c0: 9b97 c43e 2355 9cbc 817e 2e3f 23c7 51be
000002d0: e9a7 e33e 9dcf b1bd ca29 f5bd 050b b03d
000002e0: e530 363f 611b 923e f133 3e3e bff6 1d3f
000002f0: 64b0 f03e caca 763f ec54 29be f1ef 103e
00000300: 3d4c 91be 5829 38be 1ec4 893f c59f a33e
00000310: 46c5 82bf 21de 513e 2148 ac3e 26f2 25bd
00000320: c117 07be 983b 813e 1a83 06be 7918 3d3e
00000330: 4302 a43d 3434 a13e ae51 39be ca7f 863e
00000340: de77 1abe 1676 a8be 4d1b 353e d446 7e3e
00000350: 72b3 2dbd 9e98 d93e 3f69 993d 5136 e3be
00000360: 825a 9d3e 5868 893e 67c9 c13d d675 eabc
00000370: 9964 3ebe 9fcc 573e 9509 ad3d f769 12bd
00000380: 128a d93e 3050 4cbe 98ef bc3e c350 63bd
00000390: 3a9b 953e fac4 05be d1b9 573e bf02 dabd
000003a0: 47dd 8e3e f6bc 4a3d e9b2 103f cc48 f0bd
000003b0: 456c 8ebc c020 523e 8de3 333c 5dca 493d
000003c0: 22ed 13be 86a2 16bd 62e1 d7bd 2e2c 0b3d
000003d0: 7f27 ff3e 5975 813b ddf3 2abf 3261 92bd
000003e0: 1700 4a3d e919 d9bd 2e9d d8bd d33f 9b3e
000003f0: 9d2e 0cbe e086 da3d 7094 043e ae34 6a3e
0.057875853 -0.08936762 -0.010918101 0.17684656 0.15744543 -0.017105341 -0.12852904 0.04179927
0.031457137 -0.013578305 0.054119222 0.23222427 0.17317392 0.21138464 0.057437994 -0.07428515
-0.0814574 -0.1146817 0.08871473 -0.11215915 -0.17246285 -0.013962007 0.12588872 -0.021850474
0.1221321 -0.08966896 -0.047877446 -0.18712544 -0.0010540844 -0.13799304 0.18960021 0.21101514
0.041004796 -0.16020052 0.109560736 -0.17073542 0.07750817 0.07976092 -0.061996456 0.24155518
0.48470452 0.020034408 0.19913839 -0.08056804 0.095167115 -0.2788577 -0.07737994 -0.021280322
-0.0603939 0.051509377 -0.24020578 0.027168121 -0.015536919 0.39675474 0.088588856 -0.009273916
0.025724635 -0.10388693 -0.05293371 -0.06244992 -0.16444178 0.1055795 -0.1874454 0.05922841
-0.08189308 -0.006257283 -0.02475139 -0.004020667 0.01949986 0.04623671 0.054653592 -0.06363717
-0.045116145 -0.08942982 0.18930279 -0.14035451 -0.09899234 -0.09010756 0.13174829 -0.17341606
0.023896985 -0.05015641 0.13185109 0.24186048 -0.09068198 -0.18051326 -0.30047128 0.053618837
0.037294522 0.16623726 -0.09941764 -0.1088352 0.19202316 0.13827264 -0.20169759 0.033724587
-0.24736865 0.083315104 -0.054704543 -0.13357107 -0.74227214 0.8051355 0.04761568 0.27833068
0.32668832 0.3855798 0.011544157 0.4308907 -0.71202517 -0.33894253 0.69347787 0.3564929
0.38642067 0.4574498 -0.5101046 -0.78118217 -0.23855026 0.57779104 0.5830989 -0.3557015
-0.27870792 -0.04127824 -0.09899033 -0.34597012 0.64421934 -0.656504 0.27858987 -0.14276509
0.55552167 -0.50153553 0.7148244 -0.110138014 -0.10583048 -0.07011586 0.12064764 0.32254168
0.06662914 0.49812955 0.48712867 0.58375525 -0.097453706 0.38732186 -0.22892354 -0.3893473
1.0814627 0.4740014 -0.4930542 -0.02753503 0.40346548 -0.5208548 -0.4228804 0.864147
0.10604633 0.07592438 0.3743266 0.6505724 0.1837843 0.130059 -0.47358137 -0.12727024
0.9508024 0.38249627 0.19802459 0.44222957 -0.12068231 -0.5508171 0.23498434 0.39882794
0.46926424 -0.19395345 -0.13854894 -0.056973588 -0.1510824 -0.25045255 0.85812116 -0.5713799
0.38396916 -0.019083565 0.6816178 -0.20486121 0.44464043 -0.08682177 -0.11970861 0.08595852
0.7116836 0.28536513 0.18574502 0.6170463 0.47009575 0.9640318 -0.16536301 0.1415403
-0.28378478 -0.17984521 1.0762975 0.31957832 -1.0216453 0.20494892 0.3364878 -0.040514134
-0.13192655 0.2524078 -0.13135949 0.18466367 0.08008244 0.3148514 -0.18097565 0.2626937
-0.15084788 -0.32902592 0.17686196 0.24831706 -0.04240746 0.4249925 0.07490777 -0.44377378
0.30733114 0.2683742 0.094622426 -0.028620642 -0.18593062 0.2107415 0.08449093 -0.035745587
0.42488152 -0.19952464 0.36901546 -0.055496942 0.2921999 -0.13063422 0.21066977 -0.10645055
0.27903196 0.049496613 0.56522995 -0.11732635 -0.017385611 0.20520306 0.010979545 0.049265254
-0.14445928 -0.03677609 -0.10541035 0.03397768 0.4983482 0.0039507565 -0.66778356 -0.07147445
0.049316492 -0.10600645 -0.10576855 0.30322132 -0.13689657 0.106702566 0.1294725 0.22871658

bias_ih_l0 f4 [200]
00000000: e3a0 2c3e 40f5 27be 5cad 983d 82bb b9bd
00000010: c8f9 14bc 699f 12bc 4edc 063f b01a 093d
00000020: cfc1 163e 8e64 88bd aa44 c53d c39a c4bd
00000030: e7cb ef3d ab0e 5dbe 6f9a 413d 40a8 543d
00000040: 6bfe 4b3e de94 df3e 02cd 59bd 77a7 e63c
00000050: b9e2 063e 7adc 1e3f c2f1 a13d 6b00 f83e
00000060: 3e56 95bd 2672 9dbd 358b 453d eecd 1cbd
00000070: 51d8 50bd 9434 c4bd 99cd 1db9 b145 d13e
00000080: a8d1 8dbd c527 50bd 6e38 103c e949 5b3d
00000090: 6013 303e f07f d83d 778a 913e fc66 0b3f
000000a0: 6a16 903c 790e 673c 0693 603a a823 2c3f
000000b0: a33d b83d d84a 323e 0091 053d 31d5 16be
000000c0: f169 01be 75bb 2d3e 60d8 8a3c f89e 56be
000000d0: 30d5 d83c eee8 5bbe 6b6b 18be 2ab3 b5bb
000000e0: 4b47 57be 4a4a c9bc 2521 0dbe fbad 04be
000000f0: a743 ce3c 3698 eabd 3490 133e 982f a1bd
00000100: 15fc 2e3d ce72 443d bd66 37bc 5bc9 4bbe
00000110: f94f 043e 746a aa3d 869e b03d 7a0f 2ebe
00000120: 19e1 b3bd e6f4 17be 0e02 6dbd 21a9 633c
00000130: 9d67 853d 389c 6cbb 9e0f b33d 766c 4e3e
00000140: cf5c 333e 33dd 6fbd 8a46 cbbd d9dc af3d
00000150: 403d 42bd 1f8f 353c 68c4 e7bc 14cf e43c
00000160: fdc0 03be 272e 35be efb2 3bbe e2a0 8a3d
00000170: d47c cebd 44b3 26bc ac5d 48bd c1f3 8abd
00000180: abf3 d4bc 2436 ea3d 3351 68bd 819e b43c
00000190: 5dfc 42be 8dd2 ba3d 19f1 ba3d 8032 393e
000001a0: 92e8 0a3d c332 b63d 846b 603d f1f0 113e
000001b0: f9c3 2abc 5f2d a23d d97b 2d3e 9329 bf39
000001c0: ee7f d53d d43c 103e 18fe a2bd 4904 f9bd
000001d0: 5189 4ebe 4fe5 fcbd b523 c93d 628c 3ebd
000001e0: c65f 41bd 1742 543d f1c0 5539 30dc 1ebe
000001f0: 3562 173e b248 2cbd 599d 1fbd 724b d7bd
00000200: fc90 163e ea25 61bd ddd8 163d c06b 973d
00000210: 0b17 58bd ce34 2abd 2685 5a3d 106c 5d3d
00000220: 2d29 37ba 5bf8 d53c 642b 9b3c 3790 f43c
00000230: 64b1 64bd d37c 253d fa93 5e3c c9d1 0bbe
00000240: 351c 3b3e 1c43 2b3d 4acf b5bd 85b9 0b3d
00000250: cf3d 10bd 36cd 13be f10c 65b8 13d2 e6bd
00000260: d181 563d 9ff0 003e 65d6 76bd 1c3c d8bd
00000270: 5331 1c3f 4536 31bd fbea ba3d 86dd 38bd
00000280: d78c d63d 85b0 1e3d 9b53 023e 9187 66bd
00000290: 609f f53d 7352 22bc dfb1 8e3e 3425 8d3e
000002a0: 889b 143d bc0c 3f3e e20e c33b 1b08 ff3e
000002b0: eaca 473e 4f8f f43e 4563 db3c e219 5ebe
000002c0: 7cc0 a13e 2dc8 833e 446f 493c 3ec9 7cbb
000002d0: e109 f4bb dd96 cd3e 9dc2 4c3e dbd5 debd
000002e0: d6e4 0e3e 8ecb f63d 43a4 983e bbc0 13be
000002f0: ad26 f33d 4c21 963e 0b60 a53d f2fa 353e
00000300: 7c20 a33d 7ee3 603f abfa b33d 24a4 033e
00000310: 62c5 f8bc 0cb9 88be 5baa 8a3d 7fa3 a83c
0.16858248 -0.16402149 0.07454941 -0.090689674 -0.009092756 -0.008949139 0.5267991 0.033472717
0.1472237 -0.06659804 0.09632237 -0.09599831 0.11708813 -0.21587627 0.04726642 0.05191827
0.19921272 0.43668264 -0.053174026 0.028156025 0.13172425 0.6205517 0.0790744 0.4843782
-0.0729184 -0.07687788 0.04822846 -0.038282327 -0.050987545 -0.09580341 -0.00015049278 0.40873483
-0.069247544 -0.050819177 0.008802516 0.053537283 0.17194891 0.10571277 0.28425953 0.54454017
0.017588813 0.014102572 0.000856683 0.6724191 0.08996131 0.17411363 0.032608986 -0.14729764
-0.1263807 0.1696604 0.016948879 -0.2095908 0.026468843 -0.21475574 -0.14884727 -0.0055450397
-0.2102329 -0.024571557 -0.13782175 -0.12956993 0.025178744 -0.11454813 0.14410478 -0.07870406
0.042720873 0.04796105 -0.011193928 -0.1990103 0.12921132 0.083210856 0.08623986 -0.16998091
-0.08783168 -0.14839515 -0.057863288 0.013895304 0.06513903 -0.0036103856 0.08743213 0.20158562
0.17515872 -0.05856056 -0.09925564 0.08587045 -0.047421694 0.011081486 -0.028291896 0.027930774
-0.12866588 -0.17693387 -0.18329976 0.06768967 -0.10082403 -0.010174576 -0.048917457 -0.067847736
-0.025995096 0.11436108 -0.056718063 0.022048237 -0.19041581 0.091221906 0.09128017 0.1808567
0.033913203 0.08896401 0.054790035 0.14252068 -0.0104227 0.0791881 0.16941775 0.00036461334
0.10424791 0.14085704 -0.07958621 -0.121590205 -0.2016957 -0.12348425 0.09821264 -0.0465206
-0.047210477 0.05182084 0.00020385139 -0.15513682 0.14783557 -0.042061515 -0.038968418 -0.10512437
0.14703745 -0.0549678 0.03682791 0.073935986 -0.05275635 -0.041554265 0.053349636 0.054058135
-0.00069870317 0.026119402 0.018941589 0.029853923 -0.055833235 0.040402245 0.013585085 -0.13654245
0.18272479 0.041812047 -0.08877428 0.034112472 -0.035215195 -0.1443375 -5.4609907e-05 -0.11270537
0.052369896 0.1259179 -0.060263056 -0.1055834 0.6101276 -0.043264646 0.0912685 -0.045133136
0.10476082 0.03874256 0.12727205 -0.05628163 0.11993289 -0.009907353 0.2787008 0.27567446
0.03628114 0.18657202 0.005952702 0.4981087 0.19511 0.47765586 0.026780734 -0.21689561
0.31592166 0.2573866 0.012294594 -0.0038572098 -0.0074474667 0.40154162 0.19996114 -0.108806334
0.13954481 0.12050544 0.29812822 -0.1442899 0.11872611 0.29322278 0.08074959 0.1777151
0.0796518 0.87847126 0.087880455 0.12855583 -0.030367557 -0.2670368 0.06770774 0.020585774

bias_hh_l0 f4 [200]
00000000: 0139 e93d e70c 09bc 4ec9 8c3d 454d 18bd
00000010: a0a0 b03d 597c c5bd ad1a b53e 0d3a 16be
00000020: 4d6d 11bc aeec 02bd 23e1 ec3b 86c4 87bd
00000030: 0796 f7bd 8ad7 92bd 787f b1bd bf71 e6bb
00000040: 7f6a 0c3e 47f6 703e 5eb0 8cbd cf7a babc
00000050: dca8 01bc 2ea8 fd3e c0a6 cc3c bb8d ef3e
00000060: e982 b4bb 796e 53be a2ec 5e3d cd74 4e3e
00000070: 5e93 08bd 97ff 093d 8105 58bd 72a0 a73e
00000080: 941a 473e cbdf b6bb 8bd0 cf3d 27cc 553e
00000090: 07c8 a23e 4a2c 543d a1fb b13d bfab ed3e
000000a0: ce7d 973d 9c11 2bbd f41e 2abe bca0 263f
000000b0: cd37 9c3d e084 ddba add3 3ebd bfc5 53be
000000c0: 7920 a0bd a01b 733e b2d3 7fbd 103a 923d
000000d0: 283c 09bd 7f21 0bbe d4b2 25be b5ab 953d
000000e0: 2394 8abe 28cf a1bd 2362 e9bd d5a3 65be
000000f0: 0e11 0a3e 5816 cbbd 84a1 143e 5761 d0bd
00000100: dd19 963d ed4d 473d 2e97 eabd 07eb ecbd
00000110: f684 ab3d cd7e c63d 3d14 acbd 12cb 82be
00000120: d26e 2fbd 5524 6ebe f9c2 47bc e6d9 783d
00000130: 20ef 8d3d cbf5 723c 17df b23c 8839 1d3e
00000140: df8e 4a3e 04b7 69bd 7c84 5cbe c814 753d
00000150: a6d5 973d abac 62be c577 1cbe 982a 703d
00000160: 0bcb 93bd 74bf e6bd 018c 03bd 10c0 75bd
00000170: 8d93 2cbe 5b1f 71be 77bc 333e 3100 ffbc
00000180: 9cb8 4fbd 3beb dc3d b601 9abe 8566 04be
00000190: d883 3fbe a372 843e 0585 fbbc 1f08 17bd
000001a0: f75e 4f3c 5a7c 39bd 32b1 b3bd 39ef 793d
000001b0: 094a 85bd 2076 17be 569b 143e c9b7 b33d
000001c0: bf5e 073e a420 cebd f1d9 7abe 35df 9d3b
000001d0: 976f 21be 94e7 143c 9878 bc3d 3f0a 19be
000001e0: 3bc7 5abd 3c67 763d 7fb0 ebbd 37c0 44bd
000001f0: 8429 34bd d8f1 1cbe 6c1d b7bd b2c2 f8bc
00000200: 66de 8d3d cfa7 67bd 14c7 d43d d326 913d
00000210: b168 13be e196 5dbd 57fd 99bd e94b f73d
00000220: 42dc 993d fd25 1b3e 2285 983d 9c22 5a3e
00000230: 619c d13d a892 183e 143c c0bd a1d3 43be
00000240: dbbf 163e 2a7c 353d bdac a83b e1b4 823d
00000250: 055c 4e3e ca16 f53b 8385 e0bd f604 e0bd
00000260: 5075 94bc 7bc7 74bc 44d3 a73d a908 893d
00000270: 0df7 f13e 1ae3 b6bd a4aa 453e 32b2 983d
00000280: 5ffe 76bd 11e3 d53d 5c5b bbbd 6fcf 30bd
00000290: d3a2 2e3d 6e12 4dbd df9d 193c 970b eb3e
000002a0: 4a64 8f3d 838c 143e 8c63 87bd 9bfc 0e3f
000002b0: fe85 ce3c 6db0 193f 5f9e 653d 726a a8bd
000002c0: 488f 573e dc76 843d e67c b1bc 3594 cf3c
000002d0: f3cd 233c 7f67 fc3e 2458 22bd 07db c1bd
000002e0: cd77 acbd 9090 2a3e ef2f b63e 896a 0ebe
000002f0: 6e08 473e d95e 093f 7bc1 4a3e 0128 463e
00000300: 4e6b cfbc f25f 573f cbd8 153e 2f91 a23d
00000310: bb4f c7bb 67ce c7bd d29b d13d 7a3f 433e
0.11387826 -0.008364893 0.06874333 -0.037183065 0.08624387 -0.09642858 0.35371915 -0.14670582
-0.008876157 -0.031963997 0.007228987 -0.06629281 -0.12089162 -0.07170017 -0.08666891 -0.0070326026
0.137125 0.23531447 -0.06869577 -0.022763638 -0.007913794 0.49542373 0.024981856 0.4678782
-0.00550877 -0.2064761 0.05442489 0.20161743 -0.033343665 0.033691015 -0.052739624 0.32739598
0.19443733 -0.0055808774 0.10147198 0.20878659 0.31793234 0.05180005 0.086905725 0.46420094
0.07397042 -0.04176484 -0.1661337 0.6508901 0.07627831 -0.0016900562 -0.04658859 -0.20680903
-0.07818694 0.23741007 -0.062457748 0.07139981 -0.033504635 -0.13586996 -0.16181499 0.07308141
-0.27066144 -0.0790084 -0.11395671 -0.22425778 0.13483068 -0.09916371 0.14514738 -0.10174816
0.07329152 0.0486583 -0.114546165 -0.115682654 0.0837497 0.09692154 -0.08402298 -0.25545555
-0.042830296 -0.23256047 -0.012192481 0.06075468 0.06930375 0.014829109 0.021834893 0.15353978
0.19781063 -0.057059303 -0.21534914 0.05983427 0.07413797 -0.2213618 -0.15280063 0.05863437
-0.07216462 -0.112669855 -0.03211594 -0.05999762 -0.16853161 -0.23547117 0.17552362 -0.031128021
-0.050713167 0.10787054 -0.3007943 -0.12929733 -0.18702638 0.2586871 -0.030703077 -0.03687298
0.012656919 -0.045284607 -0.08774032 0.061019156 -0.06508262 -0.14791155 0.14512381 0.087752886
0.13219737 -0.100648195 -0.244972 0.004817868 -0.15765224 0.009088416 0.09202689 -0.14945315
-0.053412657 0.060157046 -0.11508273 -0.048034873 -0.043984905 -0.15326631 -0.08941159 -0.030366275
0.06927185 -0.05655652 0.10389534 0.07087483 -0.14395405 -0.054098967 -0.07519024 0.120750256
0.07512714 0.1515121 0.07447268 0.21302265 0.10234905 0.14899695 -0.09386459 -0.19123699
0.14721625 0.044307865 0.005147545 0.06382156 0.2015229 0.0074795233 -0.10962965 -0.10938446
-0.018122345 -0.014940138 0.081945926 0.06691105 0.47258797 -0.08930035 0.19303375 0.07455863
-0.06030118 0.104437 -0.09148285 -0.043166574 0.04263575 -0.050066404 0.009376018 0.4590728
0.070015505 0.14506726 -0.06610784 0.55854195 0.025210377 0.6003483 0.056059238 -0.08223428
0.21050751 0.06467983 -0.021666002 0.025339225 0.009997833 0.4929771 -0.03963484 -0.09465604
-0.08421288 0.16656709 0.35583445 -0.13907827 0.1943681 0.5366035 0.1980037 0.19351198
-0.025319722 0.84130776 0.14633481 0.07937848 -0.0060825027 -0.09756165 0.102347985 0.19067183

weight_ih_l1 f4 [200, 50]
00000000: bca2 08be caeb 7fbd 67b8 c43e de8e 23bf
00000010: 6d0a 013e 5629 d73e 40d5 a53f 40ad 833e
00000020: eb33 ff3d a3bd 00be 46a1 983e 72df 1c3e
00000030: 15df b43d 58d5 1f3e 3e37 aebd 821a 2bbe
00000040: 227e 16bd b124 2ebf d711 6a3d e948 3fbc
00000050: 2dda 66bd ea48 76bf dd7c 94bd 60b6 573e
00000060: 3798 313f a0ea 6cbe 1b29 323f 92ff 45bc
00000070: b933 873d 6625 04bf beb1 4b3e e3f2 4f3f
00000080: 0265 debe 0435 043f af25 823e 0823 333d
00000090: 9296 843f b65f 913d 91ae 1a3c e036 70be
000000a0: 506f cb3d 9739 893d ecf1 83bf 7821 ddbf
000000b0: 9b4a c13e 07ab 073e b6d4 d3be 002a 6fbd
000000c0: 891c b03f 1b69 9ebd 231c 17be ce2a 993e
000000d0: 8b94 c8be ab28 ba3e a485 243d 29da 803c
000000e0: c145 93be 1cb7 23bd 2172 b5be 7c60 24be
000000f0: 6664 763e fa65 8a3e c50d c7bc 68ab 0d3e
00000100: 91f6 e43d 4e7e bfbe 5ccf ae3d 49cb a33e
00000110: 69ef d53e d14d 8ebe ef73 f13d b96e da3e
00000120: 7281 a4be 10f1 a9be f2dd 6abc 3e36 8fbc
00000130: 81f7 29be 2eb1 72be fc62 2b3e f100 d93d
00000140: f374 20bd f4a2 9cbe 8315 1d3f 024a 85bb
00000150: 4308 0d3e 59ad 60be 7531 78bc bde6 d93c
00000160: 991f ab3d faa7 703e a786 0d3e 173b 03be
00000170: 6159 bb3d 36eb 933e e9ec a53d a0db 953e
00000180: 8251 14bd bd04 413e f5b9 5fbe 3b57 0b3b
00000190: 2155 cebe dc40 9bbc 3341 fb3d c936 113e
000001a0: b267 3a3e 3af3 e03d ccdb b7bc 849d 663e
000001b0: 98c6 88bd 4245 42bd cf59 663d f581 ff3d
000001c0: d513 b23e f681 403e 5026 10bf 56aa ff3d
000001d0: 707e a9be e381 443e 3618 a93e 7ea3 edbd
000001e0: d0d2 bebd 32bb 1bbe 2c7f a3bd aae1 febd
000001f0: a75c 953d 9de2 61bd 9d34 b9bd 173f 0bbe
00000200: bf22 26bd 5e89 93be 8637 b83d c098 b2be
00000210: 2c19 89be bba0 203d 67e6 c7bd 90fa b83e
00000220: 99f6 2f3e 258b 223e 698c 973e 4a5b 8e3e
00000230: 13fa 3cbe 24ca ba3e 344f 31be 8c13 2ebe
00000240: 55ee 143e f613 ba3e 9739 073e 3241 863e
00000250: ff86 653e 7429 ffbd 4b6a 45be 9dfb 973d
00000260: 3744 2cbe c53a a83e 3779 a43e c52c 1bbe
00000270: 3180 a13d 8173 833e afd3 bbbe 6054 02be
00000280: c110 a43d c283 1c3e 51aa 9e3e 486a 573e
00000290: 5f48 14bf ea1c 3fbe dd40 06bf 3cc2 b73e
000002a0: 000c 063e a90d 35be 9faf 053d 84ee 9dbc
000002b0: c62e 553e a70d bcbe 11c3 de3c f0f5 5abe
000002c0: 1885 a5be 6632 97be 8f06 aa3e ab4b 79be
000002d0: 83a6 aa3e 4258 a1be 2b98 063d 5c3c 3fbd
000002e0: 29f7 4cbe 9f17 223e f039 d8bb c4b8 fe3d
000002f0: e9d9 e13e f424 be3e 4d0b 39bc 20f3 0d3f
00000300: ae2b c63d 695b 453d 1d1b 8b3d 1a19 f63d
00000310: aca5 803e 71ec 283e 790e 3e3e 0fd8 2bbe
00000320: f262 48bd b393 713e 68a2 163d d004 ebbd
00000330: 6832 fbbd 1242 723e efa9 cc3e fcab 1a3d
00000340: d56d 7c3d 7c28 18be 518a 363e d4ac cf3d
00000350: 8f1c 0abe ad4b 19be 290f 1f3e bd4d 14be
00000360: 85d3 c63d 2d80 cfbd d83a 783e 7482 fe3d
00000370: 7522 34be 2c49 02be c7dd 5fbd 77dd dd3c
00000380: edbf 1d3f 82c6 b4bd 0efd 093f db35 b83d
00000390: 1fa9 06bd cf8b 983e 3141 643e 78e6 2d3e
000003a0: f2aa 543c 6edf 2b3e 7ff6 9b3e 2c6a 4f3e
000003b0: 01b8 ff3a c373 b5bb 0146 113e 97c5 fd3d
000003c0: 6cf0 9bbd 831b 4c3d 249e abbe 9c0e 1bbe
000003d0: c9f9 133e c36c cdbd 3cc0 09bf 05e6 7dbe
000003e0: ad13 953e 46e4 11be fe57 133d 8d4e 26be
000003f0: 8c6e 1f3e 45ae a3bd 4551 bd3e 5c61 bc3e
-0.13343328 -0.062480725 0.38421938 -0.63889873 0.12601633 0.42023724 1.2955704 0.25718117
0.124610744 -0.1257234 0.29810542 0.15319613 0.08831612 0.15608728 -0.0850663 -0.1670933
-0.036741383 -0.68024737 0.05714592 -0.011675098 -0.056360412 -0.9620501 -0.07250378 0.21065664
0.69372886 -0.23136377 0.6959397 -0.0120848585 0.06601662 -0.51619565 0.19892022 0.8122999
-0.43436438 0.51643395 0.25419375 0.04373458 1.035845 0.070983335 0.009441034 -0.23458433
0.099333405 0.067004375 -1.0308204 -1.7275839 0.37752232 0.13248836 -0.41373223 -0.058389664
1.3758708 -0.07734891 -0.14756827 0.2991547 -0.3917583 0.36359152 0.040166512 0.015729027
-0.28764156 -0.03996955 -0.35438636 -0.16052431 0.24061736 0.27030927 -0.024298558 0.13834918
0.11179841 -0.3740105 0.085356444 0.31991032 0.41784218 -0.27793744 0.11789691 0.426626
-0.3213001 -0.3319173 -0.014335142 -0.01748192 -0.16598321 -0.23700401 0.16736978 0.10595883
-0.03917403 -0.30593073 0.6136095 -0.0040676603 0.13772683 -0.21941127 -0.01514851 0.026599282
0.08355636 0.23501578 0.13820897 -0.1281551 0.09147907 0.2889039 0.08101828 0.29269123
-0.036210544 0.18849464 -0.2184828 0.002126171 -0.40299323 -0.018951826 0.12268295 0.14181055
0.18203619 0.10983892 -0.022443675 0.22521025 -0.06678504 -0.04742933 0.056237992 0.12475959
0.34780756 0.18799576 -0.5630846 0.12483661 -0.33104277 0.19190173 0.33026284 -0.11603449
-0.09317553 -0.15208128 -0.079832405 -0.12445386 0.07293063 -0.055147756 -0.09043238 -0.13598286
-0.04056048 -0.2881574 0.08994965 -0.34882164 -0.26777017 0.039215785 -0.09760743 0.36128664
0.17183913 0.15873392 0.29599312 0.27804023 -0.1845477 0.36482346 -0.1731537 -0.16999644
0.14544041 0.36343354 0.13205563 0.26221615 0.22414778 -0.124590784 -0.19278829 0.07421038
-0.16822897 0.32857338 0.3212373 -0.15153797 0.07885779 0.2567406 -0.3668494 -0.12727499
0.08011008 0.15284637 0.30989316 0.21036637 -0.5792293 -0.18663374 -0.52442724 0.35890377
0.13090515 -0.17680992 0.03263819 -0.019278772 0.20818624 -0.36729166 0.027192624 -0.2138288
-0.32328105 -0.29530638 0.3320813 -0.24345271 0.33330163 -0.31512648 0.032859962 -0.046688423
-0.20016159 0.15829323 -0.0065987036 0.12437585 0.44111565 0.37137568 -0.011294198 0.55449104
0.096763 0.04818288 0.06792281 0.120165065 0.25126398 0.16496445 0.18560208 -0.16781639
-0.048922487 0.23591499 0.036775976 -0.11475527 -0.122654736 0.23658016 0.399734 0.037761673
0.06162818 -0.14859194 0.17826201 0.10140386 -0.13487457 -0.14970274 0.15533127 -0.1448278
0.09708313 -0.101318695 0.24241197 0.12427226 -0.1759127 -0.12723225 -0.054654863 0.027083142
0.6162098 -0.08826925 0.53901756 0.08994647 -0.03287613 0.29794165 0.22290494 0.16982448
0.01298021 0.1678445 0.304615 0.20255345 0.0019509793 -0.0055374815 0.1418686 0.12391203
-0.07614216 0.049830925 -0.3351909 -0.15142292 0.14450754 -0.1003051 -0.5380895 -0.24794777
0.29116574 -0.14247236 0.035972588 -0.16240902 0.15569514 -0.07992224 0.36976066 0.3679303

weight_hh_l1 f4 [200, 50]
00000000: a7e1 21be fca2 8c3e 59cb 113d 1504 d2bd
00000010: fdaa 37be d2c7 4dbd 1203 87be 8c90 873d
00000020: 4e1a 323e 8d26 9abd c89a 87be cecf d7bc
00000030: f0fb 3c3c 35eb 643e d17e 8fbd bd00 963e
00000040: f71c 97be 6061 4dbe a0aa 6bbc 785d 08bc
00000050: 42dc 20be 11fc 37be 2ccd eb3c 4737 1a3c
00000060: 0782 55be b5d6 8cbd d3f7 d33d c3d2 123e
00000070: de01 ce3c 788e f73c 1a58 203e b995 2abd
00000080: bc26 cf3d 52a2 83be d0a5 7d3c dfe6 b23e
00000090: 6b23 edbc 5444 4f3d a056 4bbb 56be 52be
000000a0: 00a0 78be f322 40be 3c92 a7bc 4198 c93d
000000b0: f711 ecbd 1950 efbe 3f00 da3d ec07 10bc
000000c0: ad5c 30bd c38d cc3e 2093 c03e bef0 153e
000000d0: f30a 323d 40fa faba 7640 d5bd a8a2 eb3c
000000e0: 8c7a 66be 8351 943e bbde 8b3e 1f78 453d
000000f0: cdbe 8dbe 1618 f83d aa5e 71bd d475 9cbe
00000100: 7f6d e9bd d024 80bd 2b74 693d 16fd 0ebe
00000110: ae6b c8be 9d1d 1a3f f897 9a3e 88b3 08be
00000120: b185 8dbd 4957 7a3c fd2a 95bd 204d f0bd
00000130: 9668 783e e88f 1b3e fa90 e8bd 6b79 1cbe
00000140: 2781 a43c 8685 2a3d a89a 8f3c 82a5 b3be
00000150: 18dc e83c ef77 213e 1cc7 073e 1665 4ebe
00000160: eb03 c13e d853 193f cd42 13be e488 633d
00000170: 8ea5 323e 7dbf cebd 37fe f8bd 37b5 0c3e
00000180: fda9 b03d 877b 653b b5ff 03be c4f3 2e3c
00000190: 3816 0bbe 572f 823e 6ca5 32bd 7656 4dbe
000001a0: 21a9 84be 3a0b 7abe c180 d2be 9ac8 9dbd
000001b0: 2fab a23d f429 263d cfd8 16be e960 c93d
000001c0: 9014 e9bd f2e8 a1bd 3a72 8e3e 6e7b 453e
000001d0: 3ffb babc 31e6 85bd b745 453e ec97 08be
000001e0: c3fe 753e 99ff 91bd 545e b93d df14 dbbc
000001f0: d6f0 a0bb d332 81bc a089 b5bd f9db da3d
00000200: 42a7 843e ab4e 9c3e 09ad 683d a5e3 063e
00000210: aec0 71be 1d87 3ebe 16d0 683d 6c34 743e
00000220: 7bef 3c3e ba6c debc 4fbd d2bd af42 13be
00000230: 598a f7be d4fc 69be b474 5e3e 8d6a fbbd
00000240: b1f1 b83d 15ba 98be 0e6c 153e 6d35 1e3e
00000250: 0d75 843d 6172 a63d 2de9 18be 8d7e 853d
00000260: 3e18 a23d 3a2f 3cbe 78ab 01bd de01 b13d
00000270: 7f35 41be 1176 d53d cfb9 ce3d f8d1 3bbe
00000280: 34d1 1a3e 5c96 36be 8961 103e 0b94 f33c
00000290: 9b47 bc3d 144a 26bd 981f 9c3d cc6c 07be
000002a0: 3305 89bd d706 34bd 5215 a0be a8fe 49be
000002b0: ba44 d9be 5674 b5bb d4b2 20bd f394 05be
000002c0: b776 343e 0e72 0b3d dfa9 493e 1d86 7fbd
000002d0: 863d 123e 2576 4d3e 6e53 9cbe 3a7b d6bd
000002e0: 184c ddbd 29d9 84bc 68dd e63c 468c 29bd
000002f0: f153 0dbe 689b b1bd fcf0 ab3c 4352 2ebe
00000300: b8b8 0e3e 7a7f 0a3e c200 f8bd d337 a23d
00000310: 64bf d93b e49a 093e 21d9 12be f20b 14be
00000320: bdd4 4e3e 3d40 873d 0d2b 213d 3995 fabd
00000330: 5b37 d93d 7a51 9e3d 76ec bebe 2f63 843e
00000340: 7a38 843d 09bf f0bc c9ca 533e dc7b 96bc
00000350: 45e4 433e b606 903e 9f02 4ebe 31e4 283e
00000360: a563 253d 6abc 203d 3cd8 a2be eaae 833e
00000370: c4fa 05be 553c bfbe b3a8 7abe 208b ab3d
00000380: 3a08 32be 0e3f 9e3c c302 cd3d b6b2 4c3e
00000390: ee94 953e 386d d1be 09e6 053e ff91 623e
000003a0: a7c2 243d cb7d 773d 9253 43be 88bc 763c
000003b0: 8980 15be 22cf a93d d3eb 3a3e d1ea 9c3b
000003c0: 92c8 8dbe 96d3 77be ca49 cfbe dfeb dcbd
000003d0: 0639 8dbe 5a7c 14be 3e6d 983e deb9 24bd
000003e0: 34ef f6bb 5819 673e 7d8b c43e 47fc 2b3e
000003f0: 4e48 813d fa73 a33d e80b 6ebf dd8c 683d
-0.15808736 0.27468097 0.035594318 -0.10254685 -0.1793632 -0.05023939 -0.2636953 0.06619367
0.17392847 -0.07526884 -0.26485276 -0.026344206 0.011534676 0.2235535 -0.0700661 0.29297438
-0.29514286 -0.20056677 -0.014383942 -0.008323066 -0.15709022 -0.1796725 0.028784357 0.009412593
-0.20850383 -0.068768896 0.10350003 0.14338212 0.025147375 0.030219302 0.15658608 -0.041646693
0.1011481 -0.25709778 0.015481427 0.34941766 -0.028947553 0.050602272 -0.0031026974 -0.2058042
-0.24279785 -0.18763332 -0.020455472 0.09843493 -0.11526864 -0.46740797 0.10644578 -0.008790951
-0.043057133 0.39951906 0.37612247 0.14642617 0.043467473 -0.0019148067 -0.104126856 0.028764084
-0.22507685 0.28968439 0.27318367 0.04821026 -0.27684632 0.12113969 -0.05892817 -0.30558646
-0.11397838 -0.062570214 0.056995552 -0.13963732 -0.39144653 0.60201436 0.30194068 -0.13349736
-0.06910265 0.015279599 -0.0728359 -0.117334604 0.24258646 0.15191615 -0.11355777 -0.15280692
0.020081116 0.041631244 0.0175298 -0.3508721 0.028425261 0.15768407 0.13259548 -0.20155749
0.37698302 0.5989356 -0.14380951 0.05555047 0.17445967 -0.10095117 -0.12157863 0.13741003
0.08626173 0.0035016255 -0.12890513 0.010678235 -0.13582695 0.25426742 -0.04361479 -0.20052513
-0.25910285 -0.24418345 -0.41113856 -0.07704277 0.07942807 0.040567353 -0.14731143 0.09832937
-0.11380875 -0.07905759 0.27821523 0.19285366 -0.022824882 -0.06538046 0.19264875 -0.13339204
0.24022965 -0.071288295 0.09051195 -0.02674335 -0.0049115224 -0.015771305 -0.088641405 0.10686488
0.25908858 0.3052877 0.056805644 0.13172777 -0.23608658 -0.18606229 0.05683907 0.23848122
0.1845073 -0.027151454 -0.10290014 -0.14380907 -0.48347738 -0.22850353 0.21724206 -0.12276182
0.09030474 -0.2982947 0.14592001 0.15450068 0.06467638 0.08127285 -0.149327 0.06518278
0.0791478 -0.1837739 -0.031657666 0.08642934 -0.18868063 0.1042291 0.10094034 -0.18341815
0.15118867 -0.17830795 0.14099707 0.029733678 0.09193345 -0.04059799 0.076232135 -0.13225096
-0.06690445 -0.043951835 -0.31266266 -0.1972605 -0.42435247 -0.00553755 -0.039233044 -0.13045101
0.17623411 0.034044318 0.19693707 -0.06238376 0.14281282 0.200646 -0.30532402 -0.10472722
-0.10805529 -0.016216831 0.028181747 -0.04139354 -0.13801552 -0.086722195 0.020988934 -0.17023568
0.13937652 0.13525191 -0.121095195 0.07920804 0.00664513 0.13437992 -0.1434064 -0.14457682
0.2019834 0.06604049 0.039347697 -0.12235493 0.10606261 0.07730384 -0.3728978 0.2585692
0.064560845 -0.029387968 0.20682825 -0.018369608 0.19130047 0.2813012 -0.20118187 0.16493298
0.04037823 0.039242186 -0.318056 0.25719386 -0.1308394 -0.37350717 -0.24478416 0.08376145
-0.1738595 0.019317176 0.100102924 0.19990048 0.29215187 -0.4090364 0.13076033 0.22126006
0.040224697 0.0604227 -0.19074848 0.015059598 -0.14599814 0.082914606 0.18254022 0.0047887345
-0.27692086 -0.24201807 -0.40485984 -0.10787176 -0.27582568 -0.14500561 0.29770845 -0.04021632
-0.0075358395 0.22568262 0.3838767 0.16795455 0.06312619 0.07981105 -0.9298692 0.056774963

bias_ih_l1 f4 [200]
00000000: 149e ab3e 0757 4c3e 61b8 a63e f5f2 013e
00000010: 3a9f 823d 0058 bbbd 71e0 58bd 6544 013e
00000020: f5bc c7bc af0a 2d3e cf30 453d 1e6e 003f
00000030: 694c 4cbd 1d18 1a3d 3307 923d 2edc d23d
00000040: 291e 1d3e cd01 80bd 499e c93d 2f82 80bd
00000050: 614e 9cbb f601 b43e a7e0 c63e 09f3 88bd
00000060: 561c 9bbc 94ac 343e 91d4 e13e f65d 773a
00000070: 7108 033e 37b2 593d 6ff9 b23d c96a 0e3e
00000080: 0943 8dbd 38eb 0e3e 62bb a93e 3cbd c7bd
00000090: d0c3 0e3e 023e 46be 1420 0bbd b1e8 d93e
000000a0: 746a e93d ae43 3e3d dc04 80be 891f b53c
000000b0: d9da 9e3e 7936 a73d b68d 703d c1f9 2f3e
000000c0: 43da 753e b0f5 c13e 0cb8 533e 1e56 373d
000000d0: 047f 48bc fc61 d43d 7037 383e 3ab0 5ebe
000000e0: 39bc d93d edab a73c 05f1 f03d 5aab fd3d
000000f0: 5a83 e83e 94b6 c33d be6c 83be cd6f ebbd
00000100: d34b 83bd 2cbc 81bd faa3 203e 5bb5 113e
00000110: 7c5a 863e 0651 193e fa6f b73d 0bce 893e
00000120: 54b7 8a3e 40a7 db3d fbfd 383e d3f3 683e
00000130: cd6e 7d3e f00b 58bd e7da 2c3d 0490 d03d
00000140: 0e22 e3bc ce0c 6d3e 09f9 933e f8ae e73e
00000150: 8f8e 1e3e 1765 203e 78e4 e03d 8b08 483d
00000160: 610f 613e c962 7b3d 124d 803e 0c6a 743e
00000170: c0e7 fd3e 46a9 f93d b53f 7e3d 9701 cf3e
00000180: 0f1d f13b 067d 233e e71c 6dbd 24ca 7c3e
00000190: 952e 1c3e 987d 903e 455e 4b3e 3e4e ae3d
000001a0: 2c89 b1bd 751f a33d 824d e3bd be3f 143f
000001b0: 8d8e 383e 15f6 08bc 01e3 fa3c d945 27be
000001c0: d90e d4be 79cb a2bc 26d0 5cbd aeb1 94b9
000001d0: 14a5 ebbd 29f8 a1bc 6526 82bd 219c 443d
000001e0: be16 94be 9128 87be 5d6f 18be 96c3 3a3e
000001f0: 6fa6 b43d 48c9 87be 20cd b13e 800b a83e
00000200: 6b91 1fbe 8a46 21bd 37d1 69bd 6faf 413e
00000210: 9c9b fdbd 22ba 5cbe 4a7e cbbe 69ca ab3d
00000220: 4e4b 6abe 09c7 0cbd 52a9 29bd 0ae2 453e
00000230: 05a2 0c3d e9ce 79be d284 663c 249c 12bd
00000240: 3561 fcbd 3b9e 74bd f73f 103e b4e6 393e
00000250: 917a 80be 0c42 f5bb 5a85 b33e 1c4a 523e
00000260: 486b 273e 8089 6b3d 7a3a 5c3e bd89 573e
00000270: 520f 0a3d 4c0a e23e e8b8 c83e 983e 853e
00000280: be73 623e 200c a73e eb95 1d3e eec1 2f3d
00000290: 980e 423a a3c7 f93d 7f0e 58bd 64dd 3f3e
000002a0: 91c2 c03d 12e0 553e dbae be3c 9401 99bd
000002b0: 26b1 9f3e 4e3a df3d 29dd 2f3e 37cf d23e
000002c0: f956 053f 83e4 573e 899d cc3e 1fd5 1d3b
000002d0: 8402 9b3d b092 cc3d 89a1 333e edcd 623d
000002e0: f25f dc3d 78d9 e33d 30fa 243e f509 cebc
000002f0: 437f 613e fe2a 0a3f deef 563e d8e6 583c
00000300: 43fc 553e 1666 cbbd 1f5d 933d 4049 b73e
00000310: 0c65 6b3e 2179 9fbd ce9d 063f ccff f43d
0.33519042 0.19955073 0.32562545 0.12690337 0.06378026 -0.09147644 -0.05294842 0.12623747
-0.024382094 0.16898607 0.04814225 0.50168025 -0.049877558 0.037620652 0.071302794 0.10295902
0.15343536 -0.062503435 0.098446436 -0.062748305 -0.0047700857 0.35157746 0.3884327 -0.0668698
-0.01893441 0.17643958 0.44107488 0.00094363035 0.12796189 0.053148475 0.08738982 0.13907923
-0.068975516 0.13956916 0.33150774 -0.097528905 0.13941884 -0.19359592 -0.03396614 0.42560342
0.113972574 0.046451263 -0.25003707 0.022109764 0.31026343 0.08164687 0.058728896 0.17185117
0.24009041 0.37882757 0.20675677 0.044759862 -0.012237314 0.103702515 0.17989898 -0.21746913
0.10631604 0.020467723 0.11764721 0.12386198 0.45412713 0.095563084 -0.256689 -0.11495934
-0.06410947 -0.06334719 0.15687552 0.14229338 0.2624091 0.14972314 0.08956905 0.2691501
0.27092993 0.1072526 0.18065636 0.22749262 0.24749298 -0.05274576 0.04220095 0.10183719
-0.0277262 0.23149416 0.28900936 0.45250678 0.1548407 0.15663563 0.10981077 0.048836272
0.21978523 0.061373506 0.250588 0.23868579 0.49590874 0.121904895 0.062072475 0.404309
0.0073582004 0.15965661 -0.05788889 0.24686486 0.15252145 0.2822082 0.1986018 0.08511017
-0.086687416 0.07964984 -0.11098768 0.5790976 0.18023129 -0.008359452 0.030625822 -0.16335239
-0.41417578 -0.019872414 -0.053909443 -0.0002836114 -0.115060955 -0.019771652 -0.063549794 0.04800046
-0.289236 -0.26398137 -0.14886232 0.18238673 0.08820807 -0.26520753 0.3472681 0.32821274
-0.15582816 -0.039373912 -0.05708429 0.18914579 -0.12383196 -0.21555379 -0.39744788 0.08388216
-0.22880289 -0.034369502 -0.041421242 0.19324508 0.0343342 -0.24395336 0.014069753 -0.03579344
-0.12323228 -0.059721213 0.140869 0.18154413 -0.2509351 -0.00748468 0.35062677 0.20536083
0.16349518 0.057504177 0.21506682 0.21048637 0.033706017 0.4414848 0.39203572 0.26024318
0.22114465 0.32626438 0.1538922 0.042909555 0.00074026873 0.12196281 -0.0527482 0.18736798
0.094121106 0.20886257 0.023276737 -0.07471004 0.3118984 0.108997926 0.1717421 0.41173717
0.52085835 0.21083264 0.3996394 0.002408333 0.07568839 0.09988916 0.1754209 0.055372167
0.107604876 0.11125463 0.16111064 -0.025151232 0.22021203 0.5397185 0.2098994 0.013238631
0.20897011 -0.09931581 0.07195496 0.35798073 0.22987765 -0.077867754 0.5258454 0.11962852

bias_hh_l1 f4 [200]
00000000: c207 453e dfe0 d53e e0cc 883e 23af 1f3e
00000010: 791d 69bd 1924 863d 0452 123d 5aa3 493e
00000020: 4d50 8f3d 77ec 963d add6 e1bd 15b1 863e
00000030: 4602 9d3d 9235 64bd 83eb 9d3b c06d 2f3e
00000040: 8ea6 823c 271a a53d f659 633e c193 613c
00000050: 4f22 a3bd 4442 c73e 7806 9e3e 7dbe ddbc
00000060: 7754 8e3d fc9e 583e a722 ce3e ba60 9e3c
00000070: 0748 ac3d a436 8d3d d42e d6bc 8ada 8a3e
00000080: 419f 603d e0c1 bfbc bd0e 2e3e b619 cdbc
00000090: 4804 563d c9c2 83be de18 2ebe 22a2 5f3e
000000a0: 48fa 763e 4447 d03d 6308 46bd b5f0 073e
000000b0: 9f88 cb3e 643d 2cbe 128c e53d ca10 243e
000000c0: b173 4b3e c1a0 063f 6658 3c3e 439e 763d
000000d0: 5946 513e a59f 403e 6d39 1f3e 0bd5 3fbd
000000e0: 2535 c43d 1e7b 393e 8140 4a3e a766 923e
000000f0: dc58 903e 7f95 493e ce21 cdbd 2d8a 223d
00000100: ad43 193d 3b42 403c 880a 0c3e 15ef 443b
00000110: 9205 743e 77fe b13d 77ab 1abe 039e bb3e
00000120: 70d2 3b3e eee7 003d 4516 303d 0086 b63e
00000130: f339 803e 8e4c a8bd aca4 fdbc f6cc e53d
00000140: 3a37 2bbd 75d7 893e 294e 0f3e b88c de3e
00000150: 9935 603e fd10 65bd 2bd6 0f3e a41c 163e
00000160: 7e87 533e 28ad 393e 50a8 663e 9e95 e43d
00000170: 82de c53e 8f1b 7d3c f3bf 1d3e a4d6 ae3e
00000180: b81a 383d 6751 293e d774 f2bd a4fc 963e
00000190: 4fa4 61bd 2a82 9d3e fc49 253d 5217 013e
000001a0: cf6b ebbd 5ead 27be 4427 6dbd 8628 f43e
000001b0: fb37 523e f1cf 72be 6d47 b9bc 469b 1bbe
000001c0: eb3b 56be ddaf c63a dd07 e1bc 6302 8f3d
000001d0: 3863 3fbe 3ae2 8ebe e0d3 32be 2731 f03c
000001e0: 591a 82be be11 94be d05a e1bd fad6 90bc
000001f0: 6265 e8bd c394 6fbe d932 263e c283 833e
00000200: 5ea0 96bd 42c1 1abd 2e26 413e c010 553e
00000210: 805a 3abe 97ee 0bbd 0486 a1be 7d15 803e
00000220: 72bf 82be 1c99 34bd 42fe 36bd 71ae bf3d
00000230: 7749 b0bd 7f38 86bd 4642 9fbd 4d2a 263d
00000240: 097c 50bd e4b8 aebc 9ca9 c33b bec2 7a3c
00000250: b306 87be 965b 76bc e494 f83e c4e5 ca3d
00000260: 508e 8a3e 1fba 293e 4651 843e f451 0a3e
00000270: 5872 18be 7762 af3e f53e a13e 17b9 e93e
00000280: e113 5e3e 33d1 873e 9c94 433e 88bb 1ebd
00000290: 9321 4c3d 4b9c 0e3d c89a 0a3d edf5 813e
000002a0: 09be 88bc 6f54 683e 12a2 283d 8ee4 b43c
000002b0: 00b5 3b3e a713 21bd 6d56 87bd 7a79 643e
000002c0: 09e9 113f f2bb 923e 6ac1 c33e dd4a e3bd
000002d0: 4afb 9b3d cfd3 4b3a 9ed7 443d db28 843e
000002e0: 812a d03d 9ff6 fc3d 5d5b 563d c7ff 663d
000002f0: 5f0e c13c db79 103f 55f0 723e fffb 3f3e
00000300: c40e 993e 2283 0b3d 6205 a93e 6386 803e
00000310: 38cc 493e de5f 433d bd14 cc3e 24e4 a03d
0.1924124 0.41773126 0.26718807 0.15594153 -0.056912873 0.06549854 0.035722747 0.1969122
0.06997738 0.07369321 -0.11027274 0.26306978 0.07666449 -0.05571515 0.004819335 0.1713171
0.01594856 0.08061629 0.22202286 0.013768137 -0.07965528 0.38917744 0.3086431 -0.027068371
0.06949704 0.21154398 0.40260813 0.019333232 0.084121756 0.068951875 -0.026145376 0.27119857
0.054839376 -0.023407876 0.1699781 -0.025036674 0.052250177 -0.25734547 -0.17001674 0.21839193
0.24118912 0.10169843 -0.048347842 0.13275416 0.3975267 -0.16820294 0.11208357 0.1602203
0.19868352 0.5258904 0.18393096 0.060209524 0.20436992 0.188109 0.1554925 -0.046834033
0.09580449 0.18113372 0.19751169 0.28593943 0.28192794 0.19685934 -0.10016213 0.039682556
0.037418056 0.011734541 0.13675892 0.003004973 0.2383025 0.086911134 -0.15104471 0.3664399
0.18341994 0.031471185 0.042989988 0.3564911 0.25044212 -0.08217727 -0.03096231 0.11220734
-0.041800715 0.26922193 0.1399466 0.43466735 0.21895446 -0.055924404 0.14046542 0.14659363
0.20657155 0.1813246 0.22525144 0.1116135 0.38646322 0.015448465 0.15405254 0.34148133
0.044947356 0.16534959 -0.11838692 0.29489625 -0.055088338 0.3076337 0.04035376 0.12606552
-0.11495172 -0.16374728 -0.057898775 0.47687167 0.20529167 -0.23712136 -0.022617066 -0.15195951
-0.20921294 0.0015158613 -0.02746957 0.06982877 -0.18690193 -0.27906972 -0.17463636 0.029320313
-0.25410727 -0.28919786 -0.11003649 -0.017680634 -0.11347462 -0.23396592 0.16230334 0.2568646
-0.07354806 -0.03778196 0.1886222 0.20807171 -0.18198586 -0.034163084 -0.31547558 0.25016394
-0.25536686 -0.04409133 -0.044676073 0.09359444 -0.08607762 -0.065537445 -0.077763125 0.040567685
-0.05089954 -0.021328397 0.0059711467 0.015305219 -0.263723 -0.015036484 0.48551095 0.099071056
0.270617 0.16574906 0.25843257 0.13507825 -0.14887369 0.3425481 0.31493345 0.45649025
0.2168727 0.26526794 0.19099659 -0.038753062 0.049836706 0.03481702 0.033839017 0.2538294
-0.016692178 0.22688459 0.041170187 0.02208164 0.18330765 -0.039325383 -0.06608281 0.22311965
0.5699621 0.28659016 0.382335 -0.110982634 0.07616289 0.00077753974 0.04805719 0.2581242
0.10164357 0.12351727 0.052333225 0.056396272 0.023566423 0.56435937 0.23724492 0.18748473
0.29894078 0.034060605 0.3301192 0.2510253 0.1970681 0.047698848 0.39859572 0.07856014

weight f4 [10, 50]
00000000: f2ec 793e b2ec c4bd ecba 13bd b7e1 1c3f
00000010: 89fa e93f 5c14 1fbe ff7a 823f b994 d23e
00000020: 5a11 dcbf a42b 36bb bde8 523f cee2 963e
00000030: 3098 a5be 0ab5 83bf 69a1 143e f336 8fbf
00000040: 0a2f e33f 8509 e13e 0fb8 b13f c20d 3dbe
00000050: 80b0 f1be 856b e03f 98a9 abbe 4d12 e33e
00000060: ceda 123e 2c9e bc3f 11ba 123f 1d9f 173f
00000070: 7db2 bb3f 4ebc 27bf 135c 9abf 0523 263d
00000080: d952 1a3f 99e6 213f b9f9 c53d c91d 25be
00000090: fba2 9abe b3c9 96be 7cac 9c3f c697 993e
000000a0: 11e6 a33f d89f 903f a646 73bf f1b2 4e3f
000000b0: a739 e0be cc3e 1e3f eb40 223e a6a1 45be
000000c0: fddc 9cbe 413d f1bd 7b99 053e 8c9b 88be
000000d0: efa2 753f 613b a73e 7305 1fbf 08b5 363c
000000e0: 00bd 403c a5b0 433f 8e8f 153f 8f68 9ebd
000000f0: a71c 473e 23e5 2fbf 7b3e 863f a890 c93d
00000100: 8190 95be 2996 63bf 98fa ac3e d7fa 8b3e
00000110: 8ef9 edbe 3687 463f 9cbe b6be 1b21 1dbf
00000120: 30cd d6be 3707 803d 0a85 4f3e 7dee 4dbf
00000130: b927 bb3e 9694 053f 0b6e 2cbf 8edc 6cbf
00000140: 4f27 0a3d f740 e63d 48f1 11bf 9ddd 893d
00000150: 0eca 3ebf 5dcf 993c efec 513e 6e23 0e3f
00000160: 4cd4 8b3f 7bcc 2c3f b4f2 803e 4016 77bb
00000170: 4778 dd3e 97a2 013f 38b9 b63e febf 5d3e
00000180: d402 9dbf 3f5b e93d 1c81 d63f 00b4 78be
00000190: 4111 1340 cbf7 e13e f531 fcbe 956d 103e
000001a0: aa19 923e 9c35 a9be 3f01 0ebe b37c 9fbc
000001b0: 591d 7dbe 2932 7ebd e126 19be 4879 ca3f
000001c0: b1e4 a7bd 8467 d5be d04c 003f 23c6 a13f
000001d0: 4a80 0b3f 768f ca3e 54bc c13e 3c76 4dbe
000001e0: 9cda 893e 3b6a 363f cf69 9f3f 5e36 853e
000001f0: f4c3 fcbe a86c 843f d127 c7bf dae6 293f
00000200: 3b3d 4bbf fe2d 71bf 866d 4fbe d14e d53e
00000210: 1c2b ba3d 14e5 0dbe 6d89 b7be 6b84 a5be
00000220: 3520 8ebd b93f 63be 1186 423f e1ce a53e
00000230: c8b2 2cbe b747 7abf 4758 39bf 4a96 f3be
00000240: 0e48 dabe 4770 ba3e 2fc0 f23e 1e66 233f
00000250: a0b6 ecbd 6207 03be 3ca3 b0be 838c 93be
00000260: 1c0c 28be 7e69 67be 96fa 083d bd41 85bf
00000270: 439e a13d 76f9 003f 9af8 413e 75bb bdbd
00000280: e165 613d da0d fe3d 6cf2 b6bf b19f 043f
00000290: 8676 75bf f0a4 833f 1d68 1dbf 913c d33e
000002a0: 8f4b 9cbf 7ad7 3cbe e3c6 413f f5cc b8bf
000002b0: b29b 08bf 00cd 973d 410a c6bd 8900 23be
000002c0: 50fc 5d3e 37c6 b4be 7f72 023e 105e 203f
000002d0: 5544 003b 1dbf 4ebf 7c9f 233d 59b2 4a3e
000002e0: dce8 d43e 4422 efbe b7b8 95bd 3375 00bf
000002f0: d240 90bf 9120 fb3d 8ed4 eb3d a8fd 2d3f
00000300: 841b 8f3e 162b 3fbe 8182 a73f 30e0 383f
00000310: 88b6 d6bf 59e1 1bbe adb5 78bf 4a93 ffbe
00000320: cc50 19bf 60ae 1f3e 7f4e b4bd 9a5d 85be
00000330: 11e5 2f3d 0628 483e 4372 cfbe 3137 f03e
00000340: c0e8 473e d57e 6c3d 10bc 55be d432 80be
00000350: 4320 ebbe 1115 a03c 44b4 803f 100d 6fbf
00000360: 616c 04bf 3e3c 803e 1cc7 ef3f 9680 ebbd
00000370: 40c1 4ebf d0ef 0c40 217f 9d3d c5db 82bd
00000380: 0677 b0bd a9f2 d0be e02a 4e3e 7483 96be
00000390: 0f90 df3e 7a2b 203f 69c8 3d3e f7ea dc3e
000003a0: 5338 09bf 44ef 1bbe 243d da3e 620f 983d
000003b0: fec2 6ebe 461f c3bc c472 f5bf 7d14 a0bd
000003c0: 6f79 45be 1415 433f ca82 1a3e 4b56 c9be
000003d0: 33c9 d73d a8ef 1dbe 9a92 c43f 1711 85be
000003e0: 7bd8 febe 56cb 9dbe b890 70be e4c4 043f
000003f0: 7ecc 2a3f 3774 21bf 7153 2640 beb0 243e
0.24406794 -0.096154585 -0.036066934 0.61281914 1.8279582 -0.1553511 1.0193785 0.4112909
-1.7192795 -0.0027797008 0.8238638 0.29469913 -0.32342672 -1.0289624 0.14514698 -1.1188644
1.774873 0.43952575 1.3884295 -0.1846228 -0.4720497 1.7532812 -0.33527827 0.443499
0.1434128 1.473577 0.57315165 0.5922716 1.4663845 -0.65521705 -1.2059349 0.04056074
0.60282665 0.6324249 0.096667714 -0.16124643 -0.3020247 -0.2945076 1.2240138 0.29998606
1.2804586 1.129878 -0.95029676 0.8074179 -0.43793985 0.6181457 0.15845077 -0.19299945
-0.3063735 -0.117792614 0.1304683 -0.26681173 0.9595174 0.3266249 -0.6211769 0.01115156
0.011763811 0.76441413 0.5842217 -0.07734787 0.19444524 -0.6870901 1.0487818 0.09842044
-0.2921181 -0.88901 0.33784938 0.27339813 -0.46479458 0.77550066 -0.35692298 -0.6137864
-0.4195342 0.06251376 0.20265594 -0.8044203 0.36553743 0.5217985 -0.6735541 -0.9252404
0.033728894 0.1124286 -0.5700879 0.067317225 -0.7452706 0.018775636 0.20500539 0.5552281
1.0924163 0.6749951 0.25185168 -0.003770247 0.43255827 0.5063872 0.35688186 0.2165527
-1.2266488 0.11394357 1.6758151 -0.24287415 2.297928 0.44134364 -0.49256864 0.14104302
0.28535205 -0.33048713 -0.13867663 -0.01946864 -0.24718226 -0.062059555 -0.14956237 1.5818262
-0.08197916 -0.4168054 0.50117207 1.2638592 0.5449263 0.39562577 0.37838995 -0.20064634
0.26924598 0.71255845 1.2454165 0.2601804 -0.4936825 1.0345659 -1.5559026 0.66367877
-0.79390305 -0.94210804 -0.20256624 0.41661695 0.09090254 -0.13856918 -0.35847035 -0.3232759
-0.06939737 -0.22192277 0.7598582 0.323844 -0.16865075 -0.9776568 -0.72400326 -0.475756
-0.42633098 0.36413786 0.4741225 0.63827693 -0.115582705 -0.12795785 -0.34499538 -0.2881814
-0.1641087 -0.22598836 0.033442102 -1.0410687 0.07891514 0.5038065 0.1894249 -0.0926427
0.0550288 0.12404986 -1.4292731 0.5180617 -0.9588398 1.028471 -0.6148699 0.41257146
-1.2210559 -0.18441573 0.756941 -1.4437548 -0.5336257 0.074121475 -0.096699245 -0.15918173
0.21678281 -0.35307476 0.1273899 0.6264353 0.001957198 -0.80760366 0.039947018 0.19794597
0.41583908 -0.4670583 -0.07310622 -0.5017883 -1.1269782 0.12262071 0.11515151 0.67965174
0.2795068 -0.1866878 1.3086702 0.7221708 -1.6774454 -0.15222682 -0.97152215 -0.4991706
-0.5988891 0.15593863 -0.088040344 -0.26047975 0.042943064 0.19546518 -0.40516862 0.46917108
0.19522381 0.057738144 -0.20872521 -0.2503878 -0.4592305 0.019541295 1.0055013 -0.93379307
-0.51727873 0.2504596 1.8732638 -0.11499135 -0.80763626 2.202137 0.076902635 -0.06389574
-0.08616452 -0.40810135 0.20133543 -0.29397166 0.43664595 0.6256634 0.18533482 0.43148014
-0.5360157 -0.15227991 0.42624772 0.07424809 -0.23316571 -0.023818623 -1.9175649 -0.07816408
-0.19284604 0.7620404 0.15088955 -0.3932365 0.105364226 -0.15423453 1.5357239 -0.259896
-0.49774536 -0.30819196 -0.23492706 0.5186293 0.6671828 -0.63067955 2.5988429 0.16083047
