Models_mario/Mario No Bias_exp0_NS_classifier.pth (torch, 14785 bytes, 6 tensors)

weight f4 [3, 1, 7, 7]
00000000: 6d55 19b8 a8e0 14be 9e04 ba3d bad0 4a3d
00000010: 088d 073e 7d7e 5dbd a9c2 1cbe b32e eebc
00000020: 9ee3 30be 9e00 e7bd 3cfb 0abd fb23 36be
00000030: fe4d b3be 3664 86be f7ec 37be ac0e 6bbc
00000040: 5800 c6bd 5a28 62be 760f 84be 501e 12be
00000050: d7bc 69be faa4 cc3e b339 083f 1b40 143e
00000060: 41bd a2bd 2646 2cbe 9ecc 4e3e eabb 68be
00000070: df2b f83e 7906 113f d77e 503e 6c02 a73d
00000080: 6b94 7a3e 51ec e23e 2f3f 323e 84f8 553e
00000090: 5281 993e 43ed 123e fe7e 873e c9b1 ac3e
000000a0: 4038 1b3f 9298 603e 0491 9dba 3d6a 47be
000000b0: f254 8ebe 4ec6 97bd 736c 51be e0bc 8f3d
000000c0: 6cbd 223e 7678 423e 9f61 5a3e 4d07 553d
000000d0: a290 cb3d 6d02 703e 71a5 603e faec af3e
000000e0: e20b ff3e a6bd 903e 0e31 97bd 78d0 a03e
000000f0: a352 4e3e 3b55 c23e 45f6 e93e 285f a63e
00000100: 6d88 573d de64 b5be a477 4cbe 5148 c0be
00000110: f8c3 2ebe 8d7e 603e 2664 9a3c 6cb9 5dbe
00000120: 7239 d6bd 39f2 063c b2d0 d8be 7216 01bf
00000130: be77 37bc 721e 75be 7849 9d3d 52c5 b43e
00000140: 82db 1bbe c6be a7be b2ec 28bf 5778 b8be
00000150: c2e9 23be 5b12 523c e5fb 31be 837a 07bf
00000160: 8d95 2ebe 8655 4cbe e1ef 293e 21c9 4ebe
00000170: ccf3 ecbd cf35 e9be 6903 2bbf 1795 93be
00000180: 8c22 083d fbc6 18be 4fee 02bf 382a a1be
00000190: ea07 8f3d 53ed 6a3d 8068 48be dccf acbe
000001a0: ac0b 04bf faec 2dbe 6095 ecbd bc9a b0bd
000001b0: f195 0a3e 78aa 6fbd afb1 19be 0d4e 8cbe
000001c0: 4bb6 48bd 2767 c23d 908b 873e 620a ee3e
000001d0: 367b 833e 2724 e93e 655f c03d 0795 223e
000001e0: a9cb 973e 4511 103f 45cc 303f 1915 8d3e
000001f0: fd0b 473e 0a9f 573e 7469 38be cb0b 4f3e
00000200: 467e a23e 5d00 d4bd 4fc4 44be 7813 653b
00000210: c2c9 3cbe 6640 a5be e468 0bbe 9b7a b73d
00000220: aafb 2e3e c3d6 40be 2e43 d23e 5b27 923e
00000230: daf7 3bbd 5d77 75bd 5b49 9ebd e27e e03b
00000240: 1e71 ed3d 26b2 21be a4c1 50bd
-3.65576e-05 -0.14538825 0.09082912 0.049515463 0.13237393 -0.054075707 -0.15308632 -0.029075002
-0.17274329 -0.112794146 -0.033931002 -0.17787163 -0.3502044 -0.2624833 -0.17961489 -0.01434676
-0.09668034 -0.22085705 -0.25793046 -0.14269376 -0.22825943 0.39969617 0.5321304 0.1447758
-0.079462536 -0.16823635 0.20195243 -0.22727934 0.4847097 0.566505 0.20360886 0.08154759
0.2447068 0.4432092 0.17406915 0.20895582 0.29981476 0.1434832 0.26464075 0.3372939
0.60632706 0.21933201 -0.0012021367 -0.1947412 -0.27799183 -0.074108705 -0.20451526 0.07018447
0.15892571 0.18991265 0.21326302 0.052008916 0.09939696 0.23438425 0.21938111 0.34360486
0.49813753 0.2826969 -0.07382403 0.3140905 0.20148711 0.3795565 0.456957 0.32494473
0.05262034 -0.35428518 -0.19967514 -0.37555173 -0.17066944 0.21923275 0.018846583 -0.21652764
-0.104601756 0.008236461 -0.42346722 -0.50424874 -0.011197982 -0.23937395 0.07680029 0.35306793
-0.15220454 -0.32762736 -0.6598617 -0.36029312 -0.1600714 0.012821759 -0.17381246 -0.52921313
-0.17049237 -0.199545 0.16595413 -0.20193912 -0.11569938 -0.45548865 -0.6680208 -0.28824684
0.03323607 -0.14919655 -0.5114488 -0.31477523 0.06983931 0.057355236 -0.19571114 -0.33752334
-0.5158031 -0.1698493 -0.115519285 -0.08623263 0.1353376 -0.05851218 -0.15009187 -0.27403298
-0.049001973 0.09492331 0.26473665 0.46492296 0.2567994 0.45535395 0.09393195 0.15877162
0.29647568 0.5627635 0.6906169 0.2755516 0.19438167 0.21056762 -0.18008977 0.20219342
0.31736964 -0.10351632 -0.19215511 0.0034954231 -0.1843634 -0.32275695 -0.13614231 0.08958932
0.1708819 -0.18831925 0.4106688 0.2854565 -0.045890667 -0.059928287 -0.07728835 0.006851063
0.11593841 -0.15790614 -0.05096592

bias f4 [3]
00000000: 69f2 e23c a6fc 5a3e 2c0e 31bc
0.02770348 0.2138544 -0.0108066015

weight f4 [6, 3, 7, 7]
00000000: 99a2 243e 2932 b0bc 0c55 c2bd 10c9 3ebd
00000010: 3b63 c43d 37a1 e83b f4e7 d93d 3094 f33d
00000020: 13d5 fe3d ed42 e6bd df6d 3dbe b788 7ebe
00000030: 5cf9 a8be 11b1 32be 94df a5be 8d68 7bbd
00000040: 1588 bcbd 4242 f03d 48fb 993d 1976 d0bd
00000050: e820 5bbd 2857 903c aebc a2bd 5827 f2bd
00000060: 6e21 833d 54a6 9b3d 5d81 63bd c622 a2bd
00000070: 0ccd 9f3e 736c e63c 7fe3 8ebe 509e 88be
00000080: 7c2d 30bd b58b e63d 3b4c d6bc f29a 8c3c
00000090: cba7 2a3e 3a52 4a3e df3d e83e 021e ca3e
000000a0: 8f37 c83e b890 af3e 0307 f63d 43ae 0a3d
000000b0: 179d 903e db84 e33d 2dd3 973e 31f6 633c
000000c0: e45e b9ba 99c1 a8bd 530a c93d 3afb fc39
000000d0: d8e2 33be 5dd8 dcbd e81b 173b d225 933d
000000e0: 2eb9 94be 6790 f7bd 90e7 91be 1329 84bd
000000f0: 5b1b ae3d 6a91 e43d 8d54 fabd 947e ba3d
00000100: af31 edbd 579f 08be b9e2 883c 4eb8 1c3d
00000110: 0db4 3d3e 61c2 f3bc 7f18 79be 5bc4 fb3d
00000120: 141f b2bd 81f3 b6bc dd16 86bd e4df 97be
00000130: 6343 79be cb82 eebe 8877 80be 94a4 88be
00000140: a6d1 36be cb1d babc 606a 3bbe c89d 94be
00000150: 55a6 26be e93f 15be 8ee3 02be 64d3 94be
00000160: 10d3 53bf 6bad 1bbf b215 7bbd 57ad 643d
00000170: 1490 043e 9eb9 35be ef48 143e dc2e 0bbe
00000180: becb 00bf dfe2 25be c25b 783d 6949 f03c
00000190: 1204 5d3d 624e 813e db63 733e 506b 203e
000001a0: 54eb bd3d 5e40 943b aea8 c7bd 2740 e0bb
000001b0: e9c3 2bbe f6f5 28be e944 02be 3d24 40be
000001c0: 8950 8abc 0822 38be ff14 17be 80dd 89bd
000001d0: 9f87 69be 8f51 86be c06f 2dbe b9c7 6fbe
000001e0: 8ef8 2dbe a33a f1bd 4c4c 533d ac7f d03d
000001f0: 4c69 ebbc 7118 b9bd d9e7 8a3e ec3f f6bd
00000200: 4ddb 7cbd e7a8 f7bd 535c 64bd 8ccb a13d
00000210: 7230 efbd 3fe5 3a3e 90cc 8fbe 7025 493d
00000220: 8d9d b63e 1227 863e da8d 2f3e 4dbb ce3e
00000230: 659c 963c f491 84bd ecf4 de3d 8629 883e
00000240: 1381 b73e 4bbc 803e d8c0 b73e 1f00 ac3e
00000250: 9092 d93e 908f 863d 6937 133f eef1 5cbc
00000260: e36f 923e ce34 603c 06a0 bd3e 7eb1 263e
00000270: 5618 933d 1538 0a3c 00a0 c83c 0970 cbbd
00000280: 3700 75bd ba06 21be 5acc 99bc 694f fb3d
00000290: c8d5 c3bd fbc2 dfbd 5d5f 8dbd 7733 99be
000002a0: 3657 96bc 503d 833e 7177 093e 8c20 84be
000002b0: fd19 37be afa9 2ebd 46bc 16be f877 d03e
000002c0: 145b 53bd c103 e73d 4043 29be dbba 143c
000002d0: 0d0e 073e 5777 423e 54d1 973d 9bbc 713e
000002e0: a32c 4f3e 5c49 4f3e 63fe 663d 6a66 1f3e
000002f0: 0d28 d73e 2f1d 4fbd 78c6 aa3e 8993 4d3c
00000300: 3a77 df3e 67a0 01be b57b 51be 4202 96be
00000310: b0da 11be 7699 a9be 021e bebd ae50 86be
00000320: 2656 edbd 51ef 0ebe 4f0d d13d b4aa 42bf
00000330: 728c 26bf 20d9 89be 8c6a b7be 3df6 2fbe
00000340: dab8 33be d4a3 34bd 6635 21be 63fb b6be
00000350: 0299 113d b6a8 4dbe 4ed2 2d3c 86ee bbbd
00000360: 5a6a da3d 4b8a b4bd 92b5 b03e 294e f53d
00000370: 2f8e d33b f3fa 613e 8569 583e 71d6 bc3e
00000380: 3b45 9cbe c800 b1be 44a6 0fbe 4b69 8dbd
00000390: 45d5 523e 2e02 a83d 0110 233e 46b0 14be
000003a0: b3c4 35be 65a6 663d 12a1 05be d9d0 9e3d
000003b0: 41e5 a8bd a1f4 25be 1687 bc3d d55a 4abd
000003c0: 8817 ccbd 6b02 84be 8cfe a3be 4283 0bbe
000003d0: e5db d9bd 48c9 283b 82c2 47bd ab8b 4ebd
000003e0: 1a5b 6fbd 3ec8 413e 3dd5 96bc 6a56 57bd
000003f0: 858a c73e 792d 693e 51ec 103e 21af efbb
0.16077651 -0.021508293 -0.09488878 -0.046578467 0.09589239 0.0070992964 0.10639945 0.11893499
0.124429844 -0.11243234 -0.18498944 -0.2485684 -0.33002746 -0.17450358 -0.3239714 -0.061379004
-0.09205643 0.11731388 0.07518631 -0.10178775 -0.05349818 0.017619684 -0.07946144 -0.118239105
0.064028606 0.07600084 -0.055543292 -0.07916789 0.31211126 0.028127884 -0.2790794 -0.26683283
-0.043012127 0.11257116 -0.026159396 0.017163727 0.1666557 0.1975793 0.45359704 0.3947602
0.39104888 0.342901 0.12013056 0.033857595 0.2824485 0.111093245 0.29653302 0.013913677
-0.001414266 -0.08240051 0.09816422 0.00048252364 -0.17567003 -0.107834555 0.0023057405 0.07184948
-0.2904753 -0.120880894 -0.2849698 -0.06453147 0.085013114 0.11160548 -0.12223158 0.09106174
-0.11581742 -0.13342033 0.016709672 0.038261704 0.18525715 -0.029755773 -0.24325751 0.12293311
-0.08697334 -0.022332909 -0.065473296 -0.29663002 -0.24342112 -0.46584162 -0.25091195 -0.26688063
-0.17853412 -0.022719285 -0.18302298 -0.29026628 -0.16274388 -0.14575161 -0.12782118 -0.29067528
-0.8274393 -0.6081149 -0.061299987 0.055829372 0.12945586 -0.17746589 0.14480947 -0.13592094
-0.50310886 -0.16199826 0.060634382 0.02933188 0.05395896 0.25255114 0.2376856 0.15665936
0.09273401 0.0045242747 -0.0974897 -0.006843585 -0.16773953 -0.16500077 -0.127216 -0.18763824
-0.016884105 -0.17981732 -0.14754103 -0.06731701 -0.22805642 -0.262341 -0.1693716 -0.23416032
-0.16989347 -0.11778762 0.051586434 0.101806015 -0.028736733 -0.09037865 0.2713001 -0.12023911
-0.06173258 -0.120927624 -0.05575211 0.079001516 -0.11679162 0.18251513 -0.28085756 0.04910797
0.35667077 0.26201683 0.17143956 0.40377274 0.018385122 -0.06473151 0.10886559 0.2659418
0.35840663 0.25143656 0.35889316 0.33593842 0.4249463 0.06570351 0.57506424 -0.013485415
0.28600988 0.013684465 0.3703615 0.16278645 0.07182376 0.008436223 0.024490356 -0.099334784
-0.059814658 -0.15725222 -0.0187742 0.12271006 -0.0956226 -0.109258614 -0.06902955 -0.29922077
-0.018352132 0.25632715 0.1342447 -0.2580608 -0.17881007 -0.04264229 -0.14720258 0.4071653
-0.05160053 0.11280013 -0.1652956 0.009077753 0.13188954 0.18990837 0.07412973 0.23607104
0.20231871 0.20242828 0.056394946 0.15566412 0.42022744 -0.05056494 0.33354545 0.012547382
0.4364565 -0.12658845 -0.20457347 -0.29298598 -0.14243579 -0.33124894 -0.09283067 -0.2623343
-0.11588697 -0.1395848 0.102076165 -0.7604172 -0.6505805 -0.26923466 -0.35823476 -0.17183776
-0.17550984 -0.04410155 -0.15743026 -0.35738668 0.03554631 -0.2008389 0.010609223 -0.09176354
0.10664816 -0.0881544 0.34513527 0.119777985 0.0064561586 0.22068386 0.21134003 0.36882356
-0.3052157 -0.3457091 -0.14028269 -0.06904849 0.20589168 0.08203541 0.15924074 -0.14520368
-0.17750816 0.05631103 -0.13049725 0.07754678 -0.08246852 -0.162066 0.09205453 -0.04940303
-0.09965426 -0.25783095 -0.3203014 -0.1362429 -0.10637645 0.0025754739 -0.04876948 -0.050426167
-0.05843649 0.18924043 -0.018412227 -0.052572645 0.3897287 0.22771253 0.14152648 -0.007314578

bias f4 [6]
00000000: bb5e 2bbe aab7 9f3d 8438 bdbc 203f 013f
00000010: 2875 04bd 3f49 06be
-0.16735356 0.07798703 -0.023098238 0.50486946 -0.03233829 -0.13113879

weight f4 [15, 96]
00000000: 40e2 ee3c eda6 9cbd a4e8 b8bb ee49 1a3d
00000010: 5b6b d6bd dc5b 8c3d a5ff 923d 41d3 01bd
00000020: 030f 7bbd a678 b73c eb09 babd 50c2 47bc
00000030: aaff d4ba 673f 243c 0188 8ebd 6c41 ff3c
00000040: 6435 d0bd 860d 0fbb e8f8 0e3b 8b92 3ebc
00000050: 8a0a 09bd afa8 e2bd 1c24 c0bd 361f eb3c
00000060: f226 37bd 84c6 863c eab7 1cbc d1b7 82bd
00000070: 515d c13b b168 ccbd b9a3 07bd be4a debc
00000080: 9f64 5abd f46c 1dbd e354 863c eb5f aabd
00000090: bf87 3f3d 340d 94bd 227f d7bd 50a9 0a3d
000000a0: 3f34 b9bc a289 32bd 60c3 b6bb 374b dabd
000000b0: 6e63 20bd b760 1f3d 1f30 a53d 0ffd 9cbd
000000c0: aecd 633d 456e 7dbd baa0 afbd 2add 9bbd
000000d0: ee54 a63c aea5 7c3d 2b92 6cbc b6bf d83c
000000e0: e316 783d 9398 aabd c1a5 693d 0097 4dba
000000f0: ac94 b4bd 24f9 36bd ae7d bbbd f4c1 05be
00000100: f8f6 573d 41c4 e5bc df3c 97bd c38d b8bd
00000110: 6136 203d 7876 473b 876c 9c3c c087 77bd
00000120: d6f2 dbbd c4e9 adbd ece7 89bd ab00 b13d
00000130: 143b c23d 80c2 253d e410 9f3c 7633 123c
00000140: ba37 be3d b26b 65bd a263 c03d a9f0 96bd
00000150: b654 383d 4e53 e53b f661 d2bd 18bc 903d
00000160: eb7a 9b3d b167 55bd b5e5 6dbd b085 97bb
00000170: f69e cbbc 874c c73c bd4d 9c3d 1e05 9e3d
00000180: 52c4 5cbf ffd7 0a3f bd23 b9bf fa3e 82bf
00000190: 8489 94be e2e1 7c3f a46e 6c3f 65d0 fa3e
000001a0: 9d8b 0c3f 4bfb a4be 201e c9be c707 8b3e
000001b0: 1c10 a2be 10eb 073e 6198 5e3e 5cbc 4a3f
000001c0: 977c 9ebf 914e 24bf 72a5 67be 7ebe d3bf
000001d0: 7829 543d 394e 15be f8ab 1e3e 4fa9 673d
000001e0: f13d b63d 7a18 ab3d f6cd e0bd 32c3 643e
000001f0: 5059 25bf a4df 42bd 76e6 633e 269b 183f
00000200: abb1 233d 546a 833c f787 b9bd d186 203d
00000210: 8a36 163c 0f8c 7cbd f65c 6b3c 33a8 d9bd
00000220: 46a5 953d 3219 8c3d c816 90bc 8e99 10bd
00000230: d120 193d dd12 b3bd 9290 7b3d 2bff 4dbd
00000240: 3bb2 203f 4bf3 a63d ca85 5b3e e1fb 58bf
00000250: d59c 1fbe 5dcf 13c0 ec53 9abe e5db 81bd
00000260: 7776 0c3f 8999 4cbe 7b22 7abe 7e50 bdbc
00000270: f5f6 83bf ee80 1c3e 949e 293f 3799 5a3e
00000280: 04de 6e3d 0ea9 dfbd 8e77 423d 21fa b23d
00000290: b36f 523d 5cc8 b73b dd57 313d 6fa0 573d
000002a0: fd30 9c3b 1e26 abbd 3c42 95bd 50b5 b5bd
000002b0: 4caf 63bd 1516 18bd 6c8f 88bd 5aa3 84bd
000002c0: 5a76 dabd 0d29 a33c 1886 a7bd d418 c3bd
000002d0: 65d3 993d 6038 4fbd 2332 32bb c549 5fbd
000002e0: 28e0 43bd c6f7 9d3d 0217 a63d 6acb 30bc
000002f0: 8725 a53c ad2a 193d 9a41 0dbd 5c48 823d
00000300: 8887 d9bd 633c f03b 335e 76bd 7ac5 1f3d
00000310: 877a 08bb 256c f3bc 5b13 43bd a156 713d
00000320: 04c3 733d d78a 873c 5965 7ebd 30dd 10bd
00000330: 1cb6 2b3d 3e6d 87bc 0801 a9bd 1354 ca3d
00000340: 10a4 d2bc a402 8ebd 441a e6bc 363a d8bd
00000350: 4007 12bc a379 b9bd c9d4 c3bd ffb6 26bd
00000360: 34b0 9bbd d2fc 34bd 66dd 623d a722 ae3c
00000370: 0dc2 203d 59ab 95bd 19fb b0bd ca9d 923c
00000380: 7d2d 293d 4e3d 943b a855 723c 6edb 643d
00000390: d1d6 213d a718 833d f8c9 debd 21b4 c0bd
000003a0: 1101 7cbc 7086 3c3d 9830 4a3c 8784 83ba
000003b0: 2f23 0b3b 1d42 673d a877 733d 38eb f73c
000003c0: febf 42bb 631f a1bc 091b 4f3d 0f97 a93d
000003d0: 989c cfbd cb8c e0bb 8792 4bbd d9e5 b2bb
000003e0: 9758 70bd e9e1 503c 8015 fd3c 252a abbb
000003f0: 267e 87bc 7db0 b2bd dae5 be3d 8462 02be
0.029160619 -0.07649026 -0.0056429673 0.03766816 -0.10469695 0.06853458 0.071776666 -0.031695608
-0.061293613 0.022396397 -0.09083923 -0.012192324 -0.001625051 0.010024882 -0.069595344 0.031159125
-0.101664335 -0.002182813 0.002181584 -0.011631618 -0.033457316 -0.1106733 -0.09381887 0.028701406
-0.044714876 0.016452082 -0.009565333 -0.063827164 0.0059010168 -0.09980906 -0.033115122 -0.02713525
-0.053318616 -0.038433984 0.016397899 -0.08319076 0.046760317 -0.07229081 -0.105222955 0.033852875
-0.02260792 -0.043588288 -0.0055774897 -0.10658877 -0.039157324 0.038910594 0.08065819 -0.076654546
0.055616073 -0.06187274 -0.08575578 -0.07610543 0.02030417 0.061681442 -0.014439146 0.026458602
0.0605687 -0.083298825 0.05704284 -0.000784263 -0.088174194 -0.044671193 -0.09154831 -0.13062268
0.052725762 -0.028047683 -0.07384657 -0.09011414 0.03911436 0.0030435603 0.019094719 -0.060432196
-0.10739677 -0.08491853 -0.06733689 0.086427055 0.094839245 0.040468693 0.019417234 0.008923402
0.09287973 -0.05601091 0.093940035 -0.07370121 0.04500266 0.006998456 -0.10272591 0.07067126
0.07591804 -0.05210084 -0.058080394 -0.004624091 -0.024856072 0.024328483 0.07632015 0.0771582
-0.8623706 0.54235834 -1.4464031 -1.0175469 -0.29011166 0.9878217 0.92356324 0.48987117
0.5490053 -0.3222297 -0.39280796 0.2715437 -0.31652915 0.13273263 0.21737815 0.79193664
-1.2381772 -0.6418238 -0.22621706 -1.6542509 0.05179736 -0.14580621 0.15495288 0.05655795
0.08898533 0.08354278 -0.10976784 0.22340086 -0.64589405 -0.04757656 0.22255883 0.5961174
0.03996436 0.016041912 -0.09059136 0.03919107 0.009168277 -0.061657008 0.014365425 -0.106277846
0.07306914 0.06840743 -0.017588988 -0.03530269 0.03738481 -0.08743832 0.06141717 -0.050292175
0.6277196 0.08151873 0.21437755 -0.84759337 -0.1558717 -2.3095315 -0.30142152 -0.0634077
0.54868263 -0.19980444 -0.24427216 -0.02310967 -1.030974 0.15283558 0.66257596 0.2134751
0.0583172 -0.109209165 0.047477297 0.087391146 0.051376056 0.0056086015 0.043296684 0.052643236
0.004766582 -0.0835688 -0.07288024 -0.08872473 -0.055587098 -0.037130434 -0.066679806 -0.06476469
-0.10667105 0.019917035 -0.08179873 -0.0952622 0.075110234 -0.050590873 -0.0027190528 -0.05451371
-0.047821194 0.07713275 0.08109857 -0.010790685 0.020159496 0.037394214 -0.03448639 0.06361458
-0.10621554 0.0073314174 -0.06014843 0.039006688 -0.0020824985 -0.029714653 -0.04762588 0.058920506
0.059512153 0.016545696 -0.06210837 -0.03536719 0.04192172 -0.016531583 -0.0825215 0.09879317
-0.025712997 -0.069340974 -0.028088696 -0.10557978 -0.008912861 -0.090564035 -0.0956207 -0.040701862
-0.076019675 -0.04418642 0.055386923 0.021256758 0.03924756 -0.073080726 -0.08641643 0.017897505
0.041303147 0.0045239097 0.01479093 0.055873327 0.039511506 0.064011864 -0.10878366 -0.09409357
-0.015381114 0.046026647 0.012340687 -0.0010034003 0.0021230688 0.056459535 0.059440285 0.030263528
-0.0029716487 -0.019668287 0.050562892 0.08280765 -0.1013729 -0.0068527213 -0.049700286 -0.005459529
-0.058678236 0.012749174 0.030894041 -0.00522353 -0.016539644 -0.08725069 0.093211845 -0.12732893

bias f4 [15]
00000000: 9d73 99bb 5deb ff3d 18a1 e1bd 60c2 f53c
00000010: 8e93 7bbd 8838 3fbd 4c24 043f fb7b a33e
00000020: b6f9 59be fc8a 9dbc a661 483e 97ae 933e
00000030: 1488 623e e9c2 67bd 19e3 313d
-0.0046829716 0.12496064 -0.11017054 0.029999912 -0.061420016 -0.04668477 0.51617885 0.31930527
-0.21286663 -0.019231312 0.195685 0.2884414 0.22122222 -0.056582365 0.043429468
