Models_mario/Mario No Bias_exp1_GRU_classifier.pth (torch, 12877 bytes, 6 tensors)

weight f4 [3, 1, 7, 7]
-0.07319139 0.043850508 -0.061671175 -0.12993082 0.028465906 -0.079342686 -0.09575812 0.20177826
0.2039014 -0.07876167 -0.10849387 0.12300534 0.16140525 -0.145473 0.15436609 0.01921132
0.07606074 -0.09263092 0.06622769 -0.032044206 0.052808557 0.16311426 0.09902451 0.057548232
-0.039914194 0.06079817 0.08724155 -0.05377221 0.10236448 0.11607308 0.025541576 0.12568669
0.07672323 0.1331492 0.17234632 0.029945627 -0.035350647 0.11939703 0.13471325 -0.036533862
0.1312013 -0.008578014 0.010514022 -0.05319359 0.029060444 -0.14087522 -0.052767124 0.15703292
0.00611532 0.07568863 -0.059414014 0.33899012 0.15774578 -0.13588859 0.05935495 0.08943297
0.013217105 0.088998325 0.079818584 0.13383584 -0.07786003 0.014074049 -0.04875742 0.15947108
0.0746242 0.018368613 0.03642311 0.0032080691 -0.16092929 -0.23087771 0.1546212 0.0856504
0.1394538 -0.09273225 -0.2891879 -0.2573101 -0.18517673 0.22319578 0.28790027 0.2570551
0.018317958 -0.33174464 -0.3770058 -0.059317503 0.17465705 -0.027300999 0.059455387 0.13091332
-0.2669506 -0.25173664 0.103368364 0.15963838 0.12757747 -0.1845617 -0.11134054 -0.20447281
-0.04688038 -0.03239177 0.3311698 0.2263225 0.23745665 -0.071603626 0.0025575352 0.34443542
0.13264541 0.23965959 0.2993043 0.15604007 0.35042852 0.24124946 0.2293741 0.40461427
-0.1392347 0.0054000975 -0.108554445 0.16595642 0.29118747 0.2815618 0.43383422 0.027351713
-0.12440112 -0.053229295 0.13249366 0.09890545 0.311287 0.267715 -0.34102508 -0.14972448
-0.4202637 -0.17870618 0.019446503 0.085832976 -0.18950003 -0.18478525 -0.08141089 -0.10757117
0.00078266737 -0.10289697 0.17043158 0.02703512 -0.37919348 -0.26596224 -0.30341724 -0.2040172
-0.30589 -0.14851588 -0.055761438
00000000: 5ee5 95bd 979c 333d ea9a 7cbd 960c 05be
00000010: 5531 e93c 6b7e a2bd d51c c4bd f69e 4e3e
00000020: 87cb 503e cc4d a1bd 0932 debd 39ea fb3d
00000030: 6b47 253e e0f6 14be 2512 1e3e 0f61 9d3c
00000040: bcc5 9b3d 48b5 bdbd 62a2 873d c940 03bd
00000050: c94d 583d 6d07 273e 5dcd ca3d b2b7 6b3d
00000060: 117d 23bd 8007 793d b3ab b23d 4040 5cbd
00000070: 78a4 d13d b9b7 ed3d 913c d13c 03b4 003e
00000080: 1221 9d3d 4458 083e 8e7b 303e 8850 f53c
00000090: d7cb 10bd 6e86 f43d 45f2 093e 88a4 15bd
000000a0: a259 063e cc8a 0cbc 0143 2c3c 86e1 59bd
000000b0: 2b10 ee3c 9841 10be 5722 58bd 3dcd 203e
000000c0: 0663 c83b a402 9b3d 1c5c 73bd 1d90 ad3e
000000d0: 1c88 213e 6126 0bbe 2d1e 733d a228 b73d
000000e0: 8e8c 583c c144 b63d ed77 a33d 430c 093e
000000f0: 1475 9fbd d796 663c dcb5 47bd 634c 233e
00000100: 93d4 983d c679 963c 6630 153d 783e 523b
00000110: a6ca 24be 356b 6cbe 0555 1e3e 7a69 af3d
00000120: facc 0e3e 68ea bdbd 7010 94be 26be 83be
00000130: f89e 3dbe 6f8d 643e aa67 933e ba9c 833e
00000140: 8b0f 963c 6fda a9be e706 c1be e9f6 72bd
00000150: 4cd9 323e 58a6 dfbc 7e87 733d 240e 063e
00000160: c0ad 88be a0e3 80be cbb2 d33d 3e78 233e
00000170: aba3 023e befd 3cbe 8206 e4bd 5261 51be
00000180: a405 40bd 3cad 04bd 178f a93e 16c1 673e
00000190: d627 733e eca4 92bd 529c 273b d759 b03e
000001a0: 33d4 073e 5369 753e 6a3e 993e f8c8 1f3e
000001b0: 5e6b b33e 190a 773e 0be1 6a3e 9a29 cf3e
000001c0: 8b93 0ebe 4df3 b03b cb51 debd 7bf0 293e
000001d0: 8616 953e de28 903e 851f de3e b310 e03c
000001e0: 04c6 febd f606 5abd 6bac 073e f18e ca3d
000001f0: 0261 9f3e f111 893e d79a aebe 6051 19be
00000200: ce2c d7be c1fe 36be 464e 9f3c 33c9 af3d
00000210: 4c0c 42be 5838 3dbe c1ba a6bd 464e dcbd
00000220: eb2b 4d3a a6bb d2bd 9e85 2e3e c278 dd3c
00000230: a625 c2be 342c 88be 8159 9bbe e3e9 50be
00000240: 9d9d 9cbe 8c14 18be 1b66 64bd

bias f4 [3]
-0.05465434 -0.04633776 -0.17275535
00000000: 3bdd 5fbd aacc 3dbd c7e6 30be

weight f4 [6, 3, 7, 7]
0.04927469 0.017830268 -0.021874683 0.048744578 0.06856559 0.082455054 0.027624547 0.0081647625
0.15215611 0.06722141 0.15993579 0.051165074 0.09460546 0.03272424 -0.06317047 0.104713894
-0.102285214 0.106117055 0.07356987 0.09621843 0.18301299 -0.26144803 0.10335462 -0.033387575
0.071470626 -0.012508286 -0.083275415 0.11314284 -0.054903213 -0.11672525 0.08828443 0.05432325
0.06563713 0.056112736 0.172593 0.064857006 -0.051295962 -0.0012123273 0.052088026 0.079226725
0.10517973 0.21229433 -0.156788 -0.03218838 -0.11889765 -0.014594091 -0.07047546 -0.013836307
-0.07739809 -0.14933112 0.13373947 0.09322704 0.09056283 -0.16244516 -0.06474706 0.043432474
-0.23875867 0.111441575 -0.3520527 0.063368626 -0.13198651 0.16158186 0.09714963 0.017306756
-0.004581485 -0.014447955 0.10613699 0.09920609 0.005756081 -0.03296302 0.3036318 -0.09958566
0.039460875 0.099050485 0.33756188 -0.0975584 -0.08766827 0.20793568 -0.21688005 0.0754587
0.19668977 -0.034409463 -0.08240967 -0.028443566 0.33425206 -0.09793388 0.20195718 -0.12423107
0.20047933 0.0067515858 0.22806445 0.120786086 -0.028769612 0.16519704 -0.025512632 0.11652953
0.1696801 0.038940705 -0.25435027 -0.3099978 -0.35926712 -0.22748199 -0.04541761 -0.24346031
-0.36883333 -0.039863583 -0.14098346 0.040362924 0.014496897 -0.009073838 -0.046182353 -0.1566432
0.02173034 -0.097166985 -0.10575064 0.15617156 0.19104213 -0.06635433 0.12722154 0.30083263
0.09419934 -0.094827384 0.09188138 0.13336018 0.052125018 -0.084051564 0.18173072 0.20498952
0.1418438 0.09867165 0.057563353 -0.068402275 0.11392813 0.030159825 0.04432293 -0.14013961
-0.0711274 -0.09549234 -0.03934959 -0.065843716 -0.103952624 0.026134953 -0.007755185 0.12017974
0.021591708 0.05457656 0.108417064 0.009178383 0.03995741 0.0514704 0.12238801 0.051174685
0.07295013 0.29340956 -0.048362598 -0.026338017 0.07019441 0.08753354 0.16818695 0.15021864
0.3566997 0.060480725 0.05730996 -0.06334817 0.106156185 0.022762774 0.12842865 0.23217745
-0.049216192 0.23177277 0.06386902 -0.11763709 -0.030411744 -0.1330891 0.2084456 -0.08047237
-0.01068429 0.004156509 -0.1593897 -0.0057300087 -0.029111786 0.19837691 -0.0165178 -0.1009546
0.032716446 0.13047965 0.1970371 0.1151881 0.25832045 -0.11097834 -0.037360143 0.0042076115
-0.027458996 -0.057223756 0.033185586 0.009459704 -0.34052035 -0.12735589 -0.22335921 0.2619553
-0.22632465 -0.1293436 0.43406188 -0.28223374 0.3638558 0.11550918 0.17950344 0.02316742
0.3612168 0.4546078 0.037661634 0.06678058 -0.29821572 -0.29854986 -0.6333272 -0.27101594
0.07884534 0.012524184 0.09898546 -0.13470563 -0.07286543 -0.24030507 -0.18925126 -0.34376568
0.4250717 0.09363005 0.05840223 0.045935903 0.019284936 -0.18314263 -0.06407657 -0.27191517
0.08155936 0.24518639 -0.22598915 -0.0057262615 0.007772003 -0.21804826 0.013866102 -0.059729744
-0.009533473 0.038065325 -0.4066434 -0.17118765 -0.10975969 -0.27736628 -0.4704647 -0.53091884
-0.52388036 -0.3510516 -0.19677427 -0.19333379 -0.25533903 -0.054586228 -0.12976691 0.085360356
00000000: 42d4 493d c810 923c 8932 b3bc 65a8 473d
00000010: 1e6c 8c3d 32de a83d e04c e23c 7fc5 053c
00000020: d0ce 1b3e 61ab 893d 35c6 233e 7892 513d
00000030: 82c0 c13d da09 063d 855f 81bd 3d74 d63d
00000040: e97a d1bd e653 d93d cdab 963d 2b0e c53d
00000050: c267 3b3e 84dc 85be 96ab d33d 69c1 08bd
00000060: 315f 923d 8eef 4cbc 4d8c aabd 6fb7 e73d
00000070: 31e2 60bd a60d efbd 78ce b43d 0e82 5e3d
00000080: c26c 863d 78d6 653d 38bc 303e c0d3 843d
00000090: b71b 52bd f4e6 9eba 415a 553d 9f41 a23d
000000a0: 7868 d73d af63 593e 098d 20be f6d7 03bd
000000b0: 9c80 f3bd 0e1c 6fbc 7055 90bd aeb1 62bc
000000c0: e482 9ebd 42ea 18be 00f3 083e d1ed be3d
000000d0: 0179 b93d 0658 26be 1b9a 84bd 40e6 313d
000000e0: 277d 74be 7b3b e43d 4040 b4be 69c7 813d
000000f0: 7927 07be b775 253e 63f6 c63d e6c6 8d3c
00000100: 4820 96bb 1eb7 6cbc 5a5e d93d 902c cb3d
00000110: 829d bc3b 3b04 07bd a175 9b3e 91f3 cbbd
00000120: baa1 213d fbda ca3d e9d4 ac3e b3cc c7bd
00000130: 6c8b b3bd 17ed 543e ce15 5ebe 178a 9a3d
00000140: 0b69 493e f0f0 0cbd 67c6 a8bd 7b02 e9bc
00000150: 1623 ab3e 8f91 c8bd ddcd 4e3e dc6c febd
00000160: 744a 4d3e 683c dd3b ba89 693e b25e f73d
00000170: 40ae ebbc 6a29 293e deff d0bc 09a7 ee3d
00000180: 9fc0 2d3e 4a80 1f3d 333a 82be 08b8 9ebe
00000190: dcf1 b7be 0af1 68be d107 3abd a94d 79be
000001a0: b9d7 bcbe ff47 23bd f85d 10be 9853 253d
000001b0: 6584 6d3c 6faa 14bc b529 3dbd 1367 20be
000001c0: d303 b23c 7cff c6bd cb93 d8bd 70eb 1f3e
000001d0: 8ca0 433e c7e4 87bd 5d46 023e bc06 9a3e
000001e0: 95eb c03d dc34 c2bd 4e2c bc3d 928f 083e
000001f0: 0b81 553d 3a23 acbd 9e17 3a3e c6e8 513e
00000200: 803f 113e 5d14 ca3d 8dc7 6b3d 7e16 8cbd
00000210: 2753 e93d bd11 f73c f68b 353d c280 0fbe
00000220: 3eab 91bd 7d91 c3bd 092d 21bd 12d9 86bd
00000230: 1de5 d4bd f818 d63c 351f febb cc20 f63d
00000240: 18e1 b03c ac8b 5f3d c409 de3d ee60 163c
00000250: 62aa 233d a0d2 523d 91a6 fa3d 8c9c 513d
00000260: e166 953d c739 963e dc17 46bd d3c2 d7bc
00000270: 16c2 8f3d c944 b33d 3339 2c3e ead2 193e
00000280: 58a1 b63e a3ba 773d d9bd 6a3d afbc 81bd
00000290: 6a68 d93d ff78 ba3c cd82 033e edbf 6d3e
000002a0: eb96 49bd d755 6d3e c3cd 823d b7eb f0bd
000002b0: 0d22 f9bc 8248 08be c372 553e b3ce a4bd
000002c0: 290d 2fbc 5333 883b 0e37 23be ccc2 bbbb
000002d0: d77b eebc 5123 4b3e 5650 87bc 49c1 cebd
000002e0: ae01 063d 759c 053e 18c4 493e bde7 eb3d
000002f0: 9442 843e 9d48 e3bd f306 19bd 01e0 893b
00000300: b0f1 e0bc 7563 6abd 9ced 073d e0fc 1a3c
00000310: af58 aebe 9569 02be 47b8 64be 011f 863e
00000320: a6c1 67be a672 04be 5c3d de3e f180 90be
00000330: 4f4b ba3e 1490 ec3d c0cf 373e 9ac9 bd3c
00000340: 69f1 b83e 5bc2 e83e 1643 1a3d 42c4 883d
00000350: bbaf 98be 87db 98be bb21 22bf 9ac2 8abe
00000360: aa79 a13d 3c32 4d3c e4b8 ca3d 46f0 09be
00000370: 783a 95bd 8812 76be 15cb 41be 0e02 b0be
00000380: ffa2 d93e 1dc1 bf3d 2d37 6f3d 4927 3c3d
00000390: 71fb 9d3c be89 3bbe 943a 83bd 7738 8bbe
000003a0: 9808 a73d 2412 7b3e b369 67be 5da3 bbbb
000003b0: 49ac fe3b 0b48 5fbe a62e 633c 2da7 74bd
000003c0: 4932 1cbc 63ea 1b3d 9033 d0be d14b 2fbe
000003d0: b0c9 e0bd f402 8ebe c0e0 f0be 4cea 07bf
000003e0: 061d 06bf 09bd b3be 327f 49be 4bf9 45be
000003f0: ccbb 82be cf95 5fbd 9ee1 04be 69d1 ae3d

bias f4 [6]
0.02174978 0.15297382 0.03258303 -0.051530167 0.07233031 0.16381173
00000000: 982c b23c 2ba5 1c3e c975 053d 4c11 53bd
00000010: ea21 943d 43be 273e

weight f4 [10, 96]
-0.009734421 0.04474626 -0.06246602 -0.08170401 -0.017239569 -0.11349369 0.06455341 -0.013526987
0.013614676 -0.083020575 -0.010165131 0.09829546 -0.01796703 -0.002241277 -0.047600884 -0.023231152
-0.079640135 -0.08298663 -0.0015292129 0.06303112 0.0541724 0.07339061 0.08154003 -0.059618924
-0.02225715 0.003828397 0.056156106 -0.06111808 -0.08114185 -0.021236636 0.008796598 -0.052491136
-0.0722669 -0.040061407 -0.0869304 -0.04355536 -0.067943 -0.05598291 -0.03388679 0.009084471
-0.034664165 -0.020966176 0.036024664 0.040566612 0.03411589 -0.0007183374 -0.09632555 -0.078748584
0.049173262 0.037294835 -0.005459985 0.022714393 -0.07608844 0.007946766 0.043479502 0.027845763
0.00876383 0.06486965 -0.06990868 -0.11344597 0.014756654 0.061886016 -0.00060423475 -0.027031576
-0.017296944 -0.063877225 -0.06690836 -0.08766564 0.06249468 -0.11451293 -0.033591274 -0.046472788
0.017242381 0.020986268 -0.022549886 0.03300474 -0.06756431 -0.01573734 -0.044438668 0.04157637
0.035003815 -0.06362676 0.058757745 -0.11287801 -0.054553963 -0.12391689 -0.0051278546 0.043296557
-0.027343329 0.049774036 -0.08164444 -0.051758017 0.0051332414 -0.017434282 -0.056715008 0.06609246
0.32282647 -0.34248424 -0.0916527 0.061885156 -0.26578277 -0.11892587 -0.057985246 0.20539811
0.10998613 0.10471111 0.009108554 0.11694417 0.18244144 0.09984579 -0.08602854 0.048544005
0.33111936 -0.49464142 -0.74268675 -0.34058294 -0.20954461 -0.07644592 0.25748748 0.3207406
0.07385791 0.3353334 0.18473925 0.36678758 0.012149158 0.46692657 0.12647352 -0.2575093
0.45623264 0.17997175 -0.035347965 -0.1784293 -0.18984476 -0.34900177 -0.0322627 -0.16322052
-0.0069691413 0.081359684 0.1824017 0.088581905 0.028758409 0.10742791 -0.081866674 0.08569539
0.31955114 0.15631172 0.19653584 -0.16018279 0.15340735 -0.016779805 -0.017344957 0.07298998
-0.059912223 -0.013187962 -0.08163156 -0.087070875 0.028041853 0.05494007 0.12916662 0.2814322
0.43212503 0.012999637 -0.2741676 0.15918964 -0.31470096 -0.28521988 -0.20962498 -0.19978066
-0.047279708 -0.11646405 -0.015170624 -0.024546238 0.102651805 0.2560606 0.20137776 0.051720094
0.22525388 -0.2828449 -0.065222934 -0.30658972 0.06283008 0.18543595 0.04251949 0.1302757
0.35504827 0.37896943 0.5379046 0.21686065 0.2524073 0.5670896 0.49052644 -0.09194048
-0.07509891 -0.067889534 -0.018229228 -0.07474896 -0.06754323 -0.019482354 0.059816044 0.04889255
0.059272796 -0.04872329 -0.0041428655 -0.054863226 0.035727963 -0.08685806 -0.026863031 -0.10350006
-0.038886458 -0.041413076 -0.036331233 -0.013255538 -0.035275392 -0.008630796 0.07116494 -0.1037881
-0.05701445 -0.010548424 0.05464084 0.019821934 -0.09490459 -0.038910333 0.03002683 0.017191626
0.008922686 0.0037046664 -0.043742824 -0.0688154 -0.07231674 -0.054622184 0.04783521 -0.043146156
0.027480433 -0.011735737 -0.050921544 -0.05500564 -0.04716953 -0.061569378 -0.110166125 -0.027122984
0.057456482 -0.009726874 -0.106349014 0.06554544 0.082019374 0.046901826 0.012007675 0.0016476576
0.0030898715 0.07543699 0.0122868195 -0.038401105 0.02910489 -0.049540203 -0.09091888 0.06637894
00000000: 1f7d 1fbc db47 373d 5fdc 7fbd 6f54 a7bd
00000010: ff39 8dbc 616f e8bd 9434 843d 4ca0 5dbc
00000020: 1710 5f3c b106 aabd a68b 26bc 214f c93d
00000030: 982f 93bc 63e2 12bb 25f9 42bd 424f bebc
00000040: 5e1a a3bd e5f4 a9bd df6f c8ba 7616 813d
00000050: e1e3 5d3d d14d 963d 76fe a63d f932 74bd
00000060: a054 b6bc d8e5 7a3b f203 663d f456 7abd
00000070: b32d a6bd 74f8 adbc 9b1f 103c f200 57bd
00000080: ab00 94bd 6e17 24bd 9108 b2bd 1b67 32bd
00000090: b325 8bbd 564e 65bd e0cc 0abd 08d7 143c
000000a0: 03fc 0dbd 42c1 abbc 998e 133d 2d29 263d
000000b0: 1abd 0b3d cf4e 3cba 5446 c5bd f046 a1bd
000000c0: e769 493d 78c2 183d ade9 b2bb 8913 ba3c
000000d0: 42d4 9bbd 2733 023c 9017 323d cc1c e43c
000000e0: 2b96 0f3c 61da 843d 482c 8fbd 5c56 e8bd
000000f0: e5c5 713c 317c 7d3d 8265 1eba 5371 ddbc
00000100: 52b2 8dbc 10d2 82bd 4007 89bd 0b8a b3bd
00000110: 6cfa 7f3d c185 eabd 0197 09bd 405a 3ebd
00000120: e53f 8d3c 65eb ab3c 8aba b8bc fa2f 073d
00000130: 285f 8abd 98eb 80bc 5205 36bd fc4b 2a3d
00000140: 2960 0f3d bf4e 82bd f6ab 703d 962c e7bd
00000150: fa73 5fbd 23c8 fdbd 9007 a8bb bb57 313d
00000160: 1eff dfbc dcdf 4b3d 3335 a7bd 3700 54bd
00000170: c034 a83b 57d2 8ebc ff4d 68bd 7c5b 873d
00000180: 8349 a53e 185a afbe 69b4 bbbd 4a7b 7d3d
00000190: ae14 88be 688f f3bd f081 6dbd e253 523e
000001a0: 6840 e13d c772 d63d 0b3c 153c 6d80 ef3d
000001b0: eed1 3a3e f37b cc3d bb2f b0bd 14d6 463d
000001c0: 7a88 a93e a441 fdbe b820 3ebf e360 aebe
000001d0: dd92 56be ae8f 9cbd 66d5 833e 1d38 a43e
000001e0: d142 973d d2b0 ab3e 492c 3d3e 95cb bb3e
000001f0: 430d 473c 0011 ef3e 4682 013e 42d8 83be
00000200: 5397 e93e 844a 383e 07c9 10bd 2cb6 36be
00000210: aa66 42be 5cb0 b2be e525 04bd 4823 27be
00000220: 655d e4bb e89f a63d 83c7 3a3e 6e6a b53d
00000230: c196 eb3c 2a03 dc3d b7a9 a7bd 1181 af3d
00000240: 359c a33e 2e10 203e b140 493e f506 24be
00000250: d116 1d3e cd75 89bc 0317 8ebc c57b 953d
00000260: 8566 75bd 5212 58bc 732e a7bd 3752 b2bd
00000270: 07b8 e53c d708 613d 4144 043e e217 903e
00000280: 7e3f dd3e 6efc 543c b25f 8cbe 9c02 233e
00000290: 7c20 a1be 5708 92be eea7 56be 4d93 4cbe
000002a0: 5ea8 41bd b484 eebd 358e 78bc 3115 c9bc
000002b0: 1c3b d23d 601a 833e f935 4e3e 73d8 533d
000002c0: f4a8 663e 0cd1 90be 9a93 85bd 54f9 9cbe
000002d0: 0fad 803d ece2 3d3e eb28 2e3d fe66 053e
000002e0: e3c8 b53e 4808 c23e 1eb4 093f b810 5e3e
000002f0: 883b 813e c92c 113f 4826 fb3e 4a4b bcbd
00000300: 75cd 99bd ab09 8bbd 7655 95bc fc15 99bd
00000310: 1b54 8abd 7599 9fbc ab01 753d 8e43 483d
00000320: 08c8 723d 1392 47bd e0c0 87bb 43b8 60bd
00000330: 7c57 123d a3e2 b1bd dc0f dcbc d7f7 d3bd
00000340: 6847 1fbd c2a0 29bd 0fd0 14bd c22d 59bc
00000350: ee7c 10bd 2f68 0dbc edbe 913d db8e d4bd
00000360: fc87 69bd 4cd3 2cbc 13cf 5f3d 9c61 a23c
00000370: 565d c2bd 7160 1fbd d4fa f53c 74d5 8c3c
00000380: 7530 123c fdc9 723b ad2b 33bd 17ef 8cbd
00000390: cd1a 94bd 83bb 5fbd daee 433d 06ba 30bd
000003a0: a51e e13c 4047 40bc 1c93 50bd 984d 61bd
000003b0: d634 41bd 2c30 7cbd c79e e1bd 0531 debc
000003c0: 7d57 6b3d 775d 1fbc 83cd d9bd b03c 863d
000003d0: c6f9 a73d 211c 403d d7bb 443c 37f6 d73a
000003e0: 717f 4a3b b57e 9a3d a84e 493c 7a4a 1dbd
000003f0: 616d ee3c abea 4abd ae33 babd aff1 873d

bias f4 [10]
-0.015983032 0.2113033 -0.09784962 -0.08148995 0.05984013 0.011919614 0.04239883 0.23247303
0.12202688 -0.10524316
00000000: d9ee 82bc e45f 583e 6265 c8bd 34e4 a6bd
00000010: ed1a 753d 7c4a 433c 65aa 2d3d 690d 6e3e
00000020: 3be9 f93d ba89 d7bd
