Models_mario/Mario Bias_exp1_GRU_temporal.pth (torch, 101854 bytes, 10 tensors)

weight_ih_l0 f4 [150, 5]
000000 dc 58 6b 3e 29 11 e5 be 04 7d f7 be 9c eb 2b bf
       0.22983116 -0.44739655 -0.48337567 -0.67156386
000010 00 fd 9c 3d 06 7b 09 bd a8 e4 84 3d 88 45 01 be
       0.076654434 -0.03356459 0.06488925 -0.1262418
000020 a5 2a 13 be 8e ff ec 3d 2a 1c 95 3e 7d 34 3a bf
       -0.14371736 0.11572181 0.2912305 -0.7273634
000030 9a d1 5b bf b9 dc 1c bf ea 4d 25 3e 03 7b 42 bd
       -0.858667 -0.61274296 0.16143003 -0.047480594
000040 13 e9 a5 3e 7d 86 89 3e 25 ec 68 3e ec 66 f0 bc
       0.32404384 0.2686042 0.22746332 -0.029345952
000050 d9 51 30 bb 7f f2 80 be 4b eb 93 bd 58 a2 9b bd
       -0.0026904254 -0.2518501 -0.07222613 -0.07599324
000060 95 25 96 3d 40 84 6a 3e c0 64 62 3f c3 09 4b 3f
       0.07331387 0.22902012 0.8843498 0.7931177
000070 dd e5 54 3f 2d 12 11 3e 70 c5 98 be 10 6c f1 ba
       0.83163244 0.1416709 -0.29838133 -0.0018419046
000080 c6 58 9b bc 63 23 03 3d 19 78 4b 3e c0 02 8d bd
       -0.018963229 0.03201617 0.19870032 -0.0688529
000090 b3 e6 19 3e eb 98 c4 3d e8 bc 52 3d 0b 47 8b bc
       0.15029411 0.09599479 0.051449686 -0.01700165
0000a0 27 ec 82 3f a6 5f 33 3f 28 ab 6c 3f bd a7 71 3f
       1.0228318 0.7006782 0.92448664 0.94396573
0000b0 5c 2f 3c bf d3 5b 1d be 9a 85 f4 bc 50 e5 30 be
       -0.73509765 -0.1536706 -0.029848862 -0.17274976
0000c0 92 5f 00 bd ba 70 66 bd 08 d1 6c bd b5 16 54 3e
       -0.031341143 -0.05625985 -0.057816535 0.20711787
0000d0 9f e2 39 3e c9 6c 52 3e ff 4b aa 3d 68 5f e8 be
       0.18152855 0.2054931 0.08315276 -0.4538529
0000e0 71 5a 1d bf dd 06 01 bf ee d0 03 bf b5 9c 37 3f
       -0.6146613 -0.504011 -0.51490676 0.7172349
0000f0 1b 9e 85 be 79 e7 14 be e4 7f f7 3c ec 29 18 be
       -0.26097187 -0.14541425 0.03021235 -0.14859742
000100 a5 9b aa 3e 79 8f e2 3c fd 57 c1 bc e5 ff 8c 3c
       0.33321872 0.027656304 -0.023601526 0.017211864
000110 ca 87 74 bd 2c 58 2b 3d 30 45 d9 3e d9 35 2d be
       -0.05969981 0.041832134 0.42435598 -0.16915073
000120 0e 37 b5 bd 8c 64 cf bd ec ee e0 3e dd 5b 99 3e
       -0.088483915 -0.101266 0.43932283 0.299529
000130 b8 68 33 bf 75 08 15 bf 53 7a 3f bf fa fe 77 3d
       -0.70081663 -0.5821603 -0.74796027 0.0605459
000140 06 2e 91 bc 36 8a a1 be aa 33 ec bd a6 cf 74 be
       -0.017722141 -0.3155076 -0.11533292 -0.23907337
000150 85 6c 9f 3d b8 ec 1c bb f8 80 3c 3e f8 58 45 3d
       0.0778437 -0.0023944806 0.18408573 0.04818055
000160 98 e4 dd 3c 5f 1f 43 be 10 a9 84 be d3 32 5d be
       0.027086541 -0.19054936 -0.25910234 -0.21601419
000170 9b 35 de be 76 37 a3 be a8 61 03 3e 07 55 83 be
       -0.43400273 -0.3187825 0.12830222 -0.25650808
000180 c6 7d 62 be 0f 85 7c be 05 c5 b7 bd ff f0 f8 bd
       -0.22118291 -0.24660133 -0.08973125 -0.12155341
000190 9c 21 86 3e fe ef 4b be 72 05 17 be 7a 78 d9 bb
       0.26197517 -0.19915769 -0.14748171 -0.0066366764
0001a0 10 dd c6 3d 3e 80 c4 bd 2e 35 d6 be a7 0b 01 bf
       0.09710133 -0.09594773 -0.41837448 -0.50408405
0001b0 ff f0 b9 be ac 11 c6 3d ab 40 0e 3e 65 4c 8d 3c
       -0.36316678 0.096713394 0.13891856 0.017248342
0001c0 28 2e 6a 3d 61 d9 b5 3c 24 10 04 3d d6 a4 80 3e
       0.057172924 0.02219838 0.032241955 0.2512576
0001d0 7c ce 2c 3e af 38 93 3e ab 35 87 3d e1 a4 30 3e
       0.16875643 0.28754184 0.06602033 0.17250396
0001e0 99 29 ba 3e f8 d4 11 bf 73 65 2e bf 28 e2 f2 be
       0.36359861 -0.5696559 -0.6812355 -0.4743817
0001f0 b9 28 03 bd 86 ab 43 3e fb e5 d9 3d 4b e6 51 bb
       -0.032021258 0.191084 0.106395684 -0.0032028134
000200 4d 4d e0 3d 41 77 9b be 56 84 95 3e 01 be 12 be
       0.10952244 -0.3036442 0.29202527 -0.14330293
000210 8a a0 3c be b4 28 a3 be fb e5 00 3e fa 07 f7 be
       -0.18420616 -0.31866992 0.1258773 -0.48248273
000220 82 76 11 bf c7 f8 e0 be e2 f9 bc be 7b 6c 90 3e
       -0.56821454 -0.43939802 -0.36909395 0.28207764
000230 f1 c6 65 bf 66 4a 46 bf 61 78 61 bf 07 85 71 bf
       -0.89756685 -0.77457273 -0.8807431 -0.9434361
000240 f9 75 11 3f f0 df 48 bd e7 c7 2e bd b3 35 51 3d
       0.56820637 -0.04904169 -0.04267111 0.051076602
000250 bf 1d 35 be 56 43 a3 bc ce da be 3e 8b 5a 8e 3c
       -0.17687128 -0.01992957 0.3727631 0.017377159
000260 93 0a 1b 3d 75 52 39 3e 50 93 42 3d 23 0f bb 3e
       0.03785188 0.18097861 0.04750377 0.36534986
000270 5e 6e 7d bf 7e 4b 57 bf f3 37 6f bf c2 73 65 bd
       -0.9899653 -0.84099567 -0.93444747 -0.0560186
000280 cc c9 36 3e ea ea 40 bd 32 77 ff 3d 4f b5 10 be
       0.17850417 -0.04709903 0.124739066 -0.14131664
000290 88 4d 24 be 4c 54 db 3f 22 41 4c 3f 92 df 76 3f
       -0.16045201 1.71351 0.79786885 0.9643489
0002a0 15 03 74 3f c9 6c 12 bf a7 4e 81 3e 3c e3 11 3e
       0.953172 -0.5719724 0.2525532 0.1424684
0002b0 85 19 1f bd 1d 43 00 3d 91 fa b1 be af 4f 94 bd
       -0.038842697 0.031314004 -0.3476148 -0.07241761
0002c0 ee 3e ad bd fa 61 b5 bd 09 9d 6a be ed e1 d4 bd
       -0.084592685 -0.08856578 -0.22911467 -0.103946544
0002d0 c2 e3 ac bc df 28 82 3e e5 d9 93 3e b7 0a b3 3e
       -0.021104697 0.25421807 0.28877178 0.34969112
0002e0 ac 60 d2 bd f3 61 88 be 51 52 75 3d 12 0b a4 3d
       -0.10272345 -0.2663723 0.059892956 0.08009924
0002f0 7c eb 88 3e 0c 09 d1 3e 9e a3 a0 bf 2d e8 0d bf
       0.2674216 0.40827215 -1.2549932 -0.554324
000300 43 cc 26 bf 0e d2 32 bf b9 d7 78 3f 72 42 c3 3f
       -0.6515543 -0.6985177 0.97204167 1.5254653
000310 ac 9c 91 3f 01 90 72 3f 48 63 81 3f aa 8d 85 bf
       1.1375937 0.9475098 1.0108423 -1.0433857
000320 52 74 b9 3c b6 38 f9 be 42 94 ea be 85 20 e7 be
       0.022638474 -0.4867608 -0.45816237 -0.45141998
000330 81 51 05 be 98 b8 25 bf da b1 96 3e b0 08 17 3e
       -0.13019373 -0.6473479 0.29432565 0.14749408
000340 75 ff b7 3e ec 6f b2 3e 14 57 4e bf c7 8c 00 be
       0.35937086 0.34851015 -0.8060162 -0.12553702
000350 62 08 9e 3d e3 6b 14 3c e0 e5 96 3e 29 70 30 3e
       0.07716443 0.009058925 0.29472256 0.17230286
000360 9d b5 4f be d7 2b 19 be 15 2c 5c be f6 da 9e bc
       -0.20284124 -0.1495813 -0.21501191 -0.019391518
000370 c8 89 d7 3f ff 0c 96 3f 42 bd b4 3f 1f cf a9 3f
       1.6838923 1.1722716 1.4120257 1.3266333
000380 e0 71 83 bf f7 18 7a bf b0 b4 43 be aa d3 a1 be
       -1.0269127 -0.97694343 -0.19111896 -0.316068
000390 9d ec a8 be ee a7 8a 3f f8 ae d0 3e 2f 21 59 3e
       -0.32993022 1.0832498 0.4075849 0.21204065
0003a0 cc f7 0d 3e 2f 81 80 3e b7 0c b6 3e 01 09 3b 3f
       0.13864058 0.2509856 0.35556576 0.73060614
0003b0 77 d6 d9 3e 1a 88 ea 3e b4 f7 0a 3f 17 16 bd be
       0.42546436 0.45806962 0.54284215 -0.36930916
0003c0 63 dd c5 bd 76 44 9a 3d 44 37 b5 bd 42 f6 d9 bd
       -0.09661367 0.07532589 -0.08848432 -0.10642673
0003d0 42 91 19 be cf bf cc 3d a0 18 5e 3d 6a 36 8f bc
       -0.14996818 0.09997522 0.054222703 -0.017482001
0003e0 97 d0 6b bd 6c cd 35 3e d4 ef 77 bd c0 2b 49 3e
       -0.057571974 0.17754143 -0.060531452 0.19645596
0003f0 67 14 50 3e 60 34 d2 3c e2 89 1c 3e f8 2e e0 be
       0.20320283 0.02565974 0.15286973 -0.43785834

weight_hh_l0 f4 [150, 50]
000000 62 b9 14 3d 21 ee f2 bd 1d 22 51 3d 0c a1 09 3e
       0.036309607 -0.11861826 0.051057924 0.13440341
000010 c9 aa a3 3d 2e 5b 02 be 63 27 31 3e c7 1a db bd
       0.07991559 -0.12730095 0.17300181 -0.10698467
000020 55 cf f8 3e e3 ea 0d bd fe 62 9b be e9 4b 23 3f
       0.48595682 -0.034647834 -0.30348963 0.63787705
000030 72 be 1e be 5b 18 7d 3e 39 fb 3b 3e a5 87 93 bd
       -0.15502337 0.24716322 0.18357553 -0.072036065
000040 ca 0b 3c bc 02 8b 0d 3e 06 80 54 be bb 80 07 be
       -0.01147742 0.13822559 -0.20751962 -0.132327
000050 30 f8 2d be 73 eb 2d 3d 3c 1b 7f 3d 91 ed 62 bd
       -0.16989207 0.04246087 0.062281832 -0.055402342
000060 3d f8 23 3e 86 bc bb 3d 41 52 38 3e dc cf ef 3e
       0.16012664 0.09166817 0.18000127 0.46838272
000070 c2 ad 43 3c 5f 39 59 be 49 4e c8 bd f9 bb 57 3e
       0.011943283 -0.21213292 -0.09780557 0.210678
000080 03 ba 60 3e f8 07 b6 3d f4 16 92 be f7 95 1f 3e
       0.21945958 0.08888239 -0.28533137 0.15584551
000090 b3 93 51 bd f6 bf 77 3d 62 71 f9 3e 2c 14 b4 be
       -0.051166248 0.060485803 0.48719317 -0.3517164
0000a0 bb f1 c3 3d d8 e5 05 be f8 4f 24 be ee 63 08 bd
       0.09567591 -0.1307596 -0.1604613 -0.033298425
0000b0 f7 f9 40 3e ab 3d 31 3e e1 8f 21 3c 19 56 d4 be
       0.18845354 0.1730868 0.009860964 -0.41471937
0000c0 d3 38 af 3d 9a 7f 7e bd be ad 31 be 3d 4f cc be
       0.0855576 -0.06213341 -0.17351434 -0.39904204
0000d0 c4 2d db 3d 53 a8 ff 3d 19 e9 1a 3e 9d f2 6b bd
       0.107020885 0.12483277 0.15127982 -0.05760442
0000e0 be 3a 6e 3e 6c 8d 41 3e 1e c3 42 3e 73 12 28 3d
       0.23264596 0.18901604 0.19019744 0.04103322
0000f0 b7 93 8e bd e2 be 4c be 34 ff 96 be c3 39 f9 3d
       -0.06961768 -0.19994691 -0.2949158 0.1216922
000100 6b 61 e9 bd f3 23 f5 3c 27 8e c0 bd 41 d3 92 be
       -0.11395534 0.029924368 -0.094021134 -0.286768
000110 b2 d3 7d be 3b 35 87 3e ca 25 6b be 3d 42 c0 3e
       -0.24787787 0.264078 -0.22963634 0.37550536
000120 f0 db 93 3e 5a 79 5c 3e 9a 39 42 3d fe 60 53 3e
       0.28878736 0.21530667 0.047418214 0.20642468
000130 79 fa 4d 3e 6b 8e c3 bc 44 41 86 bb 5d 4c 7e 3e
       0.20115079 -0.023871621 -0.0040971357 0.24833818
000140 66 65 97 be 07 b1 3e 3d 9a 90 12 3e 1e b7 29 be
       -0.29569548 0.046555545 0.14312974 -0.1657376
000150 ad d5 4d bd c2 61 42 3e 9c 0b 31 3e 4d 91 5f 3d
       -0.050252605 0.18982604 0.17289585 0.05458193
000160 32 2a 0c 3e 1b aa c3 be d8 6d 5b 3e e7 66 f9 bc
       0.13687971 -0.38215718 0.21428621 -0.030444575
000170 3f e2 57 3e ab 9c 32 3e f1 ed 0a 3f e5 b1 4f be
       0.210824 0.17442577 0.5426932 -0.20282705
000180 0b 9a ac bd 4c f5 62 3d 2a b9 15 3e a3 aa 27 bc
       -0.08427819 0.055409715 0.14621416 -0.010233554
000190 a0 f7 dc bd 25 93 e8 be 6d 04 08 3f 3f 6e 97 3e
       -0.10789418 -0.45424762 0.53131753 0.295763
0001a0 e0 d8 aa 3e c3 ff 5c 3d b3 ce a5 3d 2c 9a a4 3e
       0.33368587 0.05395485 0.08096065 0.32148874
0001b0 ad e7 c6 3e f5 84 b8 bc 65 92 e6 be b3 6c 3e 3e
       0.3884863 -0.022524336 -0.45033565 0.18596153
0001c0 12 45 b6 bd 80 20 03 3e 29 57 41 3e 00 47 41 be
       -0.08899893 0.12805367 0.18880905 -0.1887474
0001d0 e0 c6 d1 bd d8 fd de bc 5e 49 54 be fd c3 97 3d
       -0.102430105 -0.027220652 -0.20731112 0.07410429
0001e0 b9 c4 ac be c3 d1 c3 3e b0 48 9a 3e bc 89 3f 3e
       -0.33743837 0.38245973 0.3013358 0.18704885
0001f0 23 cb a2 3e 7b 9c a8 3e 0c 09 1c 3f c1 82 6d 3c
       0.31795606 0.32931885 0.60951304 0.014496506
000200 f3 16 c0 3d e0 3f 42 3c 03 7a 9b be 40 2c 7a 3e
       0.09379377 0.011856049 -0.30366525 0.24430943
000210 28 b1 41 3e dc 20 33 3e aa a4 50 be a6 97 6b 3e
       0.18915236 0.17493004 -0.20375314 0.23007068
000220 29 ff 80 3e 31 7a a1 3e 90 7d 4a 3b 65 3c 93 be
       0.25194672 0.31538537 0.0030897595 -0.28757015
000230 be a4 f2 3e 42 62 c0 bc 97 21 42 3e bb de 0a 3e
       0.47391313 -0.023484353 0.18958126 0.13561527
000240 1d 98 0a bd 17 8a 70 be 18 ee 46 3e 9d 43 ab be
       -0.033836473 -0.23490177 0.19426763 -0.33450022
000250 a1 20 11 3f d2 e5 20 be c0 c6 c6 bd e4 c4 86 be
       0.5669041 -0.1571267 -0.09705877 -0.2632209
000260 9b f1 25 3e ed 8d 89 3e 17 0a fc 3e 82 b2 65 be
       0.16205446 0.26866093 0.49226448 -0.22431377
000270 a0 35 19 3e 48 a3 b6 3c f8 6f ca 3d f0 ab ed 3c
       0.14961863 0.022294655 0.098846376 0.02901265
000280 a5 0c 16 3c 21 ad 23 be 8c da 48 bd ef a9 f6 bc
       0.009158288 -0.15984012 -0.049036548 -0.030110328
000290 46 9b c8 bd ac ee 26 3e d1 f8 b6 be c5 6f 3d be
       -0.09795241 0.16301984 -0.35736707 -0.18499668
0002a0 54 ac 99 be c3 e0 69 3e 90 95 a7 be 7a e6 32 bc
       -0.30014288 0.22839646 -0.32731295 -0.010919208
0002b0 9d e2 8e 3e 77 aa d9 3e 86 39 17 3e b1 a9 40 bd
       0.27907267 0.42512867 0.14768037 -0.04703683
0002c0 12 47 e5 3d b0 63 0d 3e 71 aa cc bd 96 49 9d 3d
       0.11195196 0.13807559 -0.099934466 0.07680051
0002d0 b6 ae c7 be 1c f8 8e ba 49 e0 5c 3c 3f f4 d7 bd
       -0.3900048 -0.0010907683 0.013481208 -0.10544633
0002e0 65 09 25 be 0b 05 66 3e 7c 3b ad 3e 20 c6 35 3c
       -0.16116865 0.22462861 0.33834445 0.0110946
0002f0 f1 64 94 3d 3a 60 8e be 0c 89 1f 3e 11 86 44 be
       0.072458155 -0.2780779 0.15579623 -0.19191767
000300 ce b4 90 3d 97 da a8 3e b1 ca 6f 3e bb c2 0f bd
       0.07065736 0.3297927 0.23417164 -0.03509782
000310 a1 4f d6 be d3 c2 1d be 6e b2 d4 bc ee 0d fc bd
       -0.41857627 -0.15406351 -0.025963988 -0.123073444
000320 ee bc 60 3e 82 3b 1b 3e 5d e0 06 be 32 cc 99 bd
       0.21947071 0.15159419 -0.13171525 -0.0750965
000330 b5 88 15 3e 34 ef 41 3e 5f 71 e7 3d 29 83 87 3e
       0.14602931 0.18938905 0.11300921 0.26467255
000340 3d 60 54 be 4f 48 ae be 34 23 39 be e3 4c 5d be
       -0.20739837 -0.34039542 -0.18079835 -0.21611361
000350 eb 0c 96 3d 9d a7 e6 be d6 ae 03 bf c3 d7 1b 3f
       0.07326683 -0.45049754 -0.51438653 0.608761
000360 d5 c4 8e 3d 09 65 35 be 24 f0 3d 3e e6 8d 00 3d
       0.069711365 -0.17714323 0.18548638 0.031385325
000370 76 d2 83 3e 8b d5 25 bd 88 11 67 3d 0e e6 72 3a
       0.25746506 -0.040486854 0.056413203 0.0009265848
000380 2c c9 04 3e 38 af 5a 3d 38 15 11 bf b6 4f 40 be
       0.12967366 0.053389758 -0.56673 -0.18780407
000390 0b 0e 0e 3d 53 bd b8 3e 17 34 ac bd c2 82 2f be
       0.03468136 0.36081943 -0.08408373 -0.17139724
0003a0 ac ba 6a be 6b 26 e4 ba a9 03 c6 3e 8c 3c 2f be
       -0.22922772 -0.0017406469 0.38674667 -0.1711294
0003b0 94 32 a9 bd ba 4a 38 be a2 31 60 3e c9 13 34 3e
       -0.082616 -0.17997256 0.21893933 0.17585672
0003c0 df f9 05 be 34 5f 46 be 51 30 d6 3d 9d da c6 3d
       -0.130836 -0.19372255 0.104584344 0.09709666
0003d0 1b 50 8d ba ed 03 07 3e 8b b2 3d bd d4 bc b4 3e
       -0.001078132 0.13185091 -0.04631285 0.35300314
0003e0 7c f0 2b bd bb 5d 06 3f e7 1f 8f be ac a6 ba be
       -0.04197739 0.5248677 -0.27954027 -0.36455286
0003f0 df e3 8e 3e c2 4d 25 3d c8 31 78 3e 41 42 33 bd
       0.27908227 0.04035736 0.2423774 -0.043764357

bias_ih_l0 f4 [150]
000000 e4 89 2f be 01 43 01 3e 0c 4e d1 3d 6a 21 85 3d
       -0.17142445 0.12623216 0.102199644 0.06500514
000010 d4 0f e8 bc 7e cc b8 3e f0 69 03 be ba 30 bd bd
       -0.02832786 0.36093515 -0.1283338 -0.092378095
000020 a5 03 5b be 20 5d 6a bd 33 c0 02 be 41 63 07 be
       -0.21388109 -0.057217717 -0.1276863 -0.13221456
000030 e7 3d f1 3c b7 43 db 3d a2 77 9e 3e e9 32 39 bd
       0.029448463 0.10706275 0.30950648 -0.045214567
000040 e7 ba 64 bd 6b fc ff bb e7 f0 a2 bd 5d 4f 05 be
       -0.055842306 -0.007812073 -0.07956105 -0.13018556
000050 0b 7d 12 3e 01 84 16 3d bb 82 1b 3e a9 d7 4c 3e
       0.14305513 0.036746982 0.15186588 0.20004143
000060 f2 e4 81 3d b7 4a ad bd 2a f5 6b 3d 82 28 1f be
       0.06342496 -0.08461516 0.057606854 -0.15542796
000070 51 88 7f be 4e 62 5e 3d 28 31 9a 3c b0 13 db bd
       -0.24954344 0.05429297 0.018822268 -0.106971145
000080 69 71 46 be af 94 59 3b 9e fe 68 be db f2 1d bd
       -0.193792 0.0033200195 -0.22753379 -0.038561683
000090 4f 1f 2e 3c be 99 31 3d 85 36 c9 3d 2f 1b d0 bd
       0.010627582 0.04335951 0.09824852 -0.10161435
0000a0 0c 73 cb bd 8d 64 00 3d e0 bc 7b bd 48 1c 28 3e
       -0.09934053 0.031345893 -0.061459422 0.16417038
0000b0 46 41 ce bd a4 53 2e be 26 50 c2 3e bb d7 f8 bd
       -0.10071044 -0.17024094 0.37951773 -0.12150522
0000c0 a5 51 1a be be 9b 04 3d 0a cf f2 3d 54 c2 ea 3d
       -0.15070207 0.03237509 0.11855896 0.114628464
0000d0 a4 e7 20 3e 20 40 5b 3e 66 96 80 3e 12 52 56 be
       0.15713364 0.2141118 0.25114745 -0.20929745
0000e0 11 4a 9f 3d 8b ee 90 bc 01 ae 9c be 0e 0b cb 3d
       0.07777799 -0.017691871 -0.30601504 0.09914218
0000f0 59 c1 52 3e 6f b2 b6 3e ad d2 e5 3e 63 f0 d2 3e
       0.20581569 0.3568301 0.44887295 0.41199026
000100 7d b7 48 be 21 8d 19 be 2c d9 f4 3e 8f ea 43 3e
       -0.19601245 -0.14995243 0.4782194 0.19132446
000110 1c 7a 71 3e 00 25 ce 3e 7a c3 08 3d e0 07 87 3e
       0.23581737 0.40262604 0.033389546 0.26373196
000120 bd b0 12 bd 36 8e 57 3e 35 02 57 bf d0 1a 37 be
       -0.035813082 0.21050343 -0.8398774 -0.17881322
000130 3b 86 f4 3e 6b de 3c be 8e 98 6e be ee 62 3d 3e
       0.4775866 -0.1844422 -0.23300382 0.1849477
000140 eb 47 6e 3e 46 fc 55 3e 2a da 4e 3e 2d 76 21 bf
       0.23269622 0.20897016 0.2020041 -0.63070947
000150 33 32 6c 3e 3b f0 c8 3d ec 73 c5 3e 04 20 77 3d
       0.23066024 0.09811445 0.38565004 0.060333267
000160 54 23 30 be 44 e9 02 bf 19 50 34 3e d8 81 50 bf
       -0.17200977 -0.51137185 0.1760868 -0.81448126
000170 52 5e 4c 3e ac cd dc 3e 3d 60 2c 3c 89 02 51 bf
       0.19957855 0.43125665 0.010520992 -0.81644493
000180 20 e0 aa 3e 5f 58 90 be 81 8d 95 3e b9 87 40 3e
       0.3337412 -0.28192422 0.2920952 0.18801774
000190 e0 86 ea 3d 34 fe 99 3d ab 33 f3 bd c7 9b 68 3e
       0.114515066 0.075191885 -0.11875089 0.22715674
0001a0 0b 4c 2a 3d c4 6d 97 3e a8 8a 8a 3d 03 33 04 3d
       0.041576426 0.29575932 0.06764728 0.03227521
0001b0 b3 4b 99 be 29 71 8e 3d 9e 79 df 3d e4 9a dc bd
       -0.29940566 0.06955177 0.109118685 -0.107717305
0001c0 d2 ef 8d bd a6 71 7a 3c 62 6c 3b bd bf 89 19 3e
       -0.06930508 0.015285885 -0.04575766 0.14993952
0001d0 3d 1a 8b bd e3 76 ab 3c ec f6 9f bd 00 70 29 3e
       -0.06792114 0.020930713 -0.078107685 0.16546631
0001e0 a3 14 e8 bd 0a da be bd a7 a8 17 be 99 9f 8b bd
       -0.11332061 -0.093189314 -0.1481043 -0.0681755
0001f0 d3 64 43 be 68 0a 66 be a1 7f cc 3c 28 5e da bd
       -0.1908143 -0.22464907 0.024963202 -0.1066249
000200 ef 98 57 be 28 73 d5 3c 74 5a bc 3d 06 74 85 be
       -0.21054433 0.026055887 0.0919694 -0.2606508
000210 d5 15 cd bd 98 3b 71 bd fa fa 12 3e f6 77 6b be
       -0.1001393 -0.058894724 0.14353552 -0.2299498
000220 f0 ff c5 3d a8 b5 ed bd c1 c6 1f bd e8 ed 4d 3e
       0.09667957 -0.11606914 -0.039007906 0.20110285
000230 1c 72 58 be d8 80 48 be 0e 9e 0c 3e b8 e5 27 3d
       -0.2113728 -0.195804 0.13732168 0.04099056
000240 fa d4 a9 be 5b de 2f 3e 5b 11 a0 bd fc fe 55 3e
       -0.331703 0.17174666 -0.0781581 0.2089805
000250 24 2b 4f 3e 62 5d f3 3d
       0.202313 0.11883046

bias_hh_l0 f4 [150]
000000 78 08 01 be 96 d6 44 3e 55 b7 27 3e 50 22 76 3e
       -0.12600887 0.19222483 0.1637853 0.24036527
000010 75 cd b9 3d ac 8c 65 3e 96 21 56 3d 9e 36 dd bb
       0.09072391 0.22416943 0.052278124 -0.0067508956
000020 51 8d 66 be b8 7a 18 be 7c 7f 36 3c e2 09 a4 bd
       -0.22514845 -0.14890563 0.011138793 -0.080096975
000030 97 f1 a1 3c 6f b9 fd 3d 2e 8a 51 3e 8d 11 72 3d
       0.01976852 0.12388884 0.20462868 0.05909877
000040 a9 1c 46 bd 98 32 53 be b9 a7 2f bb eb 99 ba bc
       -0.048367176 -0.20624769 -0.0026802851 -0.022778472
000050 8d 4f 08 3e 81 a0 0a 3e 3b 5a 97 3c 99 de 48 3e
       0.13311596 0.1353779 0.018475642 0.19616164
000060 a8 a0 47 3e 59 a4 0c be 68 ee 72 3d ab b0 06 be
       0.19494879 -0.13734569 0.059309393 -0.13153331
000070 b8 d8 5f bd 3a 9b 01 3d fe 57 25 3e 03 82 36 be
       -0.05465004 0.031642176 0.16146848 -0.17823033
000080 ea f6 f3 bc 2e de 9b 3d ed 9d 69 ba 3e 39 26 bd
       -0.029780824 0.07610737 -0.00089117774 -0.040581934
000090 27 f4 d4 3d d1 d0 f4 bb 2c c7 2e be 8b 97 0d 3d
       0.10398131 -0.007471182 -0.17068166 0.03456835
0000a0 0f 45 c4 bd 1e db 16 bd ed e3 39 be a5 6c 70 3d
       -0.095834844 -0.03683006 -0.18153353 0.05869736
0000b0 93 e3 4a 3c 7b 0e 6f 3d 8e bc e6 3e 87 fd 2a 3d
       0.0123833595 0.05836342 0.4506573 0.04174569
0000c0 ec ec a5 3d b3 db 02 3e ef d8 f0 3d 1d 66 2d 3e
       0.0810183 0.12779121 0.11760127 0.16933484
0000d0 53 bc 23 3e f7 c8 d6 3e ce 5a bf 3e b9 47 b7 be
       0.15989809 0.419502 0.37373966 -0.35796908
0000e0 f1 b8 13 3e 56 f8 40 3e fd b2 8f be 49 eb f2 3d
       0.14426018 0.18844733 -0.28066245 0.11861283
0000f0 cd 93 48 3e 7c 7a 81 3e 09 e5 fc 3e a3 ab 4e 3e
       0.19587632 0.2528876 0.4939349 0.20182662
000100 c5 0a b0 be 63 c1 ed bd 46 06 fa 3e 1f 8f 5c 3e
       -0.34383217 -0.11609151 0.4883291 0.21538971
000110 0f 21 e0 3e f7 61 a5 3e 57 03 da 3d dc d3 58 3e
       0.43775222 0.32301304 0.10645168 0.21174568
000120 df f9 a0 3d 78 05 f9 3d 76 66 81 bf d0 0a 4e be
       0.07860159 0.12159246 -1.0109394 -0.20121312
000130 f5 6f e2 3e b6 16 4f be b0 39 41 bd 8c fb fd 3d
       0.4422604 -0.20223507 -0.047174156 0.124014944
000140 11 0b 98 3e 23 73 91 3e ac 93 91 3d 6a da 3a bf
       0.29695943 0.28408155 0.07108244 -0.72989523
000150 da de 71 3e b3 79 8a 3d a2 a7 ec 3e 75 cc 5b 3e
       0.23620167 0.067614935 0.46221644 0.21464713
000160 2b 93 24 be 25 2e 22 bf 13 46 3f 3e 7d 1a 4e bf
       -0.16071765 -0.6335166 0.18679075 -0.8050917
000170 9b 23 b5 3c 3d 44 36 3e 7d 47 11 be 67 14 36 bf
       0.022111705 0.17799468 -0.14187427 -0.7112488
000180 e6 8f da 3e a8 ea 19 be 86 2c 0c 3e 7d 69 ea 3c
       0.4268791 -0.1503092 0.1368886 0.028614754
000190 bd 69 15 3d 52 88 ce 3c 1e d2 16 bd fc cd 4b 3e
       0.036477793 0.025211487 -0.036821477 0.19902796
0001a0 fd 53 3b 3e bb 3a 78 3e c9 58 86 bd be ee 18 be
       0.18293758 0.24241154 -0.06559903 -0.14934823
0001b0 6b 43 61 bd 63 cb 6d 3b f1 c8 ff bd e3 f6 22 be
       -0.054995935 0.0036284558 -0.124894984 -0.15914492
0001c0 0a e7 fd ba a4 4f cc bd 2a 5b ab bd 88 d3 9a 3d
       -0.0019371223 -0.09976128 -0.083669975 0.07559878
0001d0 00 aa b4 bd 5d 63 75 3d e3 9a a1 3d ad 92 d2 3c
       -0.088214874 0.059909213 0.078908704 0.025704706
0001e0 25 b9 1f bd 97 9e 27 bd 59 5a f7 bd b2 f3 0a be
       -0.038994927 -0.040922727 -0.12077779 -0.13569525
0001f0 e6 d9 d2 bd 54 0b 48 bd 91 c7 44 bd d7 bd 9b bd
       -0.10295467 -0.04883893 -0.048041884 -0.076045685
000200 4f 16 d3 3c bc d2 89 3d b5 1a a3 bd ff 19 9d bc
       0.025767474 0.067296475 -0.07964078 -0.019177435
000210 74 03 3b bd 4d 6a 14 bf 2e 4c 0e bc 59 41 a4 bc
       -0.04565759 -0.579747 -0.008685155 -0.020050691
000220 b8 bf 64 3d fe 22 d7 bd 58 86 87 be 2c b8 79 3d
       0.0558469 -0.10504721 -0.26469684 0.060966656
000230 bd 79 72 3d d7 52 08 be 45 2b 7d 3d 53 21 03 3e
       0.05919813 -0.13312851 0.061808843 0.12805681
000240 97 6d 4c 3e 73 52 79 be 1f 55 43 be 6b 1c a0 3d
       0.1996368 -0.24347858 -0.1907544 0.0781792
000250 f6 0c d3 bd 4a 75 90 3e
       -0.103052065 0.28214484

weight_ih_l1 f4 [150, 50]
000000 3e 1b 02 be c3 4b 04 be ed 48 ac 3d a3 0f 52 3e
       -0.12705705 -0.12919526 0.08412347 0.20513777
000010 23 43 f5 3e 47 b1 25 3c b7 9c d3 3e 92 af 28 3f
       0.47902784 0.010113067 0.413305 0.658929
000020 0f 69 76 bd 88 d5 99 3d 94 af 55 be ad 23 e7 be
       -0.060158785 0.07511431 -0.20867759 -0.45144406
000030 ce 2c 86 be cc da f9 3b f2 8a 5e bd f8 d3 a3 3e
       -0.26206058 0.0076249596 -0.054331727 0.31997657
000040 8c cc 8a 3e 65 0d e4 be 07 91 54 3c b9 3e 97 3d
       0.27109182 -0.4454147 0.01297403 0.0738501
000050 0a 4f 21 bc de d6 be 3e 73 cb 0a 3f bb 7c 28 3e
       -0.009845505 0.37273306 0.5421669 0.16453831
000060 06 6c 09 bf 25 40 4d be f8 77 88 bd 34 6c b7 be
       -0.53680456 -0.20044 -0.06663507 -0.3582474
000070 b3 ba 97 3d f7 92 0f 3f 31 b1 1d bf e0 34 06 3e
       0.07408657 0.56083626 -0.615985 0.13106108
000080 fe 72 c3 3d 1f 0e 90 be 40 b1 95 3d 99 53 a8 3d
       0.095434174 -0.28135774 0.073091984 0.0821907
000090 84 41 55 3b b0 b1 95 be 91 3e 1c be fc c3 b9 bd
       0.003254027 -0.29237127 -0.15258242 -0.09070584
0000a0 ca 61 1a bc e2 11 b0 be ee 44 a8 3e 7e ab 39 bc
       -0.009422729 -0.34388644 0.3286509 -0.011332391
0000b0 c2 01 89 bd d2 6e 24 bf 52 34 dc bc 93 92 3b 3e
       -0.066897884 -0.642316 -0.026880417 0.18317632
0000c0 29 65 35 3e 07 2c 21 3d 05 15 4b be 36 b4 2a bd
       0.17714371 0.03934863 -0.19832237 -0.04167577
0000d0 26 0b 61 3e 6c 5c 5f 3e df bb a4 3c f9 e5 9c be
       0.21976909 0.218126 0.020109115 -0.30644205
0000e0 41 e1 e8 3e f3 cd 0f 3e 43 51 8b be 1e f8 88 3e
       0.45484355 0.14043407 -0.27210435 0.26751798
0000f0 02 dd 85 bd a3 08 43 bf 3a 05 f8 bb fe b3 12 3e
       -0.065362945 -0.76185054 -0.0075689824 0.14326474
000100 4f 4a c4 3d ce fd 02 be cd bd 3b bd 7c 7b 51 3d
       0.09584486 -0.12792131 -0.045835305 0.051143155
000110 d9 8a 92 be 92 ba 18 bd 1c 47 04 be ed d2 97 bc
       -0.28621557 -0.037287302 -0.12917751 -0.018533194
000120 44 05 8a bd 9d ab 09 bd 00 c4 0e be 8c a2 89 bd
       -0.067392856 -0.03361093 -0.13941956 -0.067204565
000130 5c f2 9f 3e d6 8f 64 bf 32 b6 3e 3e ea 16 ac 3d
       0.31239593 -0.89281976 0.1862419 0.08402808
000140 a4 aa e4 3d d7 b5 59 3e 10 c7 55 3e ec 91 35 3d
       0.111653596 0.21260773 0.20876718 0.044328615
000150 11 99 b1 3c 47 49 8f 3d 5a 5d 90 3e f8 1f 02 3e
       0.021679433 0.069963984 0.28196222 0.12707508
000160 35 af 3a bf cf 42 c9 3d a1 7f 7a 3e f8 1a 20 bc
       -0.72923595 0.09827196 0.24462749 -0.009772055
000170 85 f4 a5 3e dc 0b d1 3d 12 31 a0 be da 33 13 bf
       0.32413116 0.1020734 -0.31287438 -0.57500994
000180 9f cb 46 be 9e 98 4e 3d 82 3d 5c 3c c2 a9 87 be
       -0.19413613 0.050438516 0.013442399 -0.26496702
000190 6d 0d 8b 3e 44 fd be 3c 62 a1 11 bc ac 18 4d be
       0.2715868 0.023314126 -0.008888574 -0.20028943
0001a0 c5 fa 00 3d b4 39 79 3e b7 56 7d 3e 4e 9d 71 3e
       0.031489152 0.24338418 0.2474011 0.23595163
0001b0 2b 56 f5 bd c8 67 3d bf b3 87 a2 bd 43 41 86 3c
       -0.11979326 -0.7398648 -0.07936039 0.016388541
0001c0 f2 c6 44 bc 03 dc b4 be f8 22 80 bf 35 68 15 3e
       -0.012010323 -0.35324106 -1.0010672 0.14590533
0001d0 f7 4b 8c 3e 17 9d ad be 58 d8 51 3e 23 2b 99 3e
       0.27401707 -0.33908913 0.20492685 0.29915723
0001e0 1e 73 10 3e 33 50 54 3d ad b4 36 3e 8c 0b b4 3c
       0.14106414 0.051834296 0.1784236 0.021978162
0001f0 55 1d b7 bd 71 18 8d be 99 3c b7 be 03 63 9f be
       -0.089411415 -0.2755771 -0.3578842 -0.31130227
000200 d7 a9 05 3e 66 06 04 3f 0f 77 19 bc 48 51 3f be
       0.1305307 0.51572263 -0.009366765 -0.1868335
000210 d2 c0 75 bf 78 79 4c 3f ed ff 49 3f 47 2b 88 be
       -0.95997345 0.79872847 0.78906137 -0.26595518
000220 a2 c0 58 3c 4f c5 62 be ce 4b fe bd 6c ad 10 3f
       0.013229521 -0.2214558 -0.12416802 0.5651462
000230 68 14 2e bd e2 bb f3 3e 29 84 f7 3d c0 e8 81 bd
       -0.04249993 0.4760428 0.120857544 -0.06343222
000240 fb 89 e9 be ed fa 52 be 4f e2 42 3e 8d 14 58 3e
       -0.45613083 -0.20603533 0.19031642 0.2110159
000250 2a d3 7c 3e 32 6f a3 3e fa 31 81 bd 57 cc 82 be
       0.24689928 0.31920773 -0.063083604 -0.25546524
000260 cb 97 a5 3e 93 09 86 3e 46 fb 1c 3e e5 d4 9d ba
       0.3234237 0.2617918 0.15330228 -0.0012041597
000270 2e b5 85 3e 00 e6 42 3e 7b ff 6c be cf e0 2f 3e
       0.26114792 0.1903305 -0.23144333 0.17175601
000280 a7 6a 28 be 0d 59 b3 be ac aa c8 bd e7 4a 28 3d
       -0.16446935 -0.35028878 -0.09798178 0.041087057
000290 02 fd eb 3d 9c ad 19 3e d2 02 96 bd 07 b4 b3 3d
       0.11522867 0.15007633 -0.07324757 0.08774572
0002a0 58 b1 d9 be 22 b7 26 bf e8 36 50 be d1 04 7c 3e
       -0.42518115 -0.6512319 -0.20333445 0.24611212
0002b0 65 fc 3a 3d 14 00 5a 3d e7 e6 29 bf 04 d2 2f be
       0.04565086 0.05322273 -0.66367954 -0.17169958
0002c0 f3 77 5c 3e 3f 2f e0 bd 05 20 86 3e e8 ab 20 3e
       0.21530132 -0.109465115 0.26196304 0.15690577
0002d0 0f 06 58 bd bf 15 bd 3e d3 6f 80 bd 2e 30 3b bc
       -0.052740153 0.36930653 -0.06271329 -0.011425061
0002e0 3d 7d 48 3d d4 3e 20 3d ef d9 40 3e 3a bb 2e 3d
       0.04894756 0.039122418 0.18833135 0.042659022
0002f0 21 3f 35 be a5 f8 66 3d a9 03 77 3e 34 91 95 be
       -0.17699863 0.05638947 0.2412249 -0.29212344
000300 86 65 85 bd 11 88 68 3e b9 eb 27 3e 0f 4c 8f be
       -0.06513505 0.22708155 0.16398515 -0.27987716
000310 13 f5 2e be 0e eb a1 bd 8b 4c 3b 3c dc 28 2f be
       -0.17085676 -0.07906161 0.0114318235 -0.1710543
000320 fc ef 64 be 00 0c e0 bd 1e e6 48 3e 2f 50 84 3d
       -0.22357172 -0.10939789 0.19619033 0.06460606
000330 36 63 78 be 3b 26 63 bf aa 0c ad bc 91 f8 3a 3e
       -0.24256596 -0.8873021 -0.021124203 0.18258883
000340 54 a3 66 3e 67 e3 0d 3f 82 d8 2c 3e 61 f1 92 3d
       0.22523242 0.55425113 0.16879466 0.071749456
000350 f8 be 45 3d 52 1c 8d 3e f2 d1 8d 3e 4b 28 c2 bd
       0.048277825 0.2756067 0.27699238 -0.094803415
000360 c8 f5 d5 bc 04 5c 35 3e 3d 95 0a be a3 d1 36 3e
       -0.026118174 0.17710882 -0.13533492 0.17853408
000370 86 d5 f3 3c 3d fc c1 be 12 04 94 be ae c1 82 be
       0.029764902 -0.37887755 -0.28909355 -0.2553839
000380 b5 90 f2 bd 7d 16 e1 3e 6a 7d 25 3e b9 5e 68 be
       -0.11844007 0.4396247 0.16161123 -0.22692384
000390 54 93 8c 3c 5c d1 a5 be 6f 17 82 3e ac cb 15 3e
       0.017160095 -0.3238629 0.25408503 0.14628476
0003a0 16 ca 51 3e 54 38 21 3e 59 05 7c be 43 55 3e bd
       0.20487246 0.15744144 -0.24611415 -0.04646803
0003b0 4b c5 56 3d 82 48 a4 3c 25 39 0c be fe d9 28 3e
       0.052434247 0.020054106 -0.13693674 0.16489407
0003c0 f8 82 fe bb f3 c3 cd 3e d1 a9 55 3d cb 74 f8 3a
       -0.0077670775 0.4018856 0.052163903 0.0018955705
0003d0 04 f2 b8 be 03 8a 4d be ee 2a ad 3d 92 76 13 bf
       -0.36122143 -0.20072179 0.08455454 -0.576028
0003e0 5f c8 d8 3c 0a 97 78 be 03 47 d6 bd 7f 98 01 be
       0.026462732 -0.24276367 -0.10462763 -0.12655829
0003f0 39 57 29 3e 68 4a ad bd f3 06 ee 3c f9 65 0a bf
       0.16537179 -0.084614575 0.029056048 -0.5406185

weight_hh_l1 f4 [150, 50]
000000 9f 58 91 3e 7f 02 05 3f a2 27 dc 3e 0d f9 a1 3e
       0.28387925 0.51956934 0.42998987 0.31635323
000010 05 26 dd bd c8 64 0b 3e 9a e9 86 be 37 11 fd 3b
       -0.10798267 0.13612664 -0.263501 0.0077229994
000020 61 7f 13 3f bf f2 cc 3d c9 bd 1e 3e 8b 7a 2d 3e
       0.5761624 0.10007238 0.15502085 0.16941278
000030 01 80 34 3e 43 e4 bd be dd e9 4f be a3 b2 86 bd
       0.17626955 -0.37088212 -0.20304056 -0.06577041
000040 48 d1 8d 3e f8 60 d1 bd 3a e4 23 3f 66 42 15 3e
       0.2769873 -0.102235734 0.6402012 0.1457611
000050 8b d3 a7 3d 7d 23 5f 3e 8a 9d 87 bd 8b 5e b0 be
       0.081946455 0.21790881 -0.06621845 -0.3444713
000060 bd b4 53 3d b9 9d 30 3f 8f 65 20 bf 54 03 97 3d
       0.051686037 0.68990666 -0.62654966 0.07373682
000070 1a 66 b1 bc c3 99 7e 3d f0 3b 25 3d 6d bb 0a 3e
       -0.021655131 0.062158357 0.040340364 0.1354806
000080 6e 90 3a 3e 05 82 1b 3f 06 f3 8f 3e 3e 22 9a bc
       0.18219158 0.6074527 0.281151 -0.018815156
000090 b5 07 f1 bd 9c c2 ec be ae 81 e8 be 75 e9 9b 3d
       -0.11769048 -0.46242225 -0.45411438 0.07612888
0000a0 b2 2b f4 3e 8d f1 2c 3e 7d 26 e9 3d c8 05 1a 3e
       0.47689587 0.1688902 0.11384294 0.15041268
0000b0 39 c5 44 bc 20 b1 24 be e0 91 c0 bd d7 a3 a6 3b
       -0.012009912 -0.16083193 -0.094028234 0.005085449
0000c0 3d 3c ec be 1a d6 99 be be b8 d0 3e 2f 0b 64 3e
       -0.46139708 -0.3004616 0.40765947 0.22269891
0000d0 05 4b 03 bf 69 41 72 3e b7 cf b6 be 3a b5 0c bf
       -0.51286346 0.23657764 -0.3570535 -0.5496403
0000e0 3e e4 7f 3e 55 45 59 be 1a 05 02 3e a7 01 22 be
       0.24989411 -0.21217854 0.12697259 -0.15820943
0000f0 da 92 67 3d 85 65 b7 3d 20 d8 6d bd 4d 57 98 3e
       0.056536533 0.0895491 -0.05806744 0.29754105
000100 a0 d8 3b 3e 44 01 f2 3d f0 60 75 bd cc 8b 3e 3c
       0.18344355 0.11816648 -0.0599069 0.01163001
000110 f5 3b 2e be 6e d4 82 3e 32 c2 94 3d e8 39 c2 3d
       -0.1701506 0.25552696 0.07263602 0.09483701
000120 64 00 e3 3e 1c ac fc be d0 b9 65 3e 8a ff 90 bd
       0.44336236 -0.4935006 0.22434163 -0.0707999
000130 28 e5 ad be 90 8f 9d be 89 4e 77 be 61 69 e2 3e
       -0.33963895 -0.30773592 -0.24151053 0.44221023
000140 b9 7b 37 3f 68 c4 28 3e 80 d1 e8 be cd 7d a1 be
       0.7167316 0.16481173 -0.45472336 -0.3154129
000150 68 5d 88 3e ae a8 4e 3e d8 2c d6 3d 69 92 e2 3e
       0.26633763 0.20181534 0.10457772 0.44252327
000160 96 dc 68 3e c2 43 46 3e 94 98 52 bf b1 a1 f3 3e
       0.22740397 0.19361785 -0.82264066 0.47584298
000170 c8 77 18 3f 0f 58 9b be 2d 6c d3 3a 01 ca f2 3e
       0.5955777 -0.3034062 0.0016130261 0.47419742
000180 3c ed 50 3d 47 a1 b4 3e ab 95 a7 3e 89 84 42 be
       0.051007494 0.35279295 0.32731375 -0.1899587
000190 52 cc 2d bd 5b 73 cd 3e 46 60 1f 3f 07 e7 10 3e
       -0.042431183 0.40127072 0.62256277 0.1415063
0001a0 c1 95 01 bf 5b 20 58 3f 84 1f c0 bb b2 0a ee 3d
       -0.5061913 0.8442437 -0.005863132 0.11623134
0001b0 b1 db 82 3e 3f 69 6c 3d f2 eb 09 3e 85 0e b3 be
       0.25558236 0.057717558 0.13468912 -0.34972015
0001c0 3b 96 29 bf 55 f2 28 3e 04 f8 0e be f8 be 29 bd
       -0.6624486 0.16498692 -0.13961798 -0.041441888
0001d0 a8 09 59 be e6 92 b3 be 80 fe af 3e 89 11 ae 3d
       -0.2119509 -0.35073012 0.34373856 0.08499438
0001e0 52 45 43 be 67 28 33 3e fb 8d ad bd 74 ab ab bd
       -0.19069412 0.17495881 -0.08474346 -0.083823115
0001f0 59 39 59 3e 3a cd 87 3d cb ee 7e be 40 3f 5e be
       0.21213283 0.06630941 -0.2489578 -0.21703815
000200 39 87 e4 bd 26 1a 7d 3d cc 82 16 bf 80 65 8c bd
       -0.11158604 0.061792515 -0.5879333 -0.06855297
000210 3f 8b 04 3c 2e 2b 12 3e 89 53 a9 be 64 12 d1 bc
       0.0080898395 0.14274284 -0.33071545 -0.025521465
000220 93 ea c7 3d 27 3f bf 3c e2 4e 43 3e 5c 42 90 bd
       0.09761538 0.023345543 0.1907306 -0.07043907
000230 5f ff 0b 3e a9 4d 66 3e 49 41 90 3e 7e fb 94 3e
       0.13671635 0.22490562 0.2817481 0.29098123
000240 50 22 0d 3e 12 6d 13 be 89 c9 9b be ce 0f e1 3e
       0.1378262 -0.14397076 -0.30427197 0.4395737
000250 f5 94 8a be fd 56 22 3e c9 44 a5 bd 9c a5 ab 3c
       -0.2706677 0.15853496 -0.0806976 0.020952992
000260 93 7f 4f be 3a 47 b2 be 52 79 c4 be be 19 66 be
       -0.2026351 -0.34819967 -0.3837381 -0.22470757
000270 f6 8c 9c bc fb a1 f7 3e 5c f4 7e 3e d4 0d 44 3d
       -0.019110184 0.4836577 0.24897903 0.04786475
000280 7d b6 5f bd a9 cd ef 3e d2 a3 a7 be c6 7f 7c be
       -0.054617394 0.46836594 -0.32742172 -0.24658117
000290 07 bb 9a be 7b 02 47 3d ca fe 55 bd 83 6e af 3e
       -0.30220816 0.04858635 -0.05224494 0.34264
0002a0 0f 2d 5d 3d 47 6c 56 3e df 07 a7 bd 3c 61 f8 3d
       0.05399805 0.20939742 -0.08155798 0.12127921
0002b0 58 36 c0 3e 35 47 97 3e dd 9f 2e 3e d8 82 05 bd
       0.3754146 0.29546514 0.1705317 -0.032595485
0002c0 cb 5f 86 bd b0 fe 48 3d e7 3b 7a 3e 58 09 86 3e
       -0.0656124 0.049071014 0.24436913 0.26179004
0002d0 b6 b1 ec 3d 2a cd a3 3e 6e e2 90 be 9a d7 a8 3e
       0.11557333 0.31992465 -0.28297752 0.3297699
0002e0 5a ee 13 3e 46 02 b7 3e f9 cf f0 bc 80 73 b2 3c
       0.14446393 0.35743922 -0.029396044 0.02178359
0002f0 56 d9 4a 3c fe d7 dd bb eb 47 5d bd 70 58 cb 3e
       0.0123809185 -0.006770133 -0.054023664 0.3971591
000300 b9 47 5e 3e c5 3e 32 3d 5b 18 8a bc e9 26 34 3e
       0.21707048 0.043516893 -0.016857317 0.17592968
000310 d9 8f 86 3b da 4a b1 3e cb 7c de be fe 81 89 be
       0.0041065034 0.3462742 -0.43454584 -0.2685699
000320 e9 1a 32 bf 03 f5 e7 3e b9 ee a0 be 2b 0b 67 3e
       -0.6957231 0.45304117 -0.3143213 0.22562854
000330 32 3c 2f bf de c0 05 bf 37 7a 25 3f 63 45 b0 be
       -0.68451226 -0.52247417 0.6463961 -0.34427938
000340 0e b6 b9 be 27 49 28 be b4 c1 43 3e 04 3a dc 3e
       -0.3627171 -0.16434155 0.1911686 0.43013012
000350 03 44 84 3e 5f b2 6d bd 84 fe 8b 3e d7 75 09 3e
       0.2583314 -0.058031436 0.27342618 0.13423859
000360 3a 3c f0 3b 44 56 d9 be 97 43 29 3e e6 b3 23 3e
       0.0073313983 -0.42448628 0.1652969 0.15986595
000370 71 4d f2 3d a8 ab 05 be 5b 9c 2b 3f 8e 6e b2 bd
       0.11831177 -0.13053763 0.67035455 -0.08712493
000380 01 cd a8 3d 2b c9 0e 3e 03 34 fa bd f1 ef c6 3e
       0.082422264 0.13943927 -0.12216952 0.38854936
000390 87 17 c1 be e7 a5 2a 3f a0 d0 c2 3e 88 8c b8 3e
       -0.37713262 0.66659397 0.38049793 0.36044717
0003a0 79 e5 68 be 43 b1 3f 3e cf 69 8b ba 69 56 83 3e
       -0.22743787 0.18719964 -0.0010636392 0.25651863
0003b0 4b d0 df bd 12 3e 99 3e 91 71 63 3d ca 53 2b bd
       -0.109284006 0.29930168 0.055528227 -0.041827954
0003c0 b6 c7 e8 be 9e 6d 51 3f 9c 2b 61 3e 79 49 4a bd
       -0.45464867 0.8180789 0.21989292 -0.049386475
0003d0 67 6c 81 38 97 89 2b 3e af ad e4 bd fc c0 bf 3e
       6.171391e-05 0.16751705 -0.1116594 0.37451923
0003e0 41 80 68 3e 63 01 32 be a4 86 eb 3e f2 00 88 3d
       0.22705175 -0.17383341 0.4600116 0.06640805
0003f0 e0 23 95 3e 83 ea c6 be 70 a6 2a 3d ec 3e 97 be
       0.29128933 -0.38850793 0.041662633 -0.29540193

bias_ih_l1 f4 [150]
000000 21 17 b3 3e 1c b0 49 bd d5 64 68 bc dd 43 ce 3d
       0.34978583 -0.049240217 -0.0141841965 0.10071538
000010 1b 38 7b bd be fb ee bc 3f a7 b0 3d 37 89 6f 3e
       -0.061332803 -0.029172774 0.0862565 0.23392187
000020 88 da 78 be 66 9b a8 3d 72 ad 01 bd fa b4 5d 3e
       -0.24302113 0.08232765 -0.03165955 0.21651068
000030 54 2a 96 bd 68 d4 93 be ae 75 ab bc ee cb 5a 3e
       -0.07332292 -0.2887299 -0.020930137 0.21366856
000040 1d 90 d2 3d d5 61 c2 3d 7c 3e 7c 3e 04 5a 2e 3e
       0.10281394 0.09491316 0.24633211 0.17026526
000050 91 15 a1 3d d5 d8 c7 3d 9b 20 96 3e e5 bd 85 3c
       0.078654416 0.09758154 0.2932175 0.0163259
000060 37 f5 0f 3e 9a d1 9c 3d ef df e2 3e 22 99 86 3d
       0.14058386 0.07657166 0.44311473 0.065721765
000070 ab 3c 02 3e a9 5d b2 3d 99 40 d3 3d 99 21 46 3e
       0.12718455 0.087092705 0.103150554 0.19348754
000080 5f 46 40 bc 93 fa c6 3d 6c 3a e3 3d 59 56 15 3c
       -0.011735528 0.09715762 0.110951275 0.009114825
000090 90 3c a7 3b e2 61 ce 3c 4f 5a e0 3e e7 b7 73 be
       0.005103655 0.025193159 0.438189 -0.23800622
0000a0 00 2d 00 3d 89 9a 08 3e 43 8d 2d bd aa ce ba 3e
       0.031292915 0.133402 -0.042371046 0.36485797
0000b0 ee a1 71 3d a5 cf 13 bd 6e 30 f4 3d 31 06 0b 3d
       0.05899232 -0.036086697 0.119233 0.03394145
0000c0 54 80 af bd 8e 85 9f ba e3 19 a8 be eb 54 e3 be
       -0.085693985 -0.001217054 -0.3283225 -0.44400725
0000d0 f0 34 c8 3d f6 66 11 3e 2b b8 aa 3e fb e1 72 3d
       0.09775722 0.14199433 0.33343634 0.059297543
0000e0 51 a8 83 3e c9 4e fe 3d 6a 2c 25 bf 6c ac 21 bd
       0.25714353 0.12417371 -0.64520895 -0.039471075
0000f0 a0 92 8d bd 3d 91 97 3c a7 e0 22 bf 43 1c 24 3e
       -0.06912732 0.018501872 -0.6362404 0.16026406
000100 9e 39 67 be 9d 14 80 3e 89 91 9c 3d 49 55 90 3d
       -0.22580573 0.25015727 0.07644946 0.07047517
000110 2a d9 46 bd be 1a 3d 3e e0 3b 84 3c df 60 63 bf
       -0.048546948 0.18467233 0.016141832 -0.8881969
000120 3d 4b 0b bd 58 d6 63 3d a7 17 85 bc 9b 2d 22 bd
       -0.0340073 0.055624336 -0.01624663 -0.039594274
000130 f5 6b bc 3d d5 88 74 3e eb 50 a6 be da 58 3d 3e
       0.09200279 0.23880322 -0.3248361 0.18490925
000140 78 c7 06 3d 32 95 b3 3d f3 7f ae 3e 78 69 a2 3c
       0.032905072 0.08768691 0.34081993 0.019825682
000150 0c 34 af bd cc b4 0a 3e 25 d0 b3 bb 53 41 02 3e
       -0.08554849 0.13545531 -0.0054874592 0.12720232
000160 4b ee 33 be 04 9e d9 bd 60 cf f0 3d ab d1 45 bd
       -0.1757137 -0.10625842 0.11758304 -0.048295658
000170 90 b8 8f 3e b5 53 5a 3e b8 02 95 3e b2 10 1e 3e
       0.28070498 0.21320994 0.29103637 0.15436056
000180 33 2f 04 3e 49 54 19 3d 03 21 a0 be 08 19 8b 3d
       0.1290863 0.037433896 -0.31275186 0.06791884
000190 f5 f0 9b be 72 41 82 be bf 25 25 be 29 55 86 3e
       -0.30457273 -0.25440556 -0.1612768 0.26236847
0001a0 eb 0a 60 bd f7 31 1d 3e 9e bb 0a 3e 83 42 a5 3e
       -0.054697912 0.15351091 0.13548133 0.32277307
0001b0 a5 23 05 3e ed 44 b8 3d 64 bd 2d 3d a3 44 98 3d
       0.13001879 0.089975215 0.042416945 0.074349664
0001c0 ba 1c 15 3f 33 bb 64 3e 8d 21 1b bf 92 cc 83 bd
       0.5824696 0.22337036 -0.6059807 -0.06435503
0001d0 41 d0 ff 3c a4 d9 d0 bd fd ff c2 3e cc fa e3 bc
       0.031227233 -0.10197762 0.3808593 -0.02782955
0001e0 82 a4 05 3e ee c2 a5 be 13 d8 32 bd a0 82 88 be
       0.13051036 -0.32375282 -0.043663096 -0.2666216
0001f0 48 5d 9b 3e ee 90 06 be 03 1a e0 be cf b1 44 3e
       0.30344605 -0.13141224 -0.43769845 0.19208454
000200 cc 86 5f 3e cb b5 ce 3d c6 ca 71 3e 50 25 9a bd
       0.21828765 0.10093268 0.23612508 -0.07526648
000210 db aa 91 bd 04 5c 0e bd 7a ea 06 3e 27 2f 06 3d
       -0.07112666 -0.03475572 0.13175383 0.03275981
000220 f1 f7 24 3e 35 2b 81 be cc 89 3d 3e e9 72 07 3e
       0.16110207 -0.25228277 0.18509597 0.13227428
000230 e9 6c 61 3e f6 a1 1d bc 5d fc aa 3c 45 4f d1 be
       0.22014202 -0.009621134 0.02087229 -0.4088079
000240 ed 43 ba 3c 65 45 05 3c bb 12 f3 3d a5 62 bc 3e
       0.022737468 0.008134221 0.11868807 0.3679401
000250 d7 27 75 be 11 11 8d bc
       -0.23940979 -0.017220052

bias_hh_l1 f4 [150]
000000 8b 47 50 3e 88 70 04 3e bc c4 2b be f2 89 42 3d
       0.20339791 0.12933552 -0.16774267 0.047494836
000010 ea dd a4 bd 09 51 5b be e5 61 7b 3e 0d 43 6e 3e
       -0.08050139 -0.21417631 0.24549063 0.23267765
000020 bf a0 be bd 4a c7 b1 3d 5e c9 37 bc 0b c2 43 3e
       -0.09308004 0.086805895 -0.011217443 0.1911699
000030 59 ec ed bd 7b df cb bd 7f ab 1d bd 30 44 a1 3d
       -0.11617345 -0.09954735 -0.03849363 0.07874334
000040 c3 11 37 bc 9e dc 2a 3d 81 ef 63 3e 5b 5f 91 3d
       -0.011173668 0.041714303 0.22259332 0.07098266
000050 2d 0b 83 3c 7d 96 54 3e b2 b3 21 3e df 65 b2 3c
       0.01599654 0.20760532 0.15791205 0.021777092
000060 16 53 bc 3d 85 aa f6 3d eb 5e c0 3e 53 16 31 3e
       0.09195535 0.12044243 0.37572417 0.17293672
000070 3a 8b 2d 3e 7b ca f4 bc 38 b9 51 3e 42 61 5b 3d
       0.16947642 -0.029881706 0.20480812 0.05355955
000080 db 57 0c 3e 64 a4 ff 3d bb c9 1a 3d 98 95 a0 3c
       0.13705389 0.12482527 0.03779004 0.019602582
000090 5c 25 24 3e e3 05 2d bd 5e 3e d5 3e fd aa 84 be
       0.16029876 -0.042241942 0.41649145 -0.25911704
0000a0 73 21 71 3e 8f 0e 17 3e a1 3b 71 3d 58 21 a1 3e
       0.23547916 0.14751647 0.058894757 0.31470752
0000b0 e6 d5 7a bd df 73 15 be 59 80 86 3d 4b de f8 3c
       -0.061239146 -0.14594983 0.06567449 0.030379435
0000c0 b2 d6 a1 3c 6f dc dd 3d 1a 45 53 be e0 9e ac be
       0.019755695 0.1083306 -0.20631829 -0.33714962
0000d0 34 21 1b be 75 ab 0c bd 10 c4 8b 3e a8 72 13 3e
       -0.15149385 -0.0343432 0.2729802 0.14399207
0000e0 c5 47 f4 3d 14 79 d2 bd 3a 5d cd be 80 d4 6e be
       0.119277515 -0.10277 -0.4011019 -0.2332325
0000f0 ad 08 9c 3d 7b f6 d2 bd 3c 09 1a bf 4d 06 42 bc
       0.07618842 -0.10300919 -0.6017034 -0.011842323
000100 7c 88 a9 be d3 0f 27 3e df 34 bc 3d 49 6e 27 be
       -0.33111942 0.1631463 0.09189772 -0.16350664
000110 0c 7a a4 bd 5a cd 31 3e bc fe 66 3d 80 07 61 bf
       -0.08031091 0.17363492 0.056395277 -0.8790207
000120 86 5a 20 3e 07 47 12 3d ad 40 46 3e d8 de ae bd
       0.15659532 0.03571227 0.1936061 -0.08538598
000130 58 13 be 3c 22 b4 a5 3e 65 3f 97 be e9 44 8e 3e
       0.023202583 0.32363993 -0.29540554 0.2778695
000140 e5 86 6b be 59 b2 14 3d 81 69 07 3e 08 f6 8a 3e
       -0.23000677 0.036302898 0.1322384 0.27140832
000150 2c bf 92 bd cf b1 47 3e 47 18 44 3d c1 49 24 3e
       -0.071653694 0.19501422 0.047874715 0.1604376
000160 5c 85 81 be 94 49 a5 3b 75 8c 60 3e ed d3 a1 bd
       -0.25297058 0.0050441716 0.2192858 -0.0790175
000170 ed 08 18 3e cb 61 bd 3d 47 e9 85 3e d7 89 95 3d
       0.14847155 0.09247168 0.2615454 0.073016815
000180 1a 65 39 3e 93 01 81 3d c9 51 92 be e3 0f 6d 3e
       0.18104973 0.062991284 -0.28578022 0.23150592
000190 b9 c6 3d be 70 32 25 3e df 96 30 3e 13 27 d0 3d
       -0.18532838 0.16132522 0.17245053 0.10163703
0001a0 45 f1 ab be 32 80 ab be 28 d5 8e bc 23 fc 0a 3f
       -0.33582512 -0.33496243 -0.017435625 0.5429098
0001b0 81 d7 9e 3e e5 79 ed bd 9c d3 0f be 30 51 d9 be
       0.3102379 -0.11595515 -0.14045566 -0.42444754
0001c0 5b 5d 10 3e 99 93 dd bb 09 a1 f9 be 61 ac 1f 3e
       0.14098112 -0.00676198 -0.48755673 0.15593101
0001d0 45 cc d7 bd 95 bb 36 be 59 18 9e 3e c8 89 ba 3c
       -0.10537008 -0.17844994 0.3087795 0.022770777
0001e0 19 b4 0c 3e af 78 41 3c 43 f4 fe bc ce 63 2f bd
       0.13740577 0.011808558 -0.031122332 -0.04281979
0001f0 6c 2c 48 be 62 51 1a 3d fa a5 e0 be 00 63 33 3e
       -0.19548196 0.03767527 -0.4387663 0.17518234
000200 1b c4 e3 bd f8 03 10 be f5 01 7a 3e 56 ec 59 be
       -0.111213885 -0.14064014 0.24414809 -0.21281561
000210 c9 e4 b9 3c 9e 32 38 bd 3e 49 86 3d d4 84 1e be
       0.022692101 -0.044970147 0.065569386 -0.15480357
000220 46 5b d3 3e e4 16 1c bb 95 20 24 3e 37 b3 e8 bd
       0.41280574 -0.0023817355 0.16028054 -0.113623075
000230 24 a6 f9 3d 41 df 43 bd 39 4b d2 3d de 6a c4 be
       0.12189892 -0.047820333 0.10268254 -0.38362783
000240 26 fa 63 3e 30 9b e6 bb df 58 76 3e 12 22 bc 3d
       0.22263393 -0.0070375428 0.24057339 0.09186186
000250 ec ba dd 3e a8 36 2f 3e
       0.43306673 0.17110693
