Models_mario/Mario Bias_exp1_TRANSF_classifier.pth (torch, 10893 bytes, 6 tensors)

weight f4 [3, 1, 7, 7]
000000 7a 63 5c 3c 73 11 d6 3c 49 30 da 3d 2a 38 06 be
       0.013451451 0.026131367 0.10653741 -0.13107362
000010 4d a2 80 be 6a 64 b6 bd d9 2c 5b bd 74 bd 81 bd
       -0.25123826 -0.08905871 -0.053509567 -0.063349634
000020 55 53 57 bd 5d 21 38 3e f0 5c ad 3d 1f 88 58 be
       -0.052569706 0.17981477 0.08464992 -0.21145676
000030 63 8a 29 bd 8a 2f 67 bd 1e 57 27 3e a8 07 25 3e
       -0.04139174 -0.05644182 0.16341826 0.16116202
000040 9e 4b ac 3e 4a 91 44 3e 39 c8 9f bd ed 8e 48 be
       0.3365144 0.19196048 -0.07801861 -0.19585772
000050 97 a9 79 3c da b8 cb 3d 0e fe a4 bd 97 a4 9b 3d
       0.015238187 0.09947367 -0.080562696 0.075997524
000060 81 43 1c 3e 98 ba 40 be 50 82 4c be d8 28 20 be
       0.15260126 -0.1882118 -0.19971585 -0.1564058
000070 6f 00 2c bd 10 3a d2 bd 1f 62 02 3e 39 70 c3 bd
       -0.0419926 -0.10264981 0.12732743 -0.09542889
000080 57 e6 ca bc 07 b9 e0 bd 46 dd b8 3d 3f e8 3a be
       -0.024768038 -0.10972791 0.090265796 -0.18252657
000090 12 7f bc bd 32 3d a0 3d 0b 31 28 be c6 fb ad 3d
       -0.09203924 0.07824172 -0.16424958 0.084952876
0000a0 b1 3e ae bd 99 8e 93 3d f5 b5 74 be e0 44 2d be
       -0.08508051 0.07204933 -0.23897536 -0.16920805
0000b0 71 04 95 3b d0 b8 72 be 9a fd 8c bb af 5c d3 bd
       0.0045476486 -0.23703313 -0.0043026926 -0.10320412
0000c0 85 09 18 bd 05 1a 6e bc ea 30 aa be 1c ff d6 be
       -0.037118454 -0.014532571 -0.33240443 -0.41991508
0000d0 87 f8 90 be 45 90 c4 be 1f 18 d0 bc 0e a0 64 be
       -0.2831461 -0.3839132 -0.025402127 -0.22326681
0000e0 4c 56 26 be e4 3e 69 be 5c ae 11 bf b3 56 0a bf
       -0.16243857 -0.22777897 -0.56906676 -0.5403854
0000f0 b1 2e 0b bf 8d 47 c9 bd bd ce dc be f4 39 5b 3d
       -0.5436812 -0.098281 -0.4312648 0.053522065
000100 a0 b0 ff bd 9e f6 da be 41 a5 5d be c9 b7 39 be
       -0.124848604 -0.4276628 -0.2164507 -0.18136515
000110 c5 f1 c5 3d 36 a5 10 bd 09 fd ab bd ba 45 da bd
       0.096652545 -0.035313807 -0.08397872 -0.106578305
000120 dd e1 46 be e2 cd 21 be 5b c1 01 be 54 ea 39 bc
       -0.19422098 -0.15801194 -0.12671416 -0.011347372
000130 51 ad 26 3e c0 ec b9 bd 7e c5 99 3d 28 6a 0a be
       0.16277052 -0.090783596 0.07508372 -0.13517058
000140 80 07 38 3e 37 78 b3 3d 8d 22 02 3d 27 a7 89 bd
       0.17971611 0.087631635 0.03177123 -0.06721335
000150 23 44 f2 bd c0 58 36 be 0c 2a 80 be be 96 7c be
       -0.11829402 -0.17807293 -0.2503208 -0.24666879
000160 32 97 72 be 93 d1 b7 bd 45 91 ae bd a3 a3 76 bd
       -0.23690489 -0.0897552 -0.08523802 -0.06021465
000170 84 52 d7 3d 95 1d b6 bd b8 eb d1 bd 7e b2 49 bd
       0.105137855 -0.08892361 -0.10250038 -0.04924249
000180 e0 00 7d bd 5f dc 52 bd b2 27 3a bc e6 a8 2f 3e
       -0.061768413 -0.051479694 -0.011362003 0.17154273
000190 a6 09 53 bc 1b df 62 3d 97 eb 4b 3d c0 83 fc bd
       -0.012880718 0.05538855 0.049785223 -0.12329817
0001a0 06 03 28 be d9 8f c8 bd b4 21 f9 bd 13 38 30 be
       -0.16407403 -0.09793062 -0.121646315 -0.1720889
0001b0 5a 56 82 3d 36 01 d2 3b a9 95 47 be 5f 57 62 be
       0.063641265 0.0064088358 -0.19490685 -0.22103642
0001c0 3e c3 b8 bc ed 01 9c bd 60 e9 0a be 63 68 9c bd
       -0.022554036 -0.07617555 -0.13565588 -0.07637098
0001d0 c4 64 31 be 5f cc a6 be 14 1e b9 bd 9c 68 fb 3d
       -0.17323595 -0.32577798 -0.0903894 0.12275812
0001e0 b8 bd 84 3e c7 73 d7 3e c6 9b 82 3e 51 d9 99 be
       0.25925994 0.4208052 0.2550947 -0.30048612
0001f0 00 43 e7 be 00 8c 95 be e9 21 3b 3e 2c f9 18 3f
       -0.45168304 -0.29208374 0.18274654 0.59755206
000200 0d d1 44 3f de 53 e8 3e bb 8c 32 bc 32 ae 13 bf
       0.76881486 0.45376486 -0.010897811 -0.57687676
000210 b9 bb f7 be 0f 05 13 3d 97 b6 85 bd e1 66 6a 3e
       -0.4838541 0.035893496 -0.06528967 0.22890808
000220 e5 af 56 3d 51 0a 48 bc 5b f4 83 be 34 c0 25 be
       0.05241384 -0.012209491 -0.25772366 -0.16186601
000230 be de f2 3d 07 5d da 3c 1c 04 87 3e 8c c3 13 3e
       0.11858891 0.026655687 0.26370323 0.14430064
000240 77 34 b6 3d 1b cf 65 bd dc 59 ac be
       0.088967256 -0.056105714 -0.33662307

bias f4 [3]
000000 14 61 90 be 8b 3b d6 3d 02 13 e3 bc
       -0.28199065 0.10460576 -0.027719025

weight f4 [6, 3, 7, 7]
000000 45 ca 0a 3d 5c b2 06 bd 5b 0e e0 bc e8 09 9e bc
       0.033884306 -0.03288494 -0.027350595 -0.019291833
000010 c7 f0 ac bd 5f df da bd 22 ea 3b 3d cd 57 fe 3c
       -0.08444362 -0.10687136 0.045877583 0.031047726
000020 9a c2 3f 3d 1c 4a 94 bd f3 6f 84 bc c2 6d d1 3b
       0.046816446 -0.07240698 -0.016166663 0.006391258
000030 31 3f 9e bc 1e 82 80 3b 45 19 cc bd 79 b8 37 bc
       -0.019317241 0.003921761 -0.09965757 -0.011213415
000040 f3 e1 32 bd 33 b9 a5 bc 0a 05 08 3d 07 ac b1 bd
       -0.043672513 -0.020229911 0.03320793 -0.0867539
000050 13 10 c4 bd ae 40 a6 bd 46 f6 28 bc 79 14 71 bb
       -0.095733784 -0.081178054 -0.010312622 -0.0036785884
000060 11 5b 0d 3d 20 f3 02 bc 1f a9 d4 bc 30 f1 a3 bd
       0.034510676 -0.007992536 -0.02595955 -0.08004987
000070 32 7e 84 bd 5b 65 55 bd fc e2 8a bc d7 80 82 bd
       -0.06469382 -0.052098613 -0.016953938 -0.063722305
000080 0f 6e f3 bc 7d 30 7c bd c1 6a 88 bd bb 44 93 bd
       -0.029715566 -0.06156968 -0.06660987 -0.07190844
000090 86 4e 49 3b 5f cf 71 3d 12 a7 10 3d d6 e7 4e bc
       0.003071697 0.059035655 0.03531558 -0.012628516
0000a0 0f 30 b3 bd 7f 47 87 bd e1 6e 8a bd a3 f8 df 3b
       -0.08749401 -0.06605434 -0.0675943 0.0068350597
0000b0 b1 ed 40 3c 5f 4a 68 3c b5 e9 71 bd 9f a5 ae bd
       0.01177542 0.014177888 -0.05906077 -0.085276835
0000c0 07 30 3c bb 43 f9 b4 bc 7b 76 92 bc 58 2f f7 ba
       -0.002871515 -0.022091513 -0.017878762 -0.0018858714
0000d0 30 58 46 3d 20 e7 02 bd 0c 9f 69 bd 41 69 fb 3c
       0.048423946 -0.0319587 -0.057036445 0.030689837
0000e0 1f 94 63 bd 5a 9b e2 bc e3 77 33 3d 45 cf 08 bc
       -0.05556118 -0.027661968 0.043815505 -0.008350198
0000f0 e5 05 90 3d 7d 8b 6b bd 46 1d 3d bd b7 86 18 3d
       0.07032374 -0.057506073 -0.046170495 0.03723785
000100 c1 32 2c 3b 30 1a 7d 3c 3a 47 1d bb a1 ca fa b9
       0.002627537 0.015448138 -0.0023998753 -0.00047834686
000110 d0 f4 90 bc 33 0b 39 bc 02 a6 96 3b c2 ca 4b 3d
       -0.01769486 -0.011294174 0.0045974264 0.04975391
000120 87 86 3d 3d a7 49 b9 3c b6 28 46 bd 31 94 97 bd
       0.046270873 0.022618128 -0.04837867 -0.07401312
000130 af 85 97 bd c2 b7 48 bd 7d 56 ed 3b 31 ae 08 3d
       -0.07398545 -0.04900337 0.007242976 0.033369247
000140 fb 9d 10 bd 99 b9 d3 bc 87 33 aa bd da 15 58 3d
       -0.035306912 -0.025845336 -0.08310609 0.052755214
000150 59 60 08 bc d6 8f a6 bd 4b 6b 8a bc 92 b5 26 3c
       -0.008323752 -0.08132903 -0.016896864 0.010175126
000160 cb 90 b4 3c 2e 11 ae bd 2b d6 1c 3d 8b e3 06 bd
       0.022041699 -0.084993705 0.038290184 -0.032931846
000170 53 aa f1 bc 48 87 c6 bd aa 04 ff bd df fa 6b ba
       -0.029500162 -0.096937716 -0.124520615 -0.0009001921
000180 34 b4 01 3d 1e a6 62 3c 35 a5 a9 bd b9 72 d6 bd
       0.031665996 0.013833551 -0.08283464 -0.104711
000190 23 aa d5 3c e2 5f 50 bd 96 93 90 3c 82 f7 49 bd
       0.026082104 -0.05087269 0.0176485 -0.049308307
0001a0 38 16 e2 bc 3f 84 ee bc ba 9c 32 bd a8 df f3 bc
       -0.027598485 -0.029115794 -0.043606497 -0.029769734
0001b0 78 a6 32 3c 91 a2 54 3c 91 92 e2 bd 2e f1 03 bd
       0.010903947 0.012978212 -0.110631116 -0.03221243
0001c0 43 af ba bd e0 13 93 3c 0b c7 87 bd 90 9c 96 bc
       -0.0911546 0.017953813 -0.06629761 -0.018385202
0001d0 0a 03 98 bd 39 81 d4 3c d6 c8 db bd 3a d3 d8 bc
       -0.07422455 0.025940524 -0.10731666 -0.026467908
0001e0 d7 97 0d 3d 94 18 17 bc 6c a6 5f bd 7c f2 92 bc
       0.034568634 -0.0092221685 -0.05460207 -0.017937891
0001f0 23 53 ac bd 09 00 3c 3d 34 87 83 3a 36 d3 56 3c
       -0.084142946 0.04589847 0.00100348 0.01311188
000200 39 fa bd bd 7f cb a0 3c 42 f7 d9 bd 97 56 04 bd
       -0.09276242 0.019628284 -0.10642864 -0.03230914
000210 7e db 84 3c 74 37 3f 3d 22 3e 96 bc c0 15 94 bc
       0.016217943 0.046683744 -0.018340174 -0.018076777
000220 30 e3 11 bd 02 7a f1 3c 8c db 90 bd 73 12 1d 3d
       -0.035617054 0.029477123 -0.07073125 0.038347673
000230 ba 89 ad bd cd 0e 85 bd ea c6 05 3d 97 54 87 bd
       -0.08473535 -0.06496964 0.032660402 -0.06607931
000240 9d 31 98 bd 71 62 9b bd f1 e8 b0 3b 7f 63 6f bd
       -0.07431338 -0.075871356 0.0053988625 -0.058444496
000250 40 50 39 be bc 64 93 3c c2 d2 1e 3e 59 db cb 3d
       -0.18097019 0.01799237 0.15510085 0.099539466
000260 fd 47 5b 3e d1 41 83 3e cd f2 98 3e 37 1b 40 be
       0.2141418 0.2563615 0.29872742 -0.18760382
000270 a1 67 06 be 55 5d 2f be c4 91 48 3c 5f b2 f7 3d
       -0.13125469 -0.17125447 0.0122417845 0.120945685
000280 41 41 dc 3d 8f 57 a2 3d f6 81 e7 bd b1 15 82 be
       0.10754634 0.07926857 -0.11304085 -0.25407174
000290 a5 6a c8 be 83 c2 95 bd 5c 95 2d 3b 42 42 5a 3d
       -0.39143863 -0.07312491 0.002648673 0.053285845
0002a0 eb 14 32 3e 18 33 1e 3e b3 55 83 3e f5 9b f5 3d
       0.17390792 0.15449178 0.2565132 0.11992637
0002b0 74 49 60 3d c0 4a 41 be 0f a1 27 3d 21 2f 2c 3e
       0.05475755 -0.18876171 0.04092508 0.16814853
0002c0 df f5 f1 3d 23 39 96 3e 79 c7 0a 3f 94 ab e3 3c
       0.11814474 0.29340467 0.5421062 0.027791776
0002d0 10 3f 50 be f6 08 ad be c2 a6 6c be 31 7f cf be
       -0.20336556 -0.337959 -0.23110488 -0.40526727
0002e0 a9 c1 62 be f8 36 2d be 6b 3a 74 be 4b 90 c9 be
       -0.22144188 -0.169155 -0.2385041 -0.393679
0002f0 0d f2 7e be 3a e4 76 bc 0f 9b 98 be 46 08 c0 be
       -0.24897023 -0.015069062 -0.298058 -0.37506312
000300 75 4c 27 3d e2 ca 48 be 28 ef 98 3d 0a e7 0d 3e
       0.0408444 -0.19608644 0.074674904 0.13857666
000310 a4 6b 99 be 6c 2c 76 3d 26 aa a3 3e f4 a7 1a 3f
       -0.29964936 0.060100958 0.3196575 0.60412526
000320 92 12 2d 3e d2 32 a3 3e 29 e1 7b bd 9f 2a 45 3e
       0.16901615 0.3187471 -0.061494026 0.1925454
000330 d3 e4 41 3e 19 f7 c9 be 39 09 af be 68 2d 8d be
       0.18934946 -0.39446333 -0.34186724 -0.27573705
000340 8d af dd be 87 0c 25 bd 02 26 fe 3d b4 47 14 3f
       -0.43297997 -0.04029515 0.12409593 0.5792191
000350 00 3b 2d 3d f2 17 9e 3e 84 a2 45 3e 3e 48 07 3f
       0.042292595 0.30877644 0.19300276 0.5284461
000360 91 25 ca 3e 62 3d 20 3e 51 b3 e2 3e 0b e1 8f 3d
       0.39481786 0.15648416 0.44277433 0.070253454
000370 8e 6e 1e 3f 52 94 45 3e 1a 65 76 3e 38 53 14 be
       0.61887443 0.19294861 0.24062005 -0.1448487
000380 1e c7 9b 3d c6 13 90 3d 7d e7 cd 3d c7 b9 92 bd
       0.07606338 0.070350215 0.100539185 -0.071643405
000390 1e c2 28 3e 4e c3 9e 3d b9 c8 95 bd fc 61 b5 be
       0.164803 0.07752095 -0.073136754 -0.3542632
0003a0 85 d3 3d bd 84 a0 35 be 02 a4 c9 3d f5 36 3b 3d
       -0.0463443 -0.17737013 0.09845735 0.045706708
0003b0 a7 b0 91 be fe 9b 63 3e c8 23 78 3e 4b d7 a3 be
       -0.28455088 0.22227475 0.242324 -0.32000193
0003c0 60 cd 83 be 98 ad 56 3e 00 34 85 bd 0a e1 b4 bd
       -0.25742626 0.20964658 -0.06504059 -0.08831985
0003d0 5d fe 37 3e 4f d4 b0 3e ef d7 23 3d 1c 5d c5 bd
       0.17968126 0.3453698 0.040000852 -0.096369
0003e0 d7 f0 f3 3c 78 79 2c bd 20 ae 9a be 71 89 67 3e
       0.029777927 -0.04210803 -0.30210972 0.22611023
0003f0 63 13 87 bd 73 6f 68 be 67 f0 0c 3d 2e 28 08 be
       -0.065954946 -0.22698765 0.034408953 -0.13296577

bias f4 [6]
000000 62 66 ce bd bf 82 1e 3e 3e f2 84 3d b0 a6 5b bd
       -0.10078122 0.15479563 0.064915165 -0.053625762
000010 ac 1c 52 bd 4e 2d a6 bd
       -0.051296875 -0.0811411

weight f4 [5, 96]
000000 72 bc 72 bd e7 fc c5 3d 48 31 c7 bd ba 04 62 bc
       -0.059261747 0.09667378 -0.097261965 -0.013795072
000010 dc f4 0e 3d 36 67 6d bc 38 0e bd 3d bf ea 91 bd
       0.034901485 -0.014489939 0.09231228 -0.071248524
000020 e5 b7 3e bc c9 50 36 bb b7 4f 75 3d 19 36 87 3d
       -0.011640524 -0.0027819148 0.059890475 0.06602115
000030 f4 54 84 bc df b2 10 bc e8 89 a4 3d 33 cc db bc
       -0.01615379 -0.008831709 0.08034116 -0.026830768
000040 9c 73 89 bd 98 ad 6d 3d a9 97 f8 bd 65 1a 77 bc
       -0.06711504 0.05802688 -0.12138302 -0.015081977
000050 7c 05 c1 bc bf 9d 2d bd 4f 24 80 bc d8 92 f9 bd
       -0.023562185 -0.042386767 -0.015642313 -0.12186211
000060 e7 cc 53 3c e6 5d c8 bd 91 db d8 b9 73 80 39 3d
       0.0129272705 -0.09783535 -0.0004136232 0.045288514
000070 5d 42 fb 3c ca 14 3b 3d 37 03 8b bd 13 4d ee bc
       0.030671293 0.045674123 -0.067877226 -0.029089486
000080 2f 55 38 bd b3 ce b8 3c ed ca 13 bd c2 ab 87 bd
       -0.045003112 0.0225595 -0.036082197 -0.06624557
000090 3f 3b ef bc f2 4f fe bd 74 e7 ea bd 24 37 be bc
       -0.029203055 -0.12417592 -0.114699274 -0.023219652
0000a0 c5 ec 89 bd f0 3d 52 bd 8b d5 41 3d 94 9b e0 bd
       -0.06734613 -0.0513286 0.04732279 -0.10967174
0000b0 73 7a f1 3c 45 b7 30 bd 27 7d 81 3d 6e 1e 11 3d
       0.029477334 -0.04314353 0.06322699 0.03542941
0000c0 cd 51 9f bd bb 93 b4 3c 33 b7 02 be bf 7f 97 bb
       -0.07779274 0.0220431 -0.12765197 -0.004623383
0000d0 2e 4e dc bc 5f d0 65 bd 30 d0 0e bd 32 f6 cc bd
       -0.026892748 -0.05610692 -0.03486651 -0.100078955
0000e0 69 e5 93 3c 88 a5 92 bc 1c 3f 89 bb e2 f2 93 3c
       0.018053727 -0.017901197 -0.0041884314 0.018060151
0000f0 a0 ff 27 bd f5 1e 71 bd 9a e7 bc bd fa 6f 00 be
       -0.041015267 -0.058867414 -0.09223862 -0.12542716
000100 fd 5b cb 3c 12 23 ad 3d 4a c8 c7 bd c6 91 a7 bd
       0.024824137 0.08453955 -0.09754999 -0.08182101
000110 56 07 56 3d a4 72 e9 bd 92 87 86 bc 23 43 9f 3d
       0.05225309 -0.11398819 -0.016422067 0.07776477
000120 4c f9 5f bc 57 4d 86 3d 6b 99 8e bd 44 d8 f9 3c
       -0.013670277 0.0655772 -0.06962856 0.030498631
000130 c7 3d 41 3d 42 ea 98 3d 06 e2 20 bd e7 b9 af bd
       0.047178056 0.07466556 -0.039278053 -0.0858038
000140 2a d2 c4 bd 65 65 cc bd 86 7a 41 3b 8e f1 64 3d
       -0.09610398 -0.09980277 0.0029522493 0.055894427
000150 78 0d c1 bd 75 34 5c bd 08 e3 82 bc 01 81 d0 bd
       -0.09426397 -0.053760964 -0.015977398 -0.101808555
000160 e9 2e 88 3d ea c4 5c bd 68 c0 22 bd b1 2e 92 3d
       0.066495724 -0.05389873 -0.039734274 0.07137812
000170 e2 3a 9e bd 9d d2 ba bd 90 07 96 bb b2 a8 f2 3a
       -0.07726075 -0.091222025 -0.0045785382 0.001851341
000180 3d f7 6f 3d a5 22 55 bc 1f b4 6e bd 48 0a 20 bd
       0.058585394 -0.013008748 -0.058277246 -0.039072305
000190 84 04 8f 3d 09 5c 9b bd 07 18 89 bd b8 14 aa bd
       0.06983283 -0.07585914 -0.06694036 -0.08304733
0001a0 de 93 ab bd bb fc 32 bd 56 87 b2 bd cc 13 df 3c
       -0.08377813 -0.043698054 -0.087172195 0.02723112
0001b0 5b f0 9a bd ee 3f e7 3b 09 4e 07 3d 62 98 13 3c
       -0.075653754 0.0070571816 0.033033404 0.009008499
0001c0 c8 b1 8f 3d 36 be 0b 3d 73 ce a2 3d 5e a6 d7 bd
       0.07016331 0.034116946 0.07949533 -0.10529779
0001d0 f3 b4 19 bc 6b 12 3c 3d 46 b0 03 be 03 6d 7c bd
       -0.009381521 0.045916002 -0.12860212 -0.0616274
0001e0 88 35 9a bc 4f 11 c8 3d a6 87 38 bd 93 39 23 bd
       -0.018824354 0.09768926 -0.04505124 -0.03984983
0001f0 6d 87 03 bd 64 14 81 bd c6 2a 22 be 43 ff 33 3d
       -0.032111574 -0.06302717 -0.1583663 0.04394461
000200 45 c7 43 3d 27 7c a3 3c 08 ee 74 3b 32 2e 6e bc
       0.04779746 0.019956661 0.0037373323 -0.014537381
000210 0e 5e c3 3b bd ba 2b be 2a 6c 1b be f7 bb d1 bd
       0.00596214 -0.16770454 -0.1517798 -0.102409296
000220 b1 61 54 3c 11 af 2f be 1a c8 d3 bd a2 1f 06 be
       0.012962745 -0.17156626 -0.10340901 -0.13098004
000230 a9 2b 55 bd be 74 09 be 0b 72 2d be 66 43 58 be
       -0.05204359 -0.1342344 -0.16938035 -0.2111946
000240 ec b6 26 3c a2 f3 b2 bd c4 9b 3e 3d 6d 42 8f 3b
       0.010175448 -0.087378755 0.04653527 0.0043719322
000250 dc 26 fc bd 21 16 1b bd 99 10 16 bd d1 41 c3 bc
       -0.12312099 -0.0378629 -0.036636923 -0.023835095
000260 e1 5f 56 ba 1a 45 06 be 65 ec 05 3d e9 32 48 be
       -0.0008177739 -0.13112298 0.032696147 -0.1955067
000270 4a 48 90 bb 60 11 b9 bc 18 96 80 bc 58 74 33 be
       -0.004403149 -0.022591293 -0.01569657 -0.1752485
000280 fd fd f3 bb 7f 55 65 ba 65 64 6d 3d dd 5f 9b 3d
       -0.0074460492 -0.00087483966 0.05795707 0.07586644
000290 7a 73 1b bc 8e 03 8f 3c b0 4f b1 3d f0 64 de 3c
       -0.009487981 0.01745775 0.08657777 0.02714774
0002a0 28 49 07 3c 47 12 0b 3d 96 73 71 bd f1 68 ad 3d
       0.008257188 0.033952978 -0.058948122 0.084672816
0002b0 03 b5 6b 3b 23 bd c9 bd a3 a5 9f bd 85 c3 01 be
       0.0035966046 -0.09850528 -0.077952646 -0.12672241
0002c0 cc 8a ab 3d 48 1e a6 3d 49 c1 67 bd 9c 17 a5 bd
       0.08376083 0.081112444 -0.056580815 -0.08061144
0002d0 c8 42 53 bd 81 fa 02 3a 5b cf 88 3c 04 28 9a 3d
       -0.05157736 0.00049964344 0.016700437 0.075271636
0002e0 03 7d 87 3d 28 ee 26 3a 21 af 6a 3d 82 c9 83 bd
       0.06615641 0.00063678855 0.057295922 -0.06434919
0002f0 87 92 cc 3d 8c 57 ea 3d 5f 0f a7 3d d0 a5 8a bd
       0.099888854 0.114424795 0.08157229 -0.067699075
000300 4f 80 bc 3d 2d 32 17 bd 01 c0 e2 3c 18 18 9c bd
       0.092041604 -0.036913086 0.027679445 -0.07621783
000310 85 e8 e6 bc 44 be 30 bd aa cd 64 3d 71 24 b8 3d
       -0.028187046 -0.0431502 0.0558602 0.08991326
000320 6a 23 3c 3d 4b a9 c6 bc 99 59 86 bd 2d d2 4b bd
       0.04593221 -0.024250647 -0.06560058 -0.049760986
000330 66 ec b4 bd e3 d7 b1 bc 71 ef ce bd 53 05 95 3c
       -0.08834152 -0.021709388 -0.101042636 0.018191015
000340 37 28 ce 3e 7d e8 a1 3e f6 f6 7c 3e a3 20 e5 3e
       0.40265056 0.31622687 0.24703583 0.44751462
000350 d8 ba a2 bd d1 e6 81 3e a7 8d 85 be 18 5f 74 3e
       -0.07945794 0.2537141 -0.26084635 0.238644
000360 7b 87 49 3e 08 ce 6d 3d 5d c9 9f 3d fc 4d c1 3e
       0.19680588 0.058057815 0.07802079 0.3775481
000370 5b e6 92 bd fa 8d 18 3e 66 f9 90 be 13 3c af bd
       -0.07172843 0.1489791 -0.28315276 -0.0855638
000380 36 44 34 be 69 41 96 be 75 c3 dd 3d 47 50 cb 3d
       -0.17604145 -0.2934678 0.10828296 0.09927421
000390 9d fd 1a 3e bb e8 19 3f e6 12 0f 3f 81 82 2d be
       0.15135808 0.60120744 0.5588821 -0.16944315
0003a0 2b e8 f9 3c a7 52 95 be b8 82 cf bc c3 f9 08 be
       0.030506214 -0.2916462 -0.025330886 -0.13376527
0003b0 ee f3 88 3d ef 87 74 be 0d 83 20 3e ef 77 ad 3e
       0.06687151 -0.2387998 0.15674992 0.33880565
0003c0 56 5d 8a be 58 15 b9 3e fb 9a ef be 92 22 f3 be
       -0.27024335 0.36149096 -0.46797928 -0.47487313
0003d0 ea ab 5f 3e c4 16 78 3f 92 26 e7 3d 6b 3e b0 3d
       0.21842924 0.9690974 0.112866536 0.08605655
0003e0 1c 53 56 be 44 95 1f be 98 d8 04 be 52 b6 88 3e
       -0.20930141 -0.15584284 -0.12973249 0.267016
0003f0 b1 c7 8f be 85 10 c5 be 34 0c 59 bd 9e 4e bf bc
       -0.2808204 -0.38489166 -0.052990153 -0.023352917

bias f4 [5]
000000 c6 d3 04 be 27 bd b6 bd 6f 7b a8 3e b3 a7 8e 3d
       -0.1297141 -0.08922797 0.32906672 0.0696558
000010 25 bf e3 bd
       -0.11120442
