Models_mario/Mario No Bias_exp0_DL_classifier.pth (torch, 12865 bytes, 6 tensors)

weight f4 [3, 1, 7, 7]
-0.17380576 -0.03210067 -0.15019746 -0.19719924 -0.09138248 -0.127071 -0.11423831 0.050090373
-0.1874663 -0.015363153 0.0783929 0.17223972 -0.18863249 -0.10706097 -0.031316902 0.08697762
0.16030261 0.06999294 0.21582049 -0.112521835 -0.19579957 0.010273973 -0.026357312 -0.024676956
-0.046659876 -0.07386718 -0.052914474 -0.035796653 0.18430705 0.0759378 -0.042968042 -0.037957687
-0.0017428208 0.08007549 -0.024941444 -0.075334564 0.09085875 0.08384906 -0.113730125 0.117425896
0.10403878 0.12880994 -0.12520753 -0.0854985 -0.080905996 -0.22851649 -0.017801642 -0.056314845
-0.061777618 0.14057733 0.09047068 0.21366596 0.051195383 0.03605985 0.34004292 0.3383173
0.025635466 0.007217434 -0.015491992 0.24536088 0.025091674 0.042088024 0.20243967 0.096628025
-0.04366846 -0.31815308 -0.05853529 -0.23196593 0.15912232 0.28598416 0.11445521 -0.20140313
-0.3940772 -0.18955213 -0.17559828 0.13867444 0.019140033 0.031923335 -0.20528454 -0.37007937
-0.19232865 -0.29320008 0.033781264 0.026520293 -0.25748095 -0.5353767 -0.6477854 -0.10326826
-0.06723003 -0.10308474 -0.019853061 -0.24597964 -0.1167547 -0.35522836 -0.0142483665 -0.10920126
0.12449437 0.20355253 -0.12087121 -0.16329272 -0.12373175 -0.16795638 -0.14013052 -0.049840137
0.13776417 -0.09857083 -0.16990617 -0.20472251 -0.19213215 -0.19388554 0.056959458 0.0743853
0.01922701 -0.13569982 -0.13377585 -0.18223466 -0.18369778 -0.040550277 -0.014709306 -0.004118824
0.19826925 0.1185992 0.2720628 0.2409814 0.015977887 0.040828038 -0.13191634 0.2082098
0.129966 -0.0021347178 0.17833005 0.11200673 0.07486803 0.24133757 0.11646698 -0.00020163294
0.08724038 0.3694231 0.21314132 0.107774414 0.28446564 0.14074028 0.0895255 0.33539551
0.3565322 0.3814027 0.3586353
00000000: 23fa 31be fe7b 03bd 5dcd 19be 99ee 49be
00000010: bd26 bbbd e61e 02be c6f5 e9bd 902b 4d3d
00000020: 2af7 3fbe bcb5 7bbc 758c a03d 9c5f 303e
00000030: e028 41be c842 dbbd 2746 00bd 5321 b23d
00000040: 5e26 243e 7558 8f3d 0c00 5d3e d971 e6bd
00000050: af7f 48be 2b54 283c 4aeb d7bc 5427 cabc
00000060: 6d1e 3fbd ad47 97bd d9bc 58bd 839f 12bd
00000070: fdba 3c3e 4785 9b3d 42ff 2fbd 8579 1bbd
00000080: 5d6f e4ba 9efe a33d 0052 ccbc 0249 9abd
00000090: 2714 ba3d 0eb9 ab3d 57eb e8bd fd7c f03d
000000a0: 4912 d53d c1e6 033e 6736 00be d619 afbd
000000b0: 0bb2 a5bd 3a00 6abe c0d4 91bc 65aa 66bd
000000c0: 870a 7dbd 81f3 0f3e b148 b93d 40cb 5a3e
000000d0: 40b2 513d 7eb3 133d 1b1a ae3e ed37 ad3e
000000e0: 7801 d23c 3980 ec3b 20d2 7dbc e23f 7b3e
000000f0: 0e8d cd3c 7e64 2c3d 584c 4f3e eae4 c53d
00000100: b3dd 32bd f6e4 a2be b3c2 6fbd 7a88 6dbe
00000110: f6f0 223e 846c 923e 7e67 ea3d 9f3c 4ebe
00000120: 7dc4 c9be f419 42be 09d0 33be ac00 0e3e
00000130: 8fcb 9c3c 0bc2 023d 1c36 52be 0b7b bdbe
00000140: cdf1 44be 521e 96be 395e 0a3d 1641 d93c
00000150: 8bd4 83be 730e 09bf 44d5 25bf 4f7e d3bd
00000160: e6af 89bd 181e d3bd e3a2 a2bc 16e2 7bbe
00000170: 171d efbd 7ee0 b5be fb71 69bc e9a4 dfbd
00000180: e7f6 fe3d 1370 503e 538b f7bd 3536 27be
00000190: 1267 fdbd c2fc 2bbe 607e 0fbe 2c25 4cbd
000001a0: 0d12 0d3e 81df c9bd e2fb 2dbe c7a2 51be
000001b0: 4abe 44be ee89 46be 524e 693d 5257 983d
000001c0: f681 9d3c e5f4 0abe 89fc 08be b99b 3abe
000001d0: 451b 3cbe 0c18 26bd 4dff 70bc 33f7 86bb
000001e0: 1807 4b3e 23e4 f23d d14b 8b3e d4c3 763e
000001f0: 0fe4 823c 4d3b 273d 1415 07be f334 553e
00000200: cf15 053e 9fe6 0bbb 279c 363e c963 e53d
00000210: 6954 993d 3221 773e 3d86 ee3d 6e6d 53b9
00000220: 16ab b23d 0625 bd3e b841 5a3e d5b8 dc3d
00000230: 7ba5 913e 381e 103e 2559 b73d f6b8 ab3e
00000240: 638b b63e 3747 c33e 0c9f b73e

bias f4 [3]
0.073599435 0.18943134 -0.12466102
00000000: 4dbb 963d 4afa 413e 474e ffbd

weight f4 [6, 3, 7, 7]
0.097077794 -0.037522767 -0.034289334 0.035494905 -0.046053365 0.07129349 -0.22676978 -0.22594729
-0.075337544 0.034169182 0.1762616 -0.022491947 -0.035944596 0.083454564 0.089931 0.021936394
0.04385579 -0.004295165 -0.05116471 -0.062421326 -0.10754149 -0.13218053 -0.010434009 -0.15462273
-0.11321152 -0.079928614 0.051077016 0.024285758 -0.12658942 0.008369707 0.04424722 -0.034213133
-0.016487077 -0.007449968 -0.066220365 0.060984008 0.13788472 0.14963783 0.12877397 0.029378366
-0.0007590674 0.039492074 -0.008913926 0.057270963 -0.041373517 -0.014130037 0.10650459 0.20438704
0.04765086 0.07991035 0.1379299 0.10412629 -0.21260037 -0.39649004 -0.14678594 -0.3967329
-0.25797635 -0.2144611 -0.07302117 -0.1344049 -0.1645974 -0.23540609 -0.09949241 0.1924623
0.010850298 0.13188475 0.049640324 0.09054145 -0.0052773785 -0.0012710178 0.45143214 -0.073525675
-0.0039728587 0.4467453 0.30856833 -0.07191752 -0.1384941 0.29328975 -0.021228228 -0.014259163
0.16407901 0.18982328 -0.07989221 -0.1247902 0.27476838 0.33709037 0.01674133 0.22079685
0.19792938 0.046082534 -0.09685075 0.30510345 0.33069074 0.1750031 0.110912494 0.07177446
0.22596106 0.082242206 0.24386151 0.20590006 0.27088276 0.27485684 0.21759872 0.07875036
0.08117368 -0.061919354 -0.016156595 0.12260864 0.021150883 -0.077663 -0.10785209 -0.15150365
-0.026908869 -0.08528786 0.023545843 -0.029428976 -0.15121132 -0.09003268 -0.14169158 -0.20571987
-0.13782202 -0.010151349 -0.09366974 -0.19215004 -0.23063278 -0.05362604 -0.15214862 -0.012214728
-0.028327612 -0.03571441 -0.00074541464 -0.016867138 -0.062856495 0.020373827 0.067980655 -0.09886801
-0.030259056 -0.016381096 -0.015758079 -0.12536775 0.05394545 0.05636442 0.05667363 0.10685881
-0.010893034 0.096713886 0.032602955 0.31590226 -0.07024819 0.09357039 0.05774712 0.052462503
-0.03802932 0.009988546 -0.06704177 -0.072457 0.077540904 0.02600196 0.07333365 -0.14703348
-0.17891872 -0.05804882 -0.093949996 -0.20213494 -0.05350165 -0.1347721 -0.08142978 0.058323987
0.029713541 -0.014902204 -0.060859483 -0.26028636 -0.1425379 0.060246866 0.020260412 -0.05383518
-0.053499196 0.02423762 0.06747139 0.1641437 0.00998005 -0.050849263 -0.029810168 -0.11819757
-0.11136638 -0.18546458 -0.06559893 -0.0122109065 -0.01888239 0.09154254 0.14211452 0.06056046
0.041764364 0.118956245 0.10326763 -0.0051846746 -0.115258016 0.0973842 0.041174125 -0.18486099
0.11702619 0.23625208 0.14586076 0.33857784 0.13587709 0.044169 0.17553371 0.13342631
-0.0022584845 0.19537587 0.28171983 0.10839671 0.147446 0.19030231 -0.05763155 -0.006396876
0.15784082 0.37388825 0.03433555 0.16567357 0.4979778 0.30527845 0.11304753 0.4124027
0.36681616 0.32710746 0.3499557 0.48202622 0.18193014 0.18268399 0.17308326 0.044308666
0.10448427 0.19603021 0.13780998 0.23991366 0.0024128165 -0.08691419 -0.047556642 -0.12210625
-0.032638494 -0.17465627 -0.058069326 -0.0007324364 -0.05104472 0.2162229 0.053950388 0.03332461
0.06066298 -0.043689627 -0.041817844 -0.0367632 0.07394077 -0.16598247 -0.19080482 -0.2967688
00000000: b9d0 c63d 79b1 19bd f972 0cbd 1b63 113d
00000010: 74a2 3cbd 5202 923d 5636 68be ba5e 67be
00000020: 924a 9abd fcf4 0b3d ec7d 343e 0841 b8bc
00000030: a43a 13bd 3aea aa3d be2d b83d f4b3 b33c
00000040: 21a2 333d 75be 8cbb 1692 51bd 81ad 7fbd
00000050: b63e dcbd 555a 07be 68f3 2abc 6c55 1ebe
00000060: 71db e7bd 9db1 a3bd 2236 513d edf2 c63c
00000070: a8a0 01be 1821 093c 933c 353d 1223 0cbd
00000080: e80f 87bc dc1e f4bb 8b9e 87bd 5eca 793d
00000090: a731 0d3e a93a 193e 53dd 033e e6aa f03c
000000a0: 27fc 46ba 71c2 213d b70b 12bc f594 6a3d
000000b0: 4777 29bd ac81 67bc 141f da3d d64a 513e
000000c0: 8c2d 433d 0aa8 a33d 7f3d 0d3e 2a40 d53d
000000d0: e9b3 59be be00 cbbe 0e4f 16be 9320 cbbe
000000e0: 7a15 84be b19b 5bbe 208c 95bd 70a1 09be
000000f0: 398c 28be 4b0e 71be adc2 cbbd d614 453e
00000100: 73c5 313c cc0c 073e a753 4b3d cc6d b93d
00000110: dced acbb 4898 a6ba 1d22 e73e a194 96bd
00000120: c12e 82bb cdbb e43e abfc 9d3e 7e49 93bd
00000130: 66d1 0dbe 132a 963e d2e6 adbc 449f 69bc
00000140: 5404 283e 0961 423e 879e a3bd 0192 ffbd
00000150: 71ae 8c3e 1c97 ac3e 1d25 893c 9218 623e
00000160: 00ae 4a3e 0ac1 3c3d b059 c6bd 8536 9c3e
00000170: 4c50 a93e 0334 333e 1726 e33d 7dfe 923d
00000180: 5662 673e 9a6e a83d d5b6 793e 77d7 523e
00000190: 25b1 8a3e 09ba 8c3e 33d2 5e3e de47 a13d
000001a0: 633e a63d 269f 7dbd d65a 84bc 3d1a fb3d
000001b0: 9e44 ad3c c70d 9fbd 8ee1 dcbd c623 1bbe
000001c0: fd6f dcbc 67ab aebd 36e3 c03c 0915 f1bc
000001d0: 24d7 1abe 0e63 b8bd 9917 11be 3ba8 52be
000001e0: 3721 0dbe d851 26bc ecd5 bfbd fbc2 44be
000001f0: 002b 6cbe fba6 5bbd d9cc 1bbe 4820 48bc
00000200: 4f0f e8bc 4649 12bd ee67 43ba f42c 8abc
00000210: e8ba 80bd 03e7 a63c 7139 8b3d 507b cabd
00000220: d7e1 f7bc a631 86bc 1617 81bc 6760 00be
00000230: e7f5 5c3d 61de 663d 9c22 683d cbd8 da3d
00000240: b278 32bc ee11 c63d ad8a 053d f1bd a13e
00000250: 48de 8fbd d5a1 bf3d 3e88 6c3d ece2 563d
00000260: a2c4 1bbd 00a7 233c 324d 89bd 5664 94bd
00000270: c4cd 9e3d 1002 d53c f42f 963d f28f 16be
00000280: 7836 37be 99c4 6dbd db68 c0bd 76fc 4ebe
00000290: 8c24 5bbd b301 0abe a8c4 a6bd 22e5 6e3d
000002a0: d069 f33c 6028 74bc cb47 79bd 4144 85be
000002b0: 75f5 11be 6bc5 763d 2af9 a53c 4782 5cbd
000002c0: f921 5bbd f98d c63c 712e 8a3d 4915 283e
000002d0: 5d83 233c 5147 50bd 7434 f4bc 9111 f2bd
000002e0: 0e14 e4bd 6dea 3dbe bb58 86bd 4110 48bc
000002f0: 3eaf 9abc a87a bb3d 7886 113e 3f0e 783d
00000300: 1c11 2b3d 559f f33d fb7d d33d 34e4 a9bb
00000310: 650c ecbd 5e71 c73d 33a6 283d 334c 3dbe
00000320: 6dab ef3d 11ec 713e 865c 153e 135a ad3e
00000330: 5d23 0b3e 8eea 343d 1cbf 333e e8a0 083e
00000340: 1503 14bb 9d10 483e 953d 903e 18ff dd3d
00000350: 16fc 163e 9cde 423e 0f0f 6cbd e39c d1bb
00000360: 06a1 213e 486e bf3e 6fa3 0c3d 55a6 293e
00000370: f2f6 fe3e 754d 9c3e 7785 e73d 7226 d33e
00000380: 54cf bb3e a17a a73e 652d b33e 24cc f63e
00000390: e54b 3a3e 8311 3b3e bd3c 313e 017d 353d
000003a0: d9fb d53d 25bc 483e 0f1e 0d3e edab 753e
000003b0: 5820 1e3b 1100 b2bd c1ca 42bd d712 fabd
000003c0: f1af 05bd 18d9 32be 1ada 6dbd fa00 40ba
000003d0: 4514 51bd 8969 5d3e 15fb 5c3d 637f 083d
000003e0: bf79 783d e5f3 32bd 3049 2bbd 0295 16bd
000003f0: 426e 973d 4ff7 29be 5762 43be 15f2 97be

bias f4 [6]
-0.0038707005 -0.014634448 0.024501188 0.031069858 0.078211576 0.12512359
00000000: 94ab 7dbb 53c5 6fbc b7b6 c83c 3786 fe3c
00000010: 642d a03d 6620 003e

weight f4 [10, 96]
0.029397324 -0.009444565 -0.0513281 0.04498269 -0.08732519 0.045439485 -0.038529642 0.035102602
-0.09736727 -0.02329069 -0.04050542 -0.08780624 -0.06948656 -0.033306755 0.04791655 -0.0019744558
-0.09895928 0.03340249 0.08452962 -0.0044294246 0.025360277 -0.0030555425 -0.07200427 0.05494446
-0.036702696 0.025028285 0.03709145 -0.02327029 -0.09545869 0.06810228 -0.004741841 -0.0015468928
0.07996254 -0.09627269 0.042254526 0.0024835418 -0.039138794 -0.04884008 0.05516264 -0.0108805215
-0.09578235 -0.045995153 -0.06544945 -0.14240426 0.080718204 -0.07164079 -0.025761053 -0.12105075
-0.024321757 0.017864242 0.027528612 -0.103961274 0.00511549 0.009769479 -0.0016020795 -0.08850204
-0.08073658 -0.0962568 -0.026617302 0.060177974 -0.030477753 0.06212523 -0.022983624 0.012011906
0.05676832 -0.08882173 -0.043633547 -0.04372909 -0.079045855 -0.04113778 -0.00698502 -0.073126756
0.055051368 0.064810425 -0.08054801 -0.09075738 -0.04393856 0.04989562 -0.0051728883 -0.08506078
-0.034084596 0.02207563 0.113396525 -0.05657777 0.028348463 -0.07016208 -0.007105668 0.04736721
-0.0897334 0.083274186 -0.065330565 -0.009401892 -0.06982036 -0.04653517 0.061167356 -0.045616668
-0.038185365 0.07192911 0.04994969 0.08011966 -0.011669235 -0.01640924 0.01737694 -0.07397912
-0.10471546 0.081497096 -0.08415595 -0.037419807 -0.08264933 -0.11332952 0.04724496 -0.039218917
-0.047766324 0.040787872 0.016194489 0.0072134323 -0.10798107 -0.05818886 -0.027841344 0.046472736
-0.073971525 -0.12258947 -0.06473442 0.0514753 -0.06970303 -0.05917917 -0.0028061434 -0.013285805
-0.11740157 -0.06575715 -0.024875619 0.017902063 0.06909789 0.036448218 0.073134005 -0.023678616
-0.046467602 0.014655591 0.061190724 -0.052349254 -0.07524142 -0.06735591 -0.041700583 -0.0072035883
-0.11299718 -0.02341643 0.02069702 -0.028039297 -0.016438406 -0.023393366 -0.039312348 -0.043414973
-0.05700409 0.030622642 -0.10297629 0.03753315 0.05158073 0.0058674417 0.015040084 0.02663224
0.01295793 -0.0435593 -0.041338515 -0.07026214 -0.043164093 0.071695924 -0.0800136 -0.041313823
-0.017830586 -0.027451621 0.0035748058 -0.011587536 0.023470828 -0.092981815 0.03691355 0.03798151
0.043783434 -0.04140959 -0.038324058 -0.010022638 0.020965075 0.025364993 0.056840368 -0.031956933
0.007608983 -0.07712091 0.044683017 -0.013197692 -0.08316794 -0.011310915 -0.008832517 0.025482614
0.72408694 0.45781863 0.09785798 -0.09270559 -0.31819245 0.21582587 0.20558637 -0.18883087
0.113942534 0.1198097 0.043403994 0.13992724 0.20960465 0.097280025 0.1694804 0.07759438
0.38616377 0.1760523 0.2476819 0.0080906255 -0.18544364 -0.21650426 0.09108072 0.118999936
0.10050052 0.07453387 -0.07460874 -0.028239144 -0.22564518 -0.32470766 -0.44122905 0.06218873
0.2841977 0.12092556 0.058643524 0.011791833 0.09014516 0.19008106 -0.00014130594 0.12407788
0.10983116 0.13653462 0.11279014 0.122413605 -0.0032369695 0.11224046 0.1927482 0.31521967
-0.8496362 -0.5283535 0.06695357 -0.22833823 0.12076659 -0.0380652 -0.40738854 -0.83798945
-0.31864536 -0.25097454 0.049232412 -0.112202115 0.39615393 0.3089444 -0.07582406 -0.41862813
00000000: a8d2 f03c 60bd 1abc 6a3d 52bd c53f 383d
00000010: 8dd7 b2bd c11e 3a3d 42d1 1dbd bfc7 0f3d
00000020: 7e68 c7bd 1ecc bebc 03e9 25bd c2d3 b3bd
00000030: f84e 8ebd aa6c 08bd 2544 443d df65 01bb
00000040: 2aab cabd 0dd1 083d de1d ad3d b524 91bb
00000050: 5bc0 cf3c 7f3f 48bb fa76 93bd 710d 613d
00000060: 9155 16bd 1e08 cd3c 34ed 173d 56a1 bebc
00000070: d87f c3bd 3579 8b3d 7261 9bbb 1cc1 caba
00000080: 66c3 a33d 9e2a c5bd 1513 2d3d ebc2 223b
00000090: 0050 20bd 890c 48bd 38f2 613d 3744 32bc
000000a0: 8929 c4bd 6a65 3cbd 5c0a 86bd 6cd2 11be
000000b0: 964f a53d 68b8 92bd d808 d3bc 75e9 f7bd
000000c0: 6c3e c7bc 0858 923c af83 e13c a6e9 d4bd
000000d0: d79f a73b 2a10 203c defc d1ba 8f40 b5bd
000000e0: 3859 a5bd 4922 c5bd 870c dabc 2e7d 763d
000000f0: 7bac f9bc 0677 7e3d 2748 bcbc 96cd 443c
00000100: e685 683d 2be8 b5bd 17b9 32bd 461d 33bd
00000110: cbe2 a1bd 1780 28bd 98e2 e4bb 7bc3 95bd
00000120: 8b7d 613d 54bb 843d 5bf6 a4bd 01df b9bd
00000130: ebf8 33bd 5a5f 4c3d 5581 a9bb 5934 aebd
00000140: 4a9c 0bbd f4d7 b43c 703c e83d 17be 67bd
00000150: 093b e83c 23b1 8fbd aad6 e8bb 1f04 423d
00000160: 25c6 b7bd a88b aa3d 08cc 85bd 650a 1abc
00000170: fafd 8ebd aa9b 3ebd 9f8a 7a3d 8bd8 3abd
00000180: 4268 1cbd 924f 933d 0c98 4c3d c715 a43d
00000190: 5230 3fbc ac6c 86bc 165a 8e3c 5d82 97bd
000001a0: 0f75 d6bd f3e7 a63d f459 acbd 8345 19bd
000001b0: 0d44 a9bd 4f19 e8bd ee83 413d 04a4 20bd
000001c0: 9fa6 43bd 2f11 273d 4eaa 843c a85e ec3b
000001d0: 2e25 ddbd 7157 6ebd 8813 e4bc 325a 3e3d
000001e0: 627e 97bd 3010 fbbd 7b93 84bd c4d7 523d
000001f0: 76c0 8ebd db65 72bd 46e7 37bb b4ac 59bc
00000200: 3c70 f0bd afab 86bd f4c7 cbbc 59a7 923c
00000210: 3283 8d3d ba4a 153d 48c7 953d a8f9 c1bc
00000220: d054 3ebd 011e 703c 20a3 7a3d 2c6c 56bd
00000230: 2c18 9abd e5f1 89bd 3bce 2abd 140c ecbb
00000240: 116b e7bd d0d3 bfbc cc8c a93c abb2 e5bc
00000250: d6a9 86bc 72a3 bfbc fc05 21bd e6d3 31bd
00000260: 1f7d 69bd 56dc fa3c 3ce5 d2bd 5cbc 193d
00000270: 5146 533d ab43 c03b af6a 763c db2b da3c
00000280: 7f4d 543c 3d6b 32bd 9352 29bd 99e5 8fbd
00000290: d5cc 30bd 50d5 923d 2cde a3bd af38 29bd
000002a0: 7311 92bc 39e2 e0bc 4a47 6a3b a6d9 3dbc
000002b0: e545 c03c 406d bebd aa32 173d 8092 1b3d
000002c0: 4256 333d 1a9d 29bd b0f9 1cbd fe35 24bc
000002d0: f3be ab3c 3fca cf3c 72d1 683d 46e5 02bd
000002e0: c754 f93b 91f1 9dbd 8a05 373d 223b 58bc
000002f0: f453 aabd 6b51 39bc 43b6 10bc eac0 d03c
00000300: c35d 393f 3467 ea3e c469 c83d 6edc bdbd
00000310: 1fea a2be 7501 5d3e 3c85 523e e15c 41be
00000320: b45a e93d ca5e f53d 63c8 313d 1649 0f3e
00000330: 9aa2 563e c03a c73d 458c 2d3e cde9 9e3d
00000340: 42b7 c53e 0e47 343e 53a0 7d3e 8b8e 043c
00000350: f0e4 3dbe 4bb3 5dbe 8788 ba3d 3db6 f33d
00000360: 37d3 cd3d 37a5 983d 78cc 98bd c755 e7bc
00000370: 880f 67be 1540 a6be c6e8 e1be 9cb9 7e3d
00000380: 5c82 913e d2a7 f73d 3134 703d 8832 413c
00000390: 079e b83d 9ca4 423e 862b 14b9 8b1c fe3d
000003a0: 29ef e03d bbcf 0b3e 84fe e63d fcb3 fa3d
000003b0: 5623 54bb 54de e53d c95f 453e 7964 a13e
000003c0: c281 59bf 2d42 07bf f41e 893d 7fd1 69be
000003d0: 7954 f73d 41ea 1bbd 3b95 d0be 7a86 56bf
000003e0: 7c25 a3be bc7f 80be eda7 493d 39ca e5bd
000003f0: b0d4 ca3e f62d 9e3e a549 9bbd 6d56 d6be

bias f4 [10]
0.016865615 -0.09847866 0.2055927 0.11620068 0.20568249 0.1953319 0.07853238 -0.01285371
0.16278674 -0.004564308
00000000: c229 8a3c 2eaf c9bd e586 523e 9ffa ed3d
00000010: 6e9e 523e 1605 483e 96d5 a03d 5e98 52bc
00000020: 91b1 263e 3190 95bb
