Models_mario/Mario Bias_exp0_GRU_classifier.pth (torch, 10857 bytes, 6 tensors)

weight f4 [3, 1, 7, 7]
000000 1d 20 1c 3d 1e 26 bb bc 0a aa 4a be 04 da 04 3e
       0.038116563 -0.022845324 -0.19791427 0.12973791
000010 80 e9 02 be c7 c8 d0 bd d8 31 a6 3d c7 56 05 3e
       -0.12784386 -0.10194545 0.08114976 0.13021384
000020 97 cb 11 3e 15 f0 61 3c e2 7f 68 3e 1a 94 2f be
       0.1423782 0.01379015 0.22705033 -0.1714634
000030 1e 3c f3 3d 17 d4 df 3d 23 86 bc bb bd 0e d9 bc
       0.11876701 0.10929125 -0.005753295 -0.026496286
000040 ae 40 0c 3e 3d c0 e5 3d 25 ef 5b 3d a5 98 9a bd
       0.13696548 0.11218307 0.053694863 -0.07548646
000050 1e a5 1a 3e 37 71 26 3e d2 fa f3 bd 70 05 e5 bc
       0.1510205 0.16254126 -0.119130746 -0.027956694
000060 70 1f 52 3d 55 5f c6 3c 5d 3c 0d 3c 16 8a 54 3e
       0.051299512 0.02421538 0.008620349 0.207558
000070 53 04 53 3e 21 ba 98 3c fd 10 15 3d 21 dd e6 3c
       0.20607118 0.01864344 0.036393154 0.028181614
000080 c3 a5 03 bd 41 45 18 bd 97 bd 2d 3e e1 cf 97 3e
       -0.032140505 -0.03717542 0.16966854 0.29650787
000090 95 10 9f bc aa 1e d9 bb 9d 73 51 3d 40 a5 7d 3e
       -0.019417087 -0.00662597 0.051135648 0.24770069
0000a0 bb f2 ef b8 7c 34 1f 3d 3d f4 e8 3d b2 03 6a 3d
       -0.0001144162 0.038868412 0.1137471 0.05713243
0000b0 c4 71 e0 3d 09 98 49 3e a1 8d 25 3e 82 5b bb 3d
       0.10959199 0.19686903 0.16167308 0.09148313
0000c0 6a 63 13 3d b8 f9 3c bd 96 04 8d 3c 73 45 53 3e
       0.03598348 -0.046136588 0.0172141 0.20631962
0000d0 29 68 36 bd 26 f5 ee bc 1d 68 bd 3d e5 00 f8 bc
       -0.04453293 -0.02916963 0.09248374 -0.030273864
0000e0 9c cd bc bc ea e9 c9 3d 40 e3 ea bc 87 ed db 3c
       -0.023047261 0.09859069 -0.028672814 0.02684666
0000f0 9d 80 14 be 4b 79 42 be 74 b7 1d be 68 86 3a be
       -0.14502187 -0.18991582 -0.15402013 -0.18215334
000100 ca c1 28 bd 50 42 22 3e a4 b9 b0 3d c3 f2 2f 3e
       -0.041200437 0.15845609 0.08629158 0.1718245
000110 ee ed bf bb 5c 11 55 3e 7a d1 88 be 06 4e 37 3d
       -0.005857221 0.20807403 -0.26722318 0.044752143
000120 88 4a b2 3e 02 3b 8b 3e 5a 37 ff 3c b0 d2 38 be
       0.34822488 0.27193457 0.031154323 -0.18049121
000130 11 96 a9 be 3c 94 33 be bc a3 98 3e 0b 20 92 3e
       -0.33122304 -0.17537016 0.2981242 0.28540072
000140 3c 67 db 3e 0c 24 87 3e de 15 95 3d 1d 32 1a 3d
       0.428522 0.2639469 0.072795615 0.037645448
000150 6c 7e 01 be 00 e8 00 bd 18 a7 63 3e b7 f3 8d 3e
       -0.12645882 -0.031471252 0.2223171 0.27725002
000160 ea 9f 90 3e 9f 3c 43 3e 46 d6 0b 3e 02 c2 8e 3d
       0.28247005 0.19066094 0.13655958 0.06970598
000170 85 f9 93 3d 50 d4 34 be 2d 07 4d bd 6d f1 87 3e
       0.072253264 -0.17659116 -0.05005567 0.2655138
000180 87 27 22 3d c3 66 dc bd f1 87 86 3e 35 00 d1 3d
       0.039588477 -0.10761788 0.2627559 0.102051176
000190 df a3 39 3d 82 2f bb 3d 92 77 51 3d b5 dc 93 3e
       0.045322295 0.09139921 0.05113942 0.28879324
0001a0 e1 b5 95 3e 88 74 05 3d bb 63 c1 3d 92 b7 ee bc
       0.29240325 0.032581836 0.0944285 -0.029140268
0001b0 27 de 45 3d 4e 68 e8 bd 9b cf 0e be 40 f6 92 3c
       0.048307564 -0.113480195 -0.13946383 0.017939687
0001c0 4b a5 49 be 6b 40 8c bc 0f cf b5 bd 7d 1c 94 bd
       -0.1969196 -0.01712056 -0.08877384 -0.07231996
0001d0 9f 14 0c bc f1 98 98 bd 1d 63 54 3c 08 07 da bc
       -0.008549838 -0.07451046 0.012963084 -0.02661468
0001e0 f8 03 bd bd f8 44 99 3d 72 a7 16 3e 16 e2 4b 3e
       -0.092292726 0.07483858 0.14712313 0.19910464
0001f0 cb 4b 0b 3e 5c f8 be 3e f9 18 f3 bd 76 b1 33 bc
       0.13603131 0.37298858 -0.118699975 -0.010967603
000200 1d 89 7c bb dd bd 10 3d 0f 51 3e 3c 6b 1e 85 3e
       -0.0038533874 0.035337318 0.011616006 0.2599977
000210 13 ef c5 3e b3 30 74 be 20 49 83 be 91 8d 8b bd
       0.38658962 -0.23846702 -0.25641727 -0.06814111
000220 32 39 c0 3d fd d1 06 be 43 a9 24 3d f6 d0 39 3e
       0.09385909 -0.13166042 0.040200483 0.18146119
000230 2d 7b 91 be c0 db 74 be c6 e7 bf 3c a8 55 0b bc
       -0.28414288 -0.23911953 0.023425948 -0.008504309
000240 39 79 b1 bd 4b da c1 bd fc e1 14 be
       -0.086656995 -0.09465464 -0.14539331

bias f4 [3]
000000 c8 aa de bd 1d 9c 3f be 76 61 3a be
       -0.10872418 -0.18711896 -0.18201241

weight f4 [6, 3, 7, 7]
000000 41 5c 6d bd 61 f6 13 bd d2 de 61 3c 66 cd a8 3b
       -0.05794931 -0.036123637 0.013786035 0.0051514385
000010 26 ba f3 bc d5 17 36 3d 76 67 9a bd 5b ae 5d bd
       -0.029751848 0.04445632 -0.07539265 -0.054121356
000020 34 53 43 bd 17 20 df bc 42 22 e0 bd 16 35 ad 3b
       -0.04768677 -0.027236981 -0.10944034 0.0052858694
000030 fc 88 3a 3d 61 d5 87 bd 81 15 57 3d 2d 19 49 bd
       0.045540795 -0.06632496 0.052510742 -0.049096275
000040 ad e2 80 bd 7e c0 c9 bd 55 67 e5 bd 2a 0a 0e 3d
       -0.06293235 -0.09851168 -0.1120135 0.034677662
000050 b3 6e 2f 3d 35 37 bc 3c 95 40 82 b9 ac cd 8d bd
       0.04283018 0.022975544 -0.0002484365 -0.069239944
000060 85 45 3f bc 0b 20 f3 bd 14 fa cf bd ef 7a 64 bd
       -0.01167429 -0.11871346 -0.101551205 -0.0557813
000070 d0 ae 15 bd 8e d7 a0 bc fa c3 28 3d f3 35 6f 3c
       -0.036543667 -0.019634034 0.041202523 0.014600265
000080 98 0c f3 bd 7a 14 c9 bd 4c cc 0b bc b0 fe 64 3d
       -0.118676364 -0.09818359 -0.008532595 0.05590695
000090 ac e2 a0 3c 87 74 25 3d cf 9f 45 3d 23 d3 d9 bc
       0.019639336 0.040394332 0.04824811 -0.026589936
0000a0 65 20 6b 3b 6a b7 07 bc 97 39 48 bc 84 ad 66 bd
       0.0035877463 -0.008283475 -0.012220762 -0.05631782
0000b0 6a 3c 93 3d 7b 2f 23 3c 67 5b 62 3c 82 08 81 bd
       0.071892574 0.009960051 0.013815737 -0.06300451
0000c0 6e 6f 3a 3d bc 7f 11 3b 84 ee e0 bd f9 aa 03 bd
       0.045516424 0.002220138 -0.10982993 -0.032145474
0000d0 cd 58 b7 bb 79 eb 64 bd 1a 5c 02 bd 05 4c 9e bc
       -0.0055953027 -0.055888627 -0.031826116 -0.019323358
0000e0 a8 24 04 3d 0d 1c 90 3d c5 0c 61 bd 78 98 ad bd
       0.03226152 0.070366 -0.05494382 -0.08476347
0000f0 10 50 8e bd 60 5a 86 bd 91 c9 12 3c 89 37 7f 3d
       -0.069488645 -0.065602064 0.00895919 0.06230882
000100 32 6c 8e 3c b6 a6 14 3c b9 3c 9c bd fc 7d bc 3b
       0.017385576 0.00907295 -0.076287694 0.005752323
000110 50 8a ec bc ee 6d 69 bd b8 44 9e bd 47 75 28 bd
       -0.028874546 -0.056989603 -0.07727951 -0.04112747
000120 28 6c c2 bd 04 88 06 3d 1e 19 0a 3d e8 50 f5 bc
       -0.094932854 0.03284456 0.03371536 -0.029945806
000130 95 b9 8e 3d 62 82 c3 3c 8f c8 6c bd 73 23 13 bd
       0.06968991 0.023865882 -0.057808455 -0.03592248
000140 23 a1 20 3d dd 6c 49 bd c5 99 8e 3a 8c ac ad 3b
       0.039216172 -0.049176086 0.0010879567 0.00530011
000150 29 c2 22 3d c4 83 12 3d 28 58 21 bc 3b 98 6d bd
       0.039735947 0.035770193 -0.009847678 -0.058006506
000160 e4 16 b7 bc 07 56 26 3d ec a1 02 bd 0c 99 46 3c
       -0.022349782 0.040609386 -0.031892702 0.01212145
000170 9d 50 56 bd 4f 9b 85 bd 3f fb 7e bd 31 3d 83 bc
       -0.052322973 -0.065237634 -0.062251326 -0.01602039
000180 dd bc 01 3d 15 ee 6c 3b b8 ec aa bd ad 4e b0 3c
       0.031674255 0.003615265 -0.08345932 0.02152189
000190 68 dd 51 bd 96 8f 37 3c 7c 8f df bd b0 fe a9 bd
       -0.05123654 0.011203667 -0.10916039 -0.08300531
0001a0 e9 c3 aa 3c 34 16 9e bc e8 fe f1 3c f4 ec 1c 3d
       0.02084537 -0.019297697 0.029540494 0.038311914
0001b0 cc 60 ca bd e8 6f 49 3d 8a 98 1b bd 8d a1 a2 bc
       -0.09881744 0.049178988 -0.03798727 -0.019852424
0001c0 b3 54 b0 bc 36 25 7c 3d bf 86 01 3d fd 33 5d bb
       -0.021524763 0.061558925 0.031622645 -0.0033752911
0001d0 5e 16 db 3d 28 b5 b1 3b f6 25 41 bc 39 3f a3 3c
       0.106976256 0.005423207 -0.011788836 0.019927608
0001e0 4d 60 e6 bd 85 6b ea bd 64 9b 58 3d 0a 07 45 3d
       -0.11248837 -0.11446289 0.052882567 0.048102416
0001f0 d3 f9 a9 3c f6 8f f0 3c f9 cb bf bd 5f a3 c7 3d
       0.020749008 0.02936552 -0.093650766 0.097479574
000200 12 b3 b0 bd fe d4 cd bc a9 8a 93 bd 15 dc 5b bc
       -0.08627905 -0.025125977 -0.07204182 -0.013419171
000210 85 fe c7 bb 27 25 67 bd 0c b2 70 3c da 37 f4 3c
       -0.006103339 -0.056431916 0.014690887 0.029811788
000220 f3 95 01 bd 50 13 28 3d 8d d0 16 bd 2f d4 bc bc
       -0.031637143 0.041034043 -0.036819983 -0.023050396
000230 11 09 5f bd 27 d2 79 bd f1 ff a7 bd 81 1c b3 3c
       -0.054452006 -0.060991433 -0.08203114 0.021864178
000240 ef ff ab bc 20 8b 81 bd 21 b5 2a bd 45 c4 56 3d
       -0.020996062 -0.06325364 -0.041676644 0.05243327
000250 44 70 38 3d 66 19 df bb 6b 92 b9 3b 51 6d 5c 3d
       0.04502894 -0.0068084477 0.0056632063 0.05381519
000260 a4 b1 3f 3b 52 47 60 3d 4e 38 f1 3c e1 ff cb 3c
       0.002925017 0.054755516 0.029445793 0.024902286
000270 33 7c 17 3d 16 62 f6 3c f3 d9 61 3d 40 fa 29 bc
       0.03698368 0.030076068 0.055139493 -0.010374606
000280 f6 41 2a 3e ec 27 16 3e 2f ef 89 3d ce 31 14 bd
       0.16626725 0.14663666 0.06735074 -0.03618031
000290 69 82 e5 3c a7 3d 24 3e c2 08 20 3e e5 0c b9 3d
       0.028016286 0.16039144 0.15628341 0.090356626
0002a0 b5 e2 69 3e c9 57 e6 3d 38 fd a9 bb 63 3d 1f bb
       0.22840388 0.112472124 -0.0051876567 -0.0024298064
0002b0 4e 16 17 3e 8c 4f 8a 3e 0b 03 91 3d bc 1c 86 3d
       0.14754602 0.27013814 0.070806585 0.065484494
0002c0 fc 7c f5 3d 24 60 32 3a 80 af 21 3e 06 11 f5 3d
       0.119867295 0.0006804487 0.15789604 0.119661376
0002d0 ba 2a c4 3d e1 24 06 3e ad 1b f0 bc 60 6a 0e bd
       0.09578462 0.13100006 -0.029310072 -0.034769416
0002e0 cb 36 d1 bb 21 e7 1a 3c 1e 86 2f bd 7d ef 83 bd
       -0.0063847057 0.0094545195 -0.042852513 -0.06442163
0002f0 35 1f 47 bd c8 ed 83 bc 27 8e d9 bc 95 cb ad bc
       -0.048613746 -0.016104594 -0.026557041 -0.02121524
000300 3f 73 01 bc ed be 4c bd 86 58 0c be b0 b6 96 bd
       -0.007901012 -0.04998677 -0.13705644 -0.073590636
000310 03 4c 36 bd 64 a1 0b be 32 ec ea 3c d4 b1 ae bd
       -0.044506084 -0.13635784 0.02867708 -0.08530012
000320 21 d3 8a 3d 46 56 14 3d dc cd dd 3d fb 2f a3 bd
       0.06778551 0.03621509 0.1083028 -0.07968136
000330 f8 53 88 bd 9a 40 a7 bd 4d 20 fb 3a 72 83 94 3c
       -0.06656641 -0.08166619 0.0019159407 0.018129084
000340 64 4d 3b 3d 79 20 e8 3d c3 53 a6 3b 4f 18 e6 bc
       0.045728102 0.11334319 0.005075903 -0.028087763
000350 06 0f e0 bd 71 49 ec bc 1d 37 e9 3c 51 95 d6 3d
       -0.109403655 -0.028843613 0.028468663 0.104776986
000360 90 cc d8 3d f0 28 f4 3d 62 37 78 3d 97 79 be bb
       0.10585892 0.11921871 0.060599692 -0.0058128345
000370 75 c8 45 3d e2 35 c0 3d 4b 7b ef 3d 5e bf fd bc
       0.048286874 0.09385277 0.11693438 -0.03097504
000380 fe 46 18 3d b9 7b 5f 3d 14 5e 50 3d 8a 1f 3c 3d
       0.03717708 0.05456135 0.05087097 0.045928515
000390 53 6e 44 3e 4c 63 3d 3e 2d f4 3b 3d 80 f2 37 be
       0.1918271 0.1849491 0.04588716 -0.179636
0003a0 31 59 07 be 67 a6 b5 bd 6e e7 46 bd 33 e4 4b be
       -0.13217618 -0.08869629 -0.048560552 -0.1991127
0003b0 96 98 e6 bd 5d c1 28 bd 55 0c f7 bd 03 0c 9a bd
       -0.11259572 -0.04120003 -0.12062899 -0.07521822
0003c0 05 73 4d 3d 52 ed ad bc fc 88 8d bd 9f d9 06 be
       0.05015852 -0.021231327 -0.06910893 -0.13168953
0003d0 bb 54 18 be cb 92 0e be 38 62 4c be 09 de 80 be
       -0.14876072 -0.13923185 -0.19959342 -0.251694
0003e0 a4 90 ea bd 29 89 3d bc 88 51 18 3d 84 fe 79 3d
       -0.11453369 -0.011568346 0.03718713 0.06103374
0003f0 59 78 88 be b3 fc b4 be cf 5a e1 bd 87 ce 82 bd
       -0.26654318 -0.35349044 -0.110036485 -0.06387048

bias f4 [6]
000000 29 4c 48 bd 0b 9b 06 be 51 bb fa 3e b4 35 dd 3e
       -0.048900757 -0.13145082 0.48971036 0.43205035
000010 c0 ab 25 3e 4e 8a 55 bd
       0.16178799 -0.05213385

weight f4 [5, 96]
000000 e3 d3 96 3d e8 e0 ed 3c e5 de bd bc 97 38 50 3c
       0.07364633 0.029037908 -0.023177573 0.012708805
000010 85 e2 04 3e 50 13 4a 3d 5b 99 87 3b b1 34 ac 3d
       0.12977035 0.049334824 0.0041381544 0.084084876
000020 83 d0 b2 3d 49 51 1b bc 62 a2 f7 3c 81 f9 ab 3d
       0.08731177 -0.009479829 0.030228797 0.083971985
000030 14 f0 93 bd 87 b9 9b 3c c5 e9 2c 3d c5 60 05 bd
       -0.07223526 0.019009365 0.042215127 -0.03256299
000040 b0 3c 3c 3d fb 1c 15 be ea 73 63 bd 88 44 9e 3e
       0.045956314 -0.14561836 -0.055530466 0.3091166
000050 e4 9c 6d 3c a1 0f d3 bd bf d2 82 3e 94 03 54 3e
       0.014502738 -0.10305715 0.25551412 0.2070449
000060 08 15 ac be f6 11 a5 be 5d 62 e7 bd 90 b9 6c be
       -0.33609796 -0.32240266 -0.11298058 -0.23117661
000070 42 84 a5 be be 60 66 bd ae 8f e2 be 5f e0 3d be
       -0.32327467 -0.056244604 -0.44250244 -0.18542622
000080 95 04 a7 3e 7d ea 8f 3e 65 3a 93 3e cc fb 1b be
       0.32620683 0.28108588 0.2875549 -0.15232772
000090 89 22 c0 3e bc 26 1f 3d 14 ff 90 3d 7b 13 24 bd
       0.37526348 0.0388553 0.07079902 -0.04005764
0000a0 34 bf 6d 3e 9c 66 78 3e 03 86 2c bc d0 20 d6 3d
       0.2321747 0.24257892 -0.010529998 0.10455477
0000b0 29 eb c2 3c 3a 3d 8a bd ee 37 a0 3d 1f 37 31 3f
       0.023793774 -0.06749959 0.07823168 0.69224733
0000c0 c6 79 e5 3e fc 79 08 3f 10 9d 1d 3d cc a1 40 be
       0.44819468 0.53311133 0.038479865 -0.1881172
0000d0 38 aa a2 3e 56 fa bb bd 34 a7 36 bc 17 26 07 bd
       0.31770492 -0.09178607 -0.011148263 -0.03299531
0000e0 04 e2 8f 3d 08 81 96 3e a7 bc 3a 3e d6 a8 f7 3d
       0.07025531 0.29395318 0.18236028 0.1209275
0000f0 5f e9 18 3e 12 2a 2a 3e 41 b2 85 3e 97 35 99 bd
       0.14932774 0.16617611 0.2611256 -0.074809246
000100 11 7d 4e be a7 4d 7e bd 01 dd ce be 1c 49 30 bd
       -0.20164897 -0.062085774 -0.40402988 -0.043038473
000110 e1 a4 61 3e bb 67 a3 3e 5b 42 0e be 45 e5 1d bd
       0.22035553 0.31915078 -0.138925 -0.038548727
000120 d2 3d 57 3d c1 1b a8 bd 13 59 06 bd 24 a1 12 3c
       0.05254919 -0.08208419 -0.03279979 0.008949552
000130 18 d8 98 be 7b 92 80 3e ea 9c f3 bc 84 4a 4e 3e
       -0.29852366 0.25111756 -0.029737908 0.20145613
000140 0b 44 2f 3e f0 3e 55 bc 31 52 99 3e 78 73 7b 3e
       0.171158 -0.013015494 0.2994552 0.24555767
000150 e9 93 ba 3d 18 63 ab bd ce da d8 3c 4a eb cf 3e
       0.09110243 -0.0836851 0.026471522 0.406092
000160 a3 25 9c be 89 e2 4f be ab c4 f0 3d d6 e3 0b bd
       -0.30497465 -0.2030126 0.117562614 -0.03415283
000170 82 a0 59 3d 4d 76 fc 3d 96 5b 4f 3c 80 c6 53 be
       0.053131588 0.123272516 0.012656113 -0.2068119
000180 2e 6e da 3c 26 b4 38 bd d2 f4 37 3d ed 0a 95 3d
       0.026663866 -0.045093678 0.044911213 0.072774746
000190 22 db b0 3d d7 99 7d bc 3b ff 17 bd 67 bd f6 bc
       0.08635546 -0.015478573 -0.03710864 -0.030119611
0001a0 b9 9c 90 3d 38 b6 2f bd 44 57 d1 3d 97 88 59 3d
       0.070611425 -0.042898387 0.10221723 0.053108778
0001b0 97 02 a0 bc ab ab 80 bd 43 b5 00 3d 7c 40 79 3d
       -0.019532485 -0.06282743 0.031422865 0.060852513
0001c0 4a 27 b0 bd 88 80 60 3d 15 b8 e9 bd 47 55 80 bb
       -0.08601244 0.054810077 -0.11412064 -0.003916416
0001d0 5d fe c7 bd 0a 0a 62 bc 65 f4 4f 3d 1a fd ac bd
       -0.09765313 -0.013796339 0.050770182 -0.08446713
0001e0 4d 2a f1 bd c8 8f 2b bc 13 5b 50 bd ae 87 72 3d
       -0.11775646 -0.010471292 -0.050868105 0.059211425
0001f0 a4 9f 6a 3d 12 0d 64 3b 20 d8 a1 3d 39 46 f2 3c
       0.05728115 0.003479783 0.07902551 0.0295745
000200 36 b6 d9 bc 47 7b 1d 3d fb 9b fd bd 66 3b f3 bb
       -0.026576143 0.038447645 -0.123832665 -0.0074228523
000210 31 7a ee 3c 35 72 55 3d 33 2d 61 3d 2b a6 32 bd
       0.029111 0.05211087 0.054974746 -0.0436155
000220 ba de e2 bd ff e7 73 bd 70 3a 21 3d 0c 82 02 3d
       -0.11077638 -0.05954742 0.03936237 0.031862304
000230 e6 bc d8 bd 02 ba 2b bd 96 92 6a bd 77 54 74 3d
       -0.105829045 -0.041925438 -0.0572687 0.059650864
000240 55 13 1e 3d b5 45 76 bd 6e 79 ca bb eb 9b 1c be
       0.038592655 -0.06012507 -0.0061790263 -0.15293853
000250 23 d9 e3 3c 02 ca 83 3d c6 fa c6 bd f9 9e 3c be
       0.0278135 0.06435014 -0.097158 -0.18420018
000260 62 ee 9c 3d 9f 80 91 bd 5e 95 a4 3d 53 96 5e 3d
       0.076626554 -0.07104611 0.08036302 0.05434258
000270 2e f9 a8 bd 77 4a 8f 3d 44 09 df 3c af d2 8c bd
       -0.08250652 0.06996625 0.027226098 -0.06876122
000280 85 b1 f3 3b 2b 5f 1c be 78 f6 86 bd 78 0a da bd
       0.0074369335 -0.15270679 -0.06589979 -0.10646528
000290 cc 90 9c 3c 53 a5 03 3d 6a 14 81 bd 0a 01 8a bd
       0.019112013 0.032140087 -0.06302722 -0.067384794
0002a0 eb b1 cf 3c 4a fe a5 bd 09 c2 ed bd fd cf 96 3d
       0.025353393 -0.081051424 -0.11609275 0.07363889
0002b0 47 20 1f bd 01 ab 04 bd ff e5 98 3d c2 1f 46 3b
       -0.03884914 -0.032389645 0.07465743 0.0030231331
0002c0 8e 6a f8 bd 3b 5c 2a bd f4 41 59 3d 4a 9a b8 bd
       -0.12129699 -0.041591864 0.053041413 -0.09013803
0002d0 c6 0e 37 bd ff 3f 22 3d ae 5b d6 bc da 6f ae 3d
       -0.044691823 0.039611813 -0.026166763 0.08517428
0002e0 af 3a a4 3d 9e 60 9c bd 50 65 ee bd 48 33 ab bd
       0.080190055 -0.07635616 -0.116404176 -0.083593905
0002f0 ab ca 48 bc 44 e4 b5 bd 9a 1a 97 3d 3e 9e 94 3d
       -0.012255351 -0.08881429 0.07378121 0.07256745
000300 9b fa 53 bd 03 65 3f 3d bd c1 a8 3d dd ed 62 3d
       -0.051752668 0.04672719 0.08240078 0.055402625
000310 93 ea a7 3b 8a 1c eb 3d 0a 3e de bd 86 85 ca 3d
       0.005124399 0.11480053 -0.10851677 0.09888749
000320 16 4d 8c 3d 5c 0c 0c bd 44 26 31 bd 9c 3b cb 3d
       0.068506405 -0.034191474 -0.043249384 0.09923479
000330 eb 71 fb 3d 58 ef b3 3d 58 93 d3 3b 61 03 b6 3d
       0.122775875 0.087858856 0.0064567737 0.08887363
000340 e6 c8 41 3c 84 33 08 be bb 4d d0 bc 18 e4 71 bd
       0.011827683 -0.13300902 -0.02542769 -0.059055418
000350 19 6d 0e bc 4c af cb 3c 7c 9a c1 3c 1f 81 33 3e
       -0.008693003 0.024863862 0.023633234 0.17529725
000360 67 5d 0b 3e f1 9f 26 3e d1 84 a8 3d 42 42 ac 3e
       0.13609849 0.1627195 0.08228458 0.336443
000370 52 cb 2c 3e 70 ca a6 3d 8d 69 d9 3d f1 42 f2 bd
       0.16874436 0.08144081 0.10615835 -0.11829174
000380 21 70 2c 3e 09 c5 11 be b3 c9 a8 3e 0c f9 ca 3e
       0.16839649 -0.14235319 0.32966384 0.39643133
000390 47 f1 82 3e 3c 70 64 3e f7 f6 bc bc b7 e1 ce bb
       0.25574705 0.22308439 -0.02306698 -0.0063135284
0003a0 45 af 29 3e 76 84 f7 3c 5e 52 e8 3d 9c c4 89 bd
       0.16570766 0.03021453 0.11343835 -0.067269534
0003b0 2d 77 c0 3e 86 24 80 3e c5 ab 3f 3f 97 ff 28 3d
       0.37590924 0.25027865 0.74871475 0.041259374
0003c0 dc 86 4d bd 0e ed 8d 3c 98 86 a9 3d 76 35 60 3d
       -0.05017744 0.01732495 0.08277625 0.054738484
0003d0 ef 36 0f 3d 2b b1 83 bd 5d 88 ee bc 1c 21 08 3d
       0.034964498 -0.064302765 -0.029117757 0.0332347
0003e0 d1 ad 5f 3e 3f 5d b1 3e 28 bf ad 3e f5 83 a8 3d
       0.2184365 0.34641454 0.33934903 0.08228294
0003f0 78 5d ef 3e ed fe 3a be 57 9d d4 3e e9 00 ae be
       0.46750998 -0.18261309 0.4152629 -0.3398507

bias f4 [5]
000000 62 c5 47 3e 02 a3 ab bd 01 0f 89 3e ce 0f 0b 3a
       0.1950889 -0.08380701 0.2676926 0.0005304784
000010 ba e3 b4 bd
       -0.08832498
