Models_mario/Mario Bias_exp0_DL_classifier.pth (torch, 10845 bytes, 6 tensors)

weight f4 [3, 1, 7, 7]
000000 b2 66 9a 3d bc 09 40 3e 3a 9a cc 3a 9e d3 1d 3e
       0.07539119 0.18753713 0.0015609928 0.15412757
000010 cc c1 a9 3e 72 8c cc 3c 45 42 92 3e 19 ca 7b 3e
       0.33155668 0.024969313 0.28566185 0.24588813
000020 7c ee 08 be e9 ac 2e be b9 48 c8 3d d5 b6 2a 3e
       -0.13372225 -0.17058147 0.09779496 0.16671307
000030 9a bf 7f 3b 88 cd 31 3e 7b 7f 8e 3e ee 42 09 3d
       0.0039024116 0.1736356 0.27831635 0.033511095
000040 0c 0e 09 be be 4b 22 3e cd 74 85 3e 32 a4 8b 3e
       -0.13384265 0.15849206 0.26065674 0.2727371
000050 e0 fb a3 3e 43 11 a5 3e 45 ca de 3b 21 60 54 be
       0.32028103 0.32239732 0.0067990148 -0.20739795
000060 7c 7a 80 be 85 84 2a be 6b 53 99 3d 78 e4 40 bd
       -0.25093448 -0.16652115 0.07486614 -0.047092885
000070 07 ba 92 bd cf 07 06 be 90 63 37 be ea 97 a7 be
       -0.07164388 -0.13088916 -0.17909074 -0.3273309
000080 f7 b5 58 bc 07 59 e7 bb 1e 46 71 be b3 6a 50 bb
       -0.013226978 -0.0070601734 -0.23561904 -0.003180188
000090 e5 1e d6 3d 5e c8 7a be 4c 99 88 be 50 6e 0e be
       0.104551114 -0.24490497 -0.26679456 -0.13909268
0000a0 71 fd 41 3d 8a f2 32 be 69 ab 6d 3d 79 44 e7 bd
       0.04736084 -0.17475334 0.058024798 -0.11292357
0000b0 61 3d 81 be d0 0f fd be 7c ba 71 be dc 32 dc bd
       -0.2524214 -0.49426126 -0.23606294 -0.10751888
0000c0 98 f8 b8 3b 00 aa 63 bd 11 8e 2b be d6 ef e7 bc
       0.005644869 -0.055582047 -0.16753413 -0.028312605
0000d0 b1 e4 51 3d 75 24 7b 3d 66 13 f3 3d a2 50 3d 3e
       0.051243488 0.061314065 0.11868934 0.1848779
0000e0 42 8f 77 3e 2a c7 a6 bd d7 67 1d bc 43 38 16 be
       0.24175742 -0.08143456 -0.009607277 -0.146699
0000f0 8b 1c 5b be 14 9b 4b be ff 9d 81 be e5 27 98 3e
       -0.21397607 -0.19883376 -0.25315854 0.29717937
000100 8d d1 ca ba 09 e2 16 be 74 ce 31 3a 38 2c d5 bd
       -0.0015473828 -0.14734663 0.0006782778 -0.10408825
000110 da 70 4a 3c 67 50 e9 bd 5e 50 0f 3d 6b 45 32 3e
       0.0123560075 -0.11392289 0.034988753 0.17409293
000120 1b 8b 86 3c bb 2f ea 3c f0 9b e1 bd 19 1b f6 3b
       0.016423753 0.028587213 -0.11016071 0.0075105545
000130 2f 62 0f 3e 43 f2 d0 3d 5c db 19 3e 1f ce 91 3c
       0.14002298 0.10202458 0.15025085 0.017798482
000140 77 20 06 bd be a7 b4 bd 57 96 61 bc bf d7 a7 3d
       -0.032745805 -0.08821057 -0.013768754 0.08195447
000150 e4 be 59 b8 24 d4 4f 3d 7e e3 e5 bc 3d c7 db 3d
       -5.1914612e-05 0.050739422 -0.028062578 0.10731361
000160 70 72 88 3d e9 30 4d bd c0 2b 27 3d 82 fd 01 be
       0.06662452 -0.050095472 0.040813208 -0.12694362
000170 27 95 9c bb a8 3d 19 3e 29 61 00 be 69 d2 75 3d
       -0.0047785225 0.14964926 -0.12537064 0.060015116
000180 c3 e4 cb bd 67 87 30 be 2b 13 9a 3c 26 2a 4f 3e
       -0.09955742 -0.17239152 0.018807968 0.20230922
000190 d8 4f 85 3e 58 91 70 3e 56 6b 1d 3e d1 a0 1e 3e
       0.26037478 0.23492944 0.15372977 0.15491034
0001a0 6b d8 00 3e 2a 5c 2f 3e 2c 60 1b 3e 96 b0 11 3e
       0.12582557 0.17125002 0.15173405 0.14227518
0001b0 71 ed e9 3d 75 35 b7 3b be a6 46 3e 5d 84 dd 3d
       0.114222415 0.0055910894 0.19399545 0.10816262
0001c0 41 b2 24 3e 3f 53 a1 3d 09 9e 8a bb 00 94 8d 3d
       0.16083623 0.07877206 -0.004230265 0.069129944
0001d0 ed 27 aa bd bb b2 1c 3e 9c d8 88 bd 1c e1 8a 3d
       -0.083083965 0.15302555 -0.0668194 0.067812175
0001e0 07 5b 3e 3c b3 3a 1d bc ba a3 86 3c be 7b 18 3e
       0.011618382 -0.0095965145 0.016435493 0.14890954
0001f0 9a db ee 3d 61 41 3a 3e 78 c7 c1 bd 7d 4d ec 3d
       0.116629794 0.18189003 -0.09461874 0.11538217
000200 2c c7 cf 3d 8b 6b 3d 3c cf ae aa bd 72 6c fd 3d
       0.10145411 0.011561285 -0.08334123 0.123742
000210 80 cc 76 be a0 e7 22 be ea 7b 5c be eb e3 46 be
       -0.24101448 -0.1590867 -0.21531644 -0.19422881
000220 a8 d8 5d be a6 f6 25 3d d9 13 5b be 93 02 46 be
       -0.21664679 0.040518425 -0.2139429 -0.1933692
000230 b0 d9 c0 be 9a fa 0d be 6e 31 9a be 17 63 18 be
       -0.37666082 -0.13865128 -0.30115837 -0.1488155
000240 25 1d 25 be 98 1c 45 be 13 a0 07 3d
       -0.16124399 -0.19249189 0.033111643

bias f4 [3]
000000 0a be 3d bd 69 9b 59 be ce e1 2b be
       -0.046323813 -0.2125069 -0.16785356

weight f4 [6, 3, 7, 7]
000000 8c 5f 76 bd 1a 9e a0 be bd 24 09 bf db ca d4 be
       -0.060149714 -0.31370622 -0.53571683 -0.41561016
000010 86 57 b5 be e0 5c 8e be e5 14 9b be 9e a6 41 bd
       -0.35418338 -0.27805233 -0.3028938 -0.04727804
000020 42 90 57 3d c6 e5 ba bd 7e 36 3c be 02 d5 dc bd
       0.05262781 -0.09125857 -0.18380162 -0.107828155
000030 4a 4d db bd f2 09 10 3e 08 41 61 be c2 0c 56 bd
       -0.10708101 0.14066294 -0.21997464 -0.05225826
000040 58 5a b4 3a 16 7d b5 bd e5 cb 8e 3c 8d b6 c4 3d
       0.0013759835 -0.08861749 0.017431209 0.09605131
000050 fb 8f cc 3e 39 df 4a 3e 5c 60 9b 3e a3 07 97 3e
       0.39953598 0.19811715 0.30346954 0.29498014
000060 5b 0e 79 bd 8f cc 9d 3d 56 8c 6d 3e 81 bd 72 3e
       -0.060804706 0.07705032 0.23198065 0.23705103
000070 7d 6e 97 3e 97 f4 3c 3e 32 58 a9 3d ee 4c 3d 3e
       0.29576483 0.18452679 0.08268775 0.18486378
000080 ae 02 15 3e e0 6c 04 3d 93 33 81 bd eb 38 9f bd
       0.14551803 0.032330394 -0.06308665 -0.07774528
000090 ea 31 da bc 88 f6 09 3e 51 9b 45 3e 11 94 38 bd
       -0.026635129 0.1347295 0.1929753 -0.045063082
0000a0 7e 55 09 3e 56 a0 f6 bd df a4 01 be 98 2a 75 3d
       0.13411519 -0.120423004 -0.1266055 0.059855074
0000b0 1e a0 70 bd 47 79 97 ba 92 8a 3c be c9 7e c0 bc
       -0.05874645 -0.0011556529 -0.18412235 -0.023497956
0000c0 7d fb 1a be d7 d3 e3 bc 30 b6 ce bd 88 8a 48 bd
       -0.15134998 -0.027810974 -0.10093343 -0.04896024
0000d0 7f 30 fb 3d fc 94 ef bd 1e 45 54 3d 93 ce 14 3d
       0.12265109 -0.116983384 0.051823728 0.036329817
0000e0 68 7d 97 bd e0 f0 2d be 0f 49 76 bd 63 45 84 3d
       -0.07396966 -0.16986418 -0.060128268 0.06458547
0000f0 ec 45 ba 3c d9 ae 84 3d c2 6a 4e bd 44 04 d2 3d
       0.02273842 0.06478662 -0.05039478 0.1025472
000100 20 a8 95 3e 4c 5f 0a bd 16 33 00 bd 3a 0e 46 3e
       0.29229832 -0.03378229 -0.03129872 0.19341365
000110 53 aa 80 3d 56 3e f7 3d 8f a1 ef 3e 1b bf a0 3e
       0.06282487 0.120724365 0.46802947 0.31395802
000120 ad c5 98 3d ca 47 a3 3d 4e f6 9b 3e 95 50 5b 3e
       0.07459579 0.07972677 0.30461353 0.21417458
000130 eb 63 e9 3c 95 9a 8b 3c af 50 c8 3d c5 8e 77 3c
       0.028490027 0.017041484 0.09781014 0.0151097225
000140 f4 30 e3 3a 60 fa 0f 3d 10 ff 83 3d 16 1b 18 3e
       0.0017333315 0.035150886 0.06445134 0.14854082
000150 0f 74 16 be d6 36 ad bd 77 44 a0 bd 47 2d 3d be
       -0.1469271 -0.08457725 -0.07825559 -0.18474303
000160 49 7b cc bd 33 e7 d0 bd 39 2c 4a 3d ab 0c 99 bd
       -0.09984452 -0.10200348 0.04935858 -0.07473119
000170 04 fa 25 be d5 22 7a bd e0 1d 93 be 40 8b 7b bd
       -0.16208655 -0.061068375 -0.2873373 -0.061412096
000180 fa 92 e2 be 0a fe 74 be ac a1 bb be 04 ca 38 be
       -0.4425276 -0.23925033 -0.36646783 -0.18045813
000190 ff 87 d7 be 96 22 f8 be ba 32 0e bf 35 49 56 be
       -0.42095944 -0.48463887 -0.5554615 -0.20926364
0001a0 ae 46 01 bf 69 fe 79 be 66 98 66 bd 22 28 c8 3d
       -0.50498474 -0.24413456 -0.056297682 0.0977328
0001b0 ee 9e 30 bb 45 4d 56 bc e3 3b 95 bd d2 41 0a 3d
       -0.0026950198 -0.013079946 -0.07286813 0.033754177
0001c0 70 bb d8 bd 52 ee fc 3c eb 49 ae bd 1d a8 45 bd
       -0.10582626 0.030875359 -0.085101925 -0.04825603
0001d0 30 80 3c be e6 db d4 bd ea 62 57 3e 0c 0a 92 3e
       -0.18408275 -0.10393505 0.21033826 0.2852329
0001e0 2a 01 7a 3e 51 2d 48 3e 05 35 10 3e 4a 84 fc 3d
       0.24414507 0.19548537 0.14082725 0.1232992
0001f0 b7 48 a5 3e 55 f9 b5 3e 93 ab 0c 3e 08 ac 9f 3d
       0.3228204 0.35541788 0.13737325 0.07796484
000200 6f 48 4d bd 99 28 a5 3d 60 90 36 3e 0e 26 1d 3e
       -0.050117906 0.08064384 0.17828512 0.15346548
000210 82 c9 01 3d 70 38 b3 bd fd 80 64 3d 6e 05 fc 3d
       0.031686313 -0.08750999 0.055787075 0.12305723
000220 eb 10 ab 3d 97 99 6a 3e 01 87 40 3e 74 f9 da 3d
       0.08352836 0.22910152 0.188015 0.10692111
000230 f2 77 ec bd d3 ca 20 be aa f6 94 3c be 66 0c bd
       -0.11546315 -0.15702371 0.018184025 -0.03427767
000240 94 ff c2 3c a3 f9 3c bd ca 0d 3a bd ab 3f 78 be
       0.02380351 -0.04613651 -0.045423307 -0.24243037
000250 3d 03 b2 be 64 14 70 be 3f 40 dc be 7f fb b1 be
       -0.34768096 -0.23445278 -0.43017766 -0.3476219
000260 6d e9 1e be 21 9c 19 3c 9e 34 9e 3e 47 a2 85 3e
       -0.15518732 0.009375603 0.3089952 0.2610037
000270 db 3d 4a 3e 5a f1 11 3d 37 d5 57 bd c1 11 a3 bd
       0.19750158 0.03563056 -0.052693572 -0.07962371
000280 c6 a5 0f be ee 34 b0 3e fb 69 86 3e b3 6f fa 3e
       -0.14028081 0.34415382 0.26252732 0.48913345
000290 9e da 56 3e 2f e7 a3 3e 1d 85 03 3d 28 0f 8a bd
       0.20981833 0.32012317 0.03210937 -0.06741172
0002a0 9b c2 2e be cb 47 99 3c a3 f1 49 be 80 ee 28 3c
       -0.17066424 0.018710991 -0.19721083 0.010310769
0002b0 5e 7f 2c 3e 69 04 12 bc a6 82 87 3e de c1 76 bd
       0.16845462 -0.008912184 0.26466864 -0.06024348
0002c0 d4 f1 c6 3c 7e a8 aa bd 16 bf ef bc 46 37 7e 3e
       0.024285235 -0.083329186 -0.029265922 0.24825773
0002d0 7b 52 84 3b 33 a5 7c 3d e6 ae 80 3d b3 e4 ed 3c
       0.0040381528 0.061680984 0.06283359 0.029039716
0002e0 52 fe 9f 3d 64 50 c6 bd 8a f5 48 3e 5f ac 1b 3e
       0.078121796 -0.09683302 0.19624916 0.15202473
0002f0 51 42 19 bd 54 5a 4f 3e 37 9e 23 3c b0 56 4c 3b
       -0.03741676 0.20249301 0.009986452 0.00311796
000300 95 4b 35 bb 22 d7 16 bd 85 3d 56 bd 72 11 38 be
       -0.0027663459 -0.03682626 -0.052304763 -0.17975405
000310 45 5f 9f bc 97 c9 f7 3d f0 f5 25 3e 26 25 7c 3e
       -0.019454608 0.12098997 0.16207099 0.24623546
000320 68 44 21 be 0c 16 51 3e 99 dd e5 bd b9 11 f5 3c
       -0.15748751 0.20418566 -0.11223907 0.029915677
000330 21 0a af 3d c6 5d 78 3e e0 a0 24 3e 8f 10 18 3e
       0.08546854 0.24254522 0.16076994 0.14850067
000340 1e 2e 3a 3e ff 1b dd ba 4f 10 0c 3e 2d 38 89 3d
       0.18181655 -0.0016869305 0.13678096 0.06700168
000350 0f 19 ae 3e 46 3f a2 bd 32 fe 81 bc ae 40 3f be
       0.34003493 -0.07922225 -0.01586828 -0.18677017
000360 e8 93 16 3e 13 98 6c 3e 48 8e 7d 3e cb bb e5 3d
       0.1470486 0.23104887 0.24761307 0.11217459
000370 b1 17 f8 3d 64 18 65 3d 64 0a 61 3d 33 32 36 3e
       0.12113894 0.055931464 0.05494155 0.17792587
000380 cf 11 d6 3b de b8 bf bd 3b 6c ce bd 98 6a 3a bd
       0.0065328847 -0.093614325 -0.10079237 -0.045511812
000390 98 68 2e 3d 59 0a dc 3c 17 54 35 bd bf 37 61 3e
       0.042580217 0.026860403 -0.044269647 0.21993922
0003a0 82 42 aa 3d e3 f0 eb bd cd 08 b1 bc 14 ce 84 bd
       0.083134666 -0.11520555 -0.021610642 -0.06484619
0003b0 d2 c3 05 be 28 f9 a5 bd 41 12 32 bb d3 2c 16 bb
       -0.13062981 -0.081041634 -0.0027171525 -0.00229149
0003c0 76 85 d6 3d 37 75 65 be e1 f2 0c be ab a6 b2 be
       0.104746744 -0.22407995 -0.13764526 -0.34892783
0003d0 8d 1f 35 be c6 8f 88 be ce 9c 43 be dd 87 d2 be
       -0.17687817 -0.2667219 -0.19102785 -0.4111928
0003e0 75 ab fc be e0 e0 12 bf 06 d0 89 be 28 ce c5 be
       -0.4934956 -0.5737438 -0.26916522 -0.38633847
0003f0 84 d8 0c 3d 47 23 27 3e 80 df 03 3e 85 11 01 3e
       0.034386173 0.16322051 0.12878227 0.1260434

bias f4 [6]
000000 17 9e 6c bc 4a 7b 8a 3d d3 5d 51 bc 37 69 1d 3e
       -0.014441988 0.06761797 -0.012778717 0.15372168
000010 8d 43 da 3d cc 29 54 3d
       0.106574155 0.051797673

weight f4 [5, 96]
000000 d5 fd 81 3b 27 00 da bd 74 e5 06 be 4d 11 14 be
       0.0039670267 -0.1064456 -0.13173467 -0.14459725
000010 e5 e0 3f bd 1f b3 01 be 18 0e c9 bd d0 3e 07 be
       -0.046845336 -0.12665986 -0.09817141 -0.13207555
000020 23 4e b7 bd e6 27 6f 3d 80 d0 50 3d 37 10 e1 3d
       -0.0895045 0.05838766 0.05098009 0.10989421
000030 cc 16 04 3d eb 41 09 3d 3b 7e 24 bd ee 7c 4f bd
       0.032248303 0.03351013 -0.040159445 -0.05065625
000040 72 b6 5b bd 12 e3 51 bd 09 f4 3a 3d 67 e0 87 3c
       -0.05364079 -0.05124194 0.045642886 0.016586496
000050 f2 20 59 bd 31 d9 b1 bd bc 40 79 bd 46 31 bb bd
       -0.053009935 -0.08684004 -0.06085275 -0.091402575
000060 1b 43 7d 3c d8 97 c7 3b 2f 6a 5c 3d 92 65 da bc
       0.015457894 0.006091099 0.053812202 -0.02665976
000070 39 b6 a3 3a 08 37 a1 3c 14 1a d1 bc 7b 85 b2 bd
       0.001249022 0.019679561 -0.02552513 -0.08716866
000080 ce 90 c1 bb 92 94 3f 3c 4d 7d 83 bd aa a7 7f 3c
       -0.0059071546 0.011693137 -0.064203836 0.015603939
000090 a7 3d 13 bb ee 80 c9 bc a7 b8 f1 bd 49 a6 89 3d
       -0.0022467168 -0.024597611 -0.11802798 0.067211695
0000a0 5d eb 33 3c 74 90 eb bd 49 21 af bd c8 43 00 be
       0.010981408 -0.115021616 -0.085512705 -0.12525856
0000b0 3b fd c0 bd c4 ab c8 bd bf 1f 2e 3b d7 b8 3a bd
       -0.094233 -0.09798387 0.0026569215 -0.045586433
0000c0 e1 83 be bd c0 0e 25 3d c0 9a 80 3d 0d f8 45 bd
       -0.09302498 0.04029727 0.06279516 -0.048332263
0000d0 bb c7 8a bd 7a e5 08 3d 18 2f 0f be f6 2c ed 3d
       -0.06776377 0.03342197 -0.13982809 0.11580841
0000e0 32 fe 69 bd b2 19 ce 3c d7 51 9e bd ef d1 ee bc
       -0.057127185 0.025158737 -0.077304535 -0.029152839
0000f0 60 58 9f 3c fe 92 6d bb e5 dd b4 bd 7f c2 05 be
       0.01945132 -0.0036250944 -0.088313855 -0.13062476
000100 e8 60 c4 bb a4 a1 71 3d bb 3e dd bd ac 96 83 bc
       -0.0059929974 0.058992043 -0.108029805 -0.016063057
000110 2b 16 82 bd d6 66 34 3d 7e 8a 14 3d 17 a7 e0 bd
       -0.063518845 0.044043384 0.03626489 -0.1096937
000120 08 0b 10 3d c1 c8 b5 3d 28 ba 40 3d 31 15 60 3d
       0.03516677 0.088761814 0.047052532 0.05470771
000130 ca 01 a1 bd f5 d4 0c be 63 64 1f be 72 0b 86 bd
       -0.07861669 -0.13753112 -0.15565638 -0.06545152
000140 bf 5a 53 bc c3 aa 73 bd 03 37 9f bd be 79 10 be
       -0.0129000535 -0.059489023 -0.077741645 -0.14108941
000150 3f 32 e1 bd 9d 95 de b8 06 4b 09 bd 39 f5 61 bd
       -0.10995912 -0.000106136526 -0.033518814 -0.055165503
000160 67 da 21 3d 93 82 37 bd 3d ce bb bd f9 86 0e be
       0.039514925 -0.04480226 -0.09170196 -0.13918675
000170 da 12 8c bd fc a7 ab bd e0 90 af bd 76 fa 2f bd
       -0.06839533 -0.0838165 -0.085725546 -0.042963468
000180 73 f3 17 3c b1 c8 c3 bd d1 d1 6f 3d a6 95 29 3b
       0.009274351 -0.09559763 0.058549706 0.002587655
000190 12 45 d7 bd 37 6f 04 be 93 e3 33 bd d0 0f 6b bd
       -0.10511221 -0.1293305 -0.043918204 -0.057388127
0001a0 7e ea e8 bd f9 2f 90 3d 45 c2 0f bd a8 19 0a bd
       -0.11372851 0.070404 -0.03509738 -0.033715874
0001b0 a9 4e 8b 3d b5 09 c8 bd e1 2c c6 bc 1e d0 56 3d
       0.068021126 -0.097674765 -0.024191322 0.05244457
0001c0 4c f4 ee 3c 64 3f 4f bd bc e6 6b ba 10 1c f3 bb
       0.029169224 -0.050597563 -0.00089989207 -0.007419117
0001d0 4a 48 c4 bd 1f 3a b2 bb 44 ba 39 3d b2 bf 63 3d
       -0.095841005 -0.0054390575 0.045343652 0.055602737
0001e0 e2 8a 76 3d ee 32 ff bd 30 f7 c8 b9 08 61 9f bd
       0.060191043 -0.12460886 -0.00038331142 -0.07782179
0001f0 71 78 18 bd bb 54 c4 bd 6d fa ab bd 4f f1 53 bd
       -0.037224237 -0.095864736 -0.08397374 -0.0517438
000200 ef bb d3 bd ea f7 78 bc 63 3c 1e bd 9a ae e6 bd
       -0.1033858 -0.015195826 -0.038631808 -0.11263771
000210 ce c1 af bd e8 c7 e5 bd cd aa 28 3d 4d 48 0e 3d
       -0.08581887 -0.1121977 0.041178513 0.03473692
000220 e5 b7 ec bd 39 eb 7c 3c 2a e4 0f bc e0 53 c2 bd
       -0.115585126 0.015436941 -0.008782426 -0.09488654
000230 0c df f7 bd 68 97 1d bd ad 0d 8b 3d b0 b6 10 bd
       -0.1210309 -0.03847447 0.06789718 -0.035330474
000240 3a 39 56 bd e2 e8 53 3d 0a 68 47 3d 31 d6 89 3d
       -0.05230067 0.051735766 0.048683204 0.06730307
000250 d9 c2 84 3d f1 68 d1 bd 19 d0 20 bd 08 03 14 bd
       0.06482477 -0.10225094 -0.039260957 -0.036135703
000260 a3 84 76 3d af a5 97 3d 43 08 81 bd 9e 1d c2 bd
       0.060185086 0.074046485 -0.06300404 -0.09478305
000270 e7 e9 ae bd aa 29 5f bd 81 15 8a 3d a7 f1 e8 bd
       -0.08540707 -0.054483093 0.06742383 -0.113742165
000280 6a b5 ca bc 96 00 0a 3c 8b f5 5d bd 50 75 18 bd
       -0.024744708 0.008422991 -0.054189246 -0.037221253
000290 50 7d 5a bd 66 d2 ad bd 43 82 10 3d ba dc 24 3d
       -0.053342164 -0.08487396 0.035280477 0.040249564
0002a0 13 01 b0 bd 7a 6b c5 bd c2 f8 3e 3d 48 c7 2f bd
       -0.08593955 -0.0963964 0.046623953 -0.04291466
0002b0 a9 ac b5 bb d6 80 c6 bd 5f eb 0d bd 6a f0 99 bc
       -0.0055442643 -0.09692542 -0.034648295 -0.018791396
0002c0 db 2b 55 bc 7b 8a ee 3c f4 3e 1b 3d 21 8b b9 bd
       -0.013010944 0.029118767 0.037901834 -0.0905974
0002d0 12 d8 9d bd bd d0 a4 bc 77 18 19 bc 33 bc 0b 3d
       -0.07707228 -0.020119065 -0.009344212 0.034115028
0002e0 78 57 1e 3d b0 d1 8a 3c 37 32 1e bd ad 62 1c 3d
       0.038657635 0.01694569 -0.038622107 0.038180042
0002f0 df 97 9e 3b 36 07 68 bd 1c a6 ca 3c e9 97 a0 3b
       0.004839882 -0.056647502 0.02473741 0.0049009216
000300 43 aa 38 bc 7f e9 29 3d 98 e5 55 bb 5f 2f aa bd
       -0.011271062 0.041482445 -0.003263807 -0.083098166
000310 78 33 eb bd 22 12 ae bd 8d d1 05 be 25 55 b7 3c
       -0.11484426 -0.08499552 -0.13068219 0.022379467
000320 37 eb e6 bd 71 43 a7 bd 1e 1e b8 bd 5b 66 7f 3d
       -0.112753324 -0.0816716 -0.089901194 0.062353473
000330 43 26 b7 3c 22 68 89 bd a4 25 49 3d 20 18 4b 3c
       0.022357112 -0.06709315 0.049108163 0.012395889
000340 14 21 04 be 78 10 82 3b 2e 67 8c 3c c3 e0 51 bd
       -0.12903243 0.0039692484 0.017139044 -0.05123974
000350 9d 0e 44 bd ac 18 1d bd 8f 4e b5 bd 07 99 dd bd
       -0.0478655 -0.038353607 -0.088528745 -0.10820203
000360 2d a0 d1 bb e9 e3 d1 bc 18 50 d6 bd b0 e4 a5 bc
       -0.0063972683 -0.025621371 -0.104644954 -0.020250648
000370 f7 e1 1b bd 3c 14 1a bd 40 ec 3e 3d 9b 28 1b bd
       -0.038057294 -0.037616953 0.046612024 -0.03788052
000380 66 9a 24 bc 0b 1d 90 bd 56 f4 3c 3c e0 99 c9 3c
       -0.010046577 -0.070367895 0.011532864 0.024609506
000390 77 ba e2 3a f7 07 7b 3c 9e 2a c0 bd f7 7a 9e 3c
       0.0017298002 0.015321723 -0.093831286 0.019345744
0003a0 a0 eb 0c 3d 47 16 b4 bd c4 e2 97 3d 87 16 82 3d
       0.034404397 -0.087933116 0.07416299 0.06351953
0003b0 46 07 30 bc c0 0d d0 bd 20 fe 4c bd f1 4d 18 bd
       -0.010743922 -0.101588726 -0.05004704 -0.037183706
0003c0 51 3f ce 3c 2a 3d 30 bd c3 67 a5 bd 07 a2 28 3d
       0.025176676 -0.04302708 -0.080764316 0.041170146
0003d0 ef cd 33 bd d7 7d a6 bd aa d6 b0 3c c1 d9 88 bc
       -0.043897565 -0.08129471 0.021586735 -0.016705396
0003e0 0e 5d 0a 3c 64 5a cd bd 34 b4 dc 3c d2 cb 89 3d
       0.0084450375 -0.10027006 0.026941396 0.06728329
0003f0 0d 26 17 bd 41 a9 bb bd 77 29 6f bd 56 67 71 3d
       -0.036901522 -0.09163142 -0.058389153 0.05893644

bias f4 [5]
000000 c4 c4 1b 3d d5 1d ed bd 02 7c c7 bd fe 94 71 3e
       0.038029447 -0.11577956 -0.097404495 0.23591992
000010 08 27 5e 3d
       0.05423644
