Models_mario/Mario No Bias_exp1_GRU_temporal.pth (torch, 104953 bytes, 10 tensors)

weight_ih_l0 f4 [150, 10]
000000 21 6d 70 bc 44 0d 90 3d ae af c3 bc 19 28 91 bd
       -0.014674456 0.0703378 -0.023887482 -0.07087726
000010 76 74 5a be 07 18 d8 bd 8f d1 64 bd be d3 3c be
       -0.21333489 -0.10551458 -0.055863913 -0.18440148
000020 c9 a9 59 3d d2 4e 89 3c d5 87 26 3e 62 63 a0 3e
       0.053140435 0.016761217 0.16262753 0.31325823
000030 33 fb 3a 3e 0f 87 f5 3d c5 74 47 be 8d 7b 5a bd
       0.18259887 0.11988651 -0.19478138 -0.053340483
000040 50 c8 2d 3e 93 ac e9 bc ec cb 97 be 90 1c 3a 3e
       0.16970944 -0.028524673 -0.29647768 0.18174958
000050 03 51 da be 60 95 df 3d 95 21 44 be 8c dc cd be
       -0.42639932 0.10917163 -0.19153436 -0.40207326
000060 b0 a5 df bd 29 11 95 3d 5b 86 42 be bb 4e d3 3d
       -0.10920274 0.07278664 -0.18996565 0.10317751
000070 0a 13 9b 3e 3c c2 c1 be 41 10 a2 3e af 31 7e 3f
       0.30287963 -0.37843502 0.31653026 0.9929456
000080 81 db b1 3e c7 db 7d 3e 95 c9 05 be 59 f2 b9 3e
       0.3473778 0.2479087 -0.13065179 0.3631771
000090 3a 83 b0 3e ce 8b a8 3e b9 54 dc bd 56 9a c8 3e
       0.34475118 0.32919163 -0.10758347 0.3918025
0000a0 f2 ab 6d be 34 4a 46 3d f1 b6 b2 bd ce 19 9e be
       -0.23210123 0.04841061 -0.087262996 -0.30879062
0000b0 42 b7 40 be 72 c6 c5 bd de b8 66 be 48 df 4b be
       -0.18819907 -0.09656991 -0.22531459 -0.19909394
0000c0 42 7c 4a be ef 39 a6 be 79 ff dc be 5b 1c 2f 3f
       -0.19773963 -0.32466075 -0.4316366 0.6840264
0000d0 4a 05 48 be c2 e3 b5 be fd e4 d0 be 89 06 52 3e
       -0.19533268 -0.35525328 -0.40799704 0.20510305
0000e0 e7 63 8a be 95 72 45 be 09 1b 00 3f 3b 48 98 be
       -0.27029344 -0.19281991 0.5004125 -0.29742607
0000f0 5e 09 7b 3e bf 09 57 3f 48 87 41 3e d5 70 46 3e
       0.24515292 0.83999246 0.18899262 0.1937898
000100 57 e3 ca bd 59 33 55 3e 72 67 4c 3e f4 f6 f8 3e
       -0.09906643 0.20820369 0.19961336 0.4862591
000110 ce 81 43 be ee a1 99 3e 2b 68 5c bd 31 06 40 be
       -0.19092485 0.30006355 -0.05381028 -0.18752362
000120 df dc 90 be be bd 16 bd 9f ee 2e 3c 3b 44 bb bd
       -0.2829351 -0.036802046 0.010677009 -0.09143873
000130 28 b9 3a be b6 55 c1 bc 4c e0 b2 3e 34 53 79 be
       -0.18234694 -0.02360044 0.3493675 -0.24348146
000140 ac 92 4c bd db 80 92 bd ec f1 dc bd 0d 93 8d bc
       -0.049944565 -0.071534835 -0.107883304 -0.017282033
000150 d6 19 53 be a1 26 a3 3e 64 c9 a2 3c 24 01 f1 3d
       -0.20615324 0.3186541 0.019871421 0.11767796
000160 0b 66 2a 3f 92 b4 a6 3d eb f6 38 be 2e 4e 88 3e
       0.66561955 0.0813991 -0.18062942 0.26622146
000170 89 fe 19 be 16 ff f2 bd 2f 60 bf be e4 fa cc bd
       -0.15038504 -0.1186506 -0.3737807 -0.10008791
000180 86 ce 39 bb d4 86 35 3e 35 5f eb 3d d2 61 f7 bd
       -0.0028351857 0.17727214 0.11492769 -0.120792046
000190 ab 3a e1 bc 64 92 63 3e 39 59 dc 3d f4 db 0a bd
       -0.027493795 0.22223812 0.10759205 -0.03390117
0001a0 b1 66 55 be f7 73 8f bd fd 40 02 3e b0 6b 6c be
       -0.20839955 -0.070045404 0.12720104 -0.23087955
0001b0 46 d3 16 be 16 3f 3b 3e d4 76 fe 3e b7 c7 17 3e
       -0.14729032 0.18285784 0.49700034 0.14822279
0001c0 3b 50 e9 3e a4 de a7 3e 28 84 f5 3d 51 60 bd 3e
       0.45569023 0.3278705 0.119880974 0.36987546
0001d0 4b 2a c9 3e 23 76 ec be fb 72 51 bf 93 0a a9 3e
       0.3929008 -0.4618388 -0.8181607 0.3301588
0001e0 28 cc 0f bd e5 47 e0 3e bd 28 93 bd 55 b9 b5 bc
       -0.035106808 0.4380485 -0.071855046 -0.0221831
0001f0 f8 ca cf bc 81 88 04 be 11 2d 57 be 30 4b 8f be
       -0.025365338 -0.12942697 -0.21013285 -0.2798705
000200 22 25 d8 bd 0c b4 30 3c 07 f1 5c 3e 2b ae 0f 3f
       -0.105539575 0.010785114 0.2157632 0.56125134
000210 38 e6 39 3d f5 27 68 3e de 8b 52 be bc 16 c9 bc
       0.04538557 0.22671492 -0.20561168 -0.024546973
000220 7b e2 97 3e b0 9d 46 3e ad f6 03 bf 03 7c 93 3e
       0.29664978 0.1939609 -0.5154827 0.2880555
000230 92 7d 11 bb 36 46 68 3e ae 84 b8 bc ed 3c 44 3e
       -0.002220009 0.22683033 -0.022524204 0.19163866
000240 7c 7f de 3c 68 e8 12 3e 62 49 19 3e 04 ed b0 3d
       0.027160399 0.14346468 0.149694 0.08638957
000250 8f 0a 4f 3e 20 ea 2e 3a 5d c7 c6 3e 51 4a df be
       0.20218872 0.00066724606 0.38823977 -0.43611386
000260 79 a9 c3 3e 10 1c ec 3e 71 ce 27 3f 8f 58 82 3d
       0.38215235 0.4611516 0.6554938 0.063645475
000270 68 7d ad 3e 52 a1 00 bf 48 a1 f4 be 82 ed 8a 3e
       0.3388474 -0.50246155 -0.47779298 0.2713433
000280 75 46 8a be b5 18 45 be 3e 7b a4 be 78 0c 0f be
       -0.2700688 -0.19247706 -0.32125276 -0.139696
000290 ab cc f6 be 8f d9 59 3d 1c ce 06 be 06 9a 15 be
       -0.48203024 0.053185996 -0.13164562 -0.14609537
0002a0 6c da 7a 3f 28 06 eb bd 3e d4 13 3e 2f 22 ed 3d
       0.97989535 -0.114757836 0.14436433 0.11578786
0002b0 2b 2d c3 3d 7f dc 1c 3e 1b b0 41 be 2b 1b 1f bc
       0.095300995 0.15318488 -0.18914835 -0.009711067
0002c0 12 2d 3f 3c 74 1d d1 3d ec 35 92 be 15 59 a7 3d
       0.01166846 0.10210696 -0.28556764 0.08171288
0002d0 59 f2 7a bd d9 33 df 3e 34 16 03 3e f2 4b 58 bd
       -0.061266277 0.43594244 0.12801439 -0.052806802
0002e0 85 a2 86 bd 94 17 89 3e a7 f7 b2 bc 93 66 6b 3e
       -0.06573967 0.267758 -0.021846605 0.22988348
0002f0 73 c0 32 3e 3c 12 93 3d 27 be d9 3e 6c 75 04 3f
       0.17456226 0.07181212 0.42527887 0.5174167
000300 1f cd 21 3f ff b4 08 3f 14 6f 84 be a7 8b 8b 3e
       0.63203615 0.5340118 -0.25865996 0.27254984
000310 2b 0e ff 3e c7 45 e2 3d b5 ca 02 39 2e f5 06 3f
       0.49815497 0.11048465 0.0001247328 0.52717865
000320 80 e3 7c bd f2 55 15 bf ae 51 78 bd d2 6c 9b be
       -0.0617404 -0.5833427 -0.06062477 -0.3035646
000330 30 f1 91 be c2 92 d9 3d d8 61 4f be 0e 84 46 3f
       -0.28504324 0.10623695 -0.20252168 0.7754525
000340 fe 2e 63 bd f9 eb 52 be 2b a3 b8 3d 97 a5 1e 3f
       -0.055464737 -0.20597829 0.09015497 0.6197142
000350 29 25 58 3e c6 37 68 3e 88 8d 80 be 38 58 41 3e
       0.21107925 0.22677526 -0.2510798 0.18881309
000360 1c 7c a2 3e eb 98 33 3f 11 4d e1 3d 0f da b4 3e
       0.31735313 0.7015521 0.110010274 0.35322616
000370 09 95 11 3e 20 ee 07 bf 02 af 31 3e ab bd 33 3e
       0.14217009 -0.53097725 0.17351916 0.17552821
000380 64 06 31 3f ef ee 3c be f5 41 38 3d 9a 71 4a be
       0.69150376 -0.18450521 0.044984777 -0.19769898
000390 f7 aa 99 bf 69 46 32 3d 3d 65 fb 3e ea 09 54 3f
       -1.2005299 0.04352418 0.49100676 0.8282763
0003a0 ac 1e 06 3f 90 bc 09 3f 9c 2a ea 3e a3 5b f5 3e
       0.5239055 0.5380335 0.45735633 0.47921476
0003b0 18 bd ea 3e c5 92 f8 be e6 fc 63 bf e3 07 f5 3e
       0.45847392 -0.48549476 -0.8905777 0.4785758
0003c0 6f 00 19 3c 7a 07 0e bf 84 aa 54 bd ef 55 01 bd
       0.009338482 -0.5548016 -0.05192043 -0.031576093
0003d0 5c 58 98 3e 17 8a f9 3c d1 3d cf bd 6a 19 42 3f
       0.29754913 0.030461354 -0.101192124 0.7582003
0003e0 33 59 88 3e 9b ab e3 bd 93 bb fd bd 60 b7 fa 3e
       0.26630554 -0.111167155 -0.123892926 0.4896803
0003f0 2b 95 29 be 74 9b e5 bd 7c 16 cb be d4 72 f7 bd
       -0.1656081 -0.11211291 -0.39665592 -0.120824486

weight_hh_l0 f4 [150, 50]
000000 d3 d7 b9 bd 6d d2 5f 3e d3 67 5c be 39 79 45 bd
       -0.09074368 0.21857615 -0.21523981 -0.04821131
000010 e3 cb 64 bc 09 74 72 be ee c7 47 bd e0 1f 1f be
       -0.013964626 -0.23677076 -0.048774652 -0.15539503
000020 cc 87 24 bd bb 47 90 3e c8 d5 59 3e 1c c6 0e be
       -0.04016857 0.28179726 0.21272957 -0.1394276
000030 fb 05 40 3d 15 56 9b 3d f1 9d a7 be b3 67 69 3e
       0.046880703 0.07584778 -0.32737687 0.22793464
000040 a8 30 81 bd 43 fd b6 bb ad 08 14 3e 77 8f 5a be
       -0.063081086 -0.0055843904 0.14456435 -0.2134379
000050 ed 54 89 3e 51 f4 e1 bd 21 df 36 bb 5b 39 92 bd
       0.26822606 -0.11032928 -0.0027903991 -0.07139846
000060 09 af 6b 3d 6d bf 63 3e fa 81 3d be c6 a1 bd be
       0.057539973 0.22240992 -0.18506613 -0.37037486
000070 41 cc 25 bd b4 af f0 bd 13 9a 85 be 4b 1d d7 3c
       -0.040477995 -0.11752263 -0.26094112 0.026259085
000080 dd 01 74 be ed 89 00 be 20 59 fd bd cc 34 c7 3d
       -0.23828836 -0.12552615 -0.12370515 0.09726867
000090 31 e6 12 3e 62 69 58 3e c7 63 57 3e 00 c8 b6 bd
       0.14345624 0.2113395 0.21034156 -0.08924866
0000a0 40 f9 6c 3e 94 88 09 3b 1b e7 91 be 41 55 9b 3c
       0.23141956 0.0020985948 -0.28496632 0.01896155
0000b0 5b 3d 51 bd 96 7c 26 3e 1b 6f 8e 3e 00 3d 14 3e
       -0.051083904 0.16258463 0.27819142 0.14476395
0000c0 e6 89 68 be 8c a8 2e 3e 5f f7 5d 3d 7f a1 19 bd
       -0.22708854 0.17056483 0.05419099 -0.03750753
0000d0 85 9e db bd c4 2d 17 be e6 30 16 3e fc fc 9e bd
       -0.107235946 -0.14763552 0.14667091 -0.07763097
0000e0 33 32 04 bd 47 2c b7 bd 73 d9 a6 3e a1 1d 73 3d
       -0.032274436 -0.08943992 0.32587776 0.05935443
0000f0 5d b8 05 be f6 2b 84 3e d1 5b 31 be c6 67 61 bd
       -0.1305861 0.2581479 -0.17320181 -0.055030607
000100 c5 f3 80 be e0 62 ec 3c 6d 88 d4 bd 9a f9 8a bd
       -0.2518598 0.028855741 -0.10377584 -0.06785889
000110 f4 fa 11 3e 4d 8d d9 bd 8f 12 84 3e e4 34 1f 3d
       0.14255887 -0.10622654 0.2579541 0.0388688
000120 bd 46 55 3d e0 69 a7 3d b6 3f c9 bc 7f a4 ea 3d
       0.052069414 0.08174491 -0.024566513 0.114571564
000130 8a d9 0c be 15 dd d2 3c 5e 80 9f 3d 22 65 63 3e
       -0.1375486 0.025740186 0.07788156 0.22206548
000140 b1 70 86 be ec 09 08 3e f0 c5 b8 bd a2 ae d3 bd
       -0.26257852 0.13285035 -0.090221286 -0.10336043
000150 b0 9f 19 bd 6d c0 a5 3e 71 1b db bd 65 ec af 3d
       -0.037505805 0.32373372 -0.106985934 0.085900106
000160 c6 b0 0f 3c a0 db 6b bc ea a5 5a be 1f 1f 1d 3e
       0.008770173 -0.014395624 -0.21352354 0.15343903
000170 ed 1c 5f be 5d 4f 18 be c2 f5 12 be d2 4f bc 3d
       -0.21788378 -0.14874025 -0.14351562 0.09194912
000180 37 a1 bc 3e eb 70 90 3d b1 c8 bf ba b7 bc 29 3e
       0.36841747 0.070527874 -0.0014631954 0.16575895
000190 96 ef 70 3e 69 bc e3 b7 56 9e 17 bd 12 73 74 bd
       0.23528895 -2.7148244e-05 -0.037016235 -0.059680052
0001a0 a9 34 03 3e 3e ac eb 3d 28 a5 e5 3d 30 2e 8b 3c
       0.12813057 0.11507462 0.11213142 0.016989797
0001b0 47 a6 40 3e de f7 c8 bd 4f fb 83 be d2 80 50 3e
       0.1881343 -0.09812902 -0.2577767 0.20361641
0001c0 01 b8 5c be dc ab 74 be 77 9f 18 3e 8f 4e 8b be
       -0.21554567 -0.23893684 0.14904581 -0.27208373
0001d0 76 e1 9d bc 14 9a 3a be 30 af e3 3d df 3b ba 3d
       -0.019272547 -0.18222839 0.11117399 0.09093451
0001e0 1b f1 ad 3b c8 98 e2 bc bf f0 3e 3e 6e a3 76 3e
       0.005308283 -0.027660742 0.18646525 0.24085781
0001f0 3c 35 db bd c3 57 3b bd 31 67 e2 bd 4f cd 6a bd
       -0.10703513 -0.045737993 -0.110548384 -0.057324704
000200 ac 8e 06 bc 94 46 68 3e e6 ee 2c be 65 dc 19 be
       -0.008212727 0.22683173 -0.16888008 -0.1502548
000210 f3 d1 1b 3d 68 a4 59 3e 33 13 a6 3d 19 af 17 3d
       0.03804202 0.21254122 0.08109131 0.03703222
000220 4b 18 44 be 01 3b 39 3c 5d b1 c5 3a 6f 42 ac 3d
       -0.19149892 0.0113055715 0.0015082766 0.08411109
000230 cb ff a0 be 55 f2 da 3d c0 4c de bd a5 0a 9a be
       -0.31445155 0.106907524 -0.10854483 -0.30086246
000240 f9 1c 42 3e ad 0a 80 bd 83 6d 25 3e 3f 8c 35 3b
       0.18956365 -0.06252036 0.16155057 0.0027702001
000250 93 35 3a 3d 0f ee 9d 3d 91 2d c6 3d 8b ca e6 bc
       0.04546125 0.07711422 0.0967666 -0.028172752
000260 03 26 d1 bc be 47 18 bd 6e 98 6b 3e 07 49 06 be
       -0.02553082 -0.037177794 0.23007366 -0.13113795
000270 45 94 76 3d ae 6e a2 be ab db a1 3e a6 8a 68 3d
       0.060199995 -0.31725067 0.31612906 0.05677285
000280 64 f6 34 bc ef b9 a4 3e c8 ba ba bd 2e 0c 7c be
       -0.011045072 0.32173106 -0.09117657 -0.24614021
000290 af 8e 91 bd 4c ae 9a be 82 12 5c be e6 29 5f be
       -0.07107293 -0.30211103 -0.21491435 -0.21793327
0002a0 43 96 4c 3d cb c8 19 3e 53 8d cb 3d 60 ec 58 3d
       0.04994799 0.15018003 0.09939065 0.0529598
0002b0 b1 24 b8 3d 91 0a ff 3e b6 67 60 3e 19 f8 f4 3d
       0.08991373 0.4981275 0.21914563 0.119613834
0002c0 b1 14 14 bf 85 d3 28 bd ad 0f 6f be 55 2b 39 3e
       -0.5784407 -0.041217346 -0.23345824 0.18082936
0002d0 f5 53 2b be 87 8a 4e bd 9a c3 43 be 1c ab 1f 3e
       -0.16731246 -0.05042508 -0.19117585 0.15592617
0002e0 2b 79 97 3d 2b b4 c6 bd 68 01 74 3b 7b 81 40 3e
       0.07396158 -0.09702333 0.0037232284 0.18799393
0002f0 ca 59 84 3e ed ac bc bc 5d 83 00 be 3a 6a 7b 3e
       0.25849754 -0.023031676 -0.12550111 0.24552241
000300 48 d2 96 3d 0c 99 85 be e8 dc a3 3c fa 39 2e 3e
       0.07364327 -0.26093328 0.020002797 0.17014304
000310 05 e8 ba 3d d0 f5 71 3e 57 82 9e 3d 9f 67 83 3e
       0.091262855 0.23628926 0.07739704 0.25664994
000320 0b 47 98 3b 43 94 8d be d7 0c 5f 3e f8 93 26 3e
       0.004647141 -0.27652177 0.21782242 0.16267383
000330 ae db 6f be bd 0c 55 3e e4 37 95 3e c5 58 08 3e
       -0.23423645 0.2080564 0.29144204 0.13315113
000340 ca 2e 18 be 62 45 0d be f1 70 71 be 04 21 c6 bd
       -0.14861599 -0.13795999 -0.2357824 -0.09674266
000350 cb 1c 3d 3b 3f a3 2f bd 40 44 b0 3d d2 1b f6 bd
       0.0028856273 -0.042880293 0.08606768 -0.12017025
000360 24 9f da 3d a1 92 44 3e d1 c9 fd be 34 52 8d bc
       0.10674885 0.1919656 -0.49568036 -0.017251112
000370 93 fe 1a bd 5e 07 a1 3e fa a9 c3 3e 8f dd 78 3c
       -0.037840437 0.31450933 0.3821562 0.015189542
000380 7e d1 c4 be 4e 18 59 bd 6f 13 19 3d d5 33 c7 3e
       -0.3844108 -0.053001694 0.03737205 0.38906732
000390 19 7a ad 3e a0 7a e1 3d 12 25 9b 3e 46 f3 3d be
       0.33882216 0.11009717 0.3030172 -0.18549833
0003a0 2d 7c aa 3e 19 23 a1 3c 3c 47 d4 3c 61 2c ca 3c
       0.33297864 0.019670056 0.025912873 0.024679365
0003b0 88 1e ad 3d f1 ec 4a be b8 e2 d8 be 7a 2e 2b 3d
       0.08453089 -0.19816948 -0.42360473 0.04179237
0003c0 19 91 00 3c 11 fd d4 bd 59 73 c5 3e b2 49 da 3d
       0.007847094 -0.10399831 0.38564566 0.106585875
0003d0 0e 24 83 3e 54 b4 88 be b1 f2 54 be 22 ab 3a be
       0.25613445 -0.2670008 -0.20795704 -0.18229344
0003e0 92 6e 4f bc 05 b3 56 be 55 4c 09 3e 35 20 6d 3d
       -0.012660639 -0.20966728 0.13408025 0.057892043
0003f0 62 13 86 3d 91 3e 11 3e de 18 00 be 86 86 0a 3e
       0.06546666 0.14184023 -0.12509486 0.13527879

bias_ih_l0 f4 [150]
000000 32 a0 0c 3d 79 b4 aa bc 83 ab 43 3d de 4f 08 be
       0.03433246 -0.02083801 0.04777099 -0.13311717
000010 d7 6c 4f be c5 70 91 bd e9 bc f4 bd 53 55 57 3d
       -0.20256363 -0.07101587 -0.11950094 0.052571606
000020 dd a2 4c bc fa 23 7e bd b1 b2 06 be 1b c2 8b bd
       -0.0124900015 -0.06204603 -0.13154103 -0.06824132
000030 8b fd 0b be 54 87 ad 3d 72 f5 70 bd 37 c8 59 bd
       -0.13670938 0.084730774 -0.058827825 -0.053169455
000040 ba a9 43 be d7 b0 1c be ad 59 c9 bd 74 65 b1 bd
       -0.19107714 -0.15301834 -0.098315574 -0.08661929
000050 b7 c2 5f bd 63 f9 be 3c 43 d3 81 3d 7a 3d 46 be
       -0.054629054 0.023312276 0.06339123 -0.19359389
000060 79 5c 4a 3e b5 36 aa 3d 94 6b 63 be b1 91 6d 3e
       0.19761838 0.08311216 -0.22209007 0.23200108
000070 fc ce aa 3d dc 95 4c 3e db 0c 4f be 35 43 4a bd
       0.083402604 0.19979042 -0.20219748 -0.0493805
000080 24 16 5a 3b ff e1 33 bd 7f 44 0f 3d ea 0c 20 be
       0.0033277357 -0.0439167 0.034977432 -0.15629926
000090 dc 2e eb bc 03 47 c8 bc 35 4b 90 3d d9 44 96 bd
       -0.028708868 -0.024447924 0.070455946 -0.073373504
0000a0 af 50 ce bb e9 58 0f be 97 47 e5 3d cd 15 23 bd
       -0.0062962393 -0.1399876 0.11195295 -0.039815713
0000b0 ab db af 3d b1 ed 64 be 52 0b 2e bd 61 7b 01 bd
       0.0858682 -0.22356297 -0.042491265 -0.031611804
0000c0 3b fc b8 3d 23 e7 1d be d9 a5 c2 3d f7 b6 3e bb
       0.09032484 -0.15420203 0.09504289 -0.0029100755
0000d0 55 c0 1a 3e 20 f9 ff be 28 71 81 bc 91 c5 df bc
       0.15112431 -0.49994755 -0.015801027 -0.027315887
0000e0 50 7c 9b be 24 0f c6 bc 64 5a 74 3e 97 26 f6 3d
       -0.3036828 -0.024177141 0.23862606 0.12019079
0000f0 92 ee d3 3d f8 46 0d bf 20 b6 7f be 71 55 92 bd
       0.10348238 -0.55186415 -0.24971819 -0.07145203
000100 a8 34 cc be 42 11 ae be 29 57 33 3e c3 d4 ec 39
       -0.39883924 -0.33997542 0.17513718 0.00045171948
000110 dd c6 8c 3d 9b dc 8b 39 03 56 34 3e 15 4b 45 be
       0.06873868 0.0002667651 0.17610936 -0.19266923
000120 ab 9d 36 be 46 f1 b1 bd 4f b9 17 bf a0 f5 7d be
       -0.17833583 -0.086885974 -0.59267133 -0.2480073
000130 c8 b2 43 bd 92 8d 69 3c 75 fe 91 bd 92 a9 39 3e
       -0.04777792 0.014254944 -0.07128612 0.18131092
000140 e1 03 92 3e 6b 31 e1 be 50 3b 43 3e 4c b4 1f 3c
       0.28518584 -0.43983015 0.19065595 0.009747576
000150 6a 18 84 be 0b 26 aa 3c f7 9f 16 bd 78 90 bf be
       -0.25799876 0.020770093 -0.036773648 -0.37414908
000160 f3 80 32 be f7 1f 9d 3d 1a eb 30 be 23 23 53 3e
       -0.17432003 0.076721124 -0.17277184 0.20618872
000170 87 3a 6f be cf ce 1a be bd 99 8c 3d 40 97 12 3e
       -0.2336217 -0.15117954 0.06865261 0.1431551
000180 5c a2 bd be da a9 f6 3c b3 fb 75 bd 04 16 74 3d
       -0.37037933 0.030110288 -0.060054492 0.05959131
000190 84 6d e5 3d f3 6d 20 3d 29 51 26 be c0 b5 4c 3d
       0.11202529 0.039167356 -0.16241898 0.049978018
0001a0 3a 64 cd 3d 39 96 d3 bd 7f 96 ec bd 64 85 2f bd
       0.10028882 -0.10331387 -0.11552142 -0.04285182
0001b0 fd 35 40 3d ff 3a 17 bd a1 14 63 bc 04 2d 00 ba
       0.046926487 -0.036921497 -0.013859899 -0.00048895204
0001c0 98 a4 3e 3e 18 11 be bb fb 2a e8 3c 9a d9 8d 3d
       0.18617475 -0.0058003776 0.028340807 0.0692627
0001d0 e2 8d 20 3d 0e 45 04 3d 49 4a da 3d cf f2 99 3d
       0.03919781 0.03229242 0.106587 0.07517015
0001e0 f7 74 00 be 6b 05 86 bd 48 bd bd bd 06 b5 1f 3c
       -0.12544619 -0.06544002 -0.09264618 0.009747749
0001f0 7c 86 48 3e 79 f6 72 3d cd 4d 70 3d dc a0 ed 3d
       0.19582552 0.059317086 0.058667947 0.11602947
000200 ec 54 12 be b7 7c 2c bd d7 a0 7b ba 9f c5 ab 3e
       -0.14290208 -0.042111125 -0.0009598857 0.3354921
000210 93 97 54 bd eb e9 1b 3d 38 29 e3 bd e5 db a9 3b
       -0.051902365 0.03806488 -0.11091846 0.005183684
000220 d6 6d a4 bc f9 1b 40 3e 55 d8 26 3c 7e 3e 92 bd
       -0.020071905 0.1876067 0.0101834135 -0.07140826
000230 b2 5d cc 3d 15 db 9c bc 62 6b 46 be ea dd 29 3c
       0.099788085 -0.019147435 -0.19376901 0.01036785
000240 12 a3 8f bd 2c c8 7c bd 60 43 0b be a6 fb 1a 3e
       -0.07013525 -0.061714336 -0.1359992 0.15135059
000250 57 eb 24 bd eb 15 37 3b
       -0.0402635 0.0027936648

bias_hh_l0 f4 [150]
000000 7e 47 05 3c f3 1b 56 bd de e9 07 be 36 91 ba 3c
       0.008134721 -0.05227275 -0.13272807 0.02277432
000010 42 68 15 be d5 18 6b bd 0b 7c 0d be 81 e0 24 be
       -0.14590552 -0.05739673 -0.1381685 -0.16101266
000020 7d aa 1c be f8 19 81 bd d0 d7 a4 bd 53 a6 65 be
       -0.15299411 -0.06303781 -0.080489755 -0.22426729
000030 da eb b3 bd 12 98 22 bd aa 8b 3a be 4f 0c 91 bd
       -0.087852195 -0.039695807 -0.1821734 -0.07082426
000040 6e 0b 21 be 37 8f 59 bc b8 ff 71 bd 5f 67 03 be
       -0.15727016 -0.013278774 -0.059081763 -0.12832402
000050 0d 15 33 bd 93 27 18 bd 0e 7e 6d 3d c6 32 60 3c
       -0.043721247 -0.037147116 0.057981543 0.01368398
000060 38 a0 b6 3c 55 cb 1c 3e 28 5d 3c be 0c 7e 80 3e
       0.022293195 0.1531194 -0.18394911 0.25096166
000070 02 8f 89 3d 03 21 da bc 7a e7 94 bd f4 b4 6f 3d
       0.0671673 -0.02662707 -0.07270713 0.05852218
000080 18 b2 f2 3d 33 2e 18 3c c1 5f c2 bd f6 56 8e be
       0.11850375 0.0092883585 -0.0949092 -0.2780072
000090 66 7b 12 bd 49 f7 5c bd 61 34 28 bd 03 2f 74 bd
       -0.035762213 -0.053946767 -0.041065577 -0.059615146
0000a0 ef 9f 10 3e a3 39 0f be 4b c9 85 3d 67 a2 60 bd
       0.1412351 -0.1398683 0.06532534 -0.05484238
0000b0 44 e4 30 3d 02 d0 20 be 54 94 91 3d f3 2c 4d bd
       0.04318644 -0.15704349 0.071083695 -0.050091695
0000c0 7e c0 1c bd f9 25 a7 be 73 91 9b 3d 41 c1 2f 3e
       -0.038269512 -0.32646158 0.075961016 0.17163564
0000d0 9a 1b b0 3d 01 a2 ad be eb 44 97 3c 1c f9 87 3d
       0.085990146 -0.33912662 0.01846548 0.06639311
0000e0 80 89 51 be f9 e7 7e 3e 84 22 8b 3e a2 3d 8a bd
       -0.20462608 0.24893178 0.2717477 -0.06750037
0000f0 1d 01 97 3d b1 89 24 bf 58 56 c4 be aa a9 38 bd
       0.07373259 -0.642726 -0.38347125 -0.04508368
000100 c2 1f b6 be 21 b7 d3 bd ba 11 25 3e 74 43 d6 bd
       -0.35571104 -0.103376634 0.16120043 -0.104620844
000110 f9 6f 01 bd 44 4f 7e bd be ff 13 3d f9 d4 02 be
       -0.031600926 -0.062087312 0.036132567 -0.12776555
000120 32 13 87 bd 1e d5 28 be 9b 7e 0a bf 82 db 7c be
       -0.06595458 -0.16487548 -0.54099435 -0.2469311
000130 7d 60 da 3b 49 ef d5 3d 71 c1 df bd f0 ee 8b 3b
       0.0066643343 0.10446031 -0.10925568 0.004270427
000140 1b c4 70 3e de 9e 44 be 4e dd 67 3e bb 3e 79 bd
       0.23512308 -0.19201228 0.22643015 -0.06085084
000150 36 45 17 be e7 3b a1 bc 27 40 db bd 27 c6 51 be
       -0.14772496 -0.019681884 -0.107055955 -0.20485745
000160 15 79 87 bd e3 f8 82 3c 02 6d 01 be a8 00 0f bc
       -0.066148914 0.015987819 -0.1263924 -0.008728184
000170 92 0a 1c be 29 da 84 3d 6a e2 3a 3e 39 2f 9f bb
       -0.15238407 0.06486923 0.18250433 -0.0048579243
000180 a8 8f 1a bf 3f f4 af 3d 1c 79 3a be 1f 2d 4a 3e
       -0.6037545 0.08591508 -0.18210262 0.19743775
000190 52 15 0b 3e 66 ff aa 3c 79 e3 44 bc 63 ab 03 be
       0.13582352 0.020873737 -0.012017124 -0.12858348
0001a0 f1 ea 85 3c 89 a5 e7 3c 24 e2 9c 3c 03 79 e9 bd
       0.01634738 0.028277176 0.019150801 -0.11400034
0001b0 0d 87 9c 3c 2c 5f 9a bc 13 bb 22 bd a6 64 1f bd
       0.019107366 -0.01884421 -0.03972919 -0.038914345
0001c0 ee 33 91 bd 22 91 6f 3d 9d 10 8f 3d 27 9b b6 bd
       -0.07089983 0.05848802 0.069855906 -0.08916312
0001d0 45 e9 e4 bc 64 c5 2d 3d 2e e8 0d be 17 47 c4 bd
       -0.027943263 0.042424574 -0.13858101 -0.09583872
0001e0 c4 c3 fa bc 23 4d b8 bd cd 89 82 be c0 cd 95 be
       -0.030610926 -0.08999088 -0.2549576 -0.29258537
0001f0 54 3d b8 3e df 00 80 3e 2e fa c9 3d 83 77 76 3d
       0.3598429 0.25000665 0.09862171 0.06017257
000200 e6 d0 75 be 69 70 21 be d9 be 95 3d 7a c4 41 3e
       -0.2400547 -0.15765537 0.07311792 0.18922606
000210 0b d3 c3 bd d9 8d 31 3d 0f df 82 be 0e 55 7b 3d
       -0.095617376 0.043348167 -0.25560805 0.06136041
000220 82 53 e2 3d 6f 91 82 3e da 14 f6 3d 5f ea 54 be
       0.11051084 0.25501582 0.12015696 -0.2079253
000230 f1 f0 00 3e b1 e4 a2 3d 68 23 2c be 10 bc da 3b
       0.12591912 0.07953776 -0.16810381 0.006675251
000240 5f 7c 33 3d c9 44 51 bd 52 34 8a be 4d fb 47 3e
       0.04381978 -0.05109099 -0.26993042 0.19529457
000250 1b 5b e6 bc e2 22 1c bc
       -0.028119614 -0.009529801

weight_ih_l1 f4 [150, 50]
000000 16 42 20 3e 38 a0 5a 3d 93 eb 91 bd 17 62 83 3d
       0.1565021 0.053375453 -0.0712501 0.064151935
000010 33 46 81 3e 6c 8e 68 3d de 57 41 3c 69 8b ab 3a
       0.2524887 0.05677645 0.011800734 0.0013087812
000020 f3 ef ac 3e af 69 d7 bd a2 49 40 be 1f a1 3e 3e
       0.33776817 -0.105182044 -0.18778089 0.1861615
000030 95 c5 58 bd 07 3d 3a 3d a2 b7 67 bd c5 df e5 3e
       -0.052922804 0.045468356 -0.05657161 0.44897285
000040 04 21 5e 3e 47 75 0e be 5c 63 83 3e 72 a4 9e 3c
       0.21692282 -0.13911925 0.25661743 0.019365523
000050 1f b6 37 be ab da 30 be 7c 37 34 3e 6d f4 6a 3e
       -0.17940567 -0.17270915 0.1759929 0.22944804
000060 84 f7 50 be f0 28 2a be fe 92 e2 b9 a9 a9 ab 3d
       -0.2040692 -0.16617179 -0.00043215597 0.083819695
000070 54 9f 8f bd 7c a4 fc 3d b8 2a 87 3d 63 7c 30 3e
       -0.07012811 0.123360604 0.06599945 0.1723495
000080 6a 0d a8 3d ea be 76 3d f2 b1 b4 bd 65 de 53 3e
       0.082056835 0.060240664 -0.08823003 0.20690306
000090 7f 74 fc bd 2b f4 de 3d a5 3c 35 3e f5 eb cb 3d
       -0.12326907 0.10886415 0.17698915 0.099571146
0000a0 6d 26 f3 bc 59 e7 fd 3d c9 d2 21 3e ac 85 76 be
       -0.029681409 0.12397642 0.15803064 -0.2407443
0000b0 8b 0a f9 bc 62 dd 9c bd 3a bc 14 3e ca 8f e3 bc
       -0.030400535 -0.07659413 0.14524928 -0.027778525
0000c0 0d ab 21 3e c6 89 a7 3d ff 7d e9 3d b7 7f fa bc
       0.15787907 0.08180575 0.11400985 -0.030578477
0000d0 e3 cc 8b be fe 0f cf bd b4 0f f4 3d e5 25 b9 bc
       -0.27304754 -0.10110472 0.11917058 -0.022601077
0000e0 b9 60 8d bd 23 cc 8d be 63 9a df 3d 66 8c ae bd
       -0.06903214 -0.27694806 0.10918119 -0.085228726
0000f0 7b fa 64 be dc de e2 3d c1 78 2a be 1c f0 4d 3c
       -0.22361176 0.11077663 -0.16647626 0.012569454
000100 d6 4d 01 3d f1 b5 a4 bd 03 9a 5f be 9c c3 a4 bd
       0.03156837 -0.08042515 -0.21836095 -0.08045122
000110 d7 86 ac 3e ab ad b8 bd 7f 21 70 be ba 4a bb be
       0.33696625 -0.090174995 -0.23450278 -0.3658045
000120 84 74 6a be e4 58 f6 bc 0f e3 a5 3e c5 92 6a 3e
       -0.2289601 -0.030071683 0.32399794 0.2290755
000130 56 7d 3c be f0 e7 81 be 63 f5 3c be 9e 9e 2d be
       -0.18407187 -0.25372267 -0.18452983 -0.16955039
000140 67 7a 82 be 1f d1 01 3f 5e 86 bd be 0c c6 bc bd
       -0.2548401 0.5070972 -0.37016577 -0.09217462
000150 f0 9e 1f be d4 57 1a be d9 11 2f be 37 9b 4b 3e
       -0.15587974 -0.15072566 -0.17096652 0.19883429
000160 51 1e 94 3e 17 9e 6a be 67 24 ae bd 57 65 82 3d
       0.2892938 -0.22911869 -0.08503037 0.06366985
000170 1d 6f 9c be 17 91 8d be 9b b5 a8 be 7b a5 b4 3e
       -0.30553523 -0.27649757 -0.32951054 0.35282502
000180 94 e8 1e 3e 8d a1 29 3e 62 67 cc bb 0c f4 65 3e
       0.15518409 0.16565533 -0.00623791 0.22456378
000190 28 76 fb 3d 5e ac f5 bd 54 88 0d 3e e9 0c 7d 3e
       0.12278396 -0.11995767 0.13821536 0.24711956
0001a0 3a 3d 75 be b4 45 7a bd 6e ad 96 3d e0 90 4c bd
       -0.23949137 -0.06110163 0.07357298 -0.04994285
0001b0 42 2e 85 3e 7f ed 48 bd 5a 25 55 be 86 03 a4 3d
       0.26011854 -0.04905462 -0.2081503 0.080084845
0001c0 fe 76 9b be 64 4f 20 bd f0 e9 1d bd 24 b6 73 be
       -0.3036422 -0.039138213 -0.03855318 -0.2379995
0001d0 71 aa 38 3d f6 8e 1c ba e3 6c 83 bd e7 f0 e1 3d
       0.04508442 -0.00059722306 -0.06417253 0.110322766
0001e0 52 74 72 3e ef 6b e6 3d 6a 44 ad bc 64 48 15 3e
       0.23677185 0.112510554 -0.021150786 0.14578396
0001f0 81 2b 6e be e8 58 7f 3e 79 17 bb 3d 58 67 fe 3d
       -0.23258783 0.24936259 0.091353364 0.12422055
000200 47 f0 e9 3d 29 6e c9 3e 76 46 06 3b 6d d0 ae 3d
       0.114227824 0.39341858 0.0020488775 0.08535848
000210 49 4a 48 3d d2 34 79 3d f7 a7 6e be 50 29 d9 3e
       0.04889897 0.06084139 -0.23306261 0.4241433
000220 35 65 a9 bd bb a4 2f 3c 3f 0f b5 bd 32 51 c9 3d
       -0.08271257 0.010720427 -0.088407986 0.0982994
000230 cb 8c ef bd b9 45 81 3e 26 48 6e 3d cb a8 a1 be
       -0.11696776 0.25248507 0.058174275 -0.3157409
000240 d3 4e a8 3d 2f 73 b6 3d 7a 86 42 bd 8f e7 15 be
       0.082181595 0.08908688 -0.047491528 -0.14639114
000250 b6 a0 35 3e 60 2e 16 3e 8d 87 18 be 09 cf 1f 3d
       0.17737088 0.14666128 -0.14895459 0.039015803
000260 7b bf d2 3c 5f 37 1f bd 04 60 1a be 0d aa 08 be
       0.02572607 -0.038871165 -0.1507569 -0.13346119
000270 9c 8d ba 3c 84 37 e0 3d 43 f6 88 bc ab 9a 91 3c
       0.022772603 0.10948089 -0.01671899 0.017773947
000280 8a 0a c5 bd af 89 c4 bd d7 d8 f2 3d 4d 36 57 3e
       -0.09621151 -0.095965736 0.11857765 0.21016808
000290 7e 29 b3 bd 4d c6 7b 3c 00 fb 28 3e 8f 48 3a be
       -0.087481484 0.015367103 0.16501999 -0.18191741
0002a0 d1 32 8c bd 68 37 44 3d 83 5c 53 bd 1b 23 d5 3b
       -0.0684563 0.047904402 -0.051601898 0.006504429
0002b0 7e a7 7b 3d 45 ba a6 bd bf a9 53 be 0d 25 14 be
       0.06143903 -0.08140997 -0.20670222 -0.14467259
0002c0 27 d4 a6 3e 67 f6 c2 bd 6f 8b 8f bd 4d 1b ae 3d
       0.32583734 -0.09519654 -0.07009017 0.08501301
0002d0 58 d9 60 3d 37 fe 6f bb e9 0c 56 3d 6d 90 98 3d
       0.054894775 -0.003662003 0.052258406 0.07449422
0002e0 ab a0 84 3d 8e 84 5b 3e dd e2 e0 bc 23 09 3a bd
       0.064759575 0.21437284 -0.027451927 -0.04541887
0002f0 48 48 2f 3d c7 01 68 3e 79 f4 0d bd e0 dd 1b 3d
       0.042793542 0.22656928 -0.034656975 0.038053393
000300 a4 a6 a9 3d 10 99 11 3e 90 4b 88 3d fc 31 9b be
       0.08283737 0.14218545 0.066550374 -0.30311573
000310 8a 0e 60 3e 02 ad a4 3d 87 4f 1d be ff 55 87 be
       0.21880546 0.08040811 -0.15362369 -0.26432797
000320 82 4b 8b bb 57 60 33 be 38 64 37 be 76 e5 fc bd
       -0.0042509446 -0.1751722 -0.17909324 -0.12348454
000330 9b 48 5f 3e be 07 31 3c 44 be 1a bd 3f d2 31 be
       0.2180504 0.010805069 -0.037779108 -0.17365359
000340 ad 41 90 3e d2 d8 9d be d8 94 4a be 56 b2 87 3e
       0.28175107 -0.30829483 -0.19783342 0.26503247
000350 73 5f cd bd ca f8 fc bd e7 1b 21 be 4e 52 b7 be
       -0.10027971 -0.1235214 -0.157333 -0.3580498
000360 c7 6a b8 be 3f 69 77 3d d7 14 fc 3d eb a7 4f 3c
       -0.36018965 0.060403105 0.123086624 0.012674312
000370 da b5 ba 3d 5b cd 03 be 3a e7 81 3d 9f b1 7b 3e
       0.09116717 -0.12871306 0.06342931 0.24579476
000380 07 cf 52 bd ce bf 92 3e 4d 31 ef bd fa 88 e8 bd
       -0.051466968 0.2866196 -0.11679325 -0.11354251
000390 d7 24 0e be 8c e3 0e 3e 33 66 61 be 13 b2 f0 3d
       -0.13881241 0.1395399 -0.22011642 0.11752715
0003a0 22 99 22 be a1 9c 8f 3d 2c be 29 be 22 46 fb 3e
       -0.15878728 0.070122965 -0.16576451 0.49076945
0003b0 86 43 a2 be a6 17 ae 3e 69 f0 d0 3d 77 3d 4f 3e
       -0.3169214 0.34002417 0.102021046 0.2023829
0003c0 dd 8a 3e be 96 09 a5 3e 55 2f 16 bd 87 db 1c be
       -0.1860766 0.32233876 -0.036666233 -0.15318118
0003d0 87 22 ff bd 03 77 bc 3e ae 7d 64 3d 03 e3 85 3d
       -0.124577574 0.3680955 0.05578392 0.0653744
0003e0 06 d6 35 3b bb 0e 86 3e 0c ca bf 3c fe 9f 95 3d
       0.0027745976 0.26183113 0.023411773 0.07305907
0003f0 dd ca c7 bd 03 4f 3d be 02 af 5f be 55 85 3d bc
       -0.0975549 -0.18487172 -0.21844104 -0.011567433

weight_hh_l1 f4 [150, 50]
000000 6e bb 28 3f 56 99 e0 bd c4 fd 39 3d bd bf 27 be
       0.65910995 -0.109667465 0.045408025 -0.16381736
000010 7b 5e 2f be f4 c3 21 3f c0 0f dc bd cb 7d 2b bc
       -0.17125885 0.63189626 -0.107451916 -0.010467003
000020 41 17 45 3e 85 0e 6c 3c 0a 18 d6 bb b9 69 0e 3d
       0.19247152 0.014407759 -0.0065336274 0.034768794
000030 cf f5 bb 3c 04 38 36 bf 83 78 8e bb ad 41 27 be
       0.02294436 -0.71179223 -0.004347862 -0.16333647
000040 6e a1 52 3d 74 a4 97 3e 7d e9 ad 3d 01 ef bc be
       0.051423483 0.29617655 0.084918 -0.36901096
000050 96 9a 50 3e d8 79 d3 3e 24 46 58 3c bd 4a 1a 3c
       0.2037147 0.41303897 0.013200317 0.009417233
000060 47 cd f4 bd 16 26 7a be eb f1 9e be cf 44 b1 3e
       -0.11953216 -0.24428591 -0.31043944 0.3462281
000070 36 cb 8f 3e 15 bf cf 3b 0e 08 78 3e 3d 00 0c bd
       0.28084725 0.0063399174 0.24221823 -0.034179915
000080 c1 08 4f be 86 81 bd bd b4 5c 85 bd 1d 62 3d be
       -0.20218183 -0.0925322 -0.06511822 -0.18494458
000090 47 e4 b0 be 37 c9 82 bc 2a e9 90 3e b9 78 2f 3d
       -0.34549162 -0.015965087 0.2830289 0.04283974
0000a0 38 54 60 3e d2 5a 6d be c6 da 21 bc ff 95 d7 bd
       0.21907127 -0.23179176 -0.00987882 -0.10526656
0000b0 b3 d4 25 3e 7f 73 b9 3e 7c b3 d5 3e 62 7a 1a 3e
       0.1619442 0.3622093 0.41738498 0.15085748
0000c0 dd 3b c2 bd bf 4c 08 be 29 64 7e be aa e5 e3 be
       -0.09484074 -0.13310526 -0.24842896 -0.44511157
0000d0 c8 be 13 3d a4 4e fb be 65 5c 36 3c fe 3d 02 be
       0.036070615 -0.49083436 0.011130427 -0.1271896
0000e0 94 fb d6 be c9 5e 14 3e 5a 8e 9e be a4 92 99 3e
       -0.41988814 0.14489283 -0.3096798 0.2999469
0000f0 75 a7 d1 be 3e e9 41 be 56 c8 6e 3e c7 72 12 3e
       -0.40948072 -0.18936631 0.2331861 0.14301597
000100 7f 34 54 be 8e 4a 45 3d e3 c7 a9 be e5 5c 08 3e
       -0.2072315 0.048166804 -0.33160314 0.13316686
000110 e9 aa 3b 3e 60 99 cc be d0 6e c8 3e 17 37 9f be
       0.18326916 -0.39960766 0.39147043 -0.31096718
000120 47 62 07 be d8 71 81 3e b5 e6 17 3e a5 00 7a 3d
       -0.13221084 0.25282168 0.14834101 0.06103577
000130 90 cb 13 bd 14 76 40 3e eb 0f 0e 3e a9 6f a6 be
       -0.036082804 0.18795043 0.1387326 -0.32507065
000140 9d b2 fb 3e 9f 10 13 bf 23 6d cf be 13 b2 60 bd
       0.4915971 -0.57447237 -0.40512952 -0.054857325
000150 cc 6c a8 be 9a e8 b0 be 8c 72 74 3e 30 92 92 bd
       -0.32895505 -0.3455246 0.23871821 -0.07156789
000160 6b 68 14 bd b0 17 97 3d 28 9f d5 bc b0 f8 8f be
       -0.036232393 0.07377565 -0.026076868 -0.2811942
000170 c5 d1 2b 3e c2 65 1f bb 2a d1 94 3d ef de ee 3e
       0.1677924 -0.0024322127 0.072664574 0.4665446
000180 37 1c 96 3d 5f 2c 40 be 63 41 14 bd 11 f4 19 3e
       0.073296 -0.18766926 -0.03619517 0.1503451
000190 b7 2f 8b 3d 4a fc e0 bc 54 c4 34 bf 7a 2f a6 bd
       0.0679621 -0.02746405 -0.7061207 -0.08114524
0001a0 3a d5 44 3c e1 32 55 3e db fb 1d 3d f7 90 97 be
       0.012013728 0.2082019 0.038570266 -0.29602787
0001b0 81 f1 84 3d d7 62 8c be 6e 06 62 be 51 93 8f 3e
       0.06491376 -0.2741916 -0.22072765 0.2804208
0001c0 c6 4b 0e bd cc cb 99 bd bf 9a be be 71 9e 3a be
       -0.034740232 -0.07509574 -0.37227437 -0.18224503
0001d0 3c 3f 78 be 66 06 94 3d 1f 5b 69 bd e2 cb 70 3e
       -0.24242872 0.07227783 -0.056971665 0.23515275
0001e0 bd 90 f1 be 9e 28 0f 3e ad 04 18 be 03 43 02 3c
       -0.4718074 0.13980338 -0.14845534 0.007950547
0001f0 18 2b e1 3b 94 aa 7a 3c 19 68 23 3e c8 63 f3 be
       0.0068715923 0.015299458 0.15957679 -0.47537065
000200 04 53 f4 3d a1 eb 9f 3b 43 c8 2b be fc f7 82 be
       0.119298965 0.004880384 -0.16775613 -0.25579822
000210 29 99 60 be 65 70 72 be f8 cd e4 3d ed 8c 91 3e
       -0.21933426 -0.23675688 0.11172098 0.2842783
000220 00 42 6c 3b 91 2d 56 be b9 eb 35 3d 7c 9c b1 3e
       0.0036050081 -0.2091582 0.044414256 0.346897
000230 6a 3c 53 3d fb 07 6e be 6c 87 41 bd 82 3d 51 be
       0.051571287 -0.23245232 -0.04724829 -0.2043362
000240 c0 d6 b6 3e b2 4f 8d be 5e df 3f 3e ee 46 e9 3d
       0.35710716 -0.27599865 0.18737552 0.11390482
000250 64 e2 56 3d c3 f6 5b be e3 29 91 ba be 72 be be
       0.052461997 -0.21480851 -0.0011075105 -0.37196916
000260 52 c7 f8 3d 5d ba 3a bf 84 d7 fc bd 24 bc b2 bd
       0.12147392 -0.7294062 -0.12345794 -0.08727291
000270 23 05 89 be 1f 88 ad 3e 62 04 45 be d4 5b 3a 3e
       -0.26761732 0.33892915 -0.19239953 0.18199092
000280 9b f6 26 3e 16 92 67 bd e9 b5 14 3c 58 75 44 be
       0.1630501 -0.056535803 0.009076574 -0.19185388
000290 f7 d0 92 bc 9a 81 12 be 48 ef 69 be 70 04 e8 3d
       -0.017921908 -0.14307252 -0.22845185 0.113289714
0002a0 a4 09 f8 3e a7 3c 7e be ce 38 9f 3d 5a e3 27 3e
       0.48444855 -0.24827825 0.077745065 0.16395321
0002b0 6e 12 09 be 63 75 1d 3d 82 d9 1e 3e 9c 00 e4 bd
       -0.13385937 0.038442027 0.1551266 -0.11132929
0002c0 0b 17 bc be 67 a8 b9 3e 0c 1b eb bb 9e 44 3f bd
       -0.3673633 0.36261293 -0.007174855 -0.046696298
0002d0 ef 8b 25 3f ca ec bd bd 57 4a 52 be a8 f7 cd bd
       0.64666647 -0.092736796 -0.20536171 -0.10057002
0002e0 ed cf 98 bd 0f 1f 17 be 3c bb a1 bd 0c ef be be
       -0.07461534 -0.14757942 -0.0789704 -0.37291753
0002f0 16 65 d4 bd 2d e7 b7 3d a5 a0 01 3e 91 55 81 be
       -0.10370843 0.0897964 0.12658937 -0.25260594
000300 fe 7e 9d 3d 9a 50 e2 3d 12 e5 81 be 01 97 71 3e
       0.076902375 0.1105053 -0.2537008 0.2359276
000310 fb ca 68 3e a5 16 ac 3a 81 25 04 be f9 d9 23 3f
       0.22733681 0.0013129307 -0.12904932 0.64004475
000320 f6 68 a3 bd 5e 90 71 be 2f 6c aa be fc 72 85 bc
       -0.07979004 -0.23590228 -0.33285663 -0.01629018
000330 d9 59 4e 3c a1 f1 3b 3e 12 26 ad bd 24 ea b5 bd
       0.012594664 0.18353893 -0.08454527 -0.088825494
000340 0f 62 a3 bd ca 30 02 3d 70 f4 0a be 21 9f 7a 3e
       -0.079776876 0.03178481 -0.13569808 0.24474765
000350 47 b4 c3 bd 57 59 7f be 72 af 56 be a3 d4 a5 3e
       -0.095558695 -0.24936424 -0.20965365 0.3238879
000360 c2 a8 08 3c 5b a3 bc 3d 7d 59 29 be 17 9e cd 3d
       0.008341016 0.09210845 -0.16538043 0.10039919
000370 44 dc 88 be aa c9 02 3e b9 1f 8f 3c 8b dc 83 3e
       -0.2673055 0.12772241 0.017471181 0.25754198
000380 b4 9b a8 bd 84 32 27 bf 9b 6e 5f 3d 96 5a 81 be
       -0.08232823 -0.65311456 0.05454884 -0.25264424
000390 ae d4 be 3c 82 c6 28 be 5f d9 23 3e 8e ba b3 bd
       0.023294773 -0.16481975 0.16000889 -0.08775817
0003a0 81 0a bb bd bb 65 3e bf f7 21 ad 3d 06 0d ef 3d
       -0.09132863 -0.7437398 0.08453744 0.11672406
0003b0 34 cc 6d be 41 6a 91 be 29 5e f5 bc 79 3a 1c bd
       -0.23222429 -0.28401378 -0.029952126 -0.0381417
0003c0 43 50 db be 99 25 c7 be 61 ab d5 3c 98 c7 17 3e
       -0.42834672 -0.38895872 0.026082696 0.14822233
0003d0 6f c1 7b bc f6 8b 9d be b9 31 c0 be 76 47 f9 bb
       -0.015365942 -0.30770844 -0.37537935 -0.0076073958
0003e0 14 2f b0 bd 4e a4 3b be 65 c1 ca 3e f9 11 86 be
       -0.086027294 -0.18324396 0.39600673 -0.26185587
0003f0 22 52 1e be 70 b0 ce bd 94 6a a4 3e fa 60 e4 3e
       -0.15461019 -0.100922465 0.32112563 0.44605237

bias_ih_l1 f4 [150]
000000 82 bf 88 3e 8a 0f 6a 3c a5 55 7c 3e 78 38 a8 bc
       0.2670861 0.014285931 0.24642046 -0.020534739
000010 d1 d6 97 3e 62 0e 2e 3d fc 8a eb 3e 18 1d 3d be
       0.2965608 0.042494185 0.46004474 -0.1846813
000020 0e 35 4a 3e cd f6 8a 3c ec 42 d8 3d 41 93 d6 bc
       0.19746801 0.016963387 0.10559639 -0.026193263
000030 dd 17 a2 bc aa c1 08 3e 36 f0 fd 3d 87 a2 b3 3d
       -0.01978677 0.13355127 0.12399332 0.08771234
000040 25 f0 84 3e be 15 98 3d d3 c9 de bc 98 63 0f 3e
       0.25964466 0.07426022 -0.027195847 0.14002836
000050 25 ec 81 3e 24 a6 42 3e 04 a5 c6 3c 56 c0 46 3d
       0.25375476 0.1900869 0.024248607 0.04852327
000060 a0 9a 5d 3d ed 8a 36 3e e3 7e 3b 3e b4 ef 65 bc
       0.05410254 0.17826433 0.18310122 -0.0140342
000070 a5 d4 99 3c c1 05 42 3e 7c 2f d4 3d 63 89 84 3d
       0.018778155 0.18947507 0.103606194 0.06471517
000080 77 2c c9 3e f3 50 e3 bd e0 9e b3 3e bd 25 60 be
       0.39291736 -0.11099424 0.3508215 -0.21889396
000090 0f 8c 07 3e 04 7a 8b 3e 01 2d 2a 3e bb 4f f3 3d
       0.13237022 0.27241528 0.1661873 0.11880442
0000a0 21 eb 72 3e 9a e3 89 3e fc 19 b6 bd c4 ee 19 be
       0.23722507 0.2693146 -0.08891675 -0.15032488
0000b0 4f 20 e1 3d 47 8c db bd 48 cc 9e 3e 41 cd 1e 3f
       0.109924905 -0.10720115 0.3101523 0.6203194
0000c0 86 7e 6d bd 71 95 33 3e 7f 3e c7 bd f9 3e 39 3e
       -0.05798199 0.17537476 -0.09728717 0.18090428
0000d0 48 a3 4c 3d 3e 6f 8d bd 5c ec 98 3d d7 c0 83 3e
       0.049960405 -0.069059834 0.07466957 0.25733063
0000e0 aa bd 4b 3d a6 d7 59 3e b6 eb bd be 4e b5 84 3e
       0.049741425 0.2127367 -0.37093896 0.25919574
0000f0 98 64 02 3d 36 f0 2a 3a 5e e1 6f 3e 4e 1b 51 3e
       0.031834215 0.00065207796 0.23425815 0.20420572
000100 aa 89 69 be 80 a6 41 be 70 68 2f bf b0 30 47 3c
       -0.22806421 -0.18911171 -0.68518734 0.012157604
000110 a3 60 34 3e 41 1d d6 bd c3 f2 44 3e fc 4a d4 be
       0.17614989 -0.104547985 0.19233231 -0.4146346
000120 f2 ae 03 3e ce 14 9b 3c 52 35 09 3e 4b 48 6d be
       0.12859705 0.018930819 0.13399246 -0.23172109
000130 b2 bb c3 3c d8 e1 96 be 71 e8 e6 3e b7 ec b3 3d
       0.023893211 -0.2946918 0.45099214 0.08785384
000140 05 3d 00 3f 1c 85 c8 3e 52 e0 72 3e 8d 63 4c be
       0.5009311 0.39164054 0.23718384 -0.1995985
000150 ea e1 2d bf 88 c4 43 3e fd a6 51 3e c5 42 02 3e
       -0.6792284 0.1911794 0.20473857 0.12720783
000160 0b d7 37 3e 3d 6c 29 3d f0 db 31 bf 4e 88 a9 be
       0.17953126 0.04136299 -0.69476223 -0.33111805
000170 21 14 26 3e 8e 93 a5 3e b2 99 24 3e 87 e9 73 be
       0.16218616 0.32339138 0.16074255 -0.23819552
000180 9c be 13 bf 99 6a 33 bf b7 ec 8e 3e 63 f7 53 3e
       -0.5771272 -0.7008453 0.27914974 0.2069984
000190 98 32 f8 bd 08 34 18 bd bb c2 63 3e 5e a4 ed bc
       -0.12119025 -0.037158996 0.22242253 -0.02900904
0001a0 c3 8a 94 be c7 30 80 bd 00 0e 2c bd 8a 22 5a bd
       -0.29012117 -0.062593035 -0.04200554 -0.053255595
0001b0 bb af d2 bd 16 6c 2e 3d 83 d6 d4 bd ca ca b0 3b
       -0.10287424 0.042583548 -0.10392477 0.005395268
0001c0 a5 9f 93 be b0 28 f7 3d 95 e6 7a be 5e a7 ac bc
       -0.28832737 0.120683074 -0.24502023 -0.0210759
0001d0 9e be 6a be 58 47 01 3d 48 4b 9c 3e d6 9e 71 3d
       -0.22924277 0.03156218 0.30526185 0.05898937
0001e0 72 1e 68 be 5e 70 00 3c c2 3c 87 bd fb 2c 2e be
       -0.22667864 0.00783929 -0.066033855 -0.17009346
0001f0 99 fd 0f 3e c0 ec 02 3e 31 5d 58 be 0a 47 c9 3e
       0.14061584 0.12785625 -0.211293 0.3931201
000200 21 12 da 3d 0d 54 da 3d ba 3b 35 bc c0 ec b1 bd
       0.10647989 0.10660563 -0.011061603 -0.086877346
000210 92 56 e8 bd af 8f 35 bd 87 71 24 bf aa c5 4f 3e
       -0.11344637 -0.04432648 -0.6423573 0.20290247
000220 a1 e2 b9 bd d4 f0 82 3b c7 64 00 be ff c6 83 3e
       -0.09076429 0.003995994 -0.12538444 0.2573776
000230 56 a9 bd bd be d2 73 be 3d d7 b1 3e f6 d3 ca bc
       -0.09260814 -0.2381086 0.34734526 -0.024759274
000240 88 91 5b bd 59 14 80 3e e4 c7 6f be 1b 16 ab be
       -0.053605586 0.25015524 -0.23416096 -0.33415303
000250 bf 0f a9 3c d2 ec b5 bb
       0.020637391 -0.005551913

bias_hh_l1 f4 [150]
000000 e5 6c 81 3e a4 67 5c 3e 65 09 70 3e 41 6f 31 3d
       0.25278392 0.21523911 0.23441084 0.04331899
000010 7a 75 97 3e 26 40 ab 3c 4d e0 aa 3e 9f fb c3 bc
       0.29581815 0.020904612 0.33374253 -0.023923693
000020 48 dd d1 3e ad 29 46 3d da 1c 17 3e 18 0a 7d 3e
       0.40989137 0.04837959 0.147571 0.24710882
000030 82 ac 29 3e 73 04 cd 3c 7b 61 c1 3e 5b f2 71 3d
       0.16569713 0.025026536 0.37769684 0.05906902
000040 1e cb 48 3e 13 6b f8 3b d8 ec 27 3e ec db b0 bd
       0.19608733 0.0075811236 0.16398942 -0.08635697
000050 e6 34 93 3e c8 03 f0 3d dd df 43 ba 37 8c 1f 3c
       0.28751296 0.11719471 -0.0007472018 0.00973802
000060 60 07 4d 3e 3a f8 d3 bc 6e a8 4b 3e b2 1e 9d bd
       0.20022345 -0.0258752 0.1988847 -0.0767187
000070 41 90 0f ba f3 a5 45 3c a7 12 44 bd f0 0e e0 bd
       -0.00054765126 0.012063491 -0.04786935 -0.10940349
000080 f1 65 e8 3e 2c 8b aa 3d 91 b4 ff 3e a2 fa 38 be
       0.45390275 0.08327326 0.4994245 -0.18064359
000090 a4 6d 9a bc 75 60 cd 3c 28 0d 78 3e 60 51 95 3d
       -0.018851109 0.025070408 0.24223769 0.07290912
0000a0 ee fd bb 3e 21 17 a7 3e d2 43 bd bd b8 2d b1 3d
       0.3671717 0.32634833 -0.09241451 0.08651298
0000b0 18 f2 ee ba 65 74 bb 3d 57 78 ac 3e 94 9b af 3e
       -0.0018230109 0.0915306 0.33685562 0.34298384
0000c0 59 58 9a 3c 79 34 a0 3d 33 ab b8 bd a1 a0 01 3e
       0.018840956 0.07822508 -0.09017029 0.12658931
0000d0 c9 d1 37 3d e6 ec 0e be ea 3a 95 3d 0c 49 ae 3e
       0.0448778 -0.13957557 0.072866276 0.34040105
0000e0 7a 47 9a 3a 34 87 62 3e e4 f1 ac be fa 89 9a 3e
       0.0011770569 0.22121888 -0.33778298 0.30183393
0000f0 0c 9e 67 3e 2c 92 83 bd 37 e0 04 3e 78 c7 23 3e
       0.22618884 -0.064243644 0.12976156 0.1599406
000100 e7 1f 98 be 0b b2 ba be ee a5 2c bf ec c2 da 3d
       -0.2971184 -0.3646396 -0.6744069 0.1068171
000110 33 63 25 3e f8 91 97 bd d3 16 4c 3e fa 48 36 be
       0.16151123 -0.07400888 0.19930582 -0.17801276
000120 1b e2 52 3e 85 6a b5 bd 63 f3 81 3e cd 76 56 be
       0.20594065 -0.088582076 0.25381002 -0.20943756
000130 ba 88 dd bd 0f 9d ea bd e6 4d a5 3e ab ef 30 3e
       -0.10817094 -0.11455738 0.32285994 0.17278926
000140 07 8d b9 3e 60 ba cd 3e b5 6a 4b 3e 3b 2c 43 be
       0.36240408 0.40181255 0.19864924 -0.19059841
000150 fa e2 14 bf 74 50 19 3e 44 1f 81 3e a4 c3 9e 3e
       -0.5815884 0.14972097 0.25219166 0.31008637
000160 7e f5 a0 3e 2d 5d 10 3e 3c 31 02 bf 05 7e 06 be
       0.31437296 0.14098044 -0.50856376 -0.1313401
000170 a0 2c 7c 3d 54 7f 25 3e fc 49 bc 3e 09 37 3c be
       0.061565995 0.16161853 0.36775196 -0.18380369
000180 a9 ba 33 bf 5e e0 42 bf 30 a0 93 3e 66 6c 8f 3e
       -0.70206696 -0.7612361 0.2883315 0.2801239
000190 18 57 54 be 3d e3 80 3d 11 32 c0 3e 3b 75 d2 3d
       -0.20736349 0.06293342 0.37538198 0.10276266
0001a0 1e c4 5b be 90 48 80 3d e6 c2 46 be d3 44 2f 3e
       -0.21461532 0.0626384 -0.19410285 0.17116098
0001b0 92 c3 13 be 47 41 0f 3d 43 69 68 be 11 ac 5f bd
       -0.14430073 0.034974363 -0.22696404 -0.054607455
0001c0 80 73 24 bc cd ed 85 3c f1 f8 06 bf 79 83 97 bd
       -0.010037303 0.016348744 -0.52723604 -0.07398123
0001d0 43 b9 bf be 40 ca 04 3e 89 33 0e 3e a5 01 67 bd
       -0.3744603 0.12967777 0.13886847 -0.056398053
0001e0 23 6b a4 be 02 e9 17 bf 2c 31 a5 3c 7d d1 bd bd
       -0.3211299 -0.59339917 0.020165049 -0.09268472
0001f0 75 17 33 3d a6 96 a9 3c 69 bf 79 be ad ce 5f 3e
       0.043723542 0.020701718 -0.24389423 0.21856184
000200 55 d3 02 bd 8e a8 23 be 22 88 26 3e 5c 30 c9 bd
       -0.031939823 -0.15982267 0.16262868 -0.09823677
000210 e9 60 bc 3d 4d 20 e9 bd 1e d0 37 bf 09 f1 27 bd
       0.09198172 -0.11383114 -0.71801937 -0.041001353
000220 2e 82 39 3e 82 0c 14 3e 69 29 99 bd 7f 68 be 3e
       0.18116066 0.14457896 -0.074786015 0.371891
000230 5c e5 2b bf a5 ad ca be 89 16 24 3e 9a 1c 7f bb
       -0.6714685 -0.39585605 0.16024221 -0.003892696
000240 43 21 74 be ba 57 1f 3e ef a5 65 bd 51 cc c3 be
       -0.23840813 0.15560809 -0.05606645 -0.3824182
000250 21 5e e8 bd 45 4b cc bd
       -0.11346079 -0.09975294
