Models_mario/Mario Bias_exp0_NS_classifier.pth (torch, 10845 bytes, 6 tensors)

weight f4 [3, 1, 7, 7]
0.08210555 -0.013490259 0.04173508 0.21070361 0.2569702 0.22593737 -0.00023230904 0.20997117
0.024371745 -0.0018685336 0.20492625 0.13875231 -0.0028427236 -0.019499967 0.09537787 0.067674994
0.03517629 0.015378013 0.07283883 0.12497972 0.11302419 0.25482014 0.287724 0.14226444
0.05729934 -0.040386178 0.1933759 0.14963186 0.20463446 0.117960475 0.09254966 0.08403583
0.14635952 0.14957146 0.11923446 0.00046768723 -0.046847723 0.046489656 0.13293226 0.0399357
0.15948495 -0.061509468 0.084165394 0.037930835 -0.08813084 0.11462447 -0.02514882 0.14301318
0.1264613 -0.06811618 0.20340842 0.1924706 0.23870434 0.18818861 0.04280185 0.009569975
0.055336095 0.04259533 -0.026723303 0.17123088 0.04809568 0.14470665 0.069257066 0.1850766
0.0823645 -0.0804874 0.0908699 0.070674576 0.03154029 0.22267264 0.08417412 0.014778764
-0.07609949 0.20194387 -0.048592873 0.07366493 0.1614043 -0.09624474 0.11538226 0.22378337
0.009285172 0.030507457 -0.05014354 -0.0573945 0.0002475878 0.18633372 0.09523823 -0.0050510694
0.21628945 0.14713202 0.2592988 -0.09909199 -0.05275624 0.10572184 -0.023724824 -0.018732486
0.21126351 -0.024659675 -0.09118776 0.07324247 0.10409298 0.18666367 -0.0052497825 0.030584732
-0.07862072 0.04044823 0.03404423 0.00047715212 0.17657854 0.052376553 0.010113504 -0.028308066
-0.04024568 -0.014081795 0.08313028 0.17823319 0.075684026 0.16977665 -0.021130946 0.0856775
-0.10419805 0.11871628 0.09040262 0.11438443 -0.06802601 0.143216 -0.035290197 0.024813764
0.1294025 -0.08197812 0.15473822 -0.03672685 -0.112186365 -0.07296599 -0.090693735 0.14196163
0.12503476 -0.043876335 0.080122896 0.07657701 0.018952115 0.108218685 -0.07128293 0.18537688
0.1769697 0.031041782 -0.009326266
00000000: f426 a83d 3f06 5dbc 67f2 2a3d b0c2 573e
00000010: 9991 833e 205c 673e fc97 73b9 af02 573e
00000020: 41a7 c73c 95e9 f4ba 30d8 513e 1615 0e3e
00000030: fd4c 3abb 65be 9fbc 7955 c33d 3099 8a3d
00000040: 0315 103d 10f4 7b3c 862c 953d 5ef5 ff3d
00000050: 3a79 e73d c977 823e 8f50 933e c5ad 113e
00000060: b6b2 6a3d fa6b 25bd 5504 463e 1839 193e
00000070: b28b 513e 4395 f13d ad8a bd3d fa1a ac3d
00000080: 45df 153e 4329 193e 3231 f43d eb33 f539
00000090: 66e3 3fbd f06b 3e3d 651f 083e 9e93 233d
000000a0: 0650 233e 5af1 7bbd e85e ac3d 5d5d 1b3d
000000b0: f17d b4bd 3cc0 ea3d e604 cebc 0c72 123e
000000c0: 127f 013e 7f80 8bbd 4c4a 503e 0317 453e
000000d0: e96e 743e 84b4 403e fe50 2f3d 62cb 1c3c
000000e0: 1aa8 623d 7178 2e3d d4ea dabc 2657 2f3e
000000f0: faff 443d fb2d 143e a6d6 8d3d b884 3d3e
00000100: b8ae a83d 94d6 a4bd 001a ba3d d5bd 903d
00000110: 6430 013d 4c04 643e 7b63 ac3d a122 723c
00000120: 0dda 9bbd 60ca 4e3e 5209 47bd a4dd 963d
00000130: 2b47 253e f61b c5bd 894d ec3d 7827 653e
00000140: d620 183c c6ea f93c 5063 4dbd 7f16 6bbd
00000150: acce 8139 44ce 3e3e 430c c33d 7183 a5bb
00000160: fb7a 5d3e c7a9 163e d0c2 843e bef0 cabd
00000170: ed16 58bd b184 d83d 905a c2bc df74 99bc
00000180: 7655 583e 1603 cabc a6c0 babd 2600 963d
00000190: b32e d53d c324 3f3e 5e06 acbb d58c fa3c
000001a0: e603 a1bd 0bad 253d f671 0b3d 462a fa39
000001b0: 01d1 343e cc88 563d 1cb3 253c 51e6 e7bc
000001c0: a7d8 24bd 54b7 66bc 3540 aa3d c382 363e
000001d0: 3a00 9b3d eed9 2d3e ce1a adbc af77 af3d
000001e0: ca65 d5bd 8521 f33d 0225 b93d 6242 ea3d
000001f0: 3951 8bbd 37a7 123e 748c 10bd 3c46 cb3c
00000200: 1782 043e 25e4 a7bd b273 1e3e e56e 16bd
00000210: f7c1 e5bd 316f 95bd a3bd b9bd 645e 113e
00000220: 1d09 003e acb7 33bd 7917 a43d 68d4 9c3d
00000230: 7741 9b3c c2a1 dd3d c9fc 91bd 70d3 3d3e
00000240: 8c37 353e 564b fe3c 32cd 18bc

bias f4 [3]
0.040115263 0.12175179 -0.014077597
00000000: e74f 243d 0159 f93d b9a5 66bc

weight f4 [6, 3, 7, 7]
0.057584323 0.0503427 0.052687153 0.13795432 0.051048614 -0.021123465 0.0546774 -0.031091753
-0.031903602 -0.009182793 -0.024103176 -0.02396299 0.013404362 0.043570798 0.040986985 0.047108807
0.054271113 0.085570805 0.030418668 0.024610186 0.010388009 0.044770412 0.025847139 0.023402398
0.1128288 0.01821557 0.093288556 0.06455249 0.11541872 0.11287495 -0.044511262 -0.026223147
-0.04112645 -0.053634565 0.013635012 -0.027572041 0.05289033 -0.012362991 0.07928957 0.11522006
0.035634533 0.05217161 -0.03619413 -0.011542271 -0.0042021987 0.066823065 0.03458104 0.030026237
-0.029072668 0.14482069 -0.072078176 0.20887598 0.23019877 0.00872424 0.15306862 0.11646364
0.07194488 -0.03292084 -0.00031447044 0.07992541 0.16430786 0.1028042 0.087450646 0.049499303
0.0072477655 0.14460061 0.16752298 0.077891484 0.14884743 0.13733554 0.06479382 0.025492465
0.08236289 0.030663583 0.01487812 -0.02417556 0.04165824 0.0679276 0.073186025 0.08815538
0.039227046 0.14364481 0.079011776 0.047498755 0.087007366 0.14693987 0.09254294 0.010790913
-0.009465333 -0.027047968 0.1681192 0.12892482 0.03629905 -0.024042757 0.13779068 0.14005516
-0.0033186665 0.17165273 -0.03620552 -0.02742443 0.055098042 0.12364411 0.05758502 0.11890533
-0.01598763 -0.03837114 0.0151886055 0.099267714 0.040162563 0.11764384 0.1368289 0.038324527
0.069962874 -0.016620554 -0.012221244 0.011966588 0.01576964 -0.00061717466 0.038775012 0.06976022
0.09770078 -0.06802722 -0.0031657603 0.003584566 -0.021601778 -0.036766004 0.08680244 0.068925835
-0.04433864 0.024458032 0.049466096 -0.049944174 -0.0784907 0.040962845 0.016811222 0.040163238
-0.052226923 0.07299007 -0.00847225 0.097638406 0.018619668 -0.0042503756 0.10464605 0.080541536
-0.025096362 -0.035228845 -0.03741953 -0.004082205 0.04205838 -0.09159507 0.09775207 -0.019082228
-0.02930327 0.0026027681 0.08865469 0.055790544 -0.03304178 0.077458985 0.024547707 -0.05020102
0.03949559 -0.001042398 -0.007671982 0.04847951 0.023010625 -0.06276148 -0.027774572 0.030072542
0.07962168 -0.03740878 0.07368503 -0.035384834 -0.008151665 0.016568912 -0.07445105 0.114633106
0.040945902 0.06678759 -0.04805268 0.04066894 -0.07766936 -0.07204801 -0.041498344 0.029586665
-0.011366962 0.09446372 0.023521733 0.035613474 0.023723437 -0.003988941 0.13036169 0.025903137
0.023799585 -0.026401859 -0.0304243 0.0017587423 0.13151404 0.09050029 0.082943015 0.031352185
-0.05421811 -0.07019184 0.08532213 -0.019185945 -0.059997156 0.042873565 0.06313582 0.15570256
0.02222045 0.063152306 0.008191014 -0.05602391 0.091136925 -0.028819567 -0.006129268 0.24382514
-0.040599607 0.096159205 0.021614889 -0.0025861333 -0.006311687 0.0039585736 -0.10793075 -0.040579658
0.1667927 0.07777689 0.026333025 -0.0037837396 0.081029594 -0.06662905 -0.005223876 0.013311694
0.108799316 0.008188103 0.072249785 -0.002789543 0.008122759 -0.0613077 0.09099093 0.020303752
-0.024724731 0.023305451 0.004690868 -0.0039970553 -0.07388745 0.06657818 -0.036898676 -0.04147067
-0.06082591 0.09788182 -0.059647746 0.015900634 0.034158204 0.006222119 -0.028432045 -0.058640637
00000000: 8add 6b3d 2634 4e3d 7cce 573d e643 0d3e
00000010: 5a18 513d 1e0b adbc 69f5 5f3d 22b4 febc
00000020: 5aad 02bd 6d73 16bc 0674 c5bc 084e c4bc
00000030: f89d 5b3c 4b77 323d f8e1 273d 2af5 403d
00000040: 634b 5e3d bf3f af3d 9230 f93c 4d9b c93c
00000050: 7832 2a3c 2e61 373d 61bd d33c 63b6 bf3c
00000060: c912 e73d d238 953c 120e bf3d 1934 843d
00000070: a660 ec3d fb2a e73d 7151 36bd edd1 d6bc
00000080: 3574 28bd ebaf 5bbd 6365 5f3c c3de e1bc
00000090: 88a3 583d 258e 4abc 9262 a23d 7ff8 eb3d
000000a0: 84f5 113d e6b1 553d 4c40 14bd cb1b 3dbc
000000b0: 99b2 89bb 88da 883d d9a4 0d3d 95f9 f53c
000000c0: ce29 eebc e04b 143e b99d 93bd 96e3 553e
000000d0: 3ab9 6b3e 1df0 0e3c 05be 1c3e 7d84 ee3d
000000e0: d657 933d 01d8 06bd 82df a4b9 efaf a33d
000000f0: 5240 283e 028b d23d 5319 b33d c8bf 4a3d
00000100: aa7e ed3b 2f12 143e 258b 2b3e 9285 9f3d
00000110: 766b 183e b0a1 0c3e 9fb2 843d 93d5 d03c
00000120: e0ad a83d 3232 fb3c 5cc3 733c d30b c6bc
00000130: d5a1 2a3d a01d 8b3d 8ee2 953d cf8a b43d
00000140: 8aac 203d a017 133e edd0 a13d 0e8e 423d
00000150: eb30 b23d 6877 163e 2787 bd3d 5fcc 303c
00000160: 7c14 1bbc b393 ddbc 7127 2c3e de04 043e
00000170: 50ae 143d 51f5 c4bc 0019 0d3e 9f6a 0f3e
00000180: fc7d 59bb bcc5 2f3e 3d4c 14bd 33a9 e0bc
00000190: 7cae 613d 2039 fd3d 45de 6b3d a384 f33d
000001a0: 7df8 82bc 0e2b 1dbd a1d9 783c df4c cb3d
000001b0: 8081 243d 41ef f03d e01c 0c3e 2efa 1c3d
000001c0: b248 8f3d d427 88bc 9d3b 48bc 820f 443c
000001d0: 552f 813c e4c9 21ba 8cd2 1e3d 72de 8e3d
000001e0: 5917 c83d db51 8bbd a578 4fbb 0aeb 6a3b
000001f0: 36f6 b0bc f397 16bd 7ac5 b13d fd28 8d3d
00000200: 6f9c 35bd 365c c83c f69c 4a3d 4392 4cbd
00000210: bbbf a0bd a8c8 273d b0b7 893c 3582 243d
00000220: e6eb 55bd d17b 953d 31cf 0abc a5f6 c73d
00000230: 4688 983c bc46 8bbb ab50 d63d f6f2 a43d
00000240: e396 cdbc 1f4c 10bd 3945 19bd 04c4 85bb
00000250: 6845 2c3d 3296 bbbd 3d32 c83d 5552 9cbc
00000260: 690d f0bc 3493 2a3b 9790 b53d a084 643d
00000270: d156 07bd d1a2 9e3d 4618 c93c 969f 4dbd
00000280: 21c6 213d 13a1 88ba 4065 fbbb 7392 463d
00000290: c780 bc3c 1789 80bd 8087 e3bc b15a f63c
000002a0: b110 a33d f339 19bd 2de8 963d b0ef 10bd
000002b0: 908e 05bc 87bb 873c cb79 98bd c3c4 ea3d
000002c0: e4b6 273d efc7 883d e3d2 44bd 7994 263d
000002d0: 1d11 9fbd e88d 93bd 2bfa 29bd bc5f f23c
000002e0: 7f3c 3abc 3276 c13d a6b0 c03c 6fdf 113d
000002f0: a757 c23c aab5 82bb 897d 053e d132 d43c
00000300: 59f7 c23c b648 d8bc 623c f9bc 9985 e63a
00000310: 9eab 063e 3758 b93d 07de a93d 266b 003d
00000320: cf13 5ebd bdc0 8fbd 5ebd ae3d d82b 9dbc
00000330: 94bf 75bd 319c 2f3d 5a4d 813d 7e70 1f3e
00000340: a907 b63c ff55 813d 9a33 063c 5479 65bd
00000350: ffa5 ba3d 0317 ecbc 07d8 c8bb 4cad 793e
00000360: c64b 26bd 1eef c43d b511 b13c 1e7c 29bb
00000370: 45d2 cebb ecb6 813b cc0a ddbd db36 26bd
00000380: b5cb 2a3e 7d49 9f3d 5bb8 d73c 9ef8 77bb
00000390: d8f2 a53d d074 88bd 0c2d abbb 4b19 5a3c
000003a0: 2dd2 de3d 6527 063c b2f7 933d c4d0 36bb
000003b0: 5215 053c c81d 7bbd 7459 ba3d 0e54 a63c
000003c0: 858b cabc 13eb be3c dab5 993b bbf9 82bb
000003d0: 4e52 97bd 245a 883d 1123 17bd 26dd 29bd
000003e0: 9724 79bd 4376 c83d 3251 74bd 0c42 823c
000003f0: 79e9 0b3d ebe2 cb3b 52ea e8bc 2a31 70bd

bias f4 [6]
0.04645087 0.04823514 0.05241634 0.06554191 -0.04422519 -0.08307738
00000000: 4443 3e3d 3692 453d 84b2 563d d63a 863d
00000010: 7925 35bd 7924 aabd

weight f4 [5, 96]
0.03499491 -0.065028355 0.0046088006 0.046017975 -0.09564033 0.09101607 0.08567425 -0.023316124
-0.053199664 0.032167956 -0.08097743 -0.0028240238 0.002368817 0.020414378 -0.061994568 0.038983427
-0.06599182 0.049459886 0.061684936 0.043912932 -0.007260178 -0.07670663 -0.06812439 0.05465
0.007126052 0.059866834 0.032048356 -0.022907626 0.040379256 -0.08628135 -0.01292897 0.0039535845
-0.04527007 -0.0325046 0.02546207 -0.07168509 0.05384337 -0.06608314 -0.099007554 0.041840058
-0.013920547 -0.036157895 0.0022078024 -0.09678677 -0.031211942 0.048095666 0.088455185 -0.06558787
0.09677496 -0.037344117 -0.07466184 -0.06780849 0.031734757 0.07120416 -0.0044301194 0.050039727
0.08038395 -0.06142059 0.07938657 0.015624014 -0.0640437 -0.023576455 -0.07910801 -0.09962814
0.05111292 -0.025160663 -0.06909181 -0.08831304 0.041978307 0.00918879 0.027043577 -0.051534437
-0.10064684 -0.07567952 -0.05361129 0.09884137 0.1020476 0.051637612 0.035995845 0.023595508
0.092481606 -0.053511705 0.0986284 -0.07385323 0.04644943 0.0126424795 -0.09691466 0.07257829
0.08016965 -0.043776467 -0.049108643 -0.0010142687 -0.01695131 0.03500461 0.08682477 0.08194857
-0.03606278 0.046992265 0.11652395 -0.015414649 0.047950495 -0.031203084 -0.09085929 0.0051546087
0.016132984 0.0005909981 -0.065146245 0.013011861 -0.055790063 -0.043624613 -0.055134773 0.028535983
-0.008974284 -0.020057209 0.03204465 -0.07237326 0.09914418 -0.055809997 -0.09042324 -0.01545743
-0.0199601 0.051495936 0.064826116 0.06718208 -0.0624418 0.053560935 0.019001432 0.052932598
0.042442515 0.02155423 -0.09260362 0.043707646 0.009156172 -0.056782056 0.016590575 -0.109923944
0.07341494 0.06787133 -0.022640686 -0.03862258 0.037674244 -0.0917269 0.04860545 -0.056567274
0.09216284 -0.014738917 0.095713794 -0.05372152 0.09764361 0.040372808 -0.058347926 0.074179314
0.08368096 -0.08057354 -0.08990771 -0.026831208 -0.09511218 -0.084924355 -0.0122202085 -0.0719061
0.065142624 -0.13107908 0.074476026 0.14142765 0.06559477 0.0016713671 0.070472375 0.10099489
-0.0010210944 -0.077989995 -0.056967475 -0.078989394 -0.039830323 -0.016988346 -0.055199355 -0.07492069
-0.08725186 0.04155947 -0.03542229 -0.08793272 0.10032379 -0.029745081 0.0123465 -0.04438674
-0.013894501 0.09150644 0.095442586 0.004214902 0.038152292 0.059968732 -0.015991129 0.090699464
0.032539986 0.08339611 0.13756958 0.1062039 0.16234984 0.11865241 -0.016334318 0.11856231
0.12959439 0.16235436 -0.011937688 0.09489985 0.14184761 -0.005622686 -0.016901176 0.23314725
0.05666327 -0.03607957 0.1068472 -0.051943507 0.101042084 -0.052274987 -0.07008628 0.008742158
-0.029859258 0.048179317 0.17944911 0.14936279 0.10647261 -0.043539472 -0.06304766 0.11087381
0.101211846 0.09427134 0.08195901 0.13142097 0.10357296 0.13355011 -0.024804946 -0.06553154
0.043517757 0.116543956 0.083514005 0.04414211 0.057872057 0.121720284 0.1317701 0.095184624
0.10230955 0.006847436 0.1704366 0.14837436 -0.042299565 0.06600083 0.04124647 0.057491817
0.0114491945 0.10740502 0.10294626 0.03697355 0.060734514 -0.019897962 0.15890752 -0.07737869
00000000: d356 0f3d 962d 85bd 6c05 973b 587d 3c3d
00000010: 14df c3bd a266 ba3d fb75 af3d 7501 bfbc
00000020: e4e7 59bd 8cc2 033d 7fd7 a5bd 4213 39bb
00000030: 283e 1b3b 0e3c a73c 04ee 7dbd 16ad 1f3d
00000040: b826 87bd 7396 4a3d 58a9 7c3d 0cde 333d
00000050: cae6 edbb 5e18 9dbd cd84 8bbd aed8 5f3d
00000060: a881 e93b ed36 753d 2345 033d c6a8 bbbc
00000070: b864 253d 47b4 b0bd 08d4 53bc 128d 813b
00000080: 1c6d 39bd 8b23 05bd d595 d03c a2cf 92bd
00000090: de8a 5c3d 9956 87bd 79c4 cabd 7b60 2b3d
000000a0: 0213 64bc 4d1a 14bd c7b0 103b 2438 c6bd
000000b0: 30b0 ffbc f6ff 443d fe27 b53d ef52 86bd
000000c0: f331 c63d 25f6 18bd 4fe8 98bd 2ddf 8abd
000000d0: 4efc 013d 7dd3 913d 892a 91bb 75f6 4c3d
000000e0: 57a0 a43d 2894 7bbd 6d95 a23d ddfb 7f3c
000000f0: 5829 83bd 6923 c1bc 6103 a2bd d709 ccbd
00000100: c85b 513d bc1d cebc 0280 8dbd 78dd b4bd
00000110: 72f1 2b3d 948c 163c 7e8a dd3c c615 53bd
00000120: ee1f cebd ddfd 9abd 8397 5bbd 586d ca3d
00000130: 55fe d03d f681 533d 6170 133d 5e4b c13c
00000140: ff66 bd3d 172f 5bbd b0fd c93d 5d40 97bd
00000150: c241 3e3d 6722 4f3c 317b c6bd eda3 943d
00000160: fc2f a43d f44e 33bd 2526 49bd 36f1 84ba
00000170: 79dd 8abc fe60 0f3d 2fd1 b13d a7d4 a73d
00000180: 91b6 13bd f67a 403d 1ca4 ee3d b98d 7cbc
00000190: bd67 443d 9c9d ffbc 6f14 babd fee7 a83b
000001a0: 5229 843c 36ed 1a3a 656b 85bd b32f 553c
000001b0: 1f84 64bd b9af 32bd 00d5 61bd 4bc4 e93c
000001c0: e008 13bc 044f a4bc 4041 033d 6f38 94bd
000001d0: 1b0c cb3d 0699 64bd d22f b9bd 2941 7dbc
000001e0: 5d83 a3bc 67ed 523d 8ec3 843d c296 893d
000001f0: f9c2 7fbd b662 5b3d e4a8 9b3c dacf 583d
00000200: 34d8 2d3d 7f92 b03c f7a6 bdbd ca06 333d
00000210: c503 163c 4d94 68bd f5e8 873c ce1f e1bd
00000220: 925a 963d 2000 8b3d f678 b9bc b632 1ebd
00000230: 4f50 1a3d 50db bbbd 8216 473d 16b3 67bd
00000240: dfbf bc3d 807b 71bc 9805 c43d 190b 5cbd
00000250: 5ff9 c73d f55d 253d 3cfe 6ebd 53eb 973d
00000260: ec60 ab3d bd03 a5bd 8921 b8bd 1fcd dbbc
00000270: 2dca c2bd d2ec adbd 4537 48bc 8143 93bd
00000280: 7f69 853d 9839 06be e386 983d 69d2 103e
00000290: 8d56 863d c611 db3a d253 903d 69d6 ce3d
000002a0: 3ed6 85ba 38b9 9fbd ba56 69bd 31c5 a1bd
000002b0: 1f25 23bd 252b 8bbc b818 62bd 0570 99bd
000002c0: 1ab1 b2bd 433a 2a3d f716 11bd 1216 b4bd
000002d0: 8f76 cd3d f5ab f3bc f948 4a3c dfce 35bd
000002e0: c3a5 63bc ba67 bb3d 6777 c33d 291d 8a3b
000002f0: 9445 1c3d c6a1 753d d4ff 82bc a4c0 b93d
00000300: a648 053d 94cb aa3d 0adf 0c3e 6e81 d93d
00000310: 093f 263e 0900 f33d 8ccf 85bc ccd0 f23d
00000320: 64b4 043e 3940 263e 4b96 43bc da5a c23d
00000330: 8040 113e 823e b8bb 5674 8abc 27be 6e3e
00000340: bf17 683d 2cc8 13bd b4d2 da3d b7c2 54bd
00000350: 27ef ce3d 4c1e 56bd 6589 8fbd 453b 0f3c
00000360: 679b f4bc ad57 453d 82c1 373e 8ff2 183e
00000370: 500e da3d 7256 32bd 221f 81bd cf11 e33d
00000380: 2848 cf3d 5511 c13d 20da a73d 3893 063e
00000390: 0f1e d43d 5cc1 083e be33 cbbc 6635 86bd
000003a0: ad3f 323d 99ae ee3d 6409 ab3d 5bce 343d
000003b0: 400b 6d3d 7c48 f93d beee 063e 28f0 c23d
000003c0: ab87 d13d 7560 e03b ef86 2e3e 73ef 173e
000003d0: 4f42 2dbd 712b 873d 0ff2 283d 8a7c 6b3d
000003e0: 6795 3b3c 2af7 db3d 7dd5 d23d 9471 173d
000003f0: c1c4 783d 0d01 a3bc a7b8 223e b878 9ebd

bias f4 [5]
-0.026824443 0.060815524 0.09099247 -0.061039694 0.023144798
00000000: efbe dbbc b319 793d 435a ba3d c204 7abd
00000010: 299a bd3c
