Models_mario/Mario No Bias_exp0_NS_classifier.pth (torch, 12865 bytes, 6 tensors)

weight f4 [3, 1, 7, 7]
-0.13634484 -0.44026035 -0.22693898 -0.13448505 0.09470353 0.0057532215 -0.2233207 -0.025423175
-0.28183916 -0.20950113 0.06273389 0.38441855 -0.082837865 -0.15299152 -0.077110715 -0.25370643
-0.0884079 -0.07034246 0.0512582 0.00075361086 -0.16061589 0.2782336 0.2365743 0.20229961
0.068714954 0.08501015 0.17413837 -0.04535617 0.22210374 0.31311 0.1324551 0.16211048
0.40230247 0.33047566 0.25893635 0.048946958 -0.11119146 0.2025028 0.14131421 -0.036390048
0.65188265 0.47859386 -0.016782617 -0.12966582 -0.13834201 -0.2957407 -0.24634391 0.31294307
0.3766661 -0.29638442 0.08142907 -0.0321252 -0.025720943 0.256245 0.068532504 -0.58328503
0.03844869 -0.00852897 0.0991405 0.124491036 -0.17115293 -0.3958193 -0.4321868 0.13931544
-0.16815081 -0.2161786 0.0024182561 -0.49657363 -0.53671163 -0.30399653 -0.58773714 -0.3061229
-0.35707414 0.024773253 -0.3525272 -0.7256681 -0.5523389 -0.48193356 -0.05570994 0.04514717
0.05610392 0.061406016 -0.3050656 -0.26511762 -0.23438358 0.07352671 -0.08190805 -0.047785245
-0.05054607 -0.06112846 0.085445605 -0.090570144 -0.43812808 0.13610218 -0.19114874 0.0037587897
0.05237982 -0.14501859 -0.46814388 -0.5797282 -0.25261882 -0.06910045 -0.17138466 -0.46178237
-0.3322182 -0.10664055 0.0034006364 -0.10616319 0.37437037 0.2534938 0.0064885668 0.009621486
-0.036008436 0.17008983 0.04704111 0.2903869 0.11973216 0.25562367 -0.023045743 0.08178593
-0.14590828 0.28964713 0.43020257 0.7619344 0.13544922 0.3635034 -0.1802492 -0.045582477
0.33108172 0.043466948 0.70656407 -0.0420496 0.25401565 -0.20528083 -0.45818093 -0.06754849
0.13935739 -0.037215617 0.087530635 0.19444199 -0.19831167 -0.415055 -0.32096443 0.020198677
0.31767613 -0.21133089 0.031252746
00000000: fb9d 0bbe ce69 e1be b162 68be 73b6 09be
00000010: edf3 c13d 8585 bc3b 2eae 64be 4344 d0bc
00000020: 394d 90be 7787 56be a07a 803d 82d2 c43e
00000030: e6a6 a9bd cfa9 1cbe 39ec 9dbd cfe5 81be
00000040: 330f b5bd b50f 90bd 1ef4 513d f88d 453a
00000050: 7e78 24be a274 8e3e 8940 723e a127 4f3e
00000060: 6dba 8c3d cd19 ae3d 5451 323e 64c7 39bd
00000070: 2a6f 633e f44f a03e 4fa2 073e 4a00 263e
00000080: 97fa cd3e 1b34 a93e 4e93 843e 9b7c 483d
00000090: 59b8 e3bd e55c 4f3e acb4 103e bb0d 15bd
000000a0: c8e1 263f 410a f53e b37b 89bc 1ec7 04be
000000b0: 87a9 0dbe 536b 97be 9441 7cbe 133a a03e
000000c0: 61da c03e b3bf 97be 49c4 a63d b795 03bd
000000d0: bab4 d2bc 8b32 833e c55a 8c3d 2b52 15bf
000000e0: 607c 1d3d 18bd 0bbc 2d0a cb3d 28f5 fe3d
000000f0: b742 2fbe d4a8 cabe 9747 ddbe b5a8 0e3e
00000100: ba2f 2cbe ec5d 5dbe 9b7b 1e3b e63e febe
00000110: ef65 09bf 6fa5 9bbe f175 16bf 24bc 9cbe
00000120: 6cd2 b6be 47f1 ca3c 727e b4be 62c5 39bf
00000130: 1566 0dbf ffbf f6be 1b30 64bd 3dec 383d
00000140: 39cd 653d e084 7b3d 8f31 9cbe 7fbd 87be
00000150: 4002 70be 2c95 963d 68bf a7bd 76ba 43bd
00000160: 6509 4fbd d661 7abd 1bfe ae3d d77c b9bd
00000170: 5352 e0be 5f5e 0b3e 7fbc 43be 0756 763b
00000180: 398c 563d c17f 14be 8eb0 efbe 1169 14bf
00000190: 4157 81be 8984 8dbd 767f 2fbe bd6e ecbe
000001a0: 8118 aabe 5c66 dabd 36dd 5e3b 166c d9bd
000001b0: 79ad bf3e f0c9 813e 0b9e d43b 70a3 1d3c
000001c0: 957d 13bd 072c 2e3e 2eae 403d 97ad 943e
000001d0: 2236 f53d 1be1 823e 6dca bcbc 627f a73d
000001e0: fb68 15be a14c 943e 8343 dc3e 220e 433f
000001f0: 33b3 0a3e 1e1d ba3e 3f93 38be b1b4 3abd
00000200: 8b83 a93e 660a 323d 62e1 343f 343c 2cbd
00000210: 570e 823e 2335 52be b196 eabe dd56 8abd
00000220: b4b3 0e3e 676f 18bd 4343 b33d cd1b 473e
00000230: 3712 4bbe 1782 d4be 7355 a4be b277 a53c
00000240: 72a6 a23e 2067 58be e102 003d

bias f4 [3]
-0.08151304 0.28897652 0.121572904
00000000: 4ff0 a6bd bbf4 933e 37fb f83d

weight f4 [6, 3, 7, 7]
0.010579636 -0.012655808 -0.11913325 0.074336566 -0.04436951 -0.15886436 -0.007720651 -0.2973106
-0.06285095 -0.038181204 -0.068877034 0.009180029 0.060183875 -0.07039957 -0.15707366 -0.0728543
0.03114905 0.16780072 -0.08223027 0.071887866 0.024751354 -0.08840059 0.06355978 -0.018945482
0.31765226 -0.25788352 0.120997086 0.0058550905 0.05835894 0.1131319 -0.06596718 0.03435534
-0.35190865 -0.07863225 -0.21624836 0.117856756 0.28521225 0.20999089 0.20292525 -0.04512571
-0.11901322 0.09549611 0.3090516 -0.04964275 0.1146668 -0.00024082298 -0.099534474 -0.10092796
-0.09215538 -0.4769866 -1.1552081 -0.4338213 0.019661004 -0.9746935 0.10731262 -1.3093653
-0.37559274 -0.10693988 0.20458089 0.30291355 -0.16813302 -0.8836207 0.4372735 0.5406925
0.4889236 0.45869753 0.50301933 0.30182815 1.0295401 -0.16141957 0.41686442 0.024611987
0.26952988 0.0415272 -0.006139895 0.48103186 -0.36468732 -0.12696622 -0.29424962 -0.072522186
-1.129313 0.16963291 -0.5868506 -0.12455623 0.07694564 0.033036068 -0.46741202 -0.058340903
-0.2288744 -0.071832746 -0.09387486 -0.0051927725 -0.17107889 -0.49435803 -0.10825203 0.07748216
-0.35280123 0.18527424 0.024639832 0.07475406 -0.22041598 -0.104729764 -0.005151029 0.010806713
-0.07019207 -0.068436354 0.13253401 0.0817345 -0.08638768 0.20987734 0.052706443 0.10033128
-0.03253344 0.026057387 0.14801982 -0.078920186 0.007882533 -0.17359214 0.16522646 0.11858318
0.07695711 0.047782708 0.09505543 0.099170245 -0.17426008 0.0715339 0.20704617 0.0114510115
0.030498637 0.011047211 0.062492084 -0.17770366 0.17038804 -0.07185016 -0.07583577 0.029201435
-0.056592274 -0.24214189 -0.26915923 0.123846 0.3287187 0.106414676 0.20290737 0.28708825
0.11296693 -0.24869417 0.04100473 0.042777862 0.18808013 0.12686098 0.347905 0.17946717
0.1678474 -0.12505063 0.1593621 0.19861782 0.2551012 0.18352525 0.16678758 0.0082465615
-0.06713033 0.036593445 -0.0068360134 -0.094963394 0.03866809 -0.05093267 0.04360059 0.10182641
0.097888485 -0.05798767 -0.1989664 0.025435276 -0.102915645 -0.04398192 -0.40847 -0.10666289
-0.09772384 0.04499717 -0.12144591 0.12656756 -0.3050114 -0.36490014 -0.2464251 -0.13375612
-0.020537741 -0.31040275 0.23509932 0.10234351 -0.15625107 -0.027824216 0.020036329 0.007619666
-0.42396697 0.0690973 0.019588444 0.19864231 0.52760696 0.112074114 0.031601194 0.039649133
-0.08910329 -0.00071684376 -0.060466077 0.36526403 0.17215686 0.14200129 0.21705164 -0.015607119
0.053715043 -0.1299501 0.34288445 0.27460003 0.23094991 -0.04760905 -0.13200419 -0.058312256
-0.16435896 0.19611602 0.117888995 -0.109870516 -0.3851377 -0.44114283 -0.36187407 -0.35703158
0.11114849 -0.16252305 0.05101102 -0.11586687 0.17365195 -0.13223162 -0.14912686 0.2097672
0.079870336 0.23414318 0.22991176 0.43067217 0.49008825 0.3818221 0.36765403 0.2249384
-0.07509734 -0.05079104 -0.017919678 0.17567213 0.15345818 -0.09050995 -0.078834005 -0.028614525
0.068674624 0.15174603 0.123722434 0.25222516 0.3888275 0.436115 0.24297263 0.40165845
00000000: 3656 2d3c 4e5a 4fbc 22fc f3bd c53d 983d
00000010: cebc 35bd 57ad 22be 84fd fcbb 1839 98be
00000020: 00b8 80bd e563 1cbd 670f 8dbd d567 163c
00000030: 5e83 763d a62d 90bd ebd7 20be a334 95bd
00000040: 4b2c ff3c f4d3 2b3e 5868 a8bd f239 933d
00000050: 5ac3 ca3c 5e0b b5bd a12b 823d 8e33 9bbc
00000060: 51a3 a23e 4f09 84be 52cd f73d 0fdc bf3b
00000070: c909 6f3d b3b1 e73d cd19 87bd 2fb8 0c3d
00000080: 5f2d b4be f209 a1bd 3670 5dbe e25e f13d
00000090: 5707 923e da07 573e a3cb 4f3e bdd5 38bd
000000a0: 34bd f3bd 7793 c33d 033c 9e3e 3256 4bbd
000000b0: 6dd6 ea3d 6d85 7cb9 bbd8 cbbd 51b3 cebd
000000c0: f6bb bcbd 9637 f4be dcdd 93bf d31d debe
000000d0: 1d10 a13c 8385 79bf b8c6 db3d 4899 a7bf
000000e0: b14d c0be 4c03 dbbd a77d 513e 7c17 9b3e
000000f0: 102b 2cbe f734 62bf 50e2 df3e d36a 0a3f
00000100: 3254 fa3e 67da ea3e e0c5 003f 3889 9a3e
00000110: f8c7 833f 2c4b 25be 416f d53e 149f c93c
00000120: d2ff 893e 6d18 2a3d 2c31 c9bb cf49 f63e
00000130: 4cb8 babe 6f03 02be e3a7 96be 8386 94bd
00000140: 548d 90bf 40b4 2d3e d73b 16bf 5617 ffbd
00000150: ad95 9d3d d450 073d a150 efbe dff6 6ebd
00000160: 0d5e 6abe 0c1d 93bd 7641 c0bd 2228 aabb
00000170: 4e2f 2fbe 7f1c fdbe 3eb3 ddbd f7ae 9e3d
00000180: 5da2 b4be 88b8 3d3e 79d9 c93c a818 993d
00000190: bab4 61be 8f7c d6bd f7c9 a8bb a40e 313c
000001a0: dcc0 8fbd 5c28 8cbd ffb6 073e 6b64 a73d
000001b0: 06ec b0bd 16ea 563e b6e2 573d 7c7a cd3d
000001c0: c941 05bd 4d76 d53c 8292 173e e8a0 a1bd
000001d0: bd25 013c 23c2 31be 2031 293e bddb f23d
000001e0: b09b 9d3d cdb7 433d 6cac c23d c519 cb3d
000001f0: 3c71 32be 5e80 923d e903 543e 069d 3b3c
00000200: 47d8 f93c 5cff 343c b3f7 7f3d f3f7 35be
00000210: 347a 2e3e 2d26 93bd c94f 9bbd d937 ef3c
00000220: 4dcd 67bd 0bf4 77be 3dcf 89be f9a2 fd3d
00000230: d14d a83e f0ef d93d f3c6 4f3e 3bfd 923e
00000240: 355b e73d afa9 7ebe 93f4 273d d737 2f3d
00000250: 1498 403e d8e7 013e 9b20 b23e 3ec6 373e
00000260: 30e0 2b3e 460d 00be d12f 233e 7862 4b3e
00000270: a09c 823e 0bee 3b3e 5dca 2a3e 961c 073c
00000280: a07b 89bd 02e3 153d a300 e0bb 2b7c c2bd
00000290: 6e62 1e3d c69e 50bd 8896 323d 5d8a d03d
000002a0: c279 c83d 7b84 6dbd d9bd 4bbe a45d d03c
000002b0: 70c5 d2bd 6326 34bd fb22 d1be 1372 dabd
000002c0: 7023 c8bd f44e 383d a2b8 f8bd ed9a 013e
000002d0: 742a 9cbe 31d4 babe dd56 7cbe 5df7 08be
000002e0: c43e a8bc 1ced 9ebe e0bd 703e 7999 d13d
000002f0: 4800 20be 9cef e3bc 3a23 a43c 64ae f93b
00000300: 3312 d9be e382 8d3d f277 a03c e468 4b3e
00000310: 4011 073f 1d87 e53d 4170 013d 2167 223d
00000320: c97b b6bd 92ea 3bba 47ab 77bd e303 bb3e
00000330: e349 303e c968 113e c942 5e3e 00b5 7fbc
00000340: 4e04 5c3d a411 05be 8d8e af3e 6098 8c3e
00000350: 227e 6c3e b501 43bd 1b2c 07be d5d8 6ebd
00000360: b74d 28be a3d2 483e c96f f13d cb03 e1bd
00000370: c530 c5be 79dd e1be 8f47 b9be d8cc b6be
00000380: d2a1 e33d 716c 26be eef0 503d 9c4b edbd
00000390: d1d1 313e ba67 07be b6b4 18be 36cd 563e
000003a0: 0f93 a33d 3bc3 6f3e fd6d 6b3e 1081 dc3e
000003b0: d9ec fa3e 307e c33e 263d bc3e 4056 663e
000003c0: a2cc 99bd 440a 50bd 4acc 92bc 65e3 333e
000003d0: 2424 1d3e 485d b9bd b973 a1bd 0269 eabc
000003e0: 48a5 8c3d 5063 1b3e 3062 fd3d a823 813e
000003f0: 6614 c73e 774a df3e d1cd 783e 2da6 cd3e

bias f4 [6]
0.12278641 0.077437915 0.06446818 0.39334667 0.20587312 -0.09147387
00000000: 7177 fb3d c597 9e3d e507 843d bc64 c93e
00000010: 67d0 523e a756 bbbd

weight f4 [10, 96]
0.1926957 -0.06632092 0.05857986 0.052339103 -0.18752879 0.27873084 0.09498275 -0.041721318
0.12979215 0.23951203 -0.08850564 0.019888686 0.4640273 0.21744232 -0.09200886 0.04407121
0.079468764 0.26244053 0.29401156 0.25708923 0.20715544 0.14194678 0.055577867 0.044556234
-0.15893805 -0.21565954 -0.018152578 -0.2910839 -0.41850695 0.015835803 0.04957701 0.06653102
-0.25427964 -0.49690917 0.18704768 0.0784211 0.21241051 0.0011341043 0.10770178 0.22230898
-0.8283844 -0.30738202 0.4108193 -0.08375101 0.29316527 0.15023741 0.3276119 -0.19178715
0.2546358 -6.3625445 -0.15802094 0.16611148 0.22931337 0.35939604 0.12098005 -0.016464774
-1.326574 -0.6564414 0.16994512 0.11893168 -1.1353139 -0.7953701 0.15632415 0.014921956
0.20308661 -0.13204278 -0.32651463 -0.66430765 0.2361745 0.038394526 0.1236566 0.03656628
0.030984994 0.12794152 0.0177075 0.24901465 0.24891225 -0.12306072 0.22760531 0.20475028
0.6922284 0.2909567 0.435828 0.21821865 0.048419952 -0.034117643 -0.15678132 0.05806851
0.74498355 -0.1981623 -1.2923872 -2.891967 -0.21511015 0.1392397 0.1981511 -2.795541
0.13252643 0.14280085 -0.101356715 0.041416477 0.060250588 -0.037858523 -0.08542699 -0.003817729
0.04656311 0.17011464 0.06793137 0.0005766821 0.21268289 -0.04294266 -0.6963133 -0.28943595
0.07431621 0.11363724 0.0046542753 -0.12737681 -0.04794755 -0.1809785 -0.015955228 0.018863887
0.12647495 0.23162715 0.14147621 0.06314168 0.092126966 0.18075863 0.14772244 0.20554382
0.23529474 0.2057831 0.0036138562 -0.021684011 0.047923338 -0.0044955076 -0.3196373 -0.25735557
0.2552375 0.27118132 0.028955493 0.25593293 0.3356373 -0.06704477 -0.15223946 -0.60708237
0.06436018 0.005126288 0.018514402 -0.11180321 -0.07783995 -0.19607049 -0.3331318 0.17875372
0.04221883 0.07069934 0.034443866 -0.053200297 -0.023497768 0.23950045 0.37501827 -0.061654724
0.049746174 0.10506367 0.32516962 0.19158402 0.157394 0.16175573 0.11709633 0.22921893
0.20941012 -0.048508048 -0.11955045 -0.045238107 -0.31639403 -0.32838804 -0.3493951 -0.23018013
0.10665528 0.39485294 0.28395626 -3.5618472 0.15695766 0.21335864 0.016864028 -0.055763833
0.18709809 0.17460684 0.4387808 -0.03871869 0.0047918903 -0.04650827 -0.1886767 -0.020309122
-0.8030016 0.18685442 0.11657214 0.12275258 0.014813251 0.21633153 0.18583906 0.28031108
0.10226421 0.32912898 0.12385131 0.16578032 0.3492936 0.16383715 0.11616647 0.6282428
0.1708559 0.09703381 0.24115619 0.14199091 0.38011748 -0.035769634 -0.13352172 -0.26335067
0.05429113 0.23470429 0.37657568 0.2134829 -0.9837685 -0.6175466 -0.91277677 -0.48862037
0.042863186 -0.04161482 0.17812234 0.20922698 0.16034523 -0.38313258 0.027900362 -0.62461674
0.33848864 -0.042162724 0.27611664 0.15515625 0.40074995 0.43941307 0.7692359 -1.144226
0.22137871 -0.72417545 0.13170792 -0.3103254 -0.07585293 -0.8873539 -0.5203301 0.18470316
-0.44745085 0.055077616 0.5322369 -1.735168 -0.5508474 0.13294463 0.20497799 0.056823205
00000000: 0652 453e 43d3 87bd 6ff1 6f3d 8761 563d
00000010: 8c07 40be cfb5 8e3e 5186 c23d f9e3 2abd
00000020: 3ce8 043e a442 753e 7242 b5bd 99ed a23c
00000030: fc94 ed3e 33a9 5e3e 246f bcbd 0384 343d
00000040: 85c0 a23d 9b5e 863e af88 963e 33a1 833e
00000050: 8e20 543e 7f5a 113e 9ea5 633d 9980 363d
00000060: a8c0 22be dbd5 5cbe b7b4 94bc f308 95be
00000070: 8b46 d6be 16ba 813c 4311 4b3d 6a41 883d
00000080: f130 82be e16a febe 6d89 3f3e 3e9b a03d
00000090: 2482 593e 3aa6 943a c092 dc3d f7a4 633e
000000a0: 0011 54bf 2d61 9dbe e856 d23e a685 abbd
000000b0: c219 963e d6d7 193e bfbc a73e da63 44be
000000c0: a05f 823e f799 cbc0 3ed0 21be 2119 2a3e
000000d0: 20d1 6a3e c202 b83e 63c4 f73d 22e1 86bc
000000e0: 2dcd a9bf 8b0c 28bf 1806 2e3e 7492 f33d
000000f0: f751 91bf 609d 4bbf 7013 203e 387b 743c
00000100: f0f5 4f3e 3936 07be ed2c a7be 1110 2abf
00000110: bad7 713e 9443 1d3d ac3f fd3d 86c6 153d
00000120: 3ed4 fd3c 1a03 033e 520f 913c b2fd 7e3e
00000130: dae2 7e3e 4207 fcbd 5e11 693e 0faa 513e
00000140: e135 313f 47f8 943e d924 df3e b674 5f3e
00000150: 0054 463d f1be 0bbd 488b 20be 3fd9 6d3d
00000160: 3eb7 3e3f 0feb 4abe f26c a5bf fd15 39c0
00000170: d645 5cbe da94 0e3e 1fe8 4a3e 25ea 32c0
00000180: 02b5 073e 633a 123e 1c94 cfbd 53a4 293d
00000190: 52c9 763d 8a11 1bbd 59f4 aebd dd32 7abb
000001a0: f6b8 3e3d 8832 2e3e 9a1f 8b3d 7b2c 173a
000001b0: 8bc9 593e a5e4 2fbd 9741 32bf f330 94be
000001c0: 1933 983d a4ba e83d e482 983b 116f 02be
000001d0: a664 44bd 6e52 39be 8ab4 82bc 7088 9a3c
000001e0: a682 013e ab2f 6d3e 24df 103e 6d50 813d
000001f0: 10ad bc3d ca18 393e 8d44 173e 147a 523e
00000200: 1bf1 703e ceb8 523e 72d6 6c3b aba2 b1bc
00000210: 434b 443d 0d4f 93bb 80a7 a3be 1cc4 83be
00000220: 7dae 823e 47d8 8a3e 1234 ed3c a409 833e
00000230: a7d8 ab3e c54e 89bd a9e4 1bbe c069 1bbf
00000240: 45cf 833d 6cfa a73b 84ab 973c 15f9 e4bd
00000250: 8d6a 9fbd b4c6 48be 4090 aabe 370b 373e
00000260: a7ed 2c3d d1ca 903d 0315 0d3d 8ee8 59bd
00000270: 647e c0bc 9b3f 753e 6502 c03e aa89 7cbd
00000280: a5c2 4b3d 9f2b d73d a27c a63e 9a2e 443e
00000290: e52b 213e 4ba3 253e 33d0 ef3d 5eb8 6a3e
000002a0: 9b6f 563e 60b0 46bd ded6 f4bd 984b 39bd
000002b0: 66fe a1be 7a22 a8be eae3 b2be 57b4 6bbe
000002c0: 156e da3d 2a2a ca3e b762 913e 4ef5 63c0
000002d0: 82b9 203e b07a 5a3e 6e26 8a3c 9e68 64bd
000002e0: a496 3f3e 23cc 323e e1a7 e03e 7d97 1ebd
000002f0: 4a05 9d3b 757f 3ebd 7734 41be 515f a6bc
00000300: 8391 4dbf c456 3f3e 60bd ee3d b465 fb3d
00000310: 47b3 723c 0386 5d3e 984c 3e3e ef84 8f3e
00000320: e66f d13d 9883 a83e c1a5 fd3d 51c2 293e
00000330: 9cd6 b23e edc4 273e b0e8 ed3d 85d4 203f
00000340: d9f4 2e3e aab9 c63d a6f1 763e 1166 113e
00000350: c29e c23e 2e83 12bd ebb9 08be e6d5 86be
00000360: 6060 5e3d 5256 703e 87ce c03e 439b 5a3e
00000370: 41d8 7bbf 8917 1ebf bdab 69bf 732c fabe
00000380: 4f91 2f3d 4d74 2abd b465 363e 993f 563e
00000390: 8a31 243e f429 c4be 4d8f e43c e2e6 1fbf
000003a0: 624e ad3e d2b2 2cbd 295f 8d3e 48e1 1e3e
000003b0: 192f cd3e c0fa e03e a5ec 443f ff75 92bf
000003c0: 1ab1 623e 9063 39bf 71de 063e f9e2 9ebe
000003d0: c858 9bbd a029 63bf 5a34 05bf d322 3d3e
000003e0: 4718 e5be 1199 613d ad40 083f fc19 debf
000003f0: 5604 0dbf a322 083e c0e5 513e 73bf 683d

bias f4 [10]
0.13673718 -0.012573826 0.19257772 -0.1056802 0.23052144 0.06285297 -0.09226221 0.14390084
0.10529342 0.04921382
00000000: d504 0c3e 7302 4ebc 1833 453e dc6e d8bd
00000010: d00d 6c3e 0fb9 803d f8f3 bcbd be5a 133e
00000020: 14a4 d73d 6e94 493d
