Models_mario/Mario No Bias_exp0_GRU_temporal.pth (torch, 104953 bytes, 10 tensors)

weight_ih_l0 f4 [150, 10]
00000000: 723a b33d 4704 ce3d 4ba9 253e abdb 163e
00000010: 9432 d13d 5ffa ba3d a17a 88bd d085 11bd
00000020: aa02 00bc f251 023d fa78 393f 67c2 3c3f
00000030: 82fc 313f 7c87 543f 0c88 a43f 63c0 633f
00000040: 8703 4c3f 1fc7 4b3f e22a 4cbf 2e81 b93f
00000050: 9be3 b23c 8dd4 44be 3ab7 45be 3db5 34be
00000060: 292f bb3d 70e5 17be 98be b3bd ae6a 58be
00000070: 66af 9cbd eea6 a13e ba86 5ebe 0129 b8be
00000080: be64 0abe 0d17 bebe 45eb 6fbe 400c 96be
00000090: 115c 1fbe db88 a9be a32d 4c3d 88e4 833e
000000a0: 30bb c33d e8f6 273e b20e 143d e7fb 8b3e
000000b0: 0ffd 7e39 2d15 2d3e 0175 283d aa1e 0a3e
000000c0: 2935 c7be a582 863d e207 aebe be39 cdbe
000000d0: acaa 02bf 36a7 a3be d389 3c3f f10f cabe
000000e0: ec97 66be 56c5 88be c82f 31bf 053f ed3f
000000f0: 34c5 3fbf a459 28bf 3ed5 43bf 5417 20bf
00000100: 41e7 44bf 7e41 4dbf 1139 2bbf 61f7 0dbf
00000110: 249c ed3e ac87 a8be 738f 25bf e8ad 25bf
00000120: 31a9 16bf 9e50 37bf 6313 1c3e 9398 34bf
00000130: 7e13 40bf 41f7 12bf 6196 8f3d 8cef f43e
00000140: c6d3 00bf 661c 04bf 6005 bebe bac5 aabe
00000150: ff99 c93d 77e9 7dbe 0599 b3be b703 87be
00000160: fe48 873b 4532 503e d907 2dbe b53d eebd
00000170: 951e 5cbe 2a7a a23c 13fe d53e 90b9 5ebe
00000180: a4c0 06be d204 24be 76d0 3cbd d156 3b3f
00000190: 7fec ff3d a69a 76bd 7c04 e2bd 62fe b8bc
000001a0: a6f3 1d3e 95ea 7a3b 22e0 e83d ce99 c03d
000001b0: 86d9 053e 0fe1 983e 60d8 0dbf 28b9 1fbf
000001c0: 2003 18bf 7522 f6be 2317 01be 2c93 22bf
000001d0: 87a4 f1be 04d8 d0be 3be5 85be a316 983e
000001e0: f6fd 6abe aa44 82be 2ca4 abbe 826f e8be
000001f0: 8316 cc3e 99cf 98be 2636 bdbe 8763 a2be
00000200: 7a9f cdbe f1ae 183f e043 abbd 4c04 10bd
00000210: 3686 0abe 9aa6 4abe f4d2 8e3d 8e40 ecbd
00000220: 2519 653d 5912 32be b7dc 273e 0bd4 d03e
00000230: 32e2 833d ba88 46bd 2c77 913d 185a dcbd
00000240: 7a6b 03bc 9afd 513d e453 8e3d e1c8 5dbb
00000250: d4e3 0abe 944d 203e 68fe 51be 2ed5 74be
00000260: d4f7 babe 2a34 bbbe 08aa 17bf 6ee2 3abe
00000270: 0f5d 85be 8804 d9be 052f a73d dc5b 0ebf
00000280: c1fa 73bd 3efd f7bd 3bef 81bd 7ea4 86bd
00000290: 4b38 e83b 749a 43be e969 15be 90ab 7bbe
000002a0: d935 aa3c 5cbb 183c f4fb 68be 5996 19be
000002b0: 1fab b9be 1d5d c8be bfbe 0d3e 73d2 88be
000002c0: 10ee a7be 3bba 09be 7c42 6eba f3b5 bb3e
000002d0: 97b9 543e 5aa1 bd3d b6ad 823e 3afd 233d
000002e0: 220b 6e3e ebe9 043e 37e1 1a3c dfeb 003e
000002f0: 09e8 1dbe 2c6f c33d 9b5d bbbe cbac 7fbe
00000300: 928b 97be 2e3e 4abe 429e 303f 3da4 69be
00000310: 4608 bcbe 9e87 85be 8ab6 15bf e504 813f
00000320: 08f3 efbc d7f0 65bc d830 6bbe 6274 47bd
00000330: 4a98 e6bd 6936 dabc bb65 07bd 0bce 02ba
00000340: 98e2 573e cdcd 61bd 45b1 103e c835 92bc
00000350: 1d63 103e ba85 033d 713a 593f caf4 86bc
00000360: f3d1 1f3d 0c42 4c3e a3c7 0abf b9e4 7d3f
00000370: c0f2 f93e 8eea f93e 0ed5 193f dd1b 033f
00000380: 9f9e 623f 7f15 1e3f 2857 2d3f 350c 253f
00000390: 5046 73bf 4b80 4f3f 7d2d 2a3f 4058 4c3f
000003a0: ea21 2b3f 8b20 4d3f 50db 043f a095 403f
000003b0: 27c2 0b3f dfa3 1e3f c1d8 7ebe 0e63 fe3e
000003c0: 2ffe 47bd 0e36 78be b543 b5be 0dbe 4fbe
000003d0: 0ea5 663d 1ece 53be 3882 93bd 4f55 a1bd
000003e0: ea88 8cbe 3de1 693e e665 d3bc 19c2 d2bc
000003f0: c5bf c63c 6986 a6bd 3526 f83d 25ae 30be
0.08751382 0.100594096 0.16177861 0.14732234 0.10214725 0.09129786 -0.066640146 -0.035528004
-0.007813135 0.03181643 0.7245022 0.73734134 0.6952592 0.8301923 1.2854018 0.88965434
0.7969288 0.7960071 -0.79752934 1.4492548 0.021837046 -0.19221707 -0.19308177 -0.17647262
0.091398545 -0.14833617 -0.08776587 -0.21134445 -0.07650642 0.3157267 -0.21731082 -0.35968783
-0.13514993 -0.3712696 -0.23429592 -0.2930622 -0.15562464 -0.33112225 0.04984821 0.25760293
0.095571876 0.16402781 0.036146827 0.27340624 0.000243176 0.16902609 0.04112721 0.1348826
-0.38907745 0.06567887 -0.3399039 -0.40083116 -0.51041675 -0.3196351 0.73647803 -0.39465287
-0.22518891 -0.26713055 -0.69213533 1.8534857 -0.74910283 -0.6576178 -0.76497257 -0.62535596
-0.76915365 -0.8017806 -0.6688395 -0.55455595 0.46408188 -0.3291601 -0.6467201 -0.64718485
-0.58851916 -0.7160739 0.1524177 -0.7054531 -0.7502974 -0.5740853 0.070111044 0.4783901
-0.5032314 -0.5160583 -0.37113476 -0.33353978 0.098438255 -0.24796091 -0.35077682 -0.26370022
0.0041285744 0.20331676 -0.16897525 -0.116328634 -0.21496041 0.019833643 0.41795406 -0.21750474
-0.13159424 -0.16017464 -0.04609724 0.73179346 0.1249628 -0.060206078 -0.110360116 -0.022582237
0.15424976 0.0038286794 0.11370875 0.09404336 0.1307126 0.29859206 -0.5540829 -0.623919
-0.5937977 -0.48073164 -0.12606482 -0.63505816 -0.47195837 -0.40789807 -0.2615145 0.2970477
-0.22948441 -0.25443012 -0.3352369 -0.45397574 0.39860925 -0.29845884 -0.36955374 -0.31716558
-0.40160733 0.5964194 -0.083625555 -0.035160348 -0.1352776 -0.19790116 0.0697383 -0.1153575
0.055932183 -0.17389812 0.1639279 0.40786776 0.06439628 -0.048470236 0.07102808 -0.107593715
-0.00802123 0.051267244 0.069495946 -0.0033841657 -0.13563472 0.15654594 -0.20507205 -0.23909447
-0.36517203 -0.36563236 -0.5924382 -0.18250439 -0.2604756 -0.4238627 0.08163265 -0.55608916
-0.05956531 -0.12108849 -0.06344458 -0.06574343 0.007086789 -0.19101888 -0.14591183 -0.24577165
0.02077763 0.009322014 -0.22752362 -0.1499876 -0.36263368 -0.3913354 0.13842295 -0.2672306
-0.32798815 -0.13449948 -0.00090888864 0.36662254 0.20773922 0.09259291 0.25523156 0.040036418
0.23246434 0.12979858 0.009453109 0.12589978 -0.15420546 0.09542689 -0.36594853 -0.24968259
-0.2959867 -0.19750282 0.6899148 -0.22816558 -0.36725062 -0.2608003 -0.5848166 1.0079619
-0.029290691 -0.0140344715 -0.22967851 -0.048694976 -0.112595156 -0.026637273 -0.033056002 -0.0004989809
0.21082532 -0.055127908 0.14130123 -0.01784791 0.14100309 0.032109953 0.848548 -0.016474146
0.039018583 0.1994707 -0.5421087 0.9917713 0.48818016 0.48811764 0.6009072 0.5121439
0.88523287 0.6175155 0.67711115 0.6447175 -0.95029163 0.81055135 0.6647566 0.7982216
0.66848624 0.8012778 0.51897144 0.7522831 0.5459313 0.619688 -0.24887373 0.49684948
-0.048826393 -0.2423937 -0.3540322 -0.20287342 0.056309752 -0.20684096 -0.07202572 -0.078775994
-0.27448207 0.22839828 -0.025805425 -0.025727319 0.024261365 -0.081311055 0.121166624 -0.17253931

weight_hh_l0 f4 [150, 50]
00000000: 6e9e 253e d835 293e 136e aabd e00e 89be
00000010: 4371 75bb d0f8 abbd 9e59 053e df9a 053d
00000020: fd48 e2bd 89bc 813d 9398 28bd ee68 2cbe
00000030: 0c1b 493e 1e3f 78be 58cf 31be d129 d53d
00000040: beeb b8bc 0c67 07be d342 173d 83fe d1bc
00000050: 40d8 3cbd b5a3 1d3e 36be 0ebd 2bff 86be
00000060: 6396 883c 9088 89bd a5e8 463d 3d76 b93c
00000070: 0e7c de3d d436 15be 1a2b 9a3d 689f 133e
00000080: 2cdd e33b 1fea 543d 3859 6b3e c90b 0abe
00000090: 5d84 203d 0c45 50bd 0b97 89bd f63a 323e
000000a0: bbdf f53d c6ca 163e f635 3cbb 0ce2 8c3c
000000b0: 5f9d 73be 88c1 853d 4bde 24bb d01c 84be
000000c0: e62c bb3c afbc 233d c95a 9d3d 37ba 953b
000000d0: bfaf f53b 9859 2f3a 076e 0abe 6971 9cbd
000000e0: 8369 963d d602 9e3e 4800 50bd 8518 8ebd
000000f0: b461 d5bc a12e f3bc 2c1d e2bd 6e4e 1ebe
00000100: 4e6f b23d d909 33bd b0d4 203e 562d 4fbd
00000110: 5d36 11be a2ef c0bd 3b8d c8bd 6487 283e
00000120: d16a 12be b206 fb3d 392a cfbd 37bb e23d
00000130: 44c6 3dbd 1991 d8bc 990b 983d f112 943d
00000140: ce06 62be aeb1 e2bd fc81 023d 39f8 32be
00000150: e4d6 af3d 562e 243e c7da 57bd c77b a13d
00000160: a1ee 943d 80f1 303d a0b5 0cbd 47d5 a6bd
00000170: 329b 673d 68cd fcbc ec90 633d f214 0abe
00000180: a363 4bbd b914 d23d b0ac 05bd 7a8e b53c
00000190: 9d6b a6bd f9ea c73d 3479 4ebe 83c0 9dbd
000001a0: 4123 2d3e 89cc 5abd 59cf 51be 377e 263e
000001b0: 7991 4b3e 6d07 083e d02b 68bd 4418 3dbe
000001c0: ee3e 033c ce09 14bc af42 ccbd 84fd 18be
000001d0: 88fa 373e 5e07 01bd f4c7 293e b67e 783e
000001e0: 5aff bdbe 85b8 023e 5289 da3c 7843 983e
000001f0: 3343 403d 5415 20be 3f7c 2dbd 9347 633c
00000200: 2e3a e6bd 8b5c 1cbe 6489 b8bd fe2f 7c3e
00000210: 7d7f 023e f698 0d3e 3686 783d 31f3 bfbc
00000220: 5377 623d a014 23be 85b3 653c e0e0 8b3e
00000230: 6491 243e 789b 1c3e 3ab6 94be d89d 8b3e
00000240: 09fa d7bd 9265 29bd 2c6a c73d e698 94be
00000250: cfd7 06bf a362 f6bd 01bc 30be db7d 6cbd
00000260: a846 1fba 8058 c03d cdcc 1abd adf5 cb3d
00000270: 5e7c 9d3e 21f4 ac3e 28c5 07be 5f9c e53d
00000280: f71f 17bd c33d f63c 4a9e b23d a6b3 56be
00000290: 880d 013d 82f7 62be 90f8 bc3d 051f 7cbd
000002a0: 2fbf 063e e88b 34bd ff55 5e3d efc5 1abc
000002b0: 87db 47be b7df 45be 1bfb 34be 0f07 23be
000002c0: be06 ea3d f6c1 9bbd 8c8c 923d 95d7 323e
000002d0: bf06 acbe 3b97 86be a163 27be 5043 d33d
000002e0: 80b0 8bbd 8f34 0fbc 3d11 973d d56c 03bd
000002f0: 4088 b3bc 86ca b2bd b26e 93bd 2d2d fbbd
00000300: 9ad7 06be 9323 d1bd 074b 013d 64ba 7e3e
00000310: 4667 cbbe cb3f 623d d1d3 2b3e 8232 ad3d
00000320: ea92 113d 07e7 bebc 1865 37be 9e2a 1ebe
00000330: 6e3c a93e b0b9 c53d 527d 29be 0253 3abd
00000340: 0866 be3e 935f 13bd 07b7 65be 5f29 073d
00000350: 2745 863e ee2a 81bd 7f3b bbbe 5a3d 9dbe
00000360: 64c1 cf3e 856e c93d a3f7 f53d db26 a03e
00000370: 8ef0 04be 807a bfbd 02f6 9f3d 1134 313e
00000380: 6ab7 6e3e 51a5 ba3b 0268 5abd 7774 86bd
00000390: 1e63 5bbe 3c31 91bd 82fa b13d 0635 8b3e
000003a0: d241 073e da01 9d3e 4fef fb3d 5c45 e1bc
000003b0: dd30 4c3e 1c6a 6dbe a026 f4bb d932 223e
000003c0: 9489 f83d ccc5 0d3e 4a31 96be 5ed0 ab3e
000003d0: 2ac8 92be 8bc7 8fbd 6d36 b83d 6739 02bd
000003e0: 85da a8be c3ca e7bd db08 59bc 8293 cc3d
000003f0: 1ac9 a1ba ac22 043e a9d1 1dbe 1385 053d
0.16173717 0.16524446 -0.08321776 -0.2676916 -0.0037451542 -0.083970666 0.13022467 0.0326184
-0.11049078 0.06334788 -0.04116113 -0.16836902 0.19639224 -0.24242827 -0.17364252 0.104083665
-0.022573348 -0.13222903 0.036928963 -0.025634056 -0.04610467 0.1539448 -0.034849368 -0.26366553
0.016673272 -0.067155 0.04856171 0.022639388 0.10863505 -0.14571697 0.07527752 0.14416277
0.006953856 0.051981088 0.22983253 -0.13481058 0.03918873 -0.0508471 -0.06718262 0.17405304
0.12005564 0.1472579 -0.0028718687 0.017197631 -0.23790501 0.06531054 -0.002515691 -0.25803232
0.022848558 0.039974865 0.076833315 0.0045693177 0.007497757 0.0006689071 -0.13518535 -0.07638819
0.073443435 0.3086154 -0.05078152 -0.069382705 -0.026047565 -0.02968532 -0.1104072 -0.15459606
0.08712636 -0.043710563 0.15706134 -0.050580345 -0.14180894 -0.09420706 -0.097925626 0.16457897
-0.1429856 0.122571364 -0.10115475 0.11070865 -0.04633166 -0.026436375 0.07424087 0.07230175
-0.22072908 -0.11069046 0.031862244 -0.17477502 0.08585909 0.16033301 -0.052698877 0.07884937
0.07272077 0.043199062 -0.0343529 -0.08146148 0.05654449 -0.030859664 0.05555813 -0.13484553
-0.049655568 0.10257859 -0.03263539 0.022162665 -0.08125994 0.09761614 -0.20163423 -0.07702734
0.1690798 -0.053417716 -0.20489253 0.16259085 0.19879712 0.13284083 -0.056682408 -0.18466288
0.008010609 -0.009035541 -0.099736564 -0.14940459 0.17966664 -0.031501167 0.16580182 0.24267086
-0.3710888 0.12765701 0.026676808 0.29738975 0.046939086 -0.15633136 -0.04235482 0.013872045
-0.11241566 -0.15269677 -0.0901058 0.24627683 0.12743945 0.13827881 0.06067487 -0.023431392
0.055289578 -0.15925837 0.014019852 0.27320004 0.16071087 0.15293682 -0.29045278 0.27268863
-0.10545737 -0.04135663 0.097370476 -0.29022902 -0.5267305 -0.12030532 -0.17259218 -0.057737213
-0.0006075897 0.0939188 -0.03779297 0.09958968 0.30758947 0.33780006 -0.13258803 0.11211466
-0.03689572 0.030058747 0.087215975 -0.20966968 0.031507045 -0.22164729 0.09227097 -0.06155302
0.13158868 -0.044078737 0.05428123 -0.009446605 -0.19517337 -0.19323622 -0.17673914 -0.15920661
0.11427067 -0.076053545 0.071557134 0.1746505 -0.33598897 -0.26287255 -0.16346599 0.10315573
-0.06820774 -0.008740558 0.07376335 -0.032086212 -0.021915555 -0.087300345 -0.07198848 -0.12264476
-0.13168183 -0.10211863 0.031565692 0.2487579 -0.3972723 0.05523662 0.1678002 0.08456899
0.0355405 -0.023303522 -0.17909658 -0.15445945 0.33053917 0.09654558 -0.16551712 -0.04548932
0.3718722 -0.03597982 -0.224331 0.03299844 0.26224634 -0.06307016 -0.3656883 -0.3071087
0.40577233 0.09835533 0.120101236 0.31279644 -0.1298239 -0.09349537 0.07810594 0.17305018
0.23312154 0.005695977 -0.053321846 -0.06565183 -0.21424529 -0.07089469 0.08690359 0.2718889
0.13208702 0.30665475 0.12301504 -0.027498893 0.19940515 -0.23185009 -0.0074508935 0.1583971
0.12135616 0.13844985 -0.2933448 0.3355741 -0.28668338 -0.07020482 0.08994756 -0.031793024
-0.32979217 -0.113179706 -0.01324674 0.099890724 -0.0012343258 0.12903851 -0.1541201 0.032597613

bias_ih_l0 f4 [150]
00000000: 4a11 523e 9e5d 18be 7df2 28be 6ab8 3cbe
00000010: be1f 49be 38ae 1bbd 9ef7 1cbe 3d1f 1d3e
00000020: e688 b63d 6536 fd3c fa27 553e fa92 0dbe
00000030: a75c 6bbd 9af2 433e 88a6 d6bb f947 b5bd
00000040: 936b 84bd 418a 04be d767 0b3e ec23 5dbe
00000050: 1124 1e3e 50ec ccbd fa0f 04be 8d78 833d
00000060: 95f6 6ebe a0d4 37bd 66ee 2a3e 3456 7fbe
00000070: 85cd d2bd 1daa 8bbe acc1 43bc 2a1a b2bd
00000080: 5407 ebbd c0fb 46be ca3b 483e 7c10 303e
00000090: bbdc 36be d7d9 263e 47be 093e 4941 053d
000000a0: d681 aebe 652d 95bb 2993 9dbd 418e 43bd
000000b0: 4df5 a1bd baa0 a33d 1951 053d 6441 64bd
000000c0: bdf4 fd3c e665 e1bc ee99 b93e 303a 1ebf
000000d0: 74b0 033d 44de 7b3e aa01 b43e cd8a 4abf
000000e0: 14e8 b2bd 97d2 8bbd 4fad 3e3e e472 7c3e
000000f0: 6ca4 843d 7171 8b3e a154 f9bd 0132 12be
00000100: bff5 5d3e 8c5a 00be 8c55 cd3d 471c 44bd
00000110: 6736 aa3e 1210 0fbe 8c4c b53c 82a1 66be
00000120: 5b59 c8be 8ff9 44bf 123f 6abe de71 9d3e
00000130: ea34 48bd 750f 773c 630e bfbe 396f 32be
00000140: 3b56 813e 092e acbd ab56 9bbe 96a2 613e
00000150: 5bae 893d 428d 213e 4b95 6abc 6cab d3bd
00000160: 6953 b4be bcd4 3f3e 409c d9bd ef6f 18bf
00000170: 4eed d4bd d6b0 063e 70cc 7bbd ced9 203d
00000180: 893c 073d e596 003f 258c 41bf 9fb6 85be
00000190: 2422 13be c436 eebd d881 1dbc ad4b b33d
000001a0: 1db5 1d3d e946 acbe 8382 e23d 2864 31be
000001b0: 05b0 46bd c5b1 9b3c 4bab ff3c daed 10be
000001c0: 76f9 de3d dadb 23be 636f f23d 5a14 523d
000001d0: d057 07be 8e24 c6bc e6e7 d23d d0da 0e3e
000001e0: 39ba 063e 5bdc 0b3e ebfa 183e 5e08 38be
000001f0: e412 73bd 97eb 773c b4ae a73e e4a4 e43b
00000200: 5afc 623b 8e86 2bbe 9270 1bbe 2bd5 11be
00000210: b6db 2dbd 517d 83bd 1876 9f3d abab 91be
00000220: f407 f83d 5a50 9d3d 8087 a13d deb8 23bd
00000230: 9374 eb3d 4ac4 27be a0f3 953d de3f ebbc
00000240: ed84 063d 2c60 343e dc0c 00bd 6031 c3bd
00000250: 799b b73d 7915 4a3d
0.20514408 -0.14879462 -0.16498752 -0.18429723 -0.19641015 -0.038007945 -0.15328833 0.15343948
0.0891283 0.030909726 0.20816031 -0.13825598 -0.057461407 0.19135514 -0.006550614 -0.08851618
-0.06465831 -0.12943365 0.1361383 -0.21595734 0.15443446 -0.100060105 -0.1289672 0.064194776
-0.23336251 -0.04488051 0.16692504 -0.24935228 -0.10293106 -0.27278224 -0.01194803 -0.08696397
-0.11476007 -0.19431973 0.19554058 0.17193788 -0.1785764 0.16294037 0.13451491 0.032532964
-0.34083432 -0.0045525306 -0.07694084 -0.047743086 -0.079081155 0.079896405 0.032548044 -0.055726424
0.03100049 -0.02751441 0.36250252 -0.6180754 0.0321507 0.24596506 0.3515752 -0.79118043
-0.08735672 -0.06827276 0.186208 0.24653202 0.064766735 0.27234986 -0.12174345 -0.14276887
0.21675776 -0.12534541 0.100260824 -0.04787853 0.3324463 -0.13970974 0.022131227 -0.22522548
-0.39130673 -0.76943296 -0.22875622 0.30750936 -0.048878588 0.015079369 -0.37315664 -0.1742524
0.252611 -0.08407218 -0.3033956 0.22034678 0.06722709 0.15776542 -0.014317821 -0.103354305
-0.35219887 0.18733495 -0.106255054 -0.595458 -0.10396825 0.13153395 -0.061474264 0.039270215
0.033016715 0.50230247 -0.7560447 -0.2611589 -0.14368492 -0.116315395 -0.009613477 0.087546684
0.0385028 -0.3364785 0.110600494 -0.17323363 -0.04850771 0.019005666 0.031209609 -0.14153233
0.10887425 -0.16001835 0.118376516 0.05128894 -0.13217092 -0.024187353 0.10298137 0.13950658
0.13156976 0.13658278 0.14939468 -0.17971942 -0.059344187 0.015131853 0.32750475 0.0069776643
0.0034635277 -0.16750547 -0.15179661 -0.14241473 -0.04244586 -0.064203866 0.077861965 -0.28451285
0.12110892 0.076813415 0.07887173 -0.039971225 0.11496844 -0.16383472 0.073218584 -0.028716978
0.03284161 0.17614812 -0.031262264 -0.09530902 0.08965201 0.049336884

bias_hh_l0 f4 [150]
00000000: 4f94 6d3d 5c9d e7bd 5a01 2abd ecf1 36be
00000010: fb36 c4bd c373 a6bd dd2b 853d d67a e43d
00000020: 20b6 28be 512d 9abc b7bb 683e 2e8a c3bd
00000030: 708a 473d 324e 433e 4aba bbbc 30ff 8bbe
00000040: cd47 76be f2ae 483d 6d78 f8bd cd60 a2bd
00000050: c08f 76bc 5318 65be 1c5c f3bc 0061 30be
00000060: 93a6 dfbd 1beb 16be 265f 313e 3902 01be
00000070: e365 64bd 5b03 3abe 89aa da3d 8249 443d
00000080: faf6 93bd 5a05 2a3d 70fb 0c3e 4cea 1d3e
00000090: 8cc8 c4bd 38b6 2d3e adcf e9bc 2a0c 393d
000000a0: 5d38 2cbe 64fc 1b3d 01cf 0dbe ff96 d33d
000000b0: 5063 15be e99e dabd 7159 913d fa1f a8bb
000000c0: 33ca 84bd d5d8 4bbe e7a1 1b3e 1815 01bf
000000d0: 7034 87bc 7e22 ad3e 6ee9 803e d1c1 38bf
000000e0: 1ec2 c6bd ba4e a3be 988c 503e 850f 803e
000000f0: 1b83 7f3e 93d5 7c3e 4df5 6c3d 9e77 5f3d
00000100: e638 513e 52e0 abbc e180 1e3e e179 23bd
00000110: b5b1 7d3e c100 64bd c28e 1fbd dca6 8dbd
00000120: f3c4 18bf 72dd 09bf 452f a8be 6976 603e
00000130: c127 293d 0c11 133e 18b2 cbbe f7c6 8ebe
00000140: c39a 913e 0e37 983d e723 f8be 6397 983d
00000150: 7f88 9e3d 33da 1b3e 3e9e eabd 204b 6f3d
00000160: ec83 70be 5a55 2d3e 6cde c3bd 7088 18bf
00000170: d6b4 92bd 92c3 d43d a948 693d 7bee 183e
00000180: edb0 833e b6d9 ed3e 366a 57bf b323 2dbe
00000190: 520f f8bd bbc8 cd3c 7b3a 85bc dc25 7dbc
000001a0: ea81 053e c227 163e fd76 833c 04e5 95be
000001b0: a96d 15bd 61e9 8abd ed60 243e d80f 8dbc
000001c0: 1c91 03bd 3aad b6bd 89c9 a83d 1537 363e
000001d0: 70a1 afbd 63d7 c8bd 4b7f 283e fb8c 71be
000001e0: 849d 803e 496b e3bd f05b 5d3e 7f3f 92be
000001f0: d4d8 45be ec88 b63d d55a 343e a8e2 893d
00000200: 4c5e 553e a62e 8f3c e745 4dbe e573 e83c
00000210: d735 77be 7119 3dbe 784a d23d be2f 9abe
00000220: 8301 7dbe b339 503e b579 ac3e 3cf9 9ebd
00000230: c33c 123d 2112 c4bd af48 a53d 2ba3 1ebe
00000240: 80e3 05bd cf88 833e 59da 00be 5a4b 293d
00000250: 8368 76bd d970 30bc
0.058002766 -0.11309311 -0.041505195 -0.17865723 -0.09580799 -0.081275485 0.06502507 0.111562416
-0.16475725 -0.018820437 0.22727858 -0.0954784 0.04871601 0.19072798 -0.022915978 -0.2734313
-0.24050827 0.048994966 -0.121323444 -0.079286195 -0.015048921 -0.2237256 -0.029707007 -0.17224503
-0.109204434 -0.14738123 0.17321452 -0.12598504 -0.05576123 -0.18165343 0.10677058 0.047921665
-0.072248414 0.04150901 0.13767791 0.15421408 -0.09608564 0.16964042 -0.02854141 0.045177616
-0.16818376 0.038082495 -0.13848497 0.103315346 -0.14588666 -0.10674841 0.07097138 -0.005130765
-0.06483879 -0.19906934 0.1519848 -0.5042281 -0.016504496 0.33815378 0.25178093 -0.7217074
-0.09704994 -0.31896 0.20366132 0.2501184 0.24952357 0.24690847 0.057851125 0.054557435
0.20431861 -0.020980988 0.15478851 -0.039911155 0.24774821 -0.05566478 -0.038954504 -0.069165915
-0.5967552 -0.53853524 -0.32848564 0.2192017 0.041297678 0.14361972 -0.39784312 -0.27886173
0.28438386 0.07432376 -0.4846489 0.0745075 0.07740878 0.15219955 -0.114559636 0.058421254
-0.23487824 0.1692709 -0.09563908 -0.5958319 -0.07163398 0.103888646 0.05695406 0.14934723
0.2572092 0.46455163 -0.8414644 -0.1690815 -0.12112297 0.02512013 -0.016263237 -0.015450921
0.1303784 0.14663604 0.016047949 -0.29276288 -0.036481533 -0.06782795 0.16052599 -0.017219469
-0.03212081 -0.08919759 0.08241565 0.1779445 -0.08575714 -0.09806707 0.16454808 -0.23588936
0.25120175 -0.111044474 0.21617103 -0.2856407 -0.19320995 0.089128345 0.17612775 0.067326844
0.20836753 0.017478298 -0.20046197 0.028375575 -0.24141632 -0.18466736 0.1026811 -0.3011455
-0.24707608 0.2033451 0.33686605 -0.077623814 0.03570248 -0.0957377 0.08070504 -0.15491931
-0.032687664 0.25690314 -0.12583293 0.041331626 -0.060158264 -0.0107690925

weight_ih_l1 f4 [150, 50]
00000000: accd 123d e56c 083e 343c e4bc 69e1 793e
00000010: 8896 6bbd b0e6 13be bd56 15bd 7c26 24be
00000020: e8fb 25bd 92cc 64be fa8b f33d b252 dbbc
00000030: 27ae 96bd 8e2e 97bc 3c88 f3bc a4c7 05be
00000040: 44c9 5ebd be64 6c3e 01ac e8bd 0c78 4abe
00000050: 8e86 dbbb 03c5 9cbd a035 61be d218 153d
00000060: 9b9e c6bc d63c e63d e8e8 783d a85a 733e
00000070: 6250 5dbc 93f8 8e3e 8a07 063e 3373 e73c
00000080: 5331 bfbe b06b 103d 4e53 65be bc16 6f3d
00000090: 0f35 9dbe 72af cf3d dd49 303c 4123 e8bd
000000a0: 9446 91be 29d2 12bd 9784 9abd f8df d13d
000000b0: c678 28be 70c2 f33d eaf9 9d3d bca9 833d
000000c0: 09f8 063f 1eed c23e 3b14 ffbd 1e7e 81be
000000d0: 2064 f03d 3ca5 453d ef9b d3bd d5f9 adbe
000000e0: 9437 ba3c af71 f7bc 68f1 0dbc 2028 56bc
000000f0: 71d8 a63d f607 e43d f1f6 14bd 8197 8e3e
00000100: 4162 bebd 1b2e 20be 550e 9f3d 473f f53b
00000110: 78c9 d8bd ec92 a4bc 002d 4bbe d988 b63e
00000120: 7884 a5bb 6e67 e73e ca14 c93d fa78 0e3e
00000130: cf3f 2cbe 4dbc 19be f9bb 003d 0685 443e
00000140: 01d5 283e b66f 3a3e 5b8a ef3d 23b1 6ebd
00000150: 5156 66bd 8931 a6bd d2ff cb3c a368 d5bd
00000160: 51f6 13be 4817 64bd 674f edbd 18ee e43d
00000170: af1e b83d 25c0 0e3e 42ec 053d 3a42 5f3c
00000180: f5ab b6bd d382 c23d 810f ce3d 9c3e d53d
00000190: 7baa 1ebe d029 d6bd 9ee0 a93e e42b 34be
000001a0: c081 13bd 67e8 18be b491 bc3e 5ee6 3b3e
000001b0: 2509 d1bd 87fb ab3c 8b78 03bd a497 f3bd
000001c0: 4316 e4be a97b 31bd 23c3 113e b96e 1d3e
000001d0: 2e08 d9bc 8997 21be bc86 04bd e471 8a3c
000001e0: ddf8 ef3e 25a7 2d3f 683a b83d 40d5 c4bd
000001f0: 9a4e 04bf d22a 943c ae17 e1bd 08b9 1bbe
00000200: 72eb 8e3e 487c f7bd 958a debe fd8c 58be
00000210: 9e12 763c 57d5 5fbe a8a7 f03c 1528 e13d
00000220: 3e1a 8cbd 4c40 373d 1356 5f3e 37b7 6d3d
00000230: f5ea 833e fb13 17be 68fc e13e 6835 93be
00000240: 393d 223e 739e 2a3e d62c 11be e076 efbd
00000250: 7255 4dbd 4c4a b4be a2b8 44be bd97 ec3e
00000260: 7e41 9ebe c181 bebe df0d 693e 2ac1 013e
00000270: 16dd 283d 4312 c5bd 7388 a2bd 14a1 aa3e
00000280: 9ae8 8cbe facc 7bbe c2cc 473e 0fd2 12be
00000290: 8d95 50be ce19 fabe a879 af3d 0e23 a2be
000002a0: e42c 523e 8cea a6be 4038 d0bc 02f4 61bd
000002b0: 4f88 b6be 80fc 95be 620b 383e f5e5 3ebe
000002c0: 3158 1d3e 858d b3bd f34f 6e3d 9649 833e
000002d0: 75c8 32be dbdc 82be b999 47be 559c 183e
000002e0: d26d 493e 76a7 b1be cb89 0cbf b493 06be
000002f0: 7636 9ebd 220f 143e 3c39 c4be 47a1 24bd
00000300: 7b0f 93be 68cd 89bd 12fc 123d e28a 95bc
00000310: 6248 9fbd 0060 77be 7ba9 583e 3afb 8b3e
00000320: 311e 1c3e 466a 943e ee9d a53c 0bf8 953d
00000330: dbd4 35be c05d d03e 7ea3 c43b b528 3c3d
00000340: d8bd 963e 313f b3bd cf19 6c3c 468c c53e
00000350: d868 93bc c301 673b 3ee6 913d 77cd 5abf
00000360: 62e4 be3d 37ea a93e 110a 5e3d 25c2 1fbf
00000370: b1bf 89bd f1be a5bd bc17 13bf a5d7 c3bd
00000380: b41d c73d 8078 ebbd 86c6 5fbe 751b 8f3d
00000390: 8635 3cbf 5e09 173f 15e5 233e bb05 1b3e
000003a0: 7fa8 94be f92d 17bd 0352 50be 4a11 033e
000003b0: 44e7 10bf 4e7d 39be e0af fdbe 9fa4 dc3d
000003c0: 02e6 59bf e3a3 bc3e 5913 10be 5759 c73d
000003d0: 4fa6 ae3c 535d 8f3b e705 b03d 86ed 183e
000003e0: bd9b 323f 78cd 1c3f 1b62 b7bd fd14 c33c
000003f0: 13b0 2ebe e183 84bd 6ae2 5a3e 168b 3cbe
0.035840675 0.1332279 -0.027860738 0.24402393 -0.057516605 -0.14443469 -0.036459673 -0.16030306
-0.04052344 -0.22343662 0.11891933 -0.02677283 -0.07357436 -0.018454816 -0.029728048 -0.13064438
-0.05439116 0.23085305 -0.11360932 -0.19772357 -0.00669939 -0.076547645 -0.21993113 0.036400624
-0.02424555 0.11242072 0.06076899 0.23765051 -0.013507934 0.27924022 0.13088813 0.028253173
-0.3734232 0.03525895 -0.2239506 0.05837129 -0.30704543 0.101408854 0.010759798 -0.11334849
-0.2837416 -0.035844956 -0.07544821 0.10247797 -0.16452321 0.119023204 0.07713683 0.06428859
0.5272222 0.3807153 -0.124550305 -0.25291532 0.11737847 0.048253283 -0.10332476 -0.3397967
0.02273158 -0.030205576 -0.008663513 -0.01307109 0.08146752 0.11134331 -0.036368314 0.27849963
-0.09296084 -0.15642588 0.077664055 0.00748435 -0.10585302 -0.020089589 -0.19841385 0.3565128
-0.005051192 0.45196098 0.09818418 0.13913336 -0.16821216 -0.15013237 0.031429265 0.1919137
0.16487505 0.18206677 0.11696311 -0.0582744 -0.05623466 -0.08114917 0.024902258 -0.104203485
-0.14449431 -0.055686265 -0.115874104 0.11178225 0.089902274 0.13940485 0.032696016 0.0136266295
-0.08919517 0.09497609 0.10061551 0.104123324 -0.1549472 -0.10457194 0.33179182 -0.17594868
-0.03601241 -0.14932404 0.36829913 0.18349597 -0.10206822 0.020993961 -0.03209738 -0.118941575
-0.44548234 -0.043330822 0.14234595 0.15374269 -0.026493158 -0.15780462 -0.032355055 0.01690001
0.46869555 0.6783317 0.08995515 -0.09610987 -0.51682436 0.018086825 -0.10990845 -0.15207303
0.27914006 -0.12084252 -0.43465105 -0.21147533 0.015019087 -0.21858726 0.02937682 0.10993973
-0.06840943 0.044739053 0.21810178 0.058036055 0.25765195 -0.14753716 0.44137883 -0.28751683
0.15843667 0.16662006 -0.1417726 -0.116925955 -0.050130315 -0.35212934 -0.19211057 0.46209517
-0.30909342 -0.3720837 0.22759198 0.12671342 0.04122647 -0.09622624 -0.07936182 0.33326018
-0.2752121 -0.24589911 0.19511703 -0.14337943 -0.20369549 -0.48847812 0.08568126 -0.3166737
0.20524937 -0.3260082 -0.025417447 -0.055164345 -0.3565087 -0.29294205 0.17973092 -0.18642409
0.15365674 -0.08767227 0.058181714 0.2564208 -0.17459281 -0.25559124 -0.19492234 0.14903386
0.196708 -0.34698075 -0.54897755 -0.13142282 -0.07725231 0.14458898 -0.38324916 -0.04019287
-0.28722748 -0.06728631 0.035884924 -0.018254701 -0.07777478 -0.24157715 0.21158402 0.27340108
0.15245892 0.2898733 0.020216908 0.07322701 -0.17756979 0.40696526 0.006000935 0.04593726
0.29441714 -0.08752287 0.01441045 0.38583583 -0.01799433 0.0035248853 0.07123993 -0.85469764
0.09320904 0.33186504 0.05420882 -0.62405616 -0.06726015 -0.0809306 -0.5745809 -0.09562615
0.09722462 -0.11497593 -0.21853074 0.06987659 -0.7351917 0.5899867 0.16005357 0.15138905
-0.29034802 -0.036909077 -0.20343785 0.12799564 -0.56602883 -0.18114206 -0.49548244 0.107735865
-0.8511659 0.36843786 -0.1406988 0.09733837 0.021319536 0.004375139 0.08594876 0.14934358
0.6976889 0.6125102 -0.08954259 0.023813719 -0.17059354 -0.064704664 0.21375433 -0.18412432

weight_hh_l1 f4 [150, 50]
00000000: f026 fd3e a938 9abe 5fbe 5cbe 9942 e4be
00000010: 6f4d a53e f5e8 223d 8d0b ccbe c6a1 41bc
00000020: 83ed 2c3d aa85 f1be f4ba 90bc 4562 f3be
00000030: 81ff 2d3e 396d 4bbe 618b c93a c853 56be
00000040: 59e5 c53e 15b3 9ebe 1e1d f8be 9e3e 03bc
00000050: bbdb a33d 19b0 843e b1b9 ac3c dc33 2b3e
00000060: 727e 46bf c86d 1abe 1527 d23d eac0 773e
00000070: 3ce3 4e3d 3109 6f3e 4e90 39be 7c66 8e3e
00000080: 0498 a13d 878d 9abe 986c babe 8fe7 ffbd
00000090: 00b8 a2be a451 6dbe 35e0 883d 232e 19be
000000a0: 5155 18be eae5 62be 8c11 06be e54a 60be
000000b0: f8bb c7bd 005e 103e 217e bdbc e960 d7bd
000000c0: 839a 70be 5628 65be 1328 79bc 7a96 713e
000000d0: 9db5 d33a 482b e2bd b6ef 8b3e 5def 8a3e
000000e0: a7d9 6cbe 7796 433d 66a3 833f ba00 a9be
000000f0: 89b2 5b3f 577a 983c 159e 423e 888b 833d
00000100: 983a 7dbe 803e 213d b602 55bd 57da c4bd
00000110: 8132 14be 43d2 8ebe 5945 173f 3b40 8f3e
00000120: 8596 df3e f0f0 26bd b2da 14be bccd 5c3d
00000130: 2c79 4ebe 835c e03d 61b0 5e3e 4518 fd3e
00000140: 1682 c2bd bf22 323e e67b d3bc 2927 62bd
00000150: eca9 fc3e 93f2 373e d9e0 85be 9a5d 313e
00000160: 8fd0 60bd 45f4 f4bc f315 113d 30c6 a23d
00000170: fe01 f7be 7008 0cbe 6f02 cabe 1e48 093d
00000180: d452 c83e 626a 2fbe 70a5 1cbe 26ab 1abe
00000190: 2977 153e 79d2 4bbf 6d6f 863f 23ad 2ebe
000001a0: a2fd db3d f47f 42bd 09c9 8c3d 34cb 4e3e
000001b0: 713c b7bc eedc 7c3e e3ba 0d3f e214 793e
000001c0: 2f15 3dbe 9b15 aabd 92df 5a3e b90d 12bd
000001d0: 230b b3bd f4f9 33be 4eeb 063e a3f0 81bc
000001e0: 0f20 003f 6763 5dbe 50bb c4be 1a8d 853c
000001f0: c31e 75be 51c7 1f3c 2031 813e 5105 ef3c
00000200: 1162 163e fdc8 7e3e 21f3 2c3e 7a35 ab3d
00000210: fed5 803d 9933 c83d ee78 22be 5d44 09be
00000220: 30a2 8d3d 3543 35bf 5061 8a3d a09c 343e
00000230: 5221 30bd 7181 493c df33 2e3d e84f 2fbe
00000240: 7910 ec3d 6ec1 193e ce76 9c3e 146e d13e
00000250: 5aef bcbd a685 e8bd 3295 613e 8645 6fbe
00000260: e7b3 443c 2294 983e af97 4a3d 6a7d 303e
00000270: cd25 f7b7 f0e8 adbd f147 933e 7cc5 f4be
00000280: af5e 423c ef49 90b9 7ef4 be3d 27d7 37be
00000290: 3c59 e73c e781 afbe 1c3c 343f 48c9 2f3d
000002a0: 1e4a 8c3d 6fc8 653e 0a59 9b3e 4046 213e
000002b0: b042 3b3c 8256 973e e348 633c aee3 09bf
000002c0: 7c38 babd 5da6 8e3e fc21 95bd 1b00 a03c
000002d0: 803c 16be 7a93 c13d 5c83 83be 96f5 74bd
000002e0: 9a89 41bd 3449 753e fbc5 bb3d cd7c 253e
000002f0: 62de 1e3d e8d8 77be 9e42 ccbc b14c a7bd
00000300: 7d4e 88be 3700 0f3e 6301 ed3d 7982 b33d
00000310: 7ad9 0bbf 92e5 523e 9a4a 03be 95ce 2abe
00000320: 1d4f e93d 60cc 00be 8e5b b1bd 68e6 42be
00000330: 9079 f23e 0c86 283c a2c2 d43b 7218 2d3e
00000340: 2ab0 ad3d f4a5 41be 2c48 3c3e de42 17be
00000350: 03f8 ea3d 400e cabb e1f5 8c3d 4253 9a3e
00000360: e317 25bd 64b7 46bd 1330 c4bd 0879 d03e
00000370: 1fc0 d73c 5686 743e aa55 8abe daca 4e3d
00000380: 2160 04bf 1b82 b2bd a995 bc3e 52f6 c13d
00000390: 37e0 22be 7caa 813d 1809 013e ad52 41bd
000003a0: 68fd 96bd dc9b 40be 8b1d f6bd 4491 b73d
000003b0: 575a 853d 1eba f5bd aa06 89bb 1d47 f2bc
000003c0: 0bf5 27be 837e 50bd 2142 03bd c1c0 edbd
000003d0: 38a0 263f e3d1 183c 4679 5bbe eaba a43e
000003e0: 5076 36bd fed1 603d 5d78 1bbe 6463 92be
000003f0: 2440 fbbe 0a56 88bc 4110 dcbc 5b27 ad3e
0.4944377 -0.30121353 -0.21556996 -0.4458206 0.3228564 0.039772946 -0.39852563 -0.011818355
0.042218696 -0.4717229 -0.017667271 -0.4753591 0.16991998 -0.19865884 0.0015376621 -0.20930398
0.3865154 -0.30996004 -0.48459715 -0.008010535 0.08000895 0.25915602 0.021084638 0.16719002
-0.7753669 -0.1508094 0.102613606 0.24194685 0.050509676 0.2334335 -0.18121454 0.27812564
0.07890323 -0.30186102 -0.36410975 -0.12495338 -0.31781006 -0.23175675 0.06683389 -0.14959006
-0.14876296 -0.22158018 -0.13092631 -0.2190357 -0.09752649 0.14098358 -0.023131432 -0.10516531
-0.23496442 -0.22378668 -0.015207308 0.23592559 0.0016152147 -0.110434115 0.27331322 0.27135745
-0.23129903 0.047750916 1.028424 -0.33008367 0.858193 0.018613024 0.19005616 0.06423098
-0.24729383 0.039366245 -0.05200454 -0.096119575 -0.1447239 -0.27894792 0.5909019 0.2797869
0.43669525 -0.04075712 -0.1453655 0.05390714 -0.20163411 0.10955145 0.2174697 0.4943258
-0.09497468 0.17396067 -0.025815915 -0.055213127 0.4934839 0.17963628 -0.26148108 0.17320862
-0.054886397 -0.029901633 0.035421323 0.079479575 -0.48243707 -0.13675094 -0.39454982 0.033516042
0.39125693 -0.17130426 -0.15297484 -0.1510435 0.14596237 -0.7961803 1.0502754 -0.17058234
0.10741736 -0.047485307 0.06874282 0.20194703 -0.022367688 0.24693653 0.5536329 0.24324372
-0.18465112 -0.08304902 0.21374348 -0.03565762 -0.087423585 -0.17575818 0.13175699 -0.015861815
0.5004892 -0.2161995 -0.38424158 0.016302634 -0.23937516 0.009752111 0.25232792 0.02917734
0.14685847 0.24881358 0.16889621 0.08359809 0.06290816 0.097754665 -0.15866444 -0.13404985
0.069157004 -0.70805675 0.06756842 0.17637873 -0.043000527 0.012298928 0.042529937 -0.17120326
0.115265794 0.15015194 0.3055939 0.40904295 -0.0922534 -0.113536164 0.2202957 -0.23366365
0.012005783 0.29800516 0.049461063 0.17235342 -2.9462297e-05 -0.08491695 0.28765824 -0.4780692
0.011863395 -0.00027520905 0.09323977 -0.17953168 0.028240792 -0.34278795 0.7040422 0.042916566
0.06850074 0.2243974 0.3034137 0.15749454 0.011429474 0.29558188 0.013872358 -0.53863037
-0.09092805 0.278613 -0.07281873 0.0195313 -0.14671516 0.09451957 -0.25686157 -0.05980452
-0.047250368 0.23953706 0.09168621 0.16160889 0.0387863 -0.24203837 -0.02493411 -0.081689246
-0.26622382 0.13964926 0.1157253 0.0876512 -0.5462872 0.20595387 -0.12821427 -0.16680367
0.11392043 -0.12577963 -0.08660041 -0.19033206 0.4735837 0.0102858655 0.0064929286 0.16903856
0.08480866 -0.18910962 0.18386906 -0.14771602 0.11473086 -0.0061662495 0.06882835 0.30141646
-0.040305983 -0.04851474 -0.09579482 0.4071734 0.026336728 0.2387937 -0.27018481 0.050486423
-0.5170918 -0.08716222 0.36832932 0.0947081 -0.15905844 0.063313454 0.12601125 -0.047197986
-0.07372552 -0.18809456 -0.120173536 0.08963254 0.065113716 -0.1199839 -0.0041817026 -0.029574925
-0.1640207 -0.0509019 -0.032045487 -0.116090305 0.65088224 0.009327385 -0.21432981 0.32173854
-0.044546425 0.054887764 -0.15182634 -0.28591454 -0.49072373 -0.01664259 -0.02686322 0.33819088

bias_ih_l1 f4 [150]
00000000: d671 233e 6b5e 843c 7e01 88bb f30a 1f3e
00000010: 4327 a6bc 5e7a a23d b04b 98bd 6cef bb3e
00000020: a120 553d ca95 603e 88a6 c43e d686 8cbd
00000030: 866a 453e 58bd 363e 3132 d23d b844 82bd
00000040: 5cf5 a93e 7f59 e2bc a411 b73d 2a69 aabd
00000050: 2dd8 6e3e 00a7 ee3d 1049 5bbe 5027 873e
00000060: 623e 053e 7f5c 8d3d 46cd 70be 49f3 8f3e
00000070: ed13 5cbe 82c9 99bd 9b94 a83d 563c 853e
00000080: 6c4c 293c 0aa3 9a3e eea8 aabd db27 40bd
00000090: a796 83be 2dfb 2e3e ec08 f1bd df63 143c
000000a0: 012c 813e bc08 a23d c41f 443e 2466 9c3e
000000b0: 8fed 983e d077 1f3e 6f3e 8a3e 23eb 073e
000000c0: 876c 32bd 4ede 8a3e 6199 6a3d 1c85 653e
000000d0: debf a33d dc65 643e 31b2 e53d b53a 163d
000000e0: 70f4 80bd 64bd 783d 3c36 5ebe 8d9c 9cbe
000000f0: a725 a2be 7a49 793e 89d6 593e 2100 a83e
00000100: 7cf2 dd3d 6765 153d 851c 8d3e 3fd5 e33d
00000110: 8533 453e 542d 99bc 848f a73e a4eb 2abe
00000120: abec 913e 4a7f 29bc 5a13 8c3d ab47 c33e
00000130: b5d9 9e3e 807f 1abe e6fa 9e3e 0ee3 403e
00000140: c96a 6cbe 38c9 9a3d 7741 a5be ffc8 bbbd
00000150: c25c bfbd 5806 f0be 148e 8cbd 464c 963d
00000160: 7a4c 21be c5b6 0dbd 71ba 193e 25eb 7d3e
00000170: 9035 16bf 0f06 6b3c dd0e 10be ab3e 8f3e
00000180: 87b4 96bd 68a2 cb39 caec 783e d9c5 a4be
00000190: 5829 0e3e a3f5 923d d985 e33d 481c 403e
000001a0: ea35 533b 276a 4f3e 129d 0dbe 2b13 e8be
000001b0: a21d 8abe c1f5 9fbe 3949 803e 83e4 b43d
000001c0: 7f09 c33d 8b68 44bd f8c8 013e 9763 8c3c
000001d0: 5ce8 d73d fb06 f93d d037 ff3d 1a13 013b
000001e0: fc37 963e 46ed 043e f1d3 8bbc a672 2d3e
000001f0: ae26 18bd cc64 dbbb 673d 90bd ab31 a03d
00000200: 72ea 8a3e 91eb ab3d 7886 e13e f6a8 5e3e
00000210: 5e5a 15be f643 aabd d85c 91be 370f a03d
00000220: a742 ca3e f125 14be 1ece 96bd 8515 66be
00000230: ec33 8b3d f5ee 32be 9205 053e 7c14 b53d
00000240: 7a18 973e 8187 003d 77ea 09be 9c01 933d
00000250: a79c e83c 6338 7dbe
0.15961394 0.016158303 -0.0041505685 0.1553152 -0.020282393 0.07933496 -0.07436311 0.36706102
0.05203307 0.2193214 0.38408303 -0.068616554 0.19278917 0.17845666 0.102634795 -0.06360763
0.33195007 -0.027630566 0.089389116 -0.0832084 0.23324652 0.116529465 -0.2141459 0.2639718
0.13012078 0.06902408 -0.23515806 0.281153 -0.21491976 -0.07509138 0.08231469 0.26022595
0.010333162 0.30202514 -0.08333002 -0.04691301 -0.25700876 0.17088003 -0.1176928 0.009057014
0.25228885 0.07911822 0.19152743 0.30546677 0.29868743 0.15573049 0.27000758 0.13273291
-0.04356053 0.2712273 0.05727518 0.22414058 0.0799558 0.22304481 0.11215628 0.03667708
-0.06296623 0.060727492 -0.21700376 -0.3058819 -0.3166935 0.24344435 0.21273245 0.32812598
0.10837266 0.036473658 0.2756082 0.11124658 0.19257934 -0.018698372 0.3272668 -0.16691452
0.28500876 -0.0103452895 0.068396285 0.38140616 0.31025472 -0.150877 0.31050795 0.18836614
-0.2308761 0.07557911 -0.32276508 -0.09169196 -0.09343864 -0.4687984 -0.06863037 0.07338767
-0.1575183 -0.03459813 0.15012528 0.24796732 -0.5867548 0.014344706 -0.1406817 0.279775
-0.073586516 0.0003884018 0.24309078 -0.32182196 0.13882959 0.07175758 0.11109514 0.18760788
0.003222818 0.20255338 -0.13829449 -0.45327124 -0.26975733 -0.31242183 0.25055864 0.08832648
0.095232956 -0.047951262 0.1267432 0.017137332 0.10542366 0.121595345 0.12461817 0.0019695223
0.29339588 0.12981138 -0.017068835 0.16938266 -0.037146263 -0.0066953655 -0.070429616 0.078219734
0.27131993 0.0839454 0.44047904 0.21744141 -0.14585254 -0.08313744 -0.28391147 0.07815402
0.39503977 -0.14467598 -0.073635325 -0.22469147 0.06797013 -0.17473967 0.12990406 0.08841798
0.29510862 0.031379227 -0.13468347 0.07178041 0.02839501 -0.24728541

bias_hh_l1 f4 [150]
00000000: 8565 2f3e 364f 15bd c33d 353e fc2d 9a3d
00000010: aac1 98bd 5d05 0c3c 0331 d2bd 6040 a03e
00000020: da67 db3d 6fc5 613e cc7d b03e 62ee 31be
00000030: ac85 213e 5d2e 443e bd6e 453d 4eca 743b
00000040: cea7 303e e93f 4f3e 2ef5 073e 1ce3 63bd
00000050: 218d 7b3d eded 933a 75b8 50bd ce03 e23d
00000060: 2936 a53d f66c 2e3d 3e42 7dbd 9750 bd3e
00000070: da26 49bd dd09 2d3e 9085 fe3d e2e3 5a3e
00000080: 63b5 c43c a228 263e 31f7 8bbd 5fcb b2bd
00000090: ee34 5ebd 0e4a f63d 02aa 023e 6808 0d3e
000000a0: 2c9d 193e 3484 133e 3272 983d 4d38 0b3e
000000b0: e842 bb3e 0cfc 18bd 262a 863e 3a9a 733e
000000c0: fe15 8b3d 8536 d43e 45da ecbc 0d2a bb3e
000000d0: aedb cbbd 709c 133e 2c02 cf3d 3786 d2bd
000000e0: 87e5 00be d7fd e53b 6367 92be c680 e8be
000000f0: 736f 85be 3566 173e ec94 323e cd43 8d3e
00000100: e9bf 0b3e 600e 2abd ee56 833e 49f9 003e
00000110: 9f92 543e 8733 96bd 3380 823e 08d3 98bd
00000120: e0e9 993e a568 ca3d 425f 0dbd 53ee 913e
00000130: 7717 403e 8b29 70be 9430 433e 9d05 83bd
00000140: e75a 96be bd52 5c3e bec9 62be 9b5c 21be
00000150: 78a6 96bd c21a eebe 09a2 9cbd 5960 47bd
00000160: 511e eabd 0e7b 63bd 6faf a33e 38f5 c33c
00000170: 8128 14bf 32da 0c3e ce11 803c 0021 663e
00000180: 6d07 523d 6e6b aa3c d978 b63e 68c0 f5bd
00000190: 9f16 a23e 81f6 fe3d e7af 773e a15c 02bd
000001a0: 1322 12be 6843 f33d 0583 b83d b563 a3be
000001b0: 8989 143f 323d 0ebf 3e00 013e 7d1b 363c
000001c0: 31c3 0fbd 6875 78bd 8176 f73d add9 5c3c
000001d0: 1e38 1abd 6406 ebbd 1def b83d 7efa 373e
000001e0: aefd 1bbc 4308 a93e d117 91bd 898c f83d
000001f0: b29f 163d 3abe edbd b555 e83c 1ea7 8d3e
00000200: a68f fb3d bc5a 47be d567 343f f493 5e3d
00000210: a98e a7be bbcf d83c 02f2 0ebe 6460 c9be
00000220: bd85 acbd 469e 55be 6a4f 043f 4ed3 9abe
00000230: 07f9 7cbd ba5d fabd 9e5c 103e a00a 20be
00000240: 4c90 ad3e bc01 753e 0d39 07bf e28a 843e
00000250: bac2 9ebc a771 05be
0.1712857 -0.036452495 0.17699341 0.07528302 -0.074588135 0.008546201 -0.102632545 0.31299114
0.107131675 0.22047971 0.34470975 -0.17376092 0.15773648 0.19158311 0.04820131 0.0037352028
0.17251512 0.20239224 0.13277122 -0.05563651 0.061413888 0.0011286117 -0.050957162 0.11035882
0.08066971 0.042584382 -0.06183075 0.36975548 -0.049109317 0.16898294 0.12427819 0.21375993
0.024012273 0.16226438 -0.068342574 -0.08730196 -0.054249696 0.120258436 0.12760165 0.13772738
0.15001363 0.144059 0.07443656 0.13595696 0.36574483 -0.037349746 0.26204032 0.23789302
0.06791304 0.41447845 -0.028912673 0.3655552 -0.0995401 0.14415145 0.10107836 -0.10279506
-0.12587558 0.0070187855 -0.28594503 -0.45410746 -0.26061592 0.14785083 0.17439622 0.2759079
0.13647427 -0.041517615 0.2565226 0.12595095 0.20759057 -0.07334047 0.25488433 -0.07462126
0.30061245 0.098832406 -0.034514673 0.2850214 0.18758951 -0.23453347 0.190615 -0.06397555
-0.29366228 0.21515937 -0.22147271 -0.15757982 -0.0735597 -0.4650479 -0.07648093 -0.04867587
-0.11431564 -0.055537276 0.31969783 0.02392064 -0.57874304 0.1375511 0.01563349 0.22473526
0.051276613 0.02080318 0.35639074 -0.11999589 0.31657884 0.12449361 0.24188195 -0.03182662
-0.14270811 0.11878091 0.09009365 -0.31912008 0.5802236 -0.55562127 0.12597749 0.011114952
-0.03509826 -0.060658842 0.1208315 0.013479632 -0.037651174 -0.11475828 0.09029982 0.17966649
-0.009520931 0.33014116 -0.07084621 0.1213618 0.03677339 -0.116085485 0.02836118 0.27666563
0.12283258 -0.19468206 0.70470935 0.054340318 -0.3272603 0.026466241 -0.13959506 -0.39331353
-0.08423946 -0.20861158 0.51683676 -0.30239338 -0.06176093 -0.12224908 0.1409783 -0.15629053
0.33899152 0.23926443 -0.5282143 0.2588721 -0.019379962 -0.13031636

weight f4 [10, 50]
00000000: f784 32be 1e9f f6be 5b56 0abf 2d3d 4fbe
00000010: 642b 273e 31e6 d93e a541 44bf f7a5 413e
00000020: 4a1f a53e 700a 9ebf 7a69 cc3d 2b12 08bf
00000030: 7288 eb3d e162 b8be 090d 4c3e db47 2ebf
00000040: 3134 933d 5b55 bfbe 1dc9 26bf f2cf 703e
00000050: 2a27 ed3e 4edf 443f 293b c73e 492e 2b3e
00000060: 6a8a 3ebd ef2e 993d b7c6 4abf 4a03 1a3f
00000070: 0d7f 95be a09a d73f f8ef c9bf 7f7d 883e
00000080: 1a7a 8cbe e55c a4be c1b7 37be b663 223f
00000090: 8b2a 7cbe e5cd 9e3e 9690 9b3e 0718 73be
000000a0: d6d9 47bd 6fd4 13be af4c 29be 077c 39bf
000000b0: 3c1d 23bf 8a55 e23e d2b6 423f 4d23 84be
000000c0: 7175 02bf 6aad 7cbf fedc 943e b25d 133f
000000d0: 7ff4 a0be 6893 a73e edf6 07bf 6deb 943e
000000e0: afc7 113d e37e c9bd 8fc5 203f ff25 a4bf
000000f0: 83f6 f43e 33c7 ad3e 6137 ccbb f327 78bc
00000100: 5b10 0bbe 6eaa dcbe 64f7 fbbd 59f9 6abc
00000110: 8570 833e 807e 1d3e d262 f43e d471 7e3e
00000120: 7122 edbd 4a9e 333e 6281 cc3e be53 a83d
00000130: 730f ab3f b571 0b3f d35c e5bd 1280 cbbf
00000140: 77c3 c43e 1164 303e dcd9 99be 4493 9ebf
00000150: 2a75 053d 9875 fabe 057a 9f3f 6f34 903d
00000160: cbc3 b53f bf9a 91be ca3c 113f 7db2 b7bd
00000170: 9b4f f83c 5a98 8fbd 18cb 383f 45c6 453d
00000180: a09d 1ec0 fbcf ae3e 93d6 583e 8175 88bf
00000190: d6f1 ac3e df9d 45bf 2364 543e bae2 0fbf
000001a0: 4b2c 1b3f 5305 023f d529 65bd 649d 9c3d
000001b0: 0f69 12c0 4fb4 833d 673d 3b3f 48ae 09bf
000001c0: 97cb e83b e30b 20be 216a 033f dfb5 d0bd
000001d0: 8d96 e33e a4de 913e c1cc a0bd 2670 33be
000001e0: b1f3 ccbd 5385 bcbe 3ebb a33e e50e 5b3e
000001f0: 1400 1fbf 09d7 a4bd 0e7a cf3e a8a0 ca3e
00000200: 7d4c 9dbd ce6f 1ebf 5179 f33e 441a 1ebe
00000210: ca0e 67bf f40e 2d40 aeef 6ebf e8fb 32be
00000220: 233b 843e 84a1 69be 51cc 4b3e 0689 47bf
00000230: 5f58 8bbf e5e2 53be 0817 93be 1cb0 2c3d
00000240: d118 03bd 5bf5 e73e 4285 74bf 670f 413c
00000250: aa94 803e 5036 6ebd 2c07 9cbe bdd9 063f
00000260: 28d1 4cbe a183 d93e 4b00 00bf adb2 fd3e
00000270: 776a a83e 29aa f8bd de25 72bd e7e5 4440
00000280: 3b9e fa3e 72a2 71be 9ecf 1b3f de9c 2c3e
00000290: 72ec 003f 8ffc 26be 0ac9 5dbe a370 203d
000002a0: 0081 023f 311e ab3d ca72 763e fd53 cdbe
000002b0: 37da 0c3e f000 7e3d 5fd1 fb3e c32d 403e
000002c0: 9a49 5fbf e86b b13e a390 7a3e 85b7 84be
000002d0: d901 5cc0 7b27 ce3e 6782 02bf 370a 1d3f
000002e0: 836c c13d a092 1bbd fcfb ccbf d3b2 1b3f
000002f0: 926c 0fbe e0cc e2bd 3f57 d73d 94ff 4d3e
00000300: 63d6 c5bd 9e1a f33e aaca ebbe a417 363e
00000310: 2c07 f1bd 9cb7 a6be b621 64bd e998 583e
00000320: dd7a c83e d419 b1be 6951 c73e 9748 9cbe
00000330: d1ab 543e c8b1 8bbe 2910 2bbd 9fdf b7bd
00000340: 39dd 333f 5533 b5be cfc2 5b3f 6662 a03d
00000350: e11c 333e a0fd 88bc 9096 e9bd 5c58 963e
00000360: 07f2 933e 024f 803d cf71 8b3e ca43 b8be
00000370: e412 263e e2d2 b73d 0d11 fabd 27c1 113e
00000380: 6d65 18bf 15f5 95be 1527 353f 2d5f b7be
00000390: 6440 a73e ddeb c13e e4f1 e43f dabe a33d
000003a0: ac4c c3be 4af3 bdbf 52da 8f3e fe98 a13e
000003b0: a84e c0bf f1ea 8cbe 013f a7be e7e6 f03e
000003c0: 4627 b7bc 4670 8dbe 5194 2fbf 6d24 a13e
000003d0: 9210 f53e 404b 013c 49eb aa3f f530 a23e
000003e0: 0015 55bc b43f 703f 9afa 3abe a458 eebe
000003f0: b13c 253e 3c4a 62bd bcfa a9bd 9d40 ffbc
-0.17433535 -0.48168272 -0.5403802 -0.2023818 0.16325146 0.42558435 -0.76662666 0.18910967
0.32250434 -1.2346935 0.099810556 -0.5315272 0.11500634 -0.3601294 0.19926848 -0.6807839
0.07187689 -0.3736981 -0.65150625 0.23516825 0.46318942 0.76903236 0.38912323 0.16716875
-0.04651872 0.07479655 -0.79209465 0.6016127 -0.29198495 1.6844063 -1.5776358 0.26658246
-0.27436906 -0.32102123 -0.1794119 0.63433397 -0.24625604 0.3101646 0.30383748 -0.23739634
-0.04879173 -0.14436506 -0.16533159 -0.72454876 -0.63716483 0.44205886 0.7606021 -0.25808182
-0.5096045 -0.9870211 0.29074854 0.5756484 -0.31436536 0.3272965 -0.53111154 0.29085866
0.035590824 -0.09838655 0.6280145 -1.2824095 0.47844324 0.3394104 -0.0062321876 -0.015146243
-0.13580458 -0.43098778 -0.123030454 -0.014341676 0.25671783 0.15380287 0.47731644 0.2484811
-0.11578835 0.17540851 0.3994246 0.082190976 1.336409 0.5447038 -0.111993454 -1.5898459
0.38430378 0.17225672 -0.30049026 -1.2388692 0.03258244 -0.48917842 1.2459112 0.07041251
1.4200376 -0.28438374 0.5673338 -0.08969591 0.030311396 -0.07011481 0.72184896 0.048284788
-2.4783707 0.34143052 0.21175604 -1.0660859 0.33778256 -0.7719402 0.20741324 -0.5620533
0.6061446 0.50789374 -0.055948097 0.076472074 -2.2876623 0.064308755 0.7314057 -0.5378156
0.007104348 -0.15629534 0.51333815 -0.10190939 0.444508 0.28490174 -0.07851554 -0.1752325
-0.10007418 -0.36820468 0.31978792 0.213924 -0.62109494 -0.08048827 0.40522808 0.39575696
-0.076806046 -0.6188935 0.47553495 -0.15439707 -0.9025694 2.7040377 -0.9333447 -0.17478907
0.25826368 -0.2281552 0.1990216 -0.77943456 -1.0886344 -0.20692022 -0.2872851 0.04216014
-0.03200609 0.4530438 -0.95515835 0.011783457 0.25113422 -0.058157265 -0.30474222 0.5267599
-0.20001662 0.42483237 -0.5000045 0.4955038 0.32893726 -0.121418305 -0.059118144 3.0765321
0.48948845 -0.23597124 0.60863674 0.16856715 0.50360787 -0.16307281 -0.21658722 0.03916992
0.5097809 0.08355368 0.24067226 -0.4010314 0.13755117 0.062012613 0.49183175 0.18767457
-0.8722168 0.34652638 0.24469237 -0.25921264 -3.4376128 0.40264496 -0.5098023 0.6134371
0.09444525 -0.03798163 -1.60144 0.6081974 -0.1400626 -0.11074233 0.10514688 0.20117027
-0.09660032 0.47481245 -0.46053058 0.17782456 -0.11768946 -0.32561958 -0.05569621 0.2115208
0.39156237 -0.34590018 0.389293 -0.30524132 0.20768668 -0.27284074 -0.04176346 -0.08978199
0.70259434 -0.35390726 0.8584413 0.07831268 0.17491485 -0.0167225 -0.11405671 0.29364288
0.2889559 0.062650695 0.27235267 -0.3598922 0.16218144 0.089757696 -0.122102834 0.14233838
-0.59529763 -0.29288545 0.7076276 -0.358148 0.32666314 0.37875262 1.7886319 0.079953864
-0.38144433 -1.4839871 0.28096253 0.31562036 -1.5024004 -0.27522996 -0.32665256 0.47051165
-0.022357594 -0.2762472 -0.6858569 0.31473103 0.47864205 0.007891476 1.3353053 0.31677976
-0.013005495 0.93847203 -0.1825966 -0.46552002 0.16136433 -0.055246577 -0.08299777 -0.03115874

bias f4 [10]
00000000: c5ab 403c 9b29 083f 53c8 7ebe 37a9 85bc
00000010: 8e93 2ebe 2e0a 6e3e c05d 58be ef16 28be
00000020: 7876 04be e7e7 d53b
0.011759703 0.53188485 -0.24881105 -0.01631604 -0.17048475 0.2324607 -0.21129513 -0.16414998
-0.12935817 0.006527889
