Models_mario/Mario No Bias_exp0_GRU_classifier.pth (torch, 12877 bytes, 6 tensors)

weight f4 [3, 1, 7, 7]
0	0xbe00395d	-0.12521882
1	0xbed0e4b3	-0.40799484
2	0xbeb09c2a	-0.34494144
3	0xbe1f8311	-0.15577342
4	0xbd4aa54c	-0.049474046
5	0xbe95809d	-0.29199687
6	0xbe0be1e1	-0.13660385
7	0x3e644056	0.22290167
8	0xbb798af1	-0.00380772
9	0x3e860dcf	0.2618241
10	0x3e1d352c	0.15352315
11	0x3e19e1e8	0.15027583
12	0x3e173dde	0.14769694
13	0x3e85c6f1	0.26128343
14	0x3e5099a5	0.2037111
15	0x3e916df1	0.2840419
16	0x3dea6622	0.114452615
17	0x3ea67d76	0.32517594
18	0x3e4b3e62	0.19848016
19	0x3e602ee6	0.2189289
20	0x3e6cabb6	0.23112378
21	0xbe9964aa	-0.29959613
22	0xbe4ca048	-0.19983017
23	0xbe68b6d4	-0.22725993
24	0xbd75932a	-0.0599548
25	0xbe08459d	-0.13307805
26	0xbc8ff8c3	-0.017574674
27	0xbe1b81d2	-0.15186241
28	0xbeee5c52	-0.4655481
29	0xbeb820dc	-0.3596257
30	0xbe590762	-0.21194223
31	0xbe20b137	-0.15692602
32	0xbe13e751	-0.14443709
33	0xbd7aca48	-0.061228067
34	0xbe894a38	-0.26814437
35	0x3c705d74	0.014670718
36	0xbe2a9e2a	-0.16661897
37	0xbe5ebff3	-0.2175291
38	0xbcc2dd96	-0.023787301
39	0xbc2887f7	-0.010286323
40	0x3e758f2b	0.23980395
41	0x3e418f5d	0.18902345
42	0x3e706932	0.23477629
43	0x3e231008	0.15924084
44	0xbd63433a	-0.055484034
45	0xbe961c64	-0.29318535
46	0xbd1a32a5	-0.037645955
47	0xbe08e976	-0.13370308
48	0x3eac9dbf	0.337141
49	0xbdc4e4ac	-0.09613928
50	0x3db7d20e	0.089756116
51	0xbd31932d	-0.04335325
52	0xbcd42974	-0.025898673
53	0xbde8c3ad	-0.11365447
54	0x3e0953b3	0.13410835
55	0xbe0c1174	-0.13678533
56	0xbd69d0d1	-0.05708391
57	0x3e6949d6	0.22782072
58	0x3d3e5b7d	0.04647397
59	0xbbb38dc6	-0.005479547
60	0x3e61598c	0.22006816
61	0xbdcdacd2	-0.100427285
62	0x3d048695	0.03235491
63	0x3e4452e3	0.19172244
64	0x3e211de3	0.15734057
65	0x3dd14e49	0.1022001
66	0x3e61c29b	0.22046892
67	0x3e122435	0.14271624
68	0xbb233d56	-0.0024908385
69	0x3d34f7e0	0.044181705
70	0x3e151139	0.14557351
71	0xbc20cfd8	-0.009815179
72	0x3c48346d	0.0122195305
73	0x3d64ccab	0.05585925
74	0x3e15efdd	0.14642282
75	0xbd31eddd	-0.043439735
76	0x3ea0aefe	0.31383508
77	0x3daa738d	0.08322821
78	0x3dea83b6	0.11450903
79	0x3ddd3120	0.108003855
80	0xbdf0ac66	-0.117516324
81	0x3e148ba7	0.14506398
82	0x3ce73c97	0.028227134
83	0x3dd4b9cb	0.10387
84	0xbe8ff57b	-0.28116974
85	0xbe514057	-0.204347
86	0xbe45fa9a	-0.19333878
87	0xbe5fff0a	-0.21874633
88	0xbe3a988e	-0.18222257
89	0xbe3a3a3d	-0.18186279
90	0xbd3b9896	-0.045799814
91	0xbd70dae7	-0.05880251
92	0xbdc58eee	-0.09646402
93	0xbe0d0478	-0.13771236
94	0x3da930cd	0.08261261
95	0xbd332507	-0.043736484
96	0x3dc7ab54	0.09749475
97	0x3d3e921a	0.046526052
98	0x3d2c3669	0.042044077
99	0x3e2cbb91	0.16868426
100	0xbd49350f	-0.049122866
101	0xbc4d0faa	-0.012515942
102	0x3d94d3f3	0.072669886
103	0x3d882f5d	0.06649659
104	0x3e3cc3f7	0.1843413
105	0x3e58bb39	0.2116517
106	0x3d8619dc	0.06547901
107	0x3e27ca92	0.16385868
108	0x3bac5120	0.0052586943
109	0xbe070995	-0.13187249
110	0xbd246a4f	-0.040140446
111	0x3d604617	0.054754343
112	0x3b98fd6b	0.0046688817
113	0xbd426506	-0.047459625
114	0xbd94e749	-0.07270677
115	0x3daddf2c	0.08489832
116	0xbdcd07ca	-0.10011251
117	0x3e1c6b2a	0.15275255
118	0x3d5f1ba3	0.054469716
119	0x3d93defe	0.07220267
120	0x3c28865c	0.01028594
121	0x3d4064f2	0.04697127
122	0xbd882290	-0.06647217
123	0x3db98858	0.09059209
124	0x3d7603d3	0.06006224
125	0x3d29df84	0.041472927
126	0x3e2a0c0a	0.16606155
127	0x3e5c9284	0.21540266
128	0x3dd26e97	0.102749996
129	0xbdc37b6a	-0.09545024
130	0xbd97eddd	-0.07418416
131	0xbcf7fb24	-0.03027112
132	0x3c8fa98f	0.017536907
133	0x3d917050	0.071015
134	0x3e395a61	0.18100883
135	0xbdcf5d3b	-0.10125204
136	0x3ddd2f75	0.10800067
137	0xbc990653	-0.018679773
138	0x3d2e4031	0.042541686
139	0xbdcd3ea7	-0.100217156
140	0x3dd6c6f8	0.10487169
141	0x3d9ebe7b	0.07751175
142	0x3ba64434	0.0050740484
143	0x3e2d7109	0.1693765
144	0x3cdc9e1f	0.026930867
145	0xbe290992	-0.16507557
146	0xbe2a85c2	-0.16652587

bias f4 [3]
0	0x3d0ee2e8	0.034884363
1	0xbe1c0098	-0.15234601
2	0xbe5b86ec	-0.21438187

weight f4 [6, 3, 7, 7]
0	0x3dbd8c49	0.09255273
1	0x3e819633	0.25309905
2	0x3e24107f	0.16021918
3	0x3e01bdfa	0.12670127
4	0xbe6e7b5b	-0.23289244
5	0xbe65d5b6	-0.22444806
6	0x3da49062	0.08035351
7	0xbe286d30	-0.16447902
8	0xbe0b7b00	-0.1362114
9	0xbd9dcc24	-0.07704952
10	0x3e76b73d	0.24093337
11	0x3e3b1750	0.18270612
12	0x3dde30a8	0.10849124
13	0x3ea86509	0.32889584
14	0x3e82d2c4	0.25551426
15	0x3e1491e9	0.14508785
16	0x3e02a457	0.12758003
17	0x3ef9a073	0.48755226
18	0x3f1d3053	0.6140186
19	0x3ec1df9c	0.37865913
20	0x3ea21265	0.3165466
21	0x3e014f3d	0.12627883
22	0x3cc576f3	0.024104571
23	0xbd275558	-0.040852875
24	0xbd8d68f3	-0.06904783
25	0xbdc6be2f	-0.097042434
26	0x3d50059b	0.050786596
27	0x3e20e963	0.1571403
28	0xbcf6a84f	-0.030109553
29	0x3e6bf18d	0.23041363
30	0x3e16f423	0.14741568
31	0xbe9496a8	-0.29021192
32	0x3daf35fd	0.08555219
33	0x3d67707b	0.056503754
34	0xbe7797aa	-0.24178949
35	0xbde95dc0	-0.113948345
36	0xbd7c29fa	-0.06156347
37	0xbe188d28	-0.14897597
38	0xbd97f55b	-0.07419845
39	0xbd504090	-0.05084282
40	0x3df8af01	0.12142754
41	0x3e8be52f	0.2732329
42	0xbde79b97	-0.11308973
43	0xbdcdec4b	-0.10054835
44	0xbc0bb00d	-0.0085258605
45	0x3d65035d	0.05591141
46	0xbdc806bc	-0.097669095
47	0x3e82b01b	0.25524983
48	0x3e66c429	0.22535767
49	0xbe0d4e93	-0.13799505
50	0x3e0e50e2	0.13898042
51	0x3cea7464	0.028619952
52	0xbda006e2	-0.07813813
53	0x3c9a8796	0.01886348
54	0x3d4098ce	0.047020726
55	0xbe1a8a0d	-0.15091725
56	0x3e367258	0.17817056
57	0x3e2423ea	0.16029325
58	0x3dc0d054	0.094147354
59	0x3eb56c39	0.3543413
60	0x3ed81964	0.42206872
61	0x3dba83c9	0.09107167
62	0x3d9bd821	0.07609583
63	0x3dd56a43	0.104206584
64	0x3d9687bd	0.07350109
65	0xbc7f8134	-0.015594769
66	0xbbdc0d60	-0.0067154616
67	0x3d456f1d	0.04820167
68	0x3e999d1a	0.3000267
69	0x3e0b54ff	0.13606642
70	0xbdc5ec92	-0.09664263
71	0x3d94a303	0.072576545
72	0xbdade0e3	-0.08490159
73	0xbe5ba9ac	-0.21451443
74	0xbd4fa3d7	-0.05069336
75	0xbdb10885	-0.08644203
76	0xbe90548d	-0.28189507
77	0x3e4c594d	0.1995594
78	0xbcca9577	-0.024729474
79	0xbd01c4ed	-0.031681944
80	0xbe460d1f	-0.19340943
81	0xbe58522a	-0.21125093
82	0x3d461b48	0.04836586
83	0x3d1ae335	0.037814338
84	0xbc4102ac	-0.011780422
85	0xbe682dbd	-0.22673698
86	0xbcad4bfb	-0.021154394
87	0xbe4cde3d	-0.20006652
88	0xbd2250de	-0.039627902
89	0xbd3e1de6	-0.046415232
90	0x3e0cd7b5	0.1375416
91	0xbea6d117	-0.32581398
92	0xbe512fb9	-0.20428361
93	0xbe2f5efc	-0.17126077
94	0xbdc66d6e	-0.09688841
95	0xbe19dd0f	-0.15025733
96	0xbe99e5b1	-0.30058053
97	0xbed188c0	-0.40924644
98	0x3e248d33	0.16069488
99	0x3e889d2b	0.2668241
100	0x3e9ba195	0.30396715
101	0x3de00907	0.10939222
102	0xbe460c09	-0.19340529
103	0x3dac5509	0.08414657
104	0xbd63a306	-0.055575393
105	0x3d9584c5	0.073007144
106	0x3e472b4f	0.19450115
107	0x3e991e3e	0.29905885
108	0x3d4c761a	0.049917318
109	0xbdd83524	-0.10557011
110	0x3e339b77	0.17539774
111	0x3e33ea2d	0.175698
112	0xbd3fea6c	-0.04685442
113	0x3d5269e8	0.05137053
114	0x3d79250f	0.060826357
115	0x3e8bc114	0.27295744
116	0xbe2324c5	-0.15931995
117	0x3e2ff665	0.17183836
118	0x3eeb0325	0.45900837
119	0x3d589435	0.052875716
120	0xbe081855	-0.13290532
121	0x3ddbcddb	0.10732623
122	0x3e15c33c	0.14625257
123	0xbe554f26	-0.20830974
124	0xbdf6f992	-0.120593205
125	0x3eab94ca	0.33511955
126	0xbe5fdd43	-0.21861748
127	0xbf1ce21e	-0.6128253
128	0xbe7a88ad	-0.244662
129	0xbe27757e	-0.16353413
130	0xbeb22778	-0.34795737
131	0xbcd54aad	-0.026036585
132	0x3d812f11	0.06307805
133	0x3c739f47	0.014869518
134	0xbd8fd720	-0.07023454
135	0x3dd0a13b	0.10187002
136	0x3df9b197	0.12192076
137	0xbce58274	-0.028016306
138	0xbe8545c5	-0.26029792
139	0xbe16282c	-0.14663762
140	0x3d35c81a	0.044380285
141	0x3d906a12	0.07051481
142	0x3ed31862	0.4122954
143	0x3e2305fd	0.15920253
144	0x3e94c4a2	0.2905627
145	0x3e69b04d	0.2282116
146	0xbe0cfa44	-0.13767344
147	0xbe997a97	-0.2997634
148	0xbedc3a9b	-0.43013462
149	0xbcc472ad	-0.023980463
150	0xbc8d6dd3	-0.017264282
151	0x3b2c6aba	0.0026308731
152	0x3d172caf	0.036907848
153	0x3e33a787	0.17544375
154	0x3e5505f8	0.20803058
155	0x3d03165f	0.032003757
156	0x3d4a8bf8	0.04944989
157	0x3da300d7	0.079591446
158	0xbd51816e	-0.051148824
159	0x3d8f6b90	0.07002938
160	0xbce16956	-0.027516048
161	0x3da73b76	0.08165638
162	0xbe14fab0	-0.14548755
163	0xbc863fea	-0.016387898
164	0x3d690642	0.056890734
165	0x3e1d1c8c	0.15342921
166	0x3e540f05	0.20708854
167	0x3e76b622	0.24092916
168	0x3e457fa7	0.19286977
169	0x3dddfbe0	0.10839057
170	0x3be5421b	0.006996406
171	0x3cd282bb	0.025697103
172	0xbdcaa09e	-0.098939165
173	0xbcf400c6	-0.029785525
174	0x3d77c13a	0.06048701
175	0x3dd70472	0.10498895
176	0xbcdd5379	-0.027017342
177	0x3dc24379	0.09485526
178	0xbe486ce1	-0.19572784
179	0xbddf7846	-0.10911612
180	0xbb717283	-0.0036841936
181	0xbe490ffd	-0.19635005
182	0xbe8598f1	-0.26093248
183	0xbdca4404	-0.09876254
184	0xbe3d6d4a	-0.18498722
185	0xbe9cce0e	-0.30625957
186	0xbe9408ae	-0.28912872
187	0xbe5480f0	-0.20752311
188	0xbe04e420	-0.12977648
189	0x3d51c8c2	0.05121685
190	0x3d6d73d2	0.057971783
191	0x3da9ee5f	0.08297419
192	0x3d745689	0.05965284
193	0xbdcb694f	-0.099321954
194	0x3d8da163	0.06915548
195	0x3de79f75	0.11309711
196	0xbce45697	-0.02787332
197	0x3d01144d	0.0315135
198	0x3bad9b36	0.0052980436
199	0x3e02ec56	0.12785468
200	0x3cf113ea	0.029428441
201	0x3dbee97a	0.09321876
202	0xbd607d74	-0.05480714
203	0x3d99a1b8	0.075015485
204	0xbd80a686	-0.06281762
205	0x3db94bf2	0.090476885
206	0x3ea1d354	0.31606543
207	0x3e4a9c16	0.19786105
208	0x3e2a092f	0.16605066
209	0x3d988ce8	0.07448751
210	0x3dc924e5	0.0982149
211	0x3e29455f	0.16530369
212	0x3def6e40	0.116909504
213	0x3e16115b	0.14655058
214	0x3d91e5ad	0.07123885
215	0x3e2c697b	0.16837113
216	0x3e02106e	0.1270158
217	0x3e927e3d	0.28611937
218	0x3e80a220	0.25123692
219	0x3dd9a3aa	0.106269196
220	0x3e2bf50a	0.16792694
221	0x3e42cc61	0.19023277
222	0xbc9d8098	-0.019226357
223	0x3c0fd588	0.008778937
224	0x3c54a6ae	0.012979193
225	0xbd800623	-0.062511705
226	0x3d0366ad	0.03208034
227	0xbcb622e3	-0.022233432
228	0xbd3aa018	-0.045562834
229	0xba1293d2	-0.0005591485
230	0x3e1b11de	0.15143535
231	0xbdb43562	-0.087992445
232	0xbe896763	-0.2683669
233	0xbd8db9a4	-0.06920174
234	0x3dba6e89	0.09103114
235	0xbccbf22a	-0.024895746
236	0xbdc76b53	-0.09737267
237	0xbe2ea855	-0.17056401
238	0x3d087304	0.033312812
239	0xbda8a6fd	-0.082349755
240	0x3ce56d02	0.02800608
241	0x3db1ec09	0.08687598
242	0xbd7090f7	-0.058732
243	0xbdd24aec	-0.102681965
244	0xbe0f8383	-0.14015011
245	0x3d9b548d	0.07584486
246	0xbbbcef02	-0.0057657966
247	0x3e5ad845	0.21371563
248	0x3bfac18f	0.0076524685
249	0x3d949963	0.07255819
250	0x3e5826b1	0.2110851
251	0x3e449de2	0.19200853
252	0xbc353c1f	-0.011061697
253	0xba068b63	-0.00051324646
254	0x3e14db1c	0.14536709
255	0xbd0283a9	-0.031863842

bias f4 [6]
0	0x3d86e423	0.065864824
1	0xbc1050c4	-0.0088083185
2	0x3c767208	0.015041836
3	0x3d7fad29	0.062420998
4	0xbe2165b8	-0.15761459
5	0xbd7e0aa2	-0.06202186

weight f4 [10, 96]
0	0xbe01008e	-0.12597868
1	0x3d374e26	0.044752263
2	0xbba692a6	-0.0050834
3	0x3cf1a478	0.02949737
4	0xbd9396a7	-0.07206469
5	0xbdabef84	-0.08395293
6	0x3ca32bba	0.019918311
7	0x3c056eac	0.008144062
8	0x3da0666d	0.07832036
9	0x3cb7d714	0.022441424
10	0x3d847be4	0.06468943
11	0x3d4a9536	0.049458705
12	0xbd0c958e	-0.034322314
13	0xbc83ac0d	-0.016073251
14	0xbd6cfbca	-0.057857312
15	0xbd6ea401	-0.058261875
16	0xbdbf16ad	-0.09330497
17	0x3cf8210d	0.030289197
18	0x3d9c060c	0.07618341
19	0xbd47633c	-0.04867862
20	0xbdd59826	-0.10429411
21	0x3cf0407f	0.02932763
22	0xbdbc4f8a	-0.09194858
23	0xbd37d638	-0.04488203
24	0xbd5038b1	-0.050835315
25	0x3d50d586	0.05098488
26	0xbdd8d45c	-0.10587379
27	0x3d2d87bf	0.042365786
28	0x3da2f8a4	0.07957581
29	0xbdc23abc	-0.09483859
30	0xbdd6d45a	-0.104897216
31	0x3d2f8fe5	0.042861838
32	0x3d34b492	0.044117518
33	0x3b386fca	0.0028142803
34	0xbd41cb85	-0.047313232
35	0xba618fe7	-0.0008604512
36	0x3d7a0b91	0.061046187
37	0xbdeb706c	-0.11496052
38	0x3c5a6a91	0.0133310715
39	0xbe008637	-0.12551199
40	0x3d7a747c	0.061146244
41	0xbd7ed796	-0.062217318
42	0xbc735a70	-0.014853105
43	0xbd3045af	-0.043035205
44	0xbda96c16	-0.08272569
45	0xbdda408a	-0.10656841
46	0xbd101076	-0.03517195
47	0xbdcc2188	-0.09967333
48	0xbd2c4dc2	-0.042066343
49	0x3d2ab33b	0.041674834
50	0x3c835dc9	0.016035931
51	0xbba7c1fa	-0.0051195594
52	0xbdd9eb9c	-0.10640642
53	0xbd9d7788	-0.076888144
54	0x3d636106	0.05551245
55	0x3ca9dc05	0.020734796
56	0xbcd9af71	-0.026572915
57	0xbd32b4ed	-0.043629576
58	0xbd6fab33	-0.058512878
59	0x3d29def8	0.041472405
60	0x3b656392	0.0035001975
61	0x3d838a52	0.06422867
62	0xbc156f4b	-0.009120773
63	0xbd13c0bf	-0.03607249
64	0x37a60a88	1.9793646e-05
65	0xbc833ddc	-0.016020708
66	0xbd4b17fe	-0.049583428
67	0x3d706d0c	0.058697745
68	0x3bbdbc87	0.0057902965
69	0x3d7f3849	0.062309537
70	0x3d98ca2b	0.074604355
71	0xbdc73cfc	-0.09728429
72	0xbd8b89d3	-0.06813397
73	0xbdabf000	-0.08395386
74	0xbdca60d0	-0.09881747
75	0xbcd00f2e	-0.025397863
76	0xbd9205e0	-0.07130027
77	0x3ac38114	0.0014915788
78	0xbd8b8646	-0.0681272
79	0xbd5d6da9	-0.05405966
80	0x3c862658	0.016375706
81	0x3d40e757	0.047095623
82	0xbd6a988f	-0.057274397
83	0x3d1c26e5	0.03812303
84	0xbb2d3fe4	-0.0026435787
85	0x3d5c2650	0.053747475
86	0xbde17581	-0.1100874
87	0x3dae022b	0.08496507
88	0xbd8441e7	-0.064578824
89	0x3d99563a	0.074871495
90	0xbd228b0b	-0.039683383
91	0xbde0e661	-0.10981441
92	0x3c9b6325	0.018968174
93	0x3c74268e	0.01490177
94	0x3d2b0287	0.041750457
95	0xbd55fbd2	-0.052242108
96	0xbe41a020	-0.18908739
97	0xbde08dda	-0.10964556
98	0xbdb99167	-0.090609364
99	0xbcf26cdd	-0.029592926
100	0xbe21a2c7	-0.15784751
101	0xbb5e2f08	-0.0033902545
102	0xbd7a0d4b	-0.061047833
103	0xbd5750ab	-0.052567165
104	0xbd4600ea	-0.048340715
105	0xbe204676	-0.15651879
106	0xbe1a5171	-0.1507013
107	0xbd261e8e	-0.040556483
108	0xbc642818	-0.013925575
109	0xbcd1932c	-0.025582872
110	0x3cb25a80	0.02177167
111	0x3d9ae477	0.075631075
112	0x3b9a6c3e	0.0047126105
113	0xbd095ad8	-0.0335339
114	0xbb1f012d	-0.0024262175
115	0x3d77dd30	0.060513675
116	0xbcc04473	-0.02347014
117	0x3d280010	0.041015685
118	0xbd6791d8	-0.05653557
119	0x3d88dc52	0.06682648
120	0xbda78d0b	-0.08181199
121	0x3d1dcf4e	0.03852778
122	0xbdb2018c	-0.08691701
123	0x3d3db7e6	0.046317957
124	0xbd54b5de	-0.051931255
125	0xbd5851ec	-0.0528125
126	0xbd252398	-0.040317148
127	0xbc17e33e	-0.009270487
128	0xbd0183c8	-0.031619817
129	0x3c883ecf	0.016631512
130	0xbc07f32d	-0.008297724
131	0xbc98034e	-0.018556263
132	0x3daac2d5	0.083379425
133	0xbd1101be	-0.035402052
134	0xbc807f0f	-0.015685586
135	0x3dbc0dc6	0.091823146
136	0xbd1840f6	-0.037171327
137	0x3d8543b7	0.06507056
138	0xbcea1cb8	-0.028578147
139	0x3cb0c3f6	0.021577816
140	0xbd85f445	-0.06540731
141	0xbde64e85	-0.11245445
142	0x3d1304e0	0.03589332
143	0xbd6d8c10	-0.057994902
144	0xbd746094	-0.059662417
145	0xbd5efcf4	-0.054440454
146	0xbc591b19	-0.0132510895
147	0xbdcf7baa	-0.10131009
148	0xbcc32caf	-0.023825018
149	0x3dc993e2	0.098426595
150	0x3d0ba6d7	0.034094658
151	0x3d03edce	0.03220921
152	0x3cd1b5b7	0.025599344
153	0xbdea480e	-0.114395246
154	0x3d96b04c	0.07357845
155	0x3d9c5de4	0.07635096
156	0xbd062c55	-0.032757122
157	0x3d037589	0.032094512
158	0x3d9c9b0a	0.07646759
159	0x3c2efb77	0.010680071
160	0x3d9a9e78	0.07549757
161	0xbc2c9635	-0.010533859
162	0x3dc4e52e	0.09614025
163	0x3dc22cf9	0.09481234
164	0xbc02affb	-0.007976527
165	0x3d89e0fe	0.06732367
166	0xbd348f14	-0.044081762
167	0x3dc9d0af	0.09854256
168	0x3d446295	0.047945578
169	0x3c786116	0.015159866
170	0xbdc79622	-0.097454324
171	0xbcb4205c	-0.021988086
172	0x3b9d61bf	0.004802912
173	0xbbe474d9	-0.006971937
174	0x3cf2484d	0.029575491
175	0x3c1cc0d3	0.009567457
176	0xbcf8ad0c	-0.030355953
177	0xbe1820fc	-0.14856333
178	0xbdd50afc	-0.10402486
179	0xbe5a83a3	-0.21339278
180	0xbe3d5fa6	-0.18493518
181	0xbddf8fd4	-0.10916105
182	0xbdf1ceea	-0.11807044
183	0xbe52bad1	-0.20579077
184	0xbd94f955	-0.07274119
185	0xbd322f1d	-0.043501962
186	0x3be887b0	0.0070962533
187	0xbd1156dd	-0.03548323
188	0xbdc9b4b6	-0.09848921
189	0x3ccd574a	0.025066037
190	0xbc0b2017	-0.0084915375
191	0xbe0ee9b6	-0.13956341
192	0x3e1ebca9	0.15501656
193	0x3e3153aa	0.17317072
194	0x3d928cb7	0.071557455
195	0x3c131711	0.008977667
196	0x3d0382d0	0.032107174
197	0xbdf151a3	-0.11783149
198	0x3c3e166a	0.011602024
199	0x3dc02ed2	0.0938393
200	0xbdd1b569	-0.10239679
201	0x3e29fc07	0.16600047
202	0x3b86a1b7	0.0041086334
203	0x3d09f429	0.033680115
204	0x3cae8204	0.02130223
205	0xba836681	-0.0010025055
206	0xbd47d5ff	-0.048788067
207	0x3dabad71	0.08382691
208	0x3d115c27	0.035488274
209	0x3e10b253	0.14130525
210	0x3cda40bb	0.026642194
211	0x3dde2a63	0.108479284
212	0xbc772313	-0.015084046
213	0xbcdb67df	-0.026782928
214	0x3c232d03	0.009959462
215	0xbcf76380	-0.030198812
216	0xbd72c1c8	-0.059266835
217	0xbd77e687	-0.060522582
218	0xbce90308	-0.028443828
219	0xbda7f342	-0.082006946
220	0x3dcbd233	0.09952202
221	0xbd9180f7	-0.07104676
222	0xbd105125	-0.035233635
223	0x3c588dca	0.013217399
224	0x3e2fa44c	0.17152518
225	0x3e02fba3	0.12791304
226	0xbcc09f47	-0.02351345
227	0xbbf00eb9	-0.007325974
228	0x3c205fd2	0.00978847
229	0xbdc92ab7	-0.098226
230	0xbe4ad5df	-0.19808148
231	0xbd95cf28	-0.073149025
232	0x3baa2d83	0.0051934137
233	0xbd92f549	-0.07175691
234	0xbd922bd3	-0.07137265
235	0x3e035a64	0.1282745
236	0x3d6b06b0	0.057379425
237	0x3cf5f024	0.030021735
238	0x3cb14c57	0.021642847
239	0x3da1ea2f	0.07905995
240	0x3bf11cb6	0.007358159
241	0x3e067d68	0.13133776
242	0x3dc06e87	0.093960814
243	0x3d274a07	0.040842082
244	0x3e3d9d9d	0.18517156
245	0x3e1dba00	0.15402985
246	0xbca13b1d	-0.019681508
247	0xbdc1978d	-0.09452734
248	0x3d0f7344	0.035022035
249	0x3dfe739e	0.12424396
250	0xbd94c0cf	-0.07263338
251	0xbca5ab99	-0.020223426
252	0xbe02403d	-0.12719817
253	0xbd9bb41c	-0.076027125
254	0x3d977c2a	0.07396729
255	0x3d81e78c	0.06342992

bias f4 [10]
0	0xbdc237d6	-0.09483306
1	0x3d38a0d6	0.04507526
2	0xbb3b4bbe	-0.0028579081
3	0xbd06d927	-0.032921936
4	0x3e695185	0.22785003
5	0xbd3ae23b	-0.045625906
6	0xbd5d27b7	-0.053992953
7	0xbdc6665f	-0.096874945
8	0x3d52ddc7	0.051481035
9	0x3e43af0a	0.19109741
