Models_mario/Mario Bias_exp0_TRANSF_classifier.pth (torch, 10893 bytes, 6 tensors)

weight f4 [3, 1, 7, 7]
-0.11987755 0.067820445 -0.0003405238 -0.053732086 0.14286067 0.04361068 -0.0329752 0.053171493
-0.09693131 -0.015658917 0.05801606 -0.03963588 0.07203677 0.08616818 0.050521255 0.015482584
-0.13392718 0.009681279 -0.048307642 0.10606404 0.12378054 0.14163354 0.112100616 -0.0021237696
-0.034693755 -0.07291376 0.044612817 -0.029648107 -0.107081324 0.0073242458 0.05465032 -0.10874525
0.12594092 -0.11229769 -0.027924182 -0.13974617 0.06433146 0.050507843 -0.13225685 0.12282669
0.10816175 -0.11865473 -0.1496528 0.12940516 0.037738543 0.110946134 -0.13790743 -0.027333846
-0.14165607 0.12078928 0.10146374 0.124469854 0.018120667 0.115201585 0.052783553 0.1539312
0.027510228 0.14527111 0.115126245 -0.05450496 0.094360776 0.116177455 0.17798401 0.15521267
0.06595566 0.085629545 0.10996631 0.056488503 0.17808908 0.13030122 0.14734744 0.15705162
-0.03280212 0.060128883 -0.029081892 0.1574668 0.15068346 0.08301559 0.030193178 0.1488996
0.18858339 -0.015927443 0.030697212 0.11532916 0.004911954 0.20910649 0.15288454 -0.038389605
0.19120914 0.029681137 -0.041344456 0.21122247 -0.0655064 0.20057195 0.039850444 0.031567074
0.12937889 0.033101548 -0.093565926 -0.092885725 0.030144606 -0.0803554 0.032499075 -0.017287027
0.057608627 0.05113657 -0.11646889 0.09713658 -0.12999412 0.021919306 -0.014265643 0.028872127
0.032657877 0.079457976 -0.09997741 0.018388925 -0.065581866 0.06803316 -0.030385166 -0.097511835
0.017771779 -0.094591156 0.01936771 0.026750261 -0.036741465 -0.050478734 0.11025399 0.03504253
-0.056736354 -0.1381677 0.029177466 0.113304675 -0.07838099 0.1197746 -0.05481259 -0.05665054
0.07852203 0.046938445 0.098468855 0.09396558 0.082750775 0.14703256 0.074096896 -0.0089779245
0.10825827 0.08454118 0.008860942
00000000: 5c82 f5bd 72e5 8a3d 5588 b2b9 2d16 5cbd
00000010: 114a 123e 1da1 323d 0111 07bd 5aca 593d
00000020: ec83 c6bd 2147 80bc 40a2 6d3d 3c59 22bd
00000030: 0488 933d f178 b03d 60ef 4e3d aaaa 7d3c
00000040: 3524 09be 3a9e 1e3c 3cde 45bd 1a38 d93d
00000050: a780 fd3d 6208 113e 0295 e53d f12e 0bbb
00000060: 0a1b 0ebd cf53 95bd eebb 363d 96e0 f2bc
00000070: 744d dbbd 3a00 f03b 04d9 5f3d d4b5 debd
00000080: a8f6 003e 55fc e5bd 41c1 e4bc 9f19 0fbe
00000090: 36c0 833d 50e1 4e3d 576e 07be 8f8c fb3d
000000a0: e883 dd3d 4001 f3bd 953e 19be c982 043e
000000b0: bb93 1a3d ba37 e33d 9b37 0dbe 3beb dfbc
000000c0: 4a0e 11be 5f60 f73d 39cc cf3d 0dea fe3d
000000d0: cb71 943c cfee eb3d 9133 583d 24a0 1d3e
000000e0: 215d e13c f3c1 143e 4fc7 eb3d 9840 5fbd
000000f0: 3940 c13d 72ee ed3d 7141 363e 12f0 1e3e
00000100: c313 873d 8b5e af3d 0436 e13d 7d60 673d
00000110: fc5c 363e af6d 053e 3fe2 163e 24d2 203e
00000120: 845b 06bd b449 763d 263d eebc fa3e 213e
00000130: c44c 1a3e 1404 aa3d af57 f73c 2379 183e
00000140: 011c 413e 457a 82bc b878 fb3c b231 ec3d
00000150: 75f4 a03b 0320 563e c48d 1c3e 6b3e 1dbd
00000160: 54cc 433e db25 f33c ce58 29bd b44a 583e
00000170: 3828 86bd bc62 4d3e 383a 233d 7a4c 013d
00000180: e67b 043e 7d95 073d 7e9f bfbd df3a bebd
00000190: d2f1 f63c 5f91 a4bd c01d 053d 869d 8dbc
000001a0: 06f7 6b3d 9474 513d 3e87 eebd 8bef c63d
000001b0: 2e1d 05be 1e90 b33c 72ba 69bc 3d85 ec3c
000001c0: 44c4 053d ddba a23d f5c0 ccbd 5fa4 963c
000001d0: c94f 86bd f854 8b3d 50ea f8bc 49b4 c7bd
000001e0: 1f96 913c 02b9 c1bd 08a9 9e3c 5d23 db3c
000001f0: 387e 16bd cac2 4ebd d8cc e13d c288 0f3d
00000200: 6164 68bd d57b 0dbe 9505 ef3c 480c e83d
00000210: 3686 a0bd 634c f53d 2b83 60bd 660a 68bd
00000220: 28d0 a03d 8742 403d 0aaa c93d 0771 c03d
00000230: 3d79 a93d b48f 163e 1dc0 973d 2518 13bc
00000240: 83b6 dd3d ed23 ad3d 7c2d 113c

bias f4 [3]
-0.1578559 0.2035313 -0.13336702
00000000: faa4 21be 826a 503e 5d91 08be

weight f4 [6, 3, 7, 7]
0.15718591 0.10987709 0.08456386 0.03895048 -0.037295446 0.009136471 0.09098571 0.0979154
0.12949905 0.11221309 0.0050195167 0.11845043 0.24377587 0.20685364 0.14122967 0.15700161
0.20211962 0.28153974 0.15965511 0.0110436445 0.06998561 0.119020544 0.07139737 0.098047175
0.014117057 0.1364503 0.054492105 0.05184664 -0.016785884 0.03573061 0.0211277 0.07708671
-0.01855424 -0.03045283 0.10064664 0.15412295 0.1683489 0.16904962 0.24915163 0.030087946
0.030370802 0.14983946 0.07384894 0.06745671 0.1547296 0.059298504 0.026378566 -0.018559393
-0.043300472 -0.036105353 -0.074376084 0.049422767 -0.07353712 -0.0012173835 -0.055150952 0.014343399
0.065048285 -0.051936556 0.03176267 0.02202663 0.06879618 -0.08065659 -0.025523733 0.036491234
0.025303666 -0.062071502 -0.075064965 -0.029434234 -0.048338417 0.018218933 0.011333627 0.041594483
0.06967698 -0.008725622 -0.047596313 0.07047374 -0.014788192 -0.023968877 -0.014451883 0.018965406
-0.029965669 -0.043085292 0.0017022627 0.012110515 -0.02323932 0.008468935 -0.012639484 0.046106957
0.06750253 -0.031880602 -0.013774415 0.008626874 -0.07102027 -0.013771044 0.021203794 -0.05478382
-0.10911003 -0.02060192 0.08071746 0.0618243 -0.037018735 0.008839879 0.08548696 0.01952632
0.022767588 0.00445005 0.043421537 -0.050395623 -0.04033596 -0.041088924 -0.017765485 -0.086322255
0.038822565 -0.046913706 0.011171459 0.07786927 0.028856054 0.04227128 -0.03574345 -0.0437788
-0.02700921 -0.03707568 0.0634929 -0.017246272 0.043816097 -0.0005208093 0.04688624 0.056007426
-0.0534157 -0.041300457 -0.056205366 -0.06606944 0.057407174 0.080825396 0.06566828 -0.04855299
0.005004513 -0.06519534 0.06913704 0.05927772 -0.0515964 -0.01280372 0.02318226 -0.037087232
0.040764473 0.050563585 0.03875145 0.12334782 0.16203351 0.08434774 0.023301825 0.052545518
0.10860209 0.008351019 0.14344859 -0.046196233 -0.027995473 0.10364945 -0.015735677 0.057670183
0.10015978 0.08018783 0.04898975 -0.013851405 0.019028857 0.031407088 -0.039754536 0.08276026
0.029462991 0.04491971 -0.012622131 0.0052337376 0.019574717 -0.0053056874 0.063611194 -0.020743903
0.051698674 -0.04689934 0.093352675 0.12886028 0.055722557 -0.05767758 0.05328412 0.012596276
0.13332051 0.062343065 0.059304524 0.13320167 0.06650299 -0.040135235 0.01389344 -0.024235593
0.07304469 -0.021509467 0.04627282 -0.033118244 0.106754676 -0.057605453 0.0884523 -0.040020235
-0.034428824 0.10583154 0.013172072 0.07295428 0.093907595 0.06343044 0.076313816 0.031496067
0.098075375 0.0023680646 0.08790943 0.035583466 0.051376875 0.09979757 -0.014734899 0.050697416
0.054483056 -0.0052252724 0.055926543 0.016331982 0.09939383 -0.023512632 -0.035691854 0.06422038
-0.008929194 0.08112929 0.036053132 -0.029447513 0.103509836 0.01872788 -0.038486924 0.053130288
-0.026478328 -0.0069635143 -0.022691542 0.07403915 0.08134293 0.03591862 -0.028578123 -0.009082299
0.06999924 0.026969649 0.052911226 0.08609326 0.05471679 -0.00022477197 -0.077685095 0.013589157
0.068832755 -0.046369076 -0.026196228 0.044589154 0.042626616 0.0018911895 -0.0046939785 -0.06325213
00000000: 58f5 203e 3d07 e13d d12f ad3d 8a8a 1f3d
00000010: 1cc3 18bd 23b1 153c b756 ba3d df87 c83d
00000020: 669b 043e facf e53d c27a a43b 2496 f23d
00000030: 62a0 793e 71d1 533e 839e 103e 08c5 203e
00000040: 72f8 4e3e fa25 903e a17c 233e 67f0 343c
00000050: 9e54 8f3d 0bc1 f33d c938 923d f5cc c83d
00000060: 3b4b 673c a1b9 0b3e 1d33 5f3d 245d 543d
00000070: 8d82 89bc 435a 123d 0014 ad3c a3df 9d3d
00000080: 10ff 97bc 3778 f9bc d31f ce3d 68d2 1d3e
00000090: a763 2c3e 581b 2d3e 9b21 7f3e ff7a f63c
000000a0: 30cc f83c 846f 193e 1d3e 973d be26 8a3d
000000b0: 7071 1e3e fde2 723d dd17 d83c de09 98bc
000000c0: d65b 31bd 35e3 13bd 7d52 98bd 876f 4a3d
000000d0: a19a 96bd 9d90 9fba f7e5 61bd 9300 6b3c
000000e0: 0938 853d 6dbb 54bd 9319 023d 3171 b43c
000000f0: 03e5 8c3d 482f a5bd 2617 d1bc d577 153d
00000100: a249 cf3c b03e 7ebd a9bb 99bd 1020 f1bc
00000110: 81fe 45bd df3f 953c adb0 393c fa5e 2a3d
00000120: ceb2 8e3d e9f5 0ebc 5af4 42bd 8954 903d
00000130: 2c4a 72bc 615a c4bc 97c7 6cbc 575d 9b3c
00000140: 907a f5bc 347a 30bd 751e df3a 2e6b 463c
00000150: 6360 bebc 4ac1 0a3c d715 4fbc a6da 3c3d
00000160: c43e 8a3d 3c95 02bd 15ae 61bc bb57 0d3c
00000170: 1373 91bd f29f 61bc 94b3 ad3c 0065 60bd
00000180: 1475 dfbd 5cc5 a8bc 324f a53d 7a3b 7d3d
00000190: f5a0 17bd 24d5 103c ca13 af3d a9f5 9f3c
000001a0: 1883 ba3c bad1 913b c8da 313d a46b 4ebd
000001b0: 5237 25bd dc4c 28bd ec88 91bc b9c9 b0bd
000001c0: 6904 1f3d 9628 40bd 7f08 373c ed79 9f3d
000001d0: 8863 ec3c a624 2d3d b967 12bd 6651 33bd
000001e0: 6b42 ddbc abdc 17bd 9108 823d 0e48 8dbc
000001f0: 8278 333d ec86 08ba c90b 403d 0b68 653d
00000200: 6cca 5abd ab2a 29bd 9937 66bd 6a4f 87bd
00000210: c923 6b3d c987 a53d 177d 863d 80df 46bd
00000220: e6fc a33b 2285 85bd b897 8d3d 32cd 723d
00000230: bf56 53bd b2c6 51bc b9e8 bd3c c8e8 17bd
00000240: a6f8 263d c31b 4f3d d7b9 1e3d c89d fc3d
00000250: 1dec 253e 82be ac3d 78e3 be3c f839 573d
00000260: c66a de3d b6d2 083c 30e4 123e 4338 3dbd
00000270: c356 e5bc 2a46 d43d 1be8 80bc 9237 6c3d
00000280: 9220 cd3d 8439 a43d 7aa9 483d 01f1 62bc
00000290: 68e2 9b3c b8a4 003d a7d5 22bd 367e a93d
000002a0: 5f5c f13c bbfd 373d 0ecd 4ebc c67f ab3b
000002b0: 285b a03c 55db adbb 9646 823d 1eef a9bc
000002c0: fdc1 533d 8619 40bd b02f bf3d f3f3 033e
000002d0: 563d 643d 533f 6cbd 7340 5a3d 9c60 4e3c
000002e0: 2c85 083e 715b 7f3d 4de9 723d 0566 083e
000002f0: b832 883d d864 24bd 50a1 633c b989 c6bc
00000300: 7498 953d 9f34 b0bc 9288 3d3d ffa6 07bd
00000310: 32a2 da3d b2f3 6bbd 7b26 b53d 42ec 23bd
00000320: 3d05 0dbd 35be d83d adcf 573c 0e69 953d
00000330: a052 c03d d2e7 813d 6b4a 9c3d 0502 013d
00000340: bedb c83d 8831 1b3b dc09 b43d f8bf 113d
00000350: 8f70 523d ab62 cc3d a56a 71bc 18a8 4f3d
00000360: a029 5f3d c338 abbb 3b13 653d a6ca 853c
00000370: fe8e cb3d 909d c0bc 9f31 12bd f985 833d
00000380: c14b 12bc 1d27 a63d 73ac 133d e93b f1bc
00000390: f7fc d33d 366b 993c 77a4 1dbd 259f 593d
000003a0: 14e9 d8bc 312e e4bb 9de3 b9bc d6a1 973d
000003b0: 1f97 a63d 671f 133d ab1c eabc eccd 14bc
000003c0: c35b 8f3d 74ef dc3c 71b9 583d aa51 b03d
000003d0: b61e 603d c4b0 6bb9 5d19 9fbd 0ea5 5e3c
000003e0: 30f8 8c3d 80ed 3dbd 7999 d6bc 1ea3 363d
000003f0: 3f99 2e3d cae1 f73a f2cf 99bb 558a 81bd

bias f4 [6]
-0.062300418 0.07814966 0.04952792 0.080724776 -0.08066795 0.16520333
00000000: b92e 7fbd ee0c a03d cadd 4a3d 0853 a53d
00000010: 3d35 a5bd 102b 293e

weight f4 [5, 96]
-0.10913991 0.05560583 -0.081802174 -0.056356233 -0.044165574 -0.09259878 0.0152583625 -0.036424167
0.06995908 0.00091605395 0.06192822 -0.06744567 -0.064335644 -0.042869482 -0.12885736 0.078528926
0.08225799 0.09214984 0.04796978 0.03685015 0.07428312 0.03624833 -0.011165902 0.0715354
0.0009237321 0.12695098 0.041140188 0.008660623 -0.0026527492 0.11409281 0.11492193 -0.002837801
0.0005126378 -0.011222452 -0.03435624 0.01642335 -0.0819692 0.07957641 0.034092624 -0.060190164
-0.044898693 0.040163673 -0.06725099 0.09608552 -0.08588239 0.0780199 -0.045314223 0.06267992
-0.069831274 0.115867235 0.09718437 0.12126992 0.10885465 0.022276012 -0.00046582214 0.08706284
0.053620588 0.1323828 0.08763077 0.12652062 0.12873805 -0.046852883 0.06985409 0.092905134
0.031992 -0.08034331 0.03231442 -0.07917747 0.091042094 -0.032877315 0.022064848 -0.079703
-0.027704122 0.017154288 0.0027067729 -0.06713512 -0.07756737 -0.07784732 0.06172872 0.0033778592
0.30253527 0.24719656 0.32239518 0.31712866 0.2686176 0.3639415 0.30170923 0.108588785
0.2029618 0.31684077 0.1758201 0.3371549 0.30440983 0.18586065 0.2405647 0.31832752
0.23709323 0.08330622 0.006931733 -0.008250287 0.08613539 0.10371636 0.2090875 0.12161442
0.04914045 0.27144018 0.20763066 0.14475818 0.14150898 0.27701753 0.19562392 0.08727626
0.023200436 0.04444018 0.024650663 0.03197531 0.100343764 0.16124697 0.07776856 0.058281366
0.13071316 0.0838047 0.029930057 0.0044075325 0.029167866 -0.019927738 -0.029849747 0.044018615
-0.055511475 0.031783868 -0.002301603 -0.05024914 0.011990185 0.085581444 -0.04017518 -0.046476793
0.0129201375 -0.04309459 0.04899113 0.017850304 0.0017845571 -0.023086855 0.084897146 0.06710088
0.14894202 0.20918658 0.01481092 0.1354745 0.13180596 0.14554007 -0.012688716 0.0330997
0.061710436 0.17320251 -0.011898324 0.15160505 0.06351859 0.12762155 0.12503164 0.044578515
-0.06764836 -0.006580203 0.014477468 -0.001349268 -0.08900888 -0.01919796 0.06560686 -0.025129188
0.049323533 0.060260598 0.022387898 -0.038209174 0.071840435 0.07749096 0.08080476 -0.05180308
-0.28754747 -0.28792027 -0.18381664 -0.31164107 -0.43262392 -0.18792403 -0.36462906 -0.3444938
-0.12637368 -0.26226786 -0.26257452 -0.21732466 -0.100416094 -0.2944278 -0.06963565 -0.25879347
0.009734593 0.06819739 0.00021238768 0.16180632 0.120055944 0.10653492 -0.01261759 -0.08010283
-0.05292472 0.055705007 -0.07874913 -0.02953728 0.05207696 0.04034466 -0.108967215 -0.03999102
-0.08781279 -0.0934265 0.053825665 -0.02086688 0.04479367 -0.036061443 0.06870348 0.004893171
-0.08888647 -0.023111112 0.017415928 0.01588509 0.019407505 -0.026880888 -0.030756397 0.09524038
0.070784956 -0.0978726 -0.02019835 0.05594599 -0.07379949 0.048569053 -0.038031742 0.08327827
-0.07059269 0.06692462 -0.051736567 0.09453658 0.018021137 -0.04502172 -0.0140787875 -0.008859344
0.017299557 -0.0608337 0.09205358 -0.08514485 -0.077411145 -0.075461924 -0.06600699 0.010911501
0.059034087 -0.02744168 0.043836202 -0.0811852 0.024005383 0.068515554 -0.08196174 -0.080864646
00000000: bf84 dfbd f0c2 633d e687 a7bd cbd5 66bd
00000010: f6e6 34bd 6ea4 bdbd 36fe 793c 8231 15bd
00000020: b546 8f3d 5723 703a 72a8 7d3d f520 8abd
00000030: 68c2 83bd e997 2fbd 2ff3 03be c6d3 a03d
00000040: e176 a83d 0eb9 bc3d f67b 443d 2ff0 163d
00000050: c021 983d 2179 143d 30f1 36bc 2781 923d
00000060: 9d26 723a 70ff 013e 9d82 283d 49e5 0d3c
00000070: bfd9 2dbb 7ea9 e93d 305c eb3d 66fa 39bb
00000080: 8a62 063a 60de 37bc 21b9 0cbd 438a 863c
00000090: 78df a7bd f5f8 a23d b5a4 0b3d f689 76bd
000000a0: b1e7 37bd aa82 243d e3ba 89bd 7cc8 c43d
000000b0: 1be3 afbd e6c8 9f3d 689b 39bd 545e 803d
000000c0: b303 8fbd cd4b ed3d 9908 c73d 5d5c f83d
000000d0: 30ef de3d 2f7c b63c 9739 f4b9 014e b23d
000000e0: 43a1 5b3d 5b8f 073e c377 b33d 9f8e 013e
000000f0: e8d3 033e cfe8 3fbd a90f 8f3d 0c45 be3d
00000100: 0b0a 033d 098b a4bd 205c 043d cc27 a2bd
00000110: 4774 ba3d 5daa 06bd 57c1 b43c 543b a3bd
00000120: c1f3 e2bc 2687 8c3c 1d64 313b 237e 89bd
00000130: a4db 9ebd 6a6e 9fbd 41d7 7c3d 135f 5d3b
00000140: e7e5 9a3e 1821 7d3e fb10 a53e b05e a23e
00000150: 3f88 893e 8a56 ba3e a279 9a3e cc63 de3d
00000160: 38d5 4f3e f438 a23e 2f0a 343e 919f ac3e
00000170: 9bdb 9b3e 4152 3e3e 9856 763e d3fb a23e
00000180: 91c8 723e 749c aa3d 9723 e33b 362c 07bc
00000190: c067 b03d 3e69 d43d 091b 563e fb10 f93d
000001a0: 7f47 493d 35fa 8a3e 229d 543e 7d3b 143e
000001b0: bbe7 103e 3ed5 8d3e a351 483e e5bd b23d
000001c0: d70e be3c e806 363d 30f0 c93c 8bf8 023d
000001d0: 0881 cd3d ed1d 253e 1f45 9f3d 71b8 6e3d
000001e0: acd9 053e cca1 ab3d e12f f53c 106d 903b
000001f0: 73f1 ee3c 7f3f a3bc 7587 f4bc dd4c 343d
00000200: 0060 63bd cd2f 023d 7ed6 16bb 0bd2 4dbd
00000210: 7b72 443c 5345 af3d bb8e 24bd 735e 3ebd
00000220: fcae 533c f483 30bd ecaa 483d cd3a 923c
00000230: cde7 e93a a520 bdbc 8ede ad3d 306c 893d
00000240: 4284 183e 0235 563e 80a9 723c d4b9 0a3e
00000250: 24f8 063e 7508 153e 55e4 4fbc 8d93 073d
00000260: 15c4 7c3d 005c 313e 30f1 42bc 5b3e 1b3e
00000270: 0916 823d 39af 023e 4b08 003e f697 363d
00000280: 398b 8abd be9e d7bb e732 6d3c ecd9 b0ba
00000290: 4a4a b6bd 0a45 9dbc e45c 863d badb cdbc
000002a0: 7907 4a3d d1d3 763d d366 b73c 3981 1cbd
000002b0: 1421 933d 95b3 9e3d f77c a53d 772f 54bd
000002c0: 6c39 93be 496a 93be 6e3a 3cbe 6b8f 9fbe
000002d0: e280 ddbe 286f 40be a9b0 babe 7e61 b0be
000002e0: 1a68 01be f947 86be 2b70 86be 5b8a 5ebe
000002f0: f4a6 cdbd 3ebf 96be 239d 8ebd 9480 84be
00000300: d87d 1f3c 13ab 8b3d 62b4 5e39 8eb0 253e
00000310: e4df f53d fb2e da3d 02ba 4ebc f40c a4bd
00000320: 97c7 58bd ef2a 643d 3947 a1bd 2af8 f1bc
00000330: a74e 553d 7140 253d 342a dfbd a0cd 23bd
00000340: 31d7 b3bd 6556 bfbd 4d78 5c3d 05f1 aabc
00000350: 9179 373d 2ab5 13bd 69b4 8c3d e556 a03b
00000360: 1c0a b6bd 8453 bdbc d9ab 8e3c 7321 823c
00000370: 7dfc 9e3c 4f35 dcbc d7f4 fbbc 630d c33d
00000380: b4f7 903d 6e71 c8bd 0377 a5bc 9f27 653d
00000390: 3024 97bd 58f0 463d 2cc7 1bbd cc8d aa3d
000003a0: e692 90bd c60f 893d b9e9 53bd 659c c13d
000003b0: 10a1 933c b268 38bd b7aa 66bc c826 11bc
000003c0: cdb7 8d3c c22c 79bd 9686 bc3d 6c60 aebd
000003d0: bc89 9ebd c88b 9abd ac2e 87bd 27c6 323c
000003e0: bacd 713d 60cd e0bc 978d 333d 6d44 a6bd
000003f0: f0a6 c43c e251 8c3d 8fdb a7bd 5d9c a5bd

bias f4 [5]
0.1076532 0.12319302 0.030363757 -0.078691944 -0.086167194
00000000: 4879 dc3d 9f4c fc3d 6abd f83c 3e29 a1bd
00000010: 6d78 b0bd
