Models_mario/Mario Bias_exp0_GRU_temporal.pth (torch, 101918 bytes, 10 tensors)

weight_ih_l0 f4 [150, 5]
00000000: ef05 dabe 7450 6cbe 679c c0be b71b 50bf
00000010: c308 013f c929 bf3e 1d07 09bd eb0a 293f
00000020: 3d5d 4abf f887 c13e cd06 b43c 3df8 a6bc
00000030: d26f 583e 48fa f13d 9d8f 41be 579d 783d
00000040: d983 eabe 2f5c 82be 7b10 733d 12ce b23e
00000050: 74ce f83d 425e 003f 3be5 9c3f ecac 39bf
00000060: 1f92 873e bcbb 3b3e 51e7 4bbe 9ff0 6bbe
00000070: dec1 73be a9bb 043f e2ed bf3c 6c5b 5fbe
00000080: 9eef 203c c176 a5be 1879 ec3e adb0 acbd
00000090: 181e ebbd d3b1 e5be ebe5 343e 141e 393f
000000a0: 137f cd3b 2ff8 aebe 06f8 7ebe fcf0 be3d
000000b0: 2c1a 893d b7fa 3f3e 3636 423d f365 993d
000000c0: 82db bdbe 0057 8b3e b466 6c3d 6c5a 67be
000000d0: c52a b23c aeaf 03be 27a8 613e 50e0 4d3e
000000e0: 95d6 82be 8547 14bf 654d 3abd 3faa ad3d
000000f0: 712d 913e 3cee 01be 81b3 c9be 86db 7f3d
00000100: 709b 80bd a58c 04be 60df b1be 9fae e83d
00000110: 5914 1dbf 3354 323f c334 273e f682 96be
00000120: a067 b0be 4ad1 52be 5c51 263f 8981 c83e
00000130: a8d4 99be af44 b73c da3f 7ebe 8a2c 8f3e
00000140: 8337 d8bd c82f 733e bc2a 473e 794e cf3d
00000150: bc2a 9d3d 4b7b 2abe dd83 00be 7569 c73e
00000160: 513b 2b3e 9264 973b f563 463d 610e 743e
00000170: c040 1ebe df38 5fbd 60f6 a43e 0a37 28be
00000180: f8fb ccbd 56ef c43e d0e2 09be c44e e93d
00000190: d7b3 a03d 5777 263e 2523 f6be b486 bc3f
000001a0: 8d99 64be 198b 85be c611 efbe 295f 933f
000001b0: 0741 97bf 5328 f73d 8a10 103e e908 1abe
000001c0: 1648 8bbe 05fb 29bd 1744 a03e 0676 233e
000001d0: ec2b e4be 776c 4bbe cebe 443e 89ee ad3e
000001e0: 0b20 f43e 77e6 b03e 6cf1 eb3e bf14 3bbd
000001f0: 970e 013e 8197 b8bc f0ed 3b3c e6da bf3e
00000200: 98d6 febe 4f6e e03e ba79 6b3d 784c 703e
00000210: bc02 af3e 8cc3 e6bd e212 443d ee0d b33e
00000220: 3163 263e 5814 863d 88d4 2f3e 07d4 8c3c
00000230: 02b1 173e d640 0d3e c35b 25bc d9fd 003e
00000240: 44f2 193e 0609 e13d 765d 81be 5e09 d5be
00000250: 3f18 a03e 3d38 a1be 63d1 503e 2bc8 b5bd
00000260: faed 8dbe 2340 5dbd 890a 2b3e 791f df3c
00000270: f87b 7d3c c449 f53e 203f c5be 78e8 8abd
00000280: 5971 963e 0dd7 fabd aae0 073f 0756 e83c
00000290: 6584 233e 6acb 733e 372a 6b3e 7fad 213e
000002a0: ab88 e63d 509a 6f3e 26a0 d0be cd27 683e
000002b0: 4a8b 373e 98dc 4dbe fc10 993e 8a4e 34be
000002c0: 010e b3be 37fc 65be 1ee1 22bf ff41 f33e
000002d0: 3c1e e53d a95a a4be 7a43 b3be 84f9 84be
000002e0: 0911 0e3f 34e6 5f3e 8764 ff3d 206e 35bd
000002f0: 86ba 3a3e 2623 91bd 5382 693d dcfa c33e
00000300: 7f1a 733e 9e1f bc3d da3b a9bd 2dee c1bc
00000310: c03c 44be c4ec 89be e6b5 19be 782b 1dbe
00000320: dd8c b43d 8a5c 1b3d a0ed d9be 6f43 d8bc
00000330: 7061 d63e c9f0 c4bd ade0 b33d ae25 473e
00000340: e114 b9bd 2668 6c3d 4bdc 15bf 55ac bfbd
00000350: fb1e 993f 1620 49bf 7970 863d b078 48bd
00000360: da11 f4bd e707 91be bf18 803d ec6f ff3d
00000370: e34a ab3d e75f 7bbd ed8b 9dbc b2ec 9abd
00000380: f98c 7f3e 8a0d 203e fd46 0ebe c5b2 bfbb
00000390: c286 3ebe 3617 073f 8c95 b83d 5274 91be
000003a0: cfec 74be 7651 f33d 2a33 8d3e 3a92 053d
000003b0: 54c3 4ebe 8b71 a5be d496 13bd ea5a 513e
000003c0: c04b d43e 231d b3be fbe5 4abe b70e 353e
000003d0: f2c5 40bf d352 8a3d 4d48 98bd 65e4 e5be
000003e0: bd20 abbd cb37 603e e381 40bf ea3a 94bf
000003f0: 481d 92bf 3308 18bf 4935 e6bd 327c 8b3d
-0.42582652 -0.23077565 -0.37619326 -0.8129229 0.50403994 0.37336567 -0.03345405 0.66032284
-0.7904852 0.37799048 0.0219759 -0.020382041 0.21136406 0.118153155 -0.1890244 0.060696926
-0.45803717 -0.25460956 0.05934189 0.34922844 0.12148753 0.50143826 1.2257456 -0.7252948
0.2647867 0.18333334 -0.19912459 -0.23041008 -0.23804423 0.51848847 0.023428861 -0.21812218
0.009822754 -0.32317165 0.46186137 -0.08432136 -0.11480349 -0.44862232 0.17665832 0.7231152
0.006271252 -0.34173724 -0.24899301 0.09323308 0.06694445 0.18747984 0.04741498 0.074901484
-0.37081534 0.27214813 0.057715133 -0.22593087 0.02174891 -0.12859985 0.22036801 0.201051
-0.25554338 -0.5792163 -0.045483965 0.084797375 0.28354982 -0.12688535 -0.39394763 0.062465213
-0.06279647 -0.12944277 -0.34740734 0.11361431 -0.61359173 0.6965973 0.16328721 -0.2939679
-0.3445406 -0.2058765 0.64967895 0.39161327 -0.30045056 0.022371618 -0.24829045 0.27963668
-0.10557463 0.23748696 0.19449896 0.10122389 0.076741666 -0.16648595 -0.12550302 0.38947645
0.16721846 0.004620143 0.04843517 0.2383361 -0.15454388 -0.054497596 0.3221922 -0.16427246
-0.10008997 0.3846385 -0.13465428 0.113919765 0.07846802 0.16256462 -0.48073688 1.4728608
-0.223242 -0.26082686 -0.46693248 1.1513416 -1.181672 0.12068238 0.14068809 -0.15042461
-0.27203435 -0.041499157 0.31301948 0.15962991 -0.4456476 -0.19865595 0.19213411 0.3397105
0.47680697 0.3455083 0.46082628 -0.045674082 0.12603222 -0.02253318 0.011470303 0.37471694
-0.49773097 0.4383416 0.057489134 0.2346667 0.34181774 -0.11267766 0.04786957 0.34971565
0.16248776 0.06546849 0.17170918 0.017190946 0.14813617 0.13794264 -0.0100926785 0.12596835
0.15033823 0.10988049 -0.25266618 -0.4160871 0.31268498 -0.3148822 0.20392375 -0.0887607
-0.27720624 -0.054016244 0.16703238 0.027236687 0.015471451 0.4790784 -0.38524723 -0.06782621
0.29383352 -0.12248049 0.53077185 0.028361334 0.15968473 0.23808065 0.22965322 0.1578884
0.11256536 0.2339871 -0.40747184 0.22671433 0.17924228 -0.20103681 0.2989577 -0.17608085
-0.34971622 -0.22459494 -0.6362475 0.4751129 0.111874074 -0.32100418 -0.35012418 -0.25971615
0.55494744 0.2186516 0.12470346 -0.044294477 0.18235216 -0.07086782 0.057009052 0.38277328
0.23740576 0.09185718 -0.08263369 -0.023673141 -0.191638 -0.2693845 -0.15010795 -0.15348613
0.0881593 0.03793005 -0.42564106 -0.026399342 0.41871214 -0.096162386 0.08783088 0.19447967
-0.090371855 0.05771651 -0.58539265 -0.093590416 1.196258 -0.78564584 0.06564421 -0.04894322
-0.119174674 -0.28326342 0.0625472 0.12472519 0.08363893 -0.061370756 -0.01923176 -0.07564677
0.2495612 0.15630165 -0.13894267 -0.0058501684 -0.18606094 0.5276979 0.09012899 -0.28409058
-0.2391846 0.11880772 0.27578098 0.032610156 -0.201917 -0.3231319 -0.036032513 0.20444837
0.41464043 -0.34983167 -0.19814293 0.17681395 -0.7530204 0.06754079 -0.07435665 -0.44900814
-0.08355854 0.21896283 -0.7519819 -1.1580479 -1.1415186 -0.5938751 -0.11240632 0.06810798

weight_hh_l0 f4 [150, 50]
00000000: 2f60 98bd 296c aabd 93a3 adbe 03de 3cbd
00000010: ea24 0bbd 3367 eebd cbf8 243e e21c b83c
00000020: f3a8 a53d 1849 cbbd 12d8 63bd 3129 103e
00000030: 44d6 64bd 9e56 813d c920 9e3c 7a4a bdbd
00000040: 315c 41bd 3d66 11be bc0b b43d 5fa1 17be
00000050: b8b6 063e a0de 3f3e d45d 07bc c1db 9ebb
00000060: 7ee2 d2bd e3bf 023e a653 ef3d c870 eabc
00000070: e195 1abe d79e 333b 4fed ebbd 1503 ecbd
00000080: 88c9 33be a70a 09bd 5a48 7abe 774e 24be
00000090: 8b4c 663d 2919 a03d cd96 933d 26af 903e
000000a0: 0553 243d 1ab0 9d3d 35cb 3b3e 82ad c43d
000000b0: d911 85bc aae1 423e 98ae 6d3d dab0 0cbe
000000c0: 1bea 4e3e a170 debd c3e0 103e 7871 b7be
000000d0: 99cc 4e3e c3ec 473e c551 8c3e 76e9 ba3d
000000e0: 1f08 1fbe abe5 7fbd 3e29 76bd e443 8c3d
000000f0: 9993 443d f1f7 7c3c 5713 41bd 11f5 593d
00000100: 1330 8e3b d0e6 f33d 7272 a1bd 2d87 76bd
00000110: 168a 4d3d 2123 81be ae1a eb3d 3801 683e
00000120: c9b0 3abc c0de 5d3d 896c 103e 04ea df3d
00000130: af58 05be 7c2a 793e 5888 5fbb 80d4 763d
00000140: f968 8d3e 1238 9cbd e96e dabd d414 15be
00000150: 1828 87be e917 eebd 4d92 033d 5a81 4bbd
00000160: 5b59 293e 0fd5 39bb 9f21 00bd ebe6 26bd
00000170: aa89 cebd 82e0 34bd 976e 803d 9c38 e73c
00000180: 285a 683d a32a af3d 0811 763d 92f1 97bd
00000190: 7413 abbd e8f1 773e 892c 4ebe 62bc 8a3d
000001a0: e417 fdbd f69a 3cbe a5e5 abbd 43f8 adbd
000001b0: 5c85 84be b629 1c3e b705 d33d a60c 673c
000001c0: 6651 da3d 95ff f53c 42cb acbe 09fc 0b3e
000001d0: 5aad 1c3e c397 673d 05fc 52bb 67b0 773e
000001e0: 0853 ef3d 1f0c e0bd dc45 9cbe 2f27 a1be
000001f0: 4a89 533d b366 a2bd 5959 a93d c830 24bd
00000200: 8b5b 2bbe 34c2 073e c172 db3d 2d98 e93c
00000210: ec35 883d 0a14 1cbc fb71 573e 001c bd3d
00000220: e7c1 f1bd 0a0f 4fbe d606 1abd d9cf f93d
00000230: 4b82 6f3d 2ee8 8e3d 49a6 a3bd 8119 7c3b
00000240: 6299 b93d 7943 a8be dda6 b1bb 75ad 0fbe
00000250: 6c4b 103d 9f9e ca3d b4fa fabd f631 e93d
00000260: 51b3 413e e45b c13d 35d1 32bc 4384 2abd
00000270: 9523 87bd 0d14 b23d fe62 a6bd 2953 823e
00000280: 3131 083e 1316 5f3c d71c ad3d 196e 973d
00000290: 6fc8 16bd 71d4 6e3d 49f9 4ebe f25d 963e
000002a0: 5b10 323e 03df 243e 9595 6c3e 831d 75be
000002b0: 6ccf 35be bde2 a9bd 7eeb 74be 6931 9e3d
000002c0: d682 0fbe a09a 9bbd b4fe 56bc c864 283d
000002d0: 789b 3bbd 1382 f4bb 9aad 013e 4004 c9ba
000002e0: 9cd9 b13c c967 c3bd f42c 853c b7b6 ebbc
000002f0: 6286 783e 8965 cabd 6059 6e3e 17d8 293b
00000300: 6b77 1bbe b16f 7a3d b077 983d f827 8fbd
00000310: 6b15 08be 1674 fc3b c99b f43c 2416 413e
00000320: 8137 b83c 67aa 89be bb4e 8d3e be25 49be
00000330: e576 563e 306e debc 2d12 f13d c079 58bd
00000340: 0b83 8a3e f110 83bd 4c61 f6be 8e9c ed3d
00000350: ceac 09be 0ec1 553d a57b be3e f8b9 67be
00000360: 6ba6 d1bd fd39 dc3c cb6e 9dbe 64e2 eabe
00000370: 837d ea3c 78ab 3a3e ca56 3f3e e345 2c3e
00000380: 3cca 483d 0ea6 9b3e 8467 69bd a231 2ebd
00000390: df1c 82bd 0bec 263e 8611 763a ad2c 4cbe
000003a0: 3743 dfbe 1982 85bc 9c15 bcbe 1919 1fbd
000003b0: 70fb a13d 7462 993d 4a3a 123e fd99 143e
000003c0: f649 103e ce67 b8bd 7963 9c3c 5485 293e
000003d0: babc d0bd 7cba 803e 0ba5 ee3b 9496 de3d
000003e0: 899f 943d 7ed4 7abd 31bd 47be 403a 88bd
000003f0: b017 483d bb7d 763c 8439 313d 00e2 623e
-0.074402206 -0.08321411 -0.3391386 -0.046110164 -0.03397075 -0.116407774 0.16110532 0.02247471
0.08088865 -0.09926051 -0.055625983 0.14078213 -0.055868402 0.06315349 0.019302743 -0.09242721
-0.04720706 -0.14199157 0.08791301 -0.14807652 0.13155639 0.18737268 -0.008262116 -0.004847974
-0.10297106 0.12768511 0.116858765 -0.028618231 -0.15096237 0.0027407908 -0.115198724 -0.11524025
-0.17557347 -0.033457424 -0.24441662 -0.16045557 0.05622534 0.07817299 0.07206497 0.28258628
0.040118236 0.07699604 0.18339236 0.096034065 -0.016243862 0.19031397 0.058027834 -0.13739339
0.20206492 -0.10861326 0.1414824 -0.35828757 0.20195235 0.19523911 0.27406135 0.091265604
-0.15530442 -0.062474888 -0.060097925 0.068488866 0.047992323 0.015439973 -0.047137585 0.05321223
0.004339227 0.11909258 -0.07883157 -0.060187507 0.050180517 -0.25222114 0.11479698 0.22656715
-0.011394688 0.05416751 0.14103903 0.10933307 -0.13022111 0.24332613 -0.0034108367 0.06026125
0.2761915 -0.07627882 -0.10665686 -0.14558727 -0.26397777 -0.11625654 0.032121945 -0.049683906
0.16537993 -0.0028355753 -0.031282064 -0.040747564 -0.10084851 -0.04415942 0.06271093 0.028225236
0.056726605 0.08553054 0.060074836 -0.07419123 -0.0835332 0.24213374 -0.20134176 0.067742124
-0.123580724 -0.18418488 -0.083934106 -0.08494618 -0.25882995 0.15250286 0.103038244 0.014102137
0.10660057 0.030029098 -0.33748823 0.13670363 0.15300503 0.056541216 -0.0032193672 0.24188386
0.11685759 -0.10939812 -0.30522048 -0.31475207 0.0516446 -0.079297446 0.08268995 -0.040085584
-0.1673414 0.13257676 0.10715247 0.028514946 0.0665091 -0.009526262 0.21039574 0.09233856
-0.11804562 -0.2022058 -0.037604176 0.12197847 0.058473866 0.069778785 -0.07990701 0.003846735
0.090624586 -0.32863978 -0.005421503 -0.14031012 0.035228178 0.09893536 -0.12254849 0.113864824
0.1891606 0.09441355 -0.010914137 -0.04163004 -0.065985836 0.08695231 -0.0812435 0.2545407
0.13300015 0.013616103 0.084527664 0.07394046 -0.036812242 0.05830807 -0.20212282 0.2936855
0.17389052 0.16100697 0.23103936 -0.23937039 -0.17754906 -0.082952 -0.23917958 0.07724268
-0.14014754 -0.07597852 -0.013122249 0.041111737 -0.045802563 -0.007461795 0.1266388 -0.001533635
0.02171021 -0.0954128 0.016256787 -0.028773649 0.24270013 -0.098826475 0.23276281 0.0025916153
-0.15182273 0.061141673 0.074447036 -0.06990045 -0.1328942 0.007704268 0.02985944 0.18856102
0.022487404 -0.2688782 0.2759913 -0.19643304 0.20943792 -0.02715215 0.11771045 -0.052850485
0.27053103 -0.06399716 -0.48121107 0.11602126 -0.13444826 0.052186064 0.37203708 -0.22629535
-0.1023682 0.02688312 -0.3074859 -0.45875847 0.028624302 0.18229473 0.18685451 0.16823535
0.04902099 0.30400127 -0.056983486 -0.042527802 -0.06353163 0.16300981 0.00093867665 -0.19938917
-0.43605968 -0.016297387 -0.36735237 -0.038842294 0.07909286 0.074894816 0.14280048 0.14511867
0.14090714 -0.09004174 0.019090401 0.16554767 -0.10192247 0.25142276 0.0072828582 0.10868564
0.072569914 -0.061237805 -0.19505765 -0.06651735 0.048850715 0.015044625 0.04326774 0.22156525

bias_ih_l0 f4 [150]
00000000: 1f36 50be 27a3 03bc e5ea b83c 291c 543e
00000010: a635 48be 83e6 4e3c afda efbc 9ca0 813e
00000020: 66fc 973b ceff 353e 2490 db3d 4ab6 b6bc
00000030: 2f6d a7bd a860 b0bc 6b28 a5bd 7501 553c
00000040: 4bdb 50bc 42e6 5ebd 5820 213e 9f9b 273e
00000050: 21e9 3fbd 925c a4bd 5341 da3d d815 253e
00000060: 1a3f ae3d 11cf 1abe c4e1 f93d 7859 4bbd
00000070: 5d7f 883d 27cc 62be 70dd 9f3d 5938 a4bd
00000080: 774e a13e 29d3 883e 3fcd c3bd 2192 e8bb
00000090: 54c8 22be 5bf8 5c3e c3df 133e d9d5 e73d
000000a0: 282f 68bd 1b65 3e3e f014 e7bd 6779 d3bc
000000b0: a33c c93d 038a db3d 04e7 8b3d 82d3 9bbd
000000c0: 214b 2cbe bcd3 31be ab18 3dbf ef42 18bf
000000d0: 41b8 0fbe c6ed 82bd da38 e2bf 8e4b 58bd
000000e0: f8a2 dfbd eb4f 18bf 6983 823c beb4 09be
000000f0: 182b 343d 5c19 44be e6ab b3be 4dee 15be
00000100: 1629 d2be 07bb 7abe b1fb 8cbe 5a57 eabe
00000110: f0a8 4c3e 5c5b 9c3e fa8b 89be ad43 18bf
00000120: da0e d33b 7788 a1be 5a00 9abe fe73 273d
00000130: cda0 1b3e affb 44be 1eda da3d 3255 96be
00000140: 558b 89bd e58f ddbe 7997 243e 0746 b83e
00000150: 2b97 65be c58c 62bf adaa 99bd c203 c33e
00000160: dc6b 3f3e f524 0bbe 0887 2cbe 5d42 2a3e
00000170: 8e37 bebf 6460 463e ef35 00bb dce0 91be
00000180: 9e1e 5a3e c79b 8abd 845e 57bd 36f6 e53c
00000190: 69f2 7abe e50a 0abe 72a4 2f3e 4828 a3bd
000001a0: c49d 083e bae0 c33d f763 323b b661 fcbd
000001b0: b0f3 38bd b85e d23d cea4 603e f04a 94bc
000001c0: ccd8 9a3d 751b d93c c853 e4bd d847 ff3d
000001d0: eb54 f4bc a9fb 493e bbf3 693e 51fd d53d
000001e0: 0ba6 2abe 5f29 ac3e 8a63 22bd fa47 fdbd
000001f0: 8401 3cbe 0015 a83d 5911 5dbd a346 673d
00000200: e9e3 9cbd 5967 fdbd 469d 01be 479f 143e
00000210: 8487 ec3b b88e 3c3c 39da 363e f7a4 7fbe
00000220: f4ba 203d f31f 413d 12c0 9b3d bdcf 19bd
00000230: 173a 533e cc52 cb3c 8301 80be e94c 233d
00000240: f1c7 1e3e d50a 9c3d a0fc 513c 4459 073e
00000250: 984c f8bd b190 0c3e
-0.20333146 -0.008034504 0.022572944 0.20713867 -0.19551715 0.0126282 -0.029279081 0.25317848
0.0046382425 0.17773363 0.10720852 -0.02230372 -0.08175122 -0.021530464 -0.0806435 0.013000836
-0.012747596 -0.05441881 0.15734994 0.16367958 -0.04685319 -0.08025469 0.10656991 0.16121614
0.085081294 -0.15118052 0.122012645 -0.04964587 0.066649176 -0.2214819 0.07805908 -0.0801856
0.31505176 0.26723602 -0.09560632 -0.007097498 -0.15896732 0.21579115 0.14440827 0.11320085
-0.056685597 0.18593256 -0.112832904 -0.025814725 0.09826019 0.10719683 0.06831172 -0.07608701
-0.16825534 -0.17365927 -0.73865765 -0.5947713 -0.14035131 -0.06393008 -1.76736 -0.05280643
-0.10919756 -0.59496945 0.015931802 -0.13447854 0.04398641 -0.19150299 -0.35092086 -0.14641686
-0.4104697 -0.24485408 -0.27535775 -0.4576977 0.1998632 0.30538452 -0.26864606 -0.59478265
0.0064409794 -0.31549427 -0.30078393 0.040882103 0.1519806 -0.19236635 0.10686134 -0.29361874
-0.067160286 -0.43273845 0.16073407 0.35990927 -0.22420947 -0.8849605 -0.07503257 0.38088804
0.18693489 -0.13588317 -0.16848385 0.16626878 -1.4860704 0.19372708 -0.0019563397 -0.28491867
0.21300742 -0.067679934 -0.05258037 0.028071504 -0.24506535 -0.13480718 0.17152575 -0.079666674
0.13341433 0.095643476 0.0027220228 -0.123233244 -0.045154274 0.102719724 0.21937868 -0.01810214
0.07560882 0.02650235 -0.111487925 0.12464875 -0.029825648 0.19724907 0.22846882 0.10448707
-0.16664903 0.33625314 -0.03964571 -0.12367244 -0.18359953 0.082071304 -0.053971622 0.05646385
-0.07660658 -0.123732276 -0.12657651 0.14513884 0.007218303 0.011508636 0.17856683 -0.24965273
0.039240792 0.04714961 0.07604994 -0.03755163 0.20627628 0.024819754 -0.25001153 0.03986827
0.15505959 0.076192535 0.012816578 0.13217646 -0.12123984 0.1372707

bias_hh_l0 f4 [150]
00000000: 17d2 4abe ca02 3bbe 21ef ce3a e9eb 863c
00000010: 5ceb 0cbd 6c06 fe3d 9aff afbd d4f2 813e
00000020: beff 103e 9a87 603d 1d2c 913d 7de3 41bd
00000030: d4c9 52bd 5534 bc3c 3bcd f83d 8001 fb3d
00000040: bc01 f93d cc3e 3e3e c415 263e 548e 453e
00000050: 6149 14be 0a7f 90be d130 303d e65a 513c
00000060: 2bf8 113e fc52 a8bd ab93 133d 9407 54bd
00000070: b6c5 643a 25f8 43be 6885 e43d 418b 14bc
00000080: c89a 403e 3088 e23d e521 58bd 4b87 05bd
00000090: 9109 efbd dad9 023d 0a91 17bc ddc8 a1bd
000000a0: 0fe1 79be 2b3f 693e 45e2 83be 343b 1a3e
000000b0: 789a 9fbd 5c40 a03d 91e7 f23d 66f5 913c
000000c0: 0cfb 25bd 6370 113d dcc3 29bf 4657 0dbf
000000d0: eef8 b2bd ff15 5abd f0d4 e8bf 9c23 5e3c
000000e0: 3764 96be 3394 36bf 0222 d2bb 596b 56be
000000f0: 0d40 5f3c 6831 24be ccba 8ebe ebea 593d
00000100: b5c6 07bf 97bb a6be 47a0 febd 18c3 98be
00000110: 7df5 c5bc d8b4 953e 186b abbe e3e4 2bbf
00000120: ec48 f3bd 4cf5 53be 3c92 14be 0153 393e
00000130: 7609 503e 2f11 133d cae6 413d 04d1 73be
00000140: 0a7b 38bd 9366 92be 0ac0 e03b 352d 6a3e
00000150: 9e85 65be 0382 7bbf e2c4 8a3c e515 663e
00000160: d6c3 9c3e 7444 98be e731 debd 0fa7 983e
00000170: 5af0 aebf 4819 a43d 2ac5 d23c aca3 18be
00000180: adae 763d b329 063d 93af 06be 0cf5 b4bd
00000190: 2709 7fbd e8b0 903d ab65 acbc 8cc6 e23c
000001a0: 6a17 063d 682e 8abc c4b3 34be 00ef 38be
000001b0: 3343 27bd 9632 963d 0ea4 323e 0599 0e3d
000001c0: 826e 6cbd aa33 adbc 9922 abba 125d e13d
000001d0: 3149 1fbd 2c6b 5a3e 623b b8ba d76a 713e
000001e0: 4111 0f3e c1bf 43bc 648d 91bd 53a9 343d
000001f0: 5f40 78be a9f8 1bbe 55a6 e33d 8050 1ebe
00000200: f538 21be 9424 cb3b 2ae1 8dbd d89c 223e
00000210: e941 fc3d 8a1b 443e 68a2 633d 128f 58be
00000220: 52ae dcbd d4c2 153e 9c5c 1ebe b5b5 d5bd
00000230: a323 0d3d ce15 703d 670e dfbd 606f c9bd
00000240: 85eb 513e f970 08bc 0170 92bd e321 b6bd
00000250: e89c e03d d032 7d3d
-0.19806705 -0.18262783 0.0015787819 0.016469913 -0.034404144 0.124035686 -0.08593674 0.25380576
0.14160058 0.05481682 0.07088492 -0.04733609 -0.05146201 0.022974173 0.121485196 0.122561455
0.12158534 0.18578643 0.1621924 0.19292575 -0.14481117 -0.28221923 0.043015305 0.0127780195
0.14254825 -0.08218953 0.0360295 -0.05176504 0.0008726971 -0.19137628 0.11158258 -0.009066404
0.18809044 0.11061132 -0.0527667 -0.03259973 -0.116717465 0.03194604 -0.009250889 -0.0789964
-0.2440226 0.22778003 -0.25758567 0.15061647 -0.077931345 0.078247756 0.11860574 0.01781721
-0.04052262 0.03550757 -0.6631448 -0.55211294 -0.08738886 -0.053243633 -1.8189983 0.013558295
-0.29373333 -0.71319884 -0.0064127455 -0.20939387 0.013626111 -0.16034472 -0.2787689 0.05320255
-0.5303758 -0.32564995 -0.12432914 -0.29836345 -0.02416491 0.29239535 -0.33480144 -0.6714613
-0.11879143 -0.20699042 -0.14508909 0.1809807 0.20316109 0.03590506 0.04733924 -0.23810202
-0.045039214 -0.28593883 0.0068588303 0.22868808 -0.22414252 -0.9824526 0.016939584 0.2246929
0.3061816 -0.29739726 -0.10849362 0.29814956 -1.36671 0.080126345 0.02572878 -0.14906186
0.060225178 0.03275461 -0.13152914 -0.088358015 -0.062264588 0.07064992 -0.021044573 0.027682565
0.032737173 -0.016867831 -0.176467 -0.18059921 -0.04083557 0.07333867 0.17445394 0.0348139
-0.057722576 -0.0211428 -0.0013056576 0.1100408 -0.03888816 0.21329945 -0.0014055783 0.23575912
0.13971426 -0.011947573 -0.07107046 0.044106793 -0.24243306 -0.15231575 0.1111571 -0.15460396
-0.15744384 0.006199429 -0.06927712 0.15880144 0.12317259 0.1915113 0.055574805 -0.21148327
-0.107754365 0.14625102 -0.15465015 -0.104350485 0.034457814 0.058614545 -0.10891419 -0.09835696
0.205 -0.008327716 -0.07150269 -0.08893182 0.109674275 0.061816037

weight_ih_l1 f4 [150, 50]
00000000: 80d2 da3e c64b 183f e520 3e3e 2541 a83d
00000010: 3cf2 1ebf 9504 6cbe 66d2 f0be 5326 c4be
00000020: 96b6 b3bc c5e0 083f 8f51 8e3e e36c 0dbf
00000030: fff4 c13e 25e0 b1be 3341 6bbe 9cab cc3e
00000040: 52e5 11bd 155c 4b3e ba11 903e 5538 d03e
00000050: 4d9f 08bf 3f1e babe 6e68 15be 4fce 0ebd
00000060: 8eb0 76ba 503e 39bf 70a6 f8bd f5b3 9bbd
00000070: 3ff2 53bb 5751 e2be c76d 863c 552c a43e
00000080: 97e5 853d 4185 9b3d 3659 873f 7a65 9d3d
00000090: 2f7e dabe 3333 fbbc 2287 0b3e 8185 09bf
000000a0: c737 3cbe c30a 313d ca00 cb3e 658d 6b3d
000000b0: f583 963e c6e8 5fbe 3cd2 d1bc 9e9d dcbd
000000c0: 2984 f3be a529 6c3e 7684 2cbe f1e8 4f3e
000000d0: b36f 3d3e 93df 4ebc 7c31 cebd 0e21 11bd
000000e0: 646c 68be 8ae7 1f3d 0590 703d f130 ba3e
000000f0: b4b8 df3e 68a2 2dbe 9cb6 a23d 0bd9 c5be
00000100: bae6 eabe 206a 743e 6095 5b3e e0a4 a33e
00000110: 1944 1e3d 616b 593e 87b4 21be 5732 8f3e
00000120: e795 73bd 97a1 36be ccb0 7abe 7416 babe
00000130: c7e2 633e 3da2 b2be 3097 c4bd 8f82 e1be
00000140: de1f 923e cf50 813e 3d88 e23d 4562 c63c
00000150: cc81 113f b4d6 99be 8554 79be 4f89 7f3c
00000160: 6d95 5fbd 32cb debe 3a43 91bd 729f b8bc
00000170: af38 10bd d8a9 2dbe 32f2 883e 7867 043e
00000180: 396b e83d 4018 52bd feab a8bd ac4f 7a3e
00000190: 2ec3 843e 2b65 693f 1627 893e bb92 253e
000001a0: bf19 1bbf 1701 3dbf acce 09bf 3f25 50be
000001b0: 06fe b33c e880 2c3f a4e0 a13e 0fef 9abf
000001c0: 3ed9 8b3f f61d 8cbf 8a33 3bbf 0442 a33f
000001d0: 492d 19be 746e 773d 6037 493d a9cc 613e
000001e0: bbf3 0bbe d164 b1bd 2ba4 b2bd 22bb efbd
000001f0: 3745 fa3d 10a9 61bf 7e27 853d 32f9 6f3e
00000200: eb04 673e 14ab a4bf d0b4 853e be35 133f
00000210: daf2 ca3d ad23 98bd ea96 a13e 6fab ba3e
00000220: 9a5a 36bf da8f dcbc 3574 52be 3e32 85bf
00000230: f511 1bbf 4b8b c6bc 09f7 ed3d 4964 91be
00000240: 4055 8c3e 1181 32be abd4 e0bd d0af aebd
00000250: bdf2 b5bf 5b90 643f 2854 89be 6428 50be
00000260: 65fc e33d 5e5b 143c aa31 d43d 88d5 693e
00000270: dcad 6ebd 9b01 97bd 29ad 83bd a650 c1bd
00000280: 6a7b cbbc 89cb 2a3e 0a2a 21be 1213 8f3e
00000290: 03f1 60bd 2aab a8be ebcf b23c 8328 8e3e
000002a0: c476 823d 834c 653b 033c 7b3e 2058 903e
000002b0: 3e32 edbd 4248 38be 0085 10bf 9091 df3e
000002c0: 39ac c7ba bf38 a8be b493 dfbd 6620 3e3e
000002d0: 743f 8f3e 916a 4c3d 9327 b43b 08b5 963e
000002e0: 9687 e2bc 0166 10bf 56ba e7bd 6f67 523e
000002f0: 0058 fcbb 94b8 d33e 4110 c23e 0549 29bb
00000300: f093 ecbe 284b 5c3e 19ed 073e 92d1 0abd
00000310: 7272 f43c 9327 483e 26dc dd3e 169c f13d
00000320: c8bd febd 199a 66bd 93cc 2d3d 9df2 3fbd
00000330: 0c75 063e 42fc 233e 87ec 44be 30cc 81be
00000340: d28a a23d 3c15 593e 81cb 863e e3b4 ebba
00000350: 0544 a53e 5a18 963b a9fb c5be 4db9 5b3e
00000360: 464c 3abe 9759 633e 72ee b6bc 997e 513e
00000370: dbe8 9b3d fc0e cf3e 80dd bebd 9149 a4be
00000380: 9d7a 9fbe 7445 94be 8710 eb3d 88d2 2dbe
00000390: 36ed c9be 66d8 2abd ba73 dbbd 4d85 f73c
000003a0: d853 7b3e d73b 9d3e 6e9c 5c3e 2386 0dbd
000003b0: c4f9 5d3d a880 423d 7c42 78be eb17 ab3d
000003c0: 6815 57be 6a2a 7fbd 8fe6 e4be 1ab6 cabd
000003d0: ea29 823e b931 a2be c3af e23c e6c6 00be
000003e0: 5500 babe e425 a13e 7f42 bbbd 03f7 5d3e
000003f0: 5c29 813e 6831 1d3e ed4c 7fbd 24f8 83bd
0.42738724 0.5949062 0.18567236 0.0821555 -0.6208837 -0.23048623 -0.4703552 -0.3831049
-0.02193765 0.5346797 0.277966 -0.5524427 0.3788223 -0.3474132 -0.2297409 0.39974678
-0.035619088 0.19859345 0.28138524 0.40667978 -0.53368074 -0.363512 -0.14590618 -0.03486472
-0.0009410464 -0.72360706 -0.121411204 -0.076026835 -0.0032340435 -0.44202682 0.016409768 0.32065073
0.065379314 0.075937755 1.05741 0.07685371 -0.42674395 -0.030664062 0.13625768 -0.53719336
-0.18380652 0.043223154 0.3964904 0.05750789 0.2939755 -0.2186614 -0.025612943 -0.107722506
-0.47561768 0.23062761 -0.16847405 0.20303704 0.18499641 -0.012626546 -0.10068032 -0.035431914
-0.22697598 0.039039172 0.058731098 0.36365464 0.43695605 -0.16956484 0.07944986 -0.38642153
-0.45879155 0.23868608 0.21443701 0.31961727 0.03863916 0.21232368 -0.15791522 0.27968094
-0.05946913 -0.17835079 -0.24481505 -0.36345255 0.22254477 -0.34889403 -0.09599149 -0.4404492
0.28539938 0.25256965 0.11061142 0.02421678 0.5683868 -0.30046618 -0.24348648 0.015596702
-0.054585863 -0.435144 -0.070929006 -0.022536967 -0.035210308 -0.16959321 0.2674728 0.12930095
0.11348576 -0.051292658 -0.0823593 0.24444455 0.2593016 0.91169995 0.26787633 0.16169254
-0.6058616 -0.7382979 -0.5383098 -0.20326708 0.021971714 0.67384195 0.316167 -1.2104205
1.0925672 -1.0946643 -0.7312552 1.2754521 -0.14958681 0.06040807 0.049125075 0.22050728
-0.13667195 -0.08661807 -0.08722719 -0.117056146 0.12220233 -0.88148594 0.06501673 0.23434904
0.2256047 -1.2864709 0.2611451 0.5750388 0.099096015 -0.074286796 0.3156045 0.36458918
-0.71231997 -0.026924063 -0.20552142 -1.0405958 -0.60574275 -0.024236342 0.11619384 -0.28396824
0.2740879 -0.17432047 -0.10978063 -0.08529627 -1.4214703 0.8928277 -0.2682202 -0.20327908
0.11132125 0.009054987 0.10361035 0.22835362 -0.058271274 -0.07373353 -0.06429512 -0.094392106
-0.024839122 0.16679205 -0.15738693 0.27944237 -0.054917347 -0.32943088 0.021827659 0.27765283
0.06370309 0.0034988231 0.24534611 0.28192234 -0.115818486 -0.17996314 -0.5645294 0.43665743
-0.0015233821 -0.32855794 -0.10916844 0.18567047 0.27978098 0.049906317 0.0054978817 0.2943499
-0.027652543 -0.56405646 -0.11314838 0.2054727 -0.00770092 0.4135176 0.37903026 -0.0025830877
-0.46206617 0.21513045 0.1327404 -0.033891268 0.029839728 0.19546346 0.43332022 0.11797349
-0.12438542 -0.056299303 0.042431425 -0.046862233 0.13130587 0.16014197 -0.19230853 -0.25351095
0.07936634 0.21199507 0.26327136 -0.0017982986 0.32278457 0.0045805397 -0.38668564 0.21457405
-0.18193159 0.22202145 -0.022330496 0.2045845 0.07612773 0.4044112 -0.093195915 -0.32087377
-0.31148234 -0.2895924 0.11477762 -0.16974843 -0.3943879 -0.04171028 -0.107154325 0.03021493
0.24543703 0.30709717 0.21544048 -0.03455175 0.054193273 0.047485977 -0.24244112 0.08354171
-0.2100426 -0.06229631 -0.44707152 -0.09898014 0.25422603 -0.3167856 0.0276717 -0.12575874
-0.36328378 0.3147422 -0.091435425 0.21676259 0.25226867 0.15350878 -0.06232922 -0.064438134

weight_hh_l1 f4 [150, 50]
00000000: 9a76 f53e 817f 1fbd bec1 513e 45ed a03e
00000010: 73ef 743e 6227 09be c90c a5be de20 3b3c
00000020: 74fe 0b3f c48a 1abc 2f72 063f 7b2d a63d
00000030: c8ab ee3d df3f 8dbe ffff 87bd 4544 233f
00000040: e815 b8bc 0c2d d73d b9fb 4f3e 239f 1dbe
00000050: 5442 55bd 623c e1be 6e12 bc3c be35 b23e
00000060: e867 4f3e 9298 f5bd 2468 55bd 27f5 d23c
00000070: fb5e 54bd e7a0 903e 801f 5e3e 2efa a1be
00000080: 2fba 28be 5d67 933c 7928 0b3f c888 38bd
00000090: acd1 15bd e527 063e 0f9b 183e dbc5 2f3c
000000a0: bb6c 5ebd 2641 553e 5bc7 1cbe 3393 a3be
000000b0: bd8b e6be 2cee de3d 77aa bbbe de4c a53d
000000c0: 6fa6 253e 75a7 e33d d225 cd3e 4bdc 85be
000000d0: 244d b5bd fb2b 8b3d 0242 aa3d a74b a6be
000000e0: e5f4 9c3d a73d e53e c062 db3e 3e18 d63e
000000f0: 4022 793e 2968 123e 94f7 fd3d d70e d8bd
00000100: 1d0e dbbd e06b d83e 995e c8bd 5d60 f9bc
00000110: d909 943e c50e 553d 8334 22bc 44be 06bf
00000120: 3c5c a83d 26dd 6a3e d4fd 10bd f096 85be
00000130: e322 cb3c e9f9 0fbe f9e3 2fbe 7622 943d
00000140: fcf4 72be 4d7c b3bd c426 693e 6d93 d83d
00000150: 7144 b43e 85af 033e f2a0 103d e14b 2e3e
00000160: 36c0 46be 23e9 7dbe d4e6 07bd d81e 86bb
00000170: 3794 24bd 70e5 f5bc 50df 9ebe d1bf b83d
00000180: 6208 65be 7f17 193e 54d0 153c 0b44 4e3d
00000190: b4d2 39be b7ed a53e 41d2 91be ef3d 1dbd
000001a0: 7a8b 42bd b1fe 183d 7bd9 b63d 6459 4fbd
000001b0: 6a29 dd3d fde9 d33d 4f1d 21be 90fc 3abd
000001c0: 3437 cfbc 777d 163e 9147 993d a987 c43b
000001d0: 40df 883e 1e6e ce3c 70ac ab3d 7103 0b3e
000001e0: a19f 193e 53e1 09bd e63f 1d3e f5cd acbe
000001f0: 6daa f13d eb22 25bd b010 a1be 4942 2ebe
00000200: 67a6 bd3d 2209 1bbe ba44 92be 8f2d 673d
00000210: 5b75 08be 9327 08be 88a2 b3be 8800 433e
00000220: ec1e edbd c971 ca3d 9598 9d3c 9285 e3bd
00000230: f911 b43d cc02 e9bd 11c2 ddbd f383 d03d
00000240: 77b3 833c 1ca4 943e 07ca 873d 57f8 e1be
00000250: 3ca8 ae3e ebc4 7cbd fc77 aebd 9bd2 7ebd
00000260: 8ce3 50be 05a5 993e 9cc5 f33d 1bc7 3e3d
00000270: afb3 493e 0938 173e 2a7f 51be 786d 0bbe
00000280: 26b1 043e 43ae 863e 7ba5 7bbd d689 93bd
00000290: 1e9b 143e ae41 f5bd 1f21 9bbe 9b37 f5bb
000002a0: ab5c e4bd 304e 72bd 830c 853e 05b4 273d
000002b0: cc15 c63d 213c 18be a04a 983e ef1e 0bbe
000002c0: 154d 2a3e 41a4 79bd 4565 943e b117 443d
000002d0: 3b40 863e 746c 2ebe 580e 253e 7f51 003e
000002e0: aaa7 043e b9f4 c4bc 1b71 cf3c 0c92 d4bc
000002f0: 34a9 133e 6910 c33e bef1 48be a172 eebd
00000300: f37c 09be 993c cbbd 344c 843e 8361 57be
00000310: 4500 c53c 7db6 553e 1970 963e e255 c53d
00000320: 2b6e 1cbe 3e6d e9bc 535a 34bd 0b5d 9bbe
00000330: fda8 a03d 0595 a6bd 31c1 60be 816f 593d
00000340: 5622 8d3e 6eff ba3e 8712 f6bc 321e 823e
00000350: 6dda 75bd 5620 afbe 0e8e 293e 7c7f 663e
00000360: bce3 033e be34 debd 0a8c a83e 79c5 3e3e
00000370: b1f8 303e d8fd 93be ff78 77be 37b8 d13c
00000380: 41dc 1ebe f18d e8bd 1d4b ae3c 35ba 3d3d
00000390: f13c 82be 1c8c 963d 2f3f a5be 715f e2bd
000003a0: 1b0c 42bd e422 cdbe 2974 b6ba 0d03 123e
000003b0: 2eeb 0bbf 6535 b33d 9ab1 3fbe 3f2c a7bd
000003c0: d28b d4bd 16f1 323e 4107 a0bb c3d6 f13d
000003d0: 0fda 703e bc05 853d 77fd ab3e e9fc bcbd
000003e0: bc5f b1bd 56cf 83bd d28d 80be 4624 82be
000003f0: b885 37be cca4 be3d f4b3 ddbe ca86 a6bd
0.47942048 -0.038939957 0.20484063 0.31431022 0.23919468 -0.1339393 -0.32236317 0.01142141
0.5468514 -0.009432498 0.5251798 0.081141435 0.116538584 -0.27587792 -0.06640624 0.63776046
-0.022471383 0.10506639 0.20310868 -0.15392737 -0.05206521 -0.4399138 0.022958007 0.34806627
0.20254481 -0.11991991 -0.05210127 0.025751663 -0.051848393 0.2824776 0.21691704 -0.31636184
-0.16477273 0.017993623 0.5435863 -0.04505232 -0.03657691 0.13101156 0.149029 0.010728325
-0.054302912 0.20825633 -0.15310423 -0.31948242 -0.45028487 0.108852714 -0.36653492 0.08071302
0.1617677 0.11115924 0.40067917 -0.26144633 -0.08852604 0.06795498 0.08313371 -0.32479593
0.076638974 0.447736 0.42848778 0.4181537 0.24329472 0.14297546 0.124007374 -0.105497055
-0.10696051 0.42269802 -0.09783668 -0.030441457 0.28913763 0.05201604 -0.009900215 -0.5263407
0.08220717 0.22935924 -0.03539832 -0.2609172 0.024796909 -0.14060177 -0.17176808 0.072331354
-0.23726267 -0.08763943 0.22768694 0.10574994 0.35208467 0.12859924 0.03530974 0.17021133
-0.1940926 -0.24795966 -0.03317912 -0.0040930323 -0.04018041 -0.03001663 -0.3102975 0.09020961
-0.22366479 0.1495037 0.009143908 0.05035786 -0.18146783 0.32407925 -0.28480724 -0.038389143
-0.047496296 0.037352268 0.089282 -0.05062236 0.10798915 0.10347364 -0.15733837 -0.04565102
-0.025294878 0.14696299 0.07484353 0.0059976173 0.26732826 0.025198992 0.08382499 0.13575532
0.150023 -0.03366215 0.15356407 -0.33750883 0.11800084 -0.040316503 -0.31458044 -0.17017473
0.09260254 -0.15140203 -0.2856806 0.056439932 -0.13326018 -0.13296346 -0.3508494 0.19043171
-0.115781635 0.09884984 0.019237796 -0.11109461 0.087924905 -0.113774866 -0.10828031 0.10181417
0.016076786 0.29031456 0.066303305 -0.4413478 0.34112728 -0.061711233 -0.08518979 -0.062212568
-0.20399302 0.30008712 0.11902925 0.0465766 0.1969745 0.1476747 -0.20458665 -0.13615978
0.12958202 0.26304826 -0.06143711 -0.072040245 0.14512298 -0.11975418 -0.30298707 -0.0074834353
-0.111504875 -0.059156597 0.25986108 0.040943164 0.09672126 -0.14866687 0.29744434 -0.13586019
0.16630967 -0.06094766 0.28983513 0.047874156 0.2622088 -0.17033559 0.16118753 0.12531088
0.12954584 -0.024042474 0.025322488 -0.025948547 0.14420015 0.38098457 -0.19623467 -0.116429575
-0.1342657 -0.099236675 0.25839388 -0.21033292 0.02404798 0.20870395 0.293824 0.096355215
-0.152764 -0.028494474 -0.044031452 -0.30344424 0.07844732 -0.08133892 -0.21948697 0.053084854
0.2756526 0.36523002 -0.030038131 0.25413662 -0.06002276 -0.34204358 0.16558096 0.22509569
0.12879843 -0.108499035 0.3291934 0.18630017 0.17282368 -0.28904605 -0.2416725 0.025600536
-0.15513708 -0.11355198 0.021276051 0.04632016 -0.2543712 0.073509425 -0.32274768 -0.1105336
-0.047374826 -0.40065682 -0.0013920116 0.14258976 -0.5465573 0.087504186 -0.18720093 -0.08162736
-0.10378231 0.1747478 -0.0048836772 0.11808541 0.23520683 0.06495234 0.33591816 -0.09227926
-0.08660838 -0.064360306 -0.251082 -0.254183 -0.17922103 0.09308776 -0.43301356 -0.08131178

bias_ih_l1 f4 [150]
00000000: b60d 813e 8a1c c73e 7fee 153e 7950 b83b
00000010: 1cf5 3f3e d2ba 8c3e 7ac1 2b3e 5208 753e
00000020: c0f1 333e be20 d53b c2a1 863e 4e53 df3d
00000030: 292d 563e 9d11 a4bc 410a ecbc c7e9 c13d
00000040: 874a bfbc b02b 723d bbb1 583e 537e 4b3d
00000050: 2a74 f73c 1a6f 633c ffe7 d13d 8553 df3d
00000060: adfb 0e3c 05ed d13d ac65 5fbc e95b 743e
00000070: 69c7 e73d 451d 24bd ac68 61bc bb26 e83d
00000080: cdfa cdbd c657 d43d e285 aebc 192d 003f
00000090: 0706 64be 39da 32be 3e1c 273d 7942 ebbd
000000a0: 4139 17bd 704e 8c3e 2d09 b23e 74cc d4bc
000000b0: a82a 213e 5333 b93d bbf8 b53e 2f25 8f3d
000000c0: bf77 a03e 0001 33bd dad9 81bd c712 333d
000000d0: df17 873e e454 b03d 00f9 d5bc b4cc 59be
000000e0: 7827 b2be 2017 f5be c3bf fa3d a5fd 06bf
000000f0: 70a7 3dbe 4599 dc3d 30d7 f83d 0ca8 603e
00000100: 0566 a8bc 0b44 dbbe a427 81bc 46a3 6bbe
00000110: 546a cb3e 9a7c 373e 0f19 363e c084 863d
00000120: db69 813d 3367 623e b28c 71bd 189e d6be
00000130: d496 26be 4c71 3b3e fa7e 043e 0a1f 873e
00000140: ada6 d63d d28c 223e 0e64 abbe ddf7 d6be
00000150: 96fd ddbd b580 cd3d a23d d4be 7a4d 2d3e
00000160: 1cfa cf3d d7b6 873d 2834 793e b51a bdbd
00000170: cc20 743d ad5b 003d 4fec 87be dd8c 4ebe
00000180: c6bf 52be 7417 9a3e 696b 92be 61c9 983d
00000190: 00ad cf3d 1431 62bd 3675 0cbc ff9e 10bd
000001a0: 984a ca3c b208 aabe fa6d 61bd 8e52 113e
000001b0: 266d 213d ed83 443e 405c 043e 0b16 723b
000001c0: 36b5 ca3c c65f 323d 2eb4 683e f7fc 353e
000001d0: 9f93 1ebe f505 a5be 8e29 9b3c f4e4 fb3d
000001e0: e5fe 54bd 884a f93d cccf 883d a6e0 783d
000001f0: 36dc 60be 6b40 29be 5988 6dbd 2449 4fbe
00000200: d5e8 4d3d d043 77be 446b 31be 0790 0abe
00000210: 609a f73e 9c44 183e e002 143e 1589 d03d
00000220: 08a2 413d 85fa 123e 784e 953d 58d6 99bb
00000230: fecc 0a3e 12cc fa3d e384 88be f9b2 38be
00000240: 6aea 9e3d fd29 833e c43d be3d 4516 fd3c
00000250: 0680 dd3d aae3 edbd
0.25205773 0.3888896 0.1464176 0.0056248275 0.18745846 0.27486283 0.16773024 0.23928955
0.17572689 0.0065041473 0.26295286 0.10904561 0.20915665 -0.02002793 -0.028813483 0.094684176
-0.023350967 0.059123695 0.21161549 0.04968102 0.030206759 0.013881469 0.10249328 0.10904602
0.008726996 0.10250286 -0.01363508 0.23863186 0.11317331 -0.040066976 -0.013757866 0.11335512
-0.10057602 0.10368304 -0.021304075 0.50068814 -0.22267924 -0.17466058 0.04079842 -0.11487288
-0.036919836 0.27403593 0.34772626 -0.025976397 0.15738928 0.090429924 0.3554133 0.06989514
0.3134136 -0.043702126 -0.0634038 0.04371908 0.263854 0.086099416 -0.026119709 -0.21269494
-0.34795737 -0.47869205 0.12243607 -0.5273078 -0.18520904 0.10771421 0.12150419 0.21939105
-0.02055646 -0.4282535 -0.015765972 -0.23011503 0.3972956 0.17918625 0.17782997 0.06568289
0.063190185 0.2210968 -0.058972068 -0.4191749 -0.16268474 0.18304938 0.12939063 0.26390868
0.1048101 0.15874031 -0.33474773 -0.4198598 -0.10839383 0.100343145 -0.41453272 0.16924086
0.101551265 0.06626671 0.24336302 -0.092336096 0.05960159 0.03133743 -0.26547477 -0.20170923
-0.20580968 0.30096018 -0.28597572 0.07460285 0.10140419 -0.055222586 -0.008572867 -0.03530788
0.024693772 -0.3320976 -0.055036522 0.14191648 0.039410733 0.1919095 0.12925816 0.0036939408
0.024744611 0.043548368 0.22724983 0.1777228 -0.15486 -0.32231107 0.018940713 0.12299529
-0.0520009 0.12172419 0.06680259 0.060761116 -0.21959004 -0.1652848 -0.05799136 -0.20242745
0.050270874 -0.24146962 -0.17326075 -0.13531505 0.48359966 0.14869922 0.14454222 0.10182396
0.047273666 0.14353378 0.07290357 -0.004694741 0.13554761 0.122459546 -0.26663885 -0.18037023
0.07759555 0.25617972 0.092891246 0.030894408 0.10815434 -0.11615689

bias_hh_l1 f4 [150]
00000000: 9c14 f23d 9688 c53e ae22 323e c097 edbc
00000010: 0593 b63e fc96 913e 4829 553e 7ce2 2f3d
00000020: abab 2d3e 10a9 c13d e397 cd3e a86e e03d
00000030: 3654 fd3d 423b 9e3d a45d 4f3e f2ac 663e
00000040: 709d 513d de7f b03d e9d4 013b 2614 893e
00000050: f2f4 72bd 88fc 403e 2afd 113e 796e 113e
00000060: 69b5 983d 4474 b13e d247 073e ca07 c13d
00000070: 8fee 7b3e 5af1 323e 051c 233e a54b 0b3e
00000080: da4f e5bd c443 093e e097 bb3d 1903 ff3e
00000090: 01a9 4cbe 852d 7fbc 907d fe3d 9aac 683b
000000a0: 2c65 003e 57ed c93d 201e b83e 42f9 543d
000000b0: 9803 323e 5581 1d3d 978a 973e b0eb f53b
000000c0: 9675 9d3e 6c50 aebd b846 24be 7ca1 5e3d
000000d0: 5aa9 8f3e 674b 9d3e 73c6 87bd f216 f9bd
000000e0: 6b3f 80be ac6f 06bf a62f 833d 81e8 debe
000000f0: 3dcf f8bd 5404 3a3e ff16 b53d 2d6b aa3e
00000100: 33b5 173e 81f6 0dbf 2ba2 85bd bebd 48bd
00000110: eacc 513e da0c ca3d ebcc ef3d 1ad6 993e
00000120: e19d 273d e44d 7a3e 02a0 40bc b70c 06bf
00000130: dd66 6abe afc5 c93d 7f45 333e 654e b43d
00000140: 0384 a8bd 38b5 553e 7428 40be 45ae cdbe
00000150: c00c bfbd d397 243e cd62 c3be 9aaf 623e
00000160: 02ad a13d 9a5b 6dbd 2d16 8e3e da97 40be
00000170: 15c6 8d3c 01e1 423d eda8 58be fb2e 67be
00000180: a5cb b5be 9a6f de3e 690c 30be 84d5 17bd
00000190: 3a6f 5dbc b025 e0bd c7e0 033c f054 c2bd
000001a0: 2893 1cbe bf64 9dbe c9be 11be 0d69 863e
000001b0: 277b 623d 49b3 053f 8d33 963e 6de1 9d3d
000001c0: eb13 2fbd a7f4 2fbd c619 4c3e 512e 9fbd
000001d0: 8378 f63b 65ab a7be 7282 273e a4b8 313d
000001e0: 71ac 303e 5534 d13d fd38 a4be 1a6c 113e
000001f0: ba1c 023e 58a9 81be 886f 0c3d 5c0e b6bd
00000200: d306 853e 8dfe 2fbd 6fc6 b33c ad18 98bc
00000210: c348 103e 63c7 163e 052f 60be ebdd 123c
00000220: e0ef 023e 40d2 bbbd 42d4 813e 523f d13d
00000230: 5089 353d 56ae 833e 168b 0bbf ee46 8a3e
00000240: 864a 2a3d 16ca 083e 79bd 34be 27cb 193e
00000250: 0b36 df3d 0046 133e
0.11820337 0.3858077 0.17396042 -0.029003024 0.35659042 0.28435504 0.20816529 0.0429406
0.16960017 0.09456074 0.40154943 0.10958606 0.123695776 0.07726146 0.20250565 0.22526911
0.051175535 0.08618139 0.0019810742 0.26773185 -0.05931563 0.18846333 0.1425673 0.14202298
0.07456476 0.34659016 0.13210991 0.09425314 0.24602722 0.17474881 0.15928657 0.13603075
-0.11196871 0.13404757 0.09159827 0.4980705 -0.19986345 -0.015574818 0.12426293 0.003550327
0.12538594 0.09859722 0.35960484 0.051995523 0.17384183 0.03845342 0.29597923 0.007504903
0.30753773 -0.08511433 -0.16042602 0.054353222 0.28058892 0.3072159 -0.06629648 -0.121625796
-0.25048384 -0.5251415 0.064055726 -0.4353676 -0.121489026 0.18165714 0.08842277 0.33284894
0.14815216 -0.5545426 -0.06525072 -0.049009077 0.20488325 0.098657325 0.11709007 0.3004616
0.04092205 0.24443775 -0.011756899 -0.5236315 -0.22890802 0.09852158 0.1750698 0.08804015
-0.08228304 0.2086991 -0.18765432 -0.4017202 -0.09328604 0.16073541 -0.38161317 0.22137299
0.07894327 -0.057948686 0.27751294 -0.18807927 0.017306367 0.04757786 -0.2115819 -0.22576515
-0.3550693 0.4344452 -0.17192234 -0.03706886 -0.013515288 -0.10944688 0.008049197 -0.09488857
-0.1529051 -0.30740926 -0.14232935 0.26252022 0.05529323 0.5222669 0.29336205 0.07709012
-0.042743605 -0.042957928 0.19931707 -0.07772506 0.0075216903 -0.3274795 0.16358355 0.043388978
0.17253281 0.1021506 -0.3207473 0.14201394 0.12706271 -0.25324512 0.034286052 -0.088894576
0.2598177 -0.042967368 0.021945206 -0.018566454 0.14090256 0.14724497 -0.21892937 0.008964042
0.12786818 -0.091709614 0.25357252 0.102171555 0.044320405 0.25718945 -0.54509103 0.2700724
0.041574977 0.1335834 -0.17650403 0.15018903 0.1089898 0.14382172

weight f4 [10, 50]
00000000: 334c b43d 3880 44be 4198 4bbe e912 3c3e
00000010: 0047 7d3e e0b8 4b3b eb57 c43e bb09 993e
00000020: a50a 2b3e 757e 62bf 8bd1 2ebf 04b6 8d3d
00000030: dd74 b7be 4e69 fa3e 8ab0 ac3a 8643 e2bd
00000040: b26c 59be b2d5 483d 2d81 0e3e c049 ebbe
00000050: dad7 0f3e 68f2 99bd c3b6 7837 88ec 583e
00000060: e124 9e3e eed7 243f 0c9b 0e3f 34a1 dcbd
00000070: acc1 6b3e 8fbb fc3e e8c2 f33e 7f87 bc3e
00000080: 9ef9 483e e38c 2d3e 577f 433e 4978 a13c
00000090: 6832 0ebe 1cd0 703e 1adb 96bc 068d e8be
000000a0: b5fe c1be 05fa f0bc 6d35 8c3f f8e6 9bbf
000000b0: 0ec6 633e 4548 92be 63ad 7c3e e7b8 af3e
000000c0: ab27 8f3e a214 c5bf b82c acbe 3516 45be
000000d0: d8cc a2be f978 1cbe 960c d5be 0088 b3be
000000e0: 5745 653f 1247 9b3e 022a 36be f430 c23f
000000f0: e0d0 dd3e 6750 9b3d ea9a 5abe 711b c1bc
00000100: 58dd 753e 04a5 0b3f 2e72 7dbe 71a2 2bbf
00000110: 3eb6 b83d 1ccd c43d 249d 4d3f fe01 103d
00000120: bf96 eabe b4ec a9be 7411 67bf 18c6 56bd
00000130: f4f1 36bf 5e80 31be 780f 9c3e a552 b2be
00000140: 6e17 f13d 7da3 17bd 5539 a83f b805 063e
00000150: 3aa6 643e b512 a73e c2a5 f6be 9e36 bcbe
00000160: 2d3e f2bd 6e1b d93e bc84 bfbd f809 d03e
00000170: 2d5c d8bd 335a d73f 4384 053f 3eb9 a13e
00000180: d7f4 653e 5dcf 25be 5bbc 8b3e f6b9 22be
00000190: e697 ee3d 9e4e 97bd 3fa5 a73d 646a 87bc
000001a0: 979a 85bd 7e62 d5bd c155 a3bd d92e d53d
000001b0: 3827 02be 3f14 8bbf b5ec 743f 30d1 803e
000001c0: c5fc c93d ef47 23bd 6251 2a3f b4bc fd3d
000001d0: 72a9 b5be a871 17be 707b 37be f4ca c2bd
000001e0: 2338 1c3f dd94 953d 4fdc 2fbf f103 913e
000001f0: 8d42 8b3e a700 3ebd 6388 1a3f e850 e5bd
00000200: 71d3 69bd 640b 383c eafd 213d 4a70 b6bd
00000210: 92dc 2e3f b9e7 cc3e 5429 c53e 174d bdbd
00000220: f991 0b3f ed45 d1bd e990 bc3c de3e 703e
00000230: 10ed 083e 8f28 9e3d 14af e2be 8d68 e7bf
00000240: e907 8bbd 51b0 93be 8a24 87be cef9 fc3d
00000250: 8523 003e a2a0 7f3f a22f fdbd 5fc5 30be
00000260: b74c c63e 1133 d43e 084f 013f b529 423e
00000270: ea6a b3bd 999f eebe 0388 623e df9a 013d
00000280: 6831 79be 583e 873d db14 bdbe 6976 f3be
00000290: 7092 503a 3055 c93d b85e 0b3e 8ebb 4fbe
000002a0: 630a 3b3d 97f8 aabd 8d3a f7be 074b 6dbd
000002b0: 5a0d a6bd 61a4 6bbd d50b c4be f476 2d3d
000002c0: f75b bcbf 8ce0 e6be 6054 fb3e 8cce f0bd
000002d0: ca5b bd3e 90ec 1abd 1491 babf 348f afbf
000002e0: 1d94 55bf 5b88 b6be f960 80bf 1069 0c3e
000002f0: 6219 a43e b4d7 c33e f4ce 96be 8bbe b9bd
00000300: c294 48be fa06 0b3f 4638 403e e689 09bf
00000310: 4946 153f 9716 2bbe 53e4 e13e 9851 023f
00000320: 711d 01be 35f7 943e 5281 433e 9e9a c4bb
00000330: 4b31 a9be d4b7 8fbe 5fc6 d2be 451c 4dbf
00000340: 32df 6fbe 7d4e 293e e4e9 d13e 3701 61be
00000350: c9e5 22be 6f33 063f 01fc dcbd 0afe 27bf
00000360: 4ce8 663c 75ce f7be cf88 193e fa4e 4e3e
00000370: b353 5fbf 1b23 913d 4a09 9a3f 7793 2d3e
00000380: 33e6 a33f 92d8 04bf 05a5 d23f 8748 3d3e
00000390: 5704 2dbf 7819 bebe a0e3 fe3d 16d7 4bbd
000003a0: d6b0 c4bf 4c8f 6f3f 8c54 e8be e147 a9be
000003b0: 9234 a03e 8d43 cb3d 360f 6ebd 0253 79be
000003c0: 81d9 26be a9b0 a13d e89f 51be d233 973f
000003d0: d8e5 003f 86c4 963e a5ab 853e d43c b1bd
000003e0: 4126 fabe 0fa7 a63e 0932 eb3d c42c 083e
000003f0: faad fcbf 0621 13bf 41f8 1cbb 1faa a1be
0.08803596 -0.19189537 -0.19882299 0.18366589 0.24734116 0.0031085536 0.38348326 0.29890236
0.1670328 -0.8847421 -0.6828849 0.06919482 -0.35831347 0.48908466 0.0013175171 -0.11048035
-0.2123287 0.04903192 0.13916464 -0.45954704 0.14047185 -0.075169384 1.4824504e-05 0.2118398
0.3088751 0.6439198 0.5570533 -0.107729346 0.23023099 0.49361846 0.4760964 0.36822125
0.19626471 0.16948275 0.19091545 0.019710677 -0.13886416 0.23516887 -0.018415023 -0.45420092
-0.3788964 -0.029416094 1.0953804 -1.2179861 0.2224352 -0.28570762 0.24675517 0.34320757
0.27959952 -1.5396922 -0.33627868 -0.19246753 -0.31796908 -0.15280522 -0.41611165 -0.35064697
0.8955893 0.3032766 -0.17789462 1.5171189 0.4332342 0.07583695 -0.21348158 -0.023572655
0.24010217 0.5454867 -0.24750587 -0.6704474 0.09019135 0.09609434 0.803179 0.03515815
-0.45818135 -0.33188403 -0.90261006 -0.05243501 -0.7146294 -0.17334124 0.30480552 -0.34828678
0.11772047 -0.03702115 1.3142496 0.13088119 0.22329035 0.3263146 -0.48173338 -0.3676042
-0.11828265 0.4240374 -0.09351489 0.40632606 -0.10564456 1.6824402 0.5215494 0.3158664
0.2245668 -0.16192384 0.2729214 -0.15891251 0.11650066 -0.07388042 0.08185815 -0.016530223
-0.06523626 -0.104191765 -0.07975341 0.10409326 -0.12710273 -1.0865554 0.95673686 0.25159597
0.09862665 -0.039863523 0.6653043 0.12389508 -0.3548084 -0.1478945 -0.17918181 -0.095113665
0.6102316 0.07303784 -0.6869554 0.2832332 0.27199212 -0.04638734 0.6036436 -0.11197072
-0.057086412 0.0112331845 0.039548792 -0.08908136 0.68305314 0.4002054 0.38508093 -0.09243219
0.5451961 -0.102184154 0.023018317 0.23461482 0.13371682 0.0772258 -0.442742 -1.8078781
-0.06788618 -0.28845456 -0.26395065 0.12352334 0.1251355 0.9985448 -0.12362601 -0.17262791
0.38730404 0.4144521 0.5051122 0.18961222 -0.087606266 -0.46606138 0.22122197 0.031641837
-0.24335253 0.06603688 -0.36929974 -0.47551277 0.0007956391 0.09830701 0.13610351 -0.2028639
0.045664202 -0.08348196 -0.48286858 -0.05793288 -0.08108015 -0.05752981 -0.38290277 0.04234977
-1.4715565 -0.4509319 0.4908781 -0.11758146 0.36984092 -0.03782326 -1.4575524 -1.3715577
-0.8342913 -0.35650906 -1.0029594 0.13711953 0.32050616 0.38250506 -0.29454768 -0.09069546
-0.19587997 0.5430752 0.18771467 -0.5372604 0.5831037 -0.16707836 0.4411951 0.5090575
-0.12608887 0.29094854 0.190923 -0.005999877 -0.3304542 -0.28069937 -0.4116697 -0.8012126
-0.23424986 0.16533847 0.40998757 -0.2197312 -0.15907969 0.5242223 -0.107902534 -0.6562201
0.01409347 -0.48399702 0.14993595 0.20147315 -0.8723709 0.07086774 1.2034085 0.16950785
1.2804626 -0.5189296 1.645661 0.18484698 -0.6758475 -0.37128806 0.1244576 -0.04976567
-1.5366466 0.9357803 -0.45377004 -0.33062652 0.31290108 0.09924994 -0.058119975 -0.24348071
-0.16293909 0.078950234 -0.20471156 1.1812689 0.50350714 0.2944681 0.26107517 -0.0865418
-0.4885731 0.3254933 0.11484153 0.13298327 -1.9740593 -0.57472265 -0.0023951682 -0.31575105

bias f4 [10]
00000000: 61e1 07be dc3a a33e 017b a7bd a55f 6cbc
00000010: 3a4d 4ebc a02d 873c 79cf dabd cea3 6bbe
00000020: 8ca6 ecbd 2f1d c9be
-0.13269569 0.31880844 -0.08177758 -0.0144271 -0.012591654 0.016501248 -0.106841035 -0.23011705
-0.11555204 -0.39280078
