Models_mario/Mario Bias_exp1_DL_classifier.pth (torch, 10845 bytes, 6 tensors)

weight f4 [3, 1, 7, 7]
0	0x3ec34bac	0.3814367
1	0x3e4f507b	0.20245545
2	0x3dd09364	0.101843625
3	0x3e58ab0d	0.21159
4	0x3ea1c951	0.31598905
5	0x3eef3169	0.46717384
6	0x3ed2566e	0.41081566
7	0x3c08a5da	0.008340323
8	0xbda8d38a	-0.08243473
9	0xbd9ec0c3	-0.0775161
10	0x3d2c3b95	0.04204901
11	0x3e453229	0.19257416
12	0x3e1794cf	0.1480286
13	0x3e0ea265	0.13929136
14	0xbe06f373	-0.13178806
15	0xbc575b37	-0.013144306
16	0xbe0af7c1	-0.13571073
17	0xbdb569b1	-0.0885805
18	0xbdddefff	-0.10836791
19	0xbd755a90	-0.05990082
20	0x3e040243	0.12891488
21	0xbe0acdbe	-0.13555047
22	0x3b8eb353	0.004354873
23	0xbe179052	-0.14801148
24	0xbe4b50f8	-0.19855106
25	0xbeabd0e6	-0.33557814
26	0xbe08c768	-0.13357317
27	0xbd4e54ca	-0.05037383
28	0x3d3cbfef	0.04608148
29	0x3e1d8ef1	0.15386559
30	0x3c9bddb7	0.01902662
31	0xbd90345c	-0.07041237
32	0xbeb3f749	-0.351496
33	0xbe0fc0ef	-0.14038442
34	0xbccc4e38	-0.024939641
35	0xbe27346a	-0.16328588
36	0x3da36bb3	0.07979526
37	0xbe0512e5	-0.12995489
38	0xbe5dbc95	-0.2165397
39	0xbd97e545	-0.074167766
40	0xbe1078fe	-0.14108655
41	0xbe7c4de3	-0.24639086
42	0xbe3c73c0	-0.1840353
43	0x3d8b6827	0.06806975
44	0xbd3e7815	-0.046501238
45	0xbe494f96	-0.19659266
46	0xbe1763c4	-0.14784151
47	0xbdcf7efc	-0.10131642
48	0xbe9e58d0	-0.30927134
49	0x3e3d55c1	0.18489744
50	0x3c7ab427	0.015301741
51	0xbe124b7d	-0.14286609
52	0xbde02873	-0.10945215
53	0x3ddc0de0	0.10744834
54	0x3d15ffa3	0.036620747
55	0xbeb2c1a6	-0.34913367
56	0xbbcecc23	-0.006310956
57	0x3e70215e	0.23450229
58	0x3e171e35	0.14757617
59	0x3e6f6066	0.23376617
60	0xbcd7ed76	-0.026358347
61	0xbdabf999	-0.08397216
62	0xbe631a2a	-0.2217795
63	0xbcc5bf73	-0.024139142
64	0x3d830c49	0.063988276
65	0x3e6068e5	0.21915014
66	0x3e9b0e7a	0.30284482
67	0x3a2efa43	0.0006674865
68	0x3cde6e6a	0.027152259
69	0xbe9b19a1	-0.3029299
70	0xbd8d61b4	-0.06903401
71	0x3d41bfb8	0.047301978
72	0xbcd818cd	-0.026379013
73	0xbdb7492a	-0.08949502
74	0x3c575933	0.013143825
75	0x3e33efbc	0.1757192
76	0x3debabd9	0.11507387
77	0xbdcd738b	-0.10031804
78	0xbe946c0c	-0.28988683
79	0xbe4abc6f	-0.19798444
80	0xbdab0675	-0.08350841
81	0x3c28ba01	0.010298253
82	0x3de2150d	0.11039171
83	0xbc57bf27	-0.013168133
84	0x3e3ec837	0.18631063
85	0xbd94d7f9	-0.07267756
86	0xbe332f53	-0.17498522
87	0xbe1005fd	-0.14064784
88	0xbd1ae4f2	-0.037815996
89	0xbdef248f	-0.11676895
90	0xbdc83b3e	-0.097769246
91	0x3e838e20	0.2569437
92	0x3e51a1c9	0.20471872
93	0x3d5a8f6d	0.053359438
94	0x3dad5076	0.08462612
95	0x3c2bb3ec	0.010479908
96	0x3dd6e0b0	0.104920745
97	0xbd5df163	-0.054185282
98	0x3e2912e6	0.16511115
99	0x3e178add	0.14799066
100	0x3df23701	0.118268974
101	0x3dad879e	0.084731326
102	0xbb74b2a3	-0.003733792
103	0xbe19dfa0	-0.15026712
104	0xbe217e17	-0.15770756
105	0x3e0f98a3	0.1402307
106	0xbc00fb54	-0.007872421
107	0xbdf60626	-0.120128915
108	0x3d2adf2d	0.041716743
109	0x3dab7f2d	0.08373866
110	0x3e259577	0.16170298
111	0x3bc53915	0.0060187676
112	0x3d9655c5	0.07340578
113	0x3e07a219	0.13245429
114	0xbe30994e	-0.17245981
115	0x3dd9e0ce	0.10638581
116	0xbd78fc44	-0.060787454
117	0x3d8fd74d	0.07023487
118	0x3d515f57	0.051116314
119	0x3d19a16d	0.037507463
120	0x3e07d00f	0.13262962
121	0x3da6088c	0.08107099
122	0x3dd52177	0.104067735
123	0x3e0bef34	0.13665468
124	0xbdd376ee	-0.103254184
125	0xbd1f5db3	-0.038907718
126	0xbe46e3c3	-0.19422822
127	0x3d0ead54	0.034833267
128	0x3dcfc56c	0.10145077
129	0x3ded2ad6	0.11580436
130	0x3d6aa5e1	0.0572871
131	0x3e05e48a	0.13075462
132	0xbe42666d	-0.18984385
133	0xbdc28ac5	-0.094991244
134	0x3daa0f07	0.083036475
135	0x3e5d06ac	0.21584576
136	0x3d8fec60	0.07027507
137	0x3dd881b3	0.10571613
138	0x3dfaf659	0.12254018
139	0xbd372235	-0.044710357
140	0x3e253b67	0.16135941
141	0x3e482539	0.1954545
142	0x3d5840e3	0.052796256
143	0xbe401cf6	-0.18761048
144	0x3ce99566	0.028513622
145	0x3e1d39d4	0.15354091
146	0xbe209f4e	-0.1568577

bias f4 [3]
0	0x3deda85d	0.11604378
1	0x3c5ab46f	0.013348683
2	0xbe44256f	-0.19154905

weight f4 [6, 3, 7, 7]
0	0xbdaa5f83	-0.08318999
1	0xbcc20b3c	-0.023686998
2	0x3d4e5cbe	0.050381415
3	0xbdce330f	-0.100683324
4	0x3a04803f	0.00050545105
5	0x3c36dadb	0.011160578
6	0x3c0a2aad	0.008433026
7	0xbe6a199e	-0.22861335
8	0xbdae1cc9	-0.08501584
9	0xbe2017ef	-0.1563413
10	0xbe6036f0	-0.21895957
11	0xbe13f2ea	-0.14448133
12	0xb99dcd31	-0.00030098253
13	0xbbc446bb	-0.005989877
14	0x3e81bab7	0.25337765
15	0x3e51b039	0.2047738
16	0xbe1e5f38	-0.1546601
17	0x3d83cd11	0.06435598
18	0xbd4cb3fe	-0.04997634
19	0x3d9ffe44	0.07812169
20	0xbd9ca37e	-0.07648371
21	0x3c8266b5	0.015918115
22	0x3e0461b9	0.12927903
23	0x3e6a51fb	0.22882836
24	0x3dae3cb7	0.08507674
25	0x3de778b1	0.11302317
26	0x3e8bdb88	0.27315927
27	0x3ea83ba1	0.32857993
28	0x3d8d108d	0.068879224
29	0xbd80cdfb	-0.06289288
30	0xbd29f5b4	-0.041494086
31	0x3d036cdb	0.032086235
32	0x3d77e916	0.060525022
33	0x3e89b304	0.2689439
34	0x3e3938b8	0.18088043
35	0x3e0ea35f	0.13929509
36	0x3d0ab07f	0.033859726
37	0x3d934abd	0.071919896
38	0x3e62062f	0.22072671
39	0x3dd4c52d	0.10389171
40	0x3e207d27	0.15672742
41	0x3e7ca297	0.24671398
42	0x3dd03d9d	0.10168002
43	0x3de356ca	0.11100538
44	0x3dbff974	0.09373751
45	0x3e1d7bd6	0.15379271
46	0x3da89ec0	0.08233404
47	0x3ddcadaa	0.10775311
48	0x3caa4838	0.02078639
49	0xbdf4c99e	-0.11952518
50	0x3c4c4b0b	0.0124690635
51	0xbd83bf86	-0.064330146
52	0xbcca1307	-0.024667276
53	0xbdff635c	-0.12470123
54	0x3c08007e	0.008300899
55	0x3df367fe	0.11885069
56	0x3d18b400	0.037281036
57	0x3e2822ae	0.16419479
58	0x3dbbcf84	0.0917044
59	0xbc900d5a	-0.017584492
60	0x3c34afb1	0.011028216
61	0x3e137dfc	0.14403528
62	0x3e23a945	0.1598254
63	0x3da46f74	0.080290705
64	0x3e7226cf	0.23647617
65	0xbc88da6c	-0.016705714
66	0x3e0f3739	0.1398591
67	0xbb3f9a10	-0.0029236116
68	0x3d499b40	0.049220324
69	0x3d8c9e1d	0.06866095
70	0x3e0587a2	0.13040021
71	0xbacbc0f4	-0.0015545175
72	0xbe6a68dd	-0.22891565
73	0xbd341bb9	-0.04397175
74	0x3d3aa0d7	0.045563545
75	0x3d3114d7	0.043232765
76	0x3de336e7	0.11094456
77	0xbc9e1722	-0.01929814
78	0x3e058e9e	0.13042685
79	0xbc08a045	-0.0083389925
80	0x37f5027d	2.9207435e-05
81	0xbe3d91cc	-0.18512648
82	0x3c929fb9	0.017898427
83	0xbdc1c1e1	-0.094608076
84	0x3d1a00c8	0.0375984
85	0xbd136e21	-0.0359937
86	0xbe010e0c	-0.12603015
87	0x3db59a3f	0.08867311
88	0x3ddd5c63	0.10808637
89	0x3dc03d0b	0.09386643
90	0xbd409f8c	-0.047027156
91	0x3dabdf7b	0.08392235
92	0x3d7ec0ca	0.062195577
93	0xbd4bc93f	-0.04975247
94	0xbd66d625	-0.056356568
95	0xbdc435f6	-0.09580605
96	0xbe3e73e8	-0.18598902
97	0xbd519b18	-0.0511733
98	0xbdbe0520	-0.09278321
99	0x3c1cb4be	0.009564577
100	0x3da7fa1e	0.08202003
101	0xbd9b1b55	-0.075735725
102	0xbd0b506f	-0.034012254
103	0x3e115c20	0.14195299
104	0x3df3b1a9	0.1189912
105	0x3e14fa8a	0.14548698
106	0x3ce55203	0.027993208
107	0xbdf49750	-0.11942923
108	0x3e3a061e	0.18166396
109	0xbd93f4db	-0.07224437
110	0x3c388191	0.01126136
111	0x3e2e6fb9	0.17034806
112	0xbd32a45c	-0.043613777
113	0xbd984fae	-0.07437073
114	0xbdbb0d60	-0.091334105
115	0xbd472efd	-0.048628796
116	0xbe026060	-0.12732077
117	0x3d4236cb	0.047415536
118	0xbcfe3fb9	-0.031036245
119	0xbd29bca3	-0.041439664
120	0x3d0fa964	0.035073653
121	0xbd48ee26	-0.04905524
122	0x3cffe6ca	0.031237978
123	0x3d8cb679	0.068707414
124	0xbc9ef928	-0.019405916
125	0xbca38a7b	-0.019963494
126	0xbddf2fc5	-0.10897783
127	0xbe034097	-0.12817608
128	0x3cf1b718	0.029506251
129	0xbdb896e1	-0.09013153
130	0x3de6ceff	0.1126995
131	0xbc3116f2	-0.010808693
132	0xbc9d8dc0	-0.01923263
133	0x3c3bc6c0	0.01146096
134	0x3dd72507	0.10505109
135	0x3e196773	0.14980869
136	0x3c33e087	0.010978824
137	0xbd602278	-0.054720372
138	0xbd1df12a	-0.03856007
139	0xbe880b49	-0.2657111
140	0x3e19a0ff	0.15002821
141	0x3bf0b0bd	0.0073452876
142	0x3e2ef248	0.1708461
143	0x3c2474cd	0.010037613
144	0x3d37227a	0.044710614
145	0x3d4e4933	0.050362777
146	0xbad4b00e	-0.0016226785
147	0x3ed34f9d	0.41271678
148	0x3e643291	0.22284915
149	0x3dfa4763	0.12220647
150	0x3e1c1198	0.15241086
151	0x3d808667	0.06275635
152	0x3dbda13b	0.09259268
153	0xbe1b3287	-0.15155993
154	0xbdbc7d77	-0.09203618
155	0x3d0f5e5f	0.03500211
156	0x3d0dbd88	0.03460458
157	0x3e2af328	0.16694319
158	0x3ea48e58	0.3213985
159	0x3eaf819f	0.3427858
160	0x3e7a3835	0.24435504
161	0x3cfddcfb	0.03098916
162	0x3e1c5f36	0.15270695
163	0x3d814dd4	0.06313673
164	0xbd1e1e56	-0.03860315
165	0xbdd63ee0	-0.10461211
166	0xbd3ff976	-0.046868764
167	0xbdc0afb7	-0.09408515
168	0x3db80c96	0.089867756
169	0x3ed60177	0.41797993
170	0x3e0d224e	0.13782617
171	0x3d7a151d	0.06105529
172	0xbddfd4d0	-0.10929263
173	0xbe70eff5	-0.23529036
174	0xbe75c1ab	-0.2399966
175	0x3d5af6ef	0.05345815
176	0xbd5804dd	-0.052739013
177	0x3db18da7	0.08669596
178	0xbe1dd76a	-0.15414205
179	0xbca630bd	-0.020286912
180	0xbd96779c	-0.073470324
181	0xbcded42c	-0.02720078
182	0xbe15c35e	-0.14625308
183	0xbc797a95	-0.01522698
184	0xbdba57a5	-0.09098748
185	0xbd799fd4	-0.06094344
186	0xbb104f62	-0.0022019972
187	0xbe37dfdd	-0.17956491
188	0xbe1f0a79	-0.15531339
189	0xbdbe26d8	-0.092847526
190	0xbc6fe088	-0.014640935
191	0xbd91e271	-0.071232684
192	0xbe130958	-0.14359033
193	0xbdb59cba	-0.08867784
194	0xbb870461	-0.004120395
195	0xbdd4de14	-0.103939205
196	0x3c90a0b7	0.01765476
197	0x3d3cb480	0.046070576
198	0x3dd492ac	0.10379538
199	0x3e1e2435	0.154435
200	0x3d160e37	0.03663465
201	0xbd37ed55	-0.04490407
202	0x3e06ba9f	0.13157128
203	0x3d4a68d6	0.049416386
204	0xbd931f38	-0.07183689
205	0xbdab514e	-0.08365117
206	0x3c524bcd	0.012835455
207	0xbca0000a	-0.019531269
208	0x3d773319	0.060351465
209	0xbd6d2224	-0.057893887
210	0x3de6bbb4	0.1126627
211	0xbbfcd511	-0.007715829
212	0x3dfb4b97	0.12270277
213	0x3dcf1121	0.10110689
214	0xbd9231fc	-0.0713844
215	0xbdb636cd	-0.08897171
216	0xbbe003da	-0.0068363966
217	0xbe20a463	-0.15687709
218	0xbd6aaabc	-0.05729173
219	0x3a12a6d6	0.00055943185
220	0xbc981b1e	-0.018567618
221	0xbdadc5df	-0.084850065
222	0x3d4eb351	0.05046398
223	0xbdc0c63d	-0.09412811
224	0x3db5d073	0.08877649
225	0xbe693818	-0.22775304
226	0x3df08916	0.11744897
227	0xbc87dc66	-0.016584586
228	0x3d8d76c4	0.06907418
229	0xbd94110a	-0.072298124
230	0x3cc9fb51	0.02465597
231	0x3dd5a7e2	0.10432412
232	0x3d4db3ad	0.05022018
233	0x3e5c4378	0.21510112
234	0xbe117a71	-0.14206864
235	0x3d828add	0.06374142
236	0xbb3aead2	-0.0028521311
237	0xbb87905f	-0.0041370834
238	0xbe0fc1ae	-0.14038727
239	0xbe36bb84	-0.17844969
240	0x3e577a34	0.2104271
241	0x3d09900e	0.033584647
242	0x3bec50ec	0.007211795
243	0xbc745692	-0.014913218
244	0xbd273611	-0.040823046
245	0x3d4f5794	0.05062063
246	0x3d8c5b42	0.068533435
247	0x3cb40304	0.021974094
248	0x3e3ec489	0.1862966
249	0x3beeb5a0	0.007284835
250	0xbdc690e8	-0.096956074
251	0xbe131b6c	-0.1436593
252	0xbdc0717e	-0.09396647
253	0x3ce65d9d	0.02812081
254	0x3d8cadd2	0.06869091
255	0x3e1f667c	0.15566438

bias f4 [6]
0	0x3ce99eed	0.028518165
1	0x3df2ddbc	0.11858699
2	0x3e3a442c	0.18190068
3	0x3dfd9506	0.123819396
4	0x3d5c3920	0.053765416
5	0xbc937b25	-0.018003056

weight f4 [5, 96]
0	0xbd532eba	-0.051558234
1	0xbc80a896	-0.015705388
2	0xbe3da150	-0.18518567
3	0x3d5954f8	0.05305955
4	0x3e0a9a0e	0.1353533
5	0x3e1c13aa	0.15241876
6	0x3d0e7a5b	0.034784656
7	0x3e01a8e8	0.12662089
8	0xbdb03d11	-0.086053975
9	0xbe5f8e2d	-0.2183158
10	0xbdd12a95	-0.102132
11	0x3ddef109	0.108858176
12	0x3d2c7f4a	0.04211358
13	0xbc191ec8	-0.009345718
14	0xbb49e24e	-0.0030805054
15	0xbd931166	-0.07181053
16	0xbd85bec8	-0.06530529
17	0x3d74be91	0.05975205
18	0x3db75a32	0.0895275
19	0x3ec05a55	0.37568918
20	0xbd623af7	-0.055232015
21	0x3e8d175b	0.2755688
22	0x3cdd3de7	0.027007056
23	0xbd1a6502	-0.037693985
24	0x3eb4dae8	0.35323262
25	0x3ee42c09	0.44564846
26	0x3e2d850c	0.16945285
27	0x3cc3beb2	0.023894642
28	0x3e0cbaaa	0.13743082
29	0x3ea58930	0.32331228
30	0x3f155e06	0.58346593
31	0x3e269c22	0.16270497
32	0x3e64d194	0.22345573
33	0x3dad1a93	0.08452334
34	0xbd87b0b6	-0.06625502
35	0xbe09da25	-0.13462122
36	0xbcb4f802	-0.022090916
37	0xbe4c8c88	-0.19975483
38	0x3d780487	0.060551193
39	0x3e025a45	0.12729748
40	0xbead7d42	-0.33884627
41	0xbed98b11	-0.42488912
42	0x3dafa086	0.08575539
43	0xbd3efd34	-0.046628192
44	0x3e62f307	0.2216302
45	0x3c10c754	0.008836586
46	0x3da8f529	0.082498856
47	0x3db18db6	0.08669607
48	0x3ef70594	0.48246443
49	0x3e1a7c04	0.1508637
50	0x3ec48ae0	0.38387203
51	0x3e6d8f96	0.23199305
52	0xbd6c44ed	-0.05768292
53	0xbcf90923	-0.030399865
54	0x3d933d92	0.07189478
55	0xbe8b8531	-0.27250054
56	0x3ea60bbd	0.3243083
57	0x3da392ed	0.07987008
58	0x3cbb8b1a	0.022893477
59	0xbe4b8caf	-0.19877885
60	0x3c5a3b43	0.013319793
61	0x3ee72204	0.4514314
62	0x3dce41cf	0.10071146
63	0x3e19a3fb	0.1500396
64	0xbd99f282	-0.07516958
65	0xbdcdfb59	-0.100577064
66	0x3da712fc	0.08157918
67	0xbdb2e559	-0.08735151
68	0xbdda83ed	-0.10669694
69	0xbe837d34	-0.2568146
70	0x3e5a4401	0.21315004
71	0xbe33abdf	-0.17546032
72	0x3e9b0095	0.30273882
73	0xbcb024d3	-0.021501934
74	0x3d35fcbd	0.044430483
75	0x3db91c0a	0.09038551
76	0x3dd754f8	0.105142534
77	0x3d925821	0.071457155
78	0x3cf635d0	0.030054957
79	0x3d794b4a	0.060862817
80	0xbea5693b	-0.32306847
81	0xbeb5b1f1	-0.3548732
82	0xbde17480	-0.11008549
83	0x3d9f6079	0.077820726
84	0xbe298944	-0.16556269
85	0xbe4246a5	-0.18972261
86	0x3e02e872	0.12783983
87	0xbeb863fe	-0.36013788
88	0xbe4471ec	-0.19184083
89	0xbe479db2	-0.1949375
90	0x3dd964cf	0.10614931
91	0xbcc66b37	-0.024221046
92	0x3e305150	0.17218518
93	0xbd9475f7	-0.072490625
94	0x3e268d2e	0.16264793
95	0x3e96e1e7	0.29469225
96	0x3d0aa7f5	0.033851583
97	0x3d16c702	0.036810882
98	0x3d2f791c	0.04284011
99	0xbd513047	-0.05107143
100	0xbbc19d88	-0.0059086718
101	0xbc4f4428	-0.012650527
102	0xbce3a369	-0.027787881
103	0x3db6de3d	0.08929107
104	0xbda0e5d2	-0.07856335
105	0xbd9752c8	-0.07388836
106	0xbd86ca3e	-0.065815434
107	0x3dab55e5	0.083659925
108	0xbdaac4db	-0.083383285
109	0xbd7d512a	-0.061844982
110	0x3d2492e3	0.040179145
111	0x3d6278cc	0.055290982
112	0xbd1a9951	-0.03774387
113	0xbd0d7a9d	-0.03454076
114	0x3d6b6e72	0.057478376
115	0xbdb6b819	-0.089218326
116	0x3d195365	0.037433047
117	0x3cd3a9be	0.025837775
118	0x3dc3ef22	0.09567095
119	0xbd92cb92	-0.07167734
120	0xbca462a2	-0.020066563
121	0xbd037ecf	-0.032103356
122	0x3d0fa8f1	0.035073224
123	0xbca83ff7	-0.020538313
124	0x3dc218f0	0.09477413
125	0xbda18547	-0.07886749
126	0xbd25e6c0	-0.040503263
127	0xbdc8b18d	-0.0979949
128	0xb9c45294	-0.0003744556
129	0xbdd04feb	-0.10171493
130	0x3d9577f6	0.07298271
131	0xbd2185c8	-0.039434224
132	0x3d6ab553	0.05730183
133	0xbda31fb9	-0.07965035
134	0xbd656158	-0.056001037
135	0x3c80b729	0.015712338
136	0xbc8c6f77	-0.017142994
137	0xbdbead7f	-0.093104355
138	0x3d8f92ad	0.07010398
139	0xbc78b5a3	-0.015180024
140	0xbd89d5dd	-0.06730244
141	0xbdb76ecf	-0.08956682
142	0xbd92e4e7	-0.07172566
143	0xbd60edb9	-0.05491421
144	0x3d9edba6	0.07756738
145	0x3d41f98b	0.047357123
146	0xbb6b225f	-0.003587864
147	0xbb1d016b	-0.0023957144
148	0xbcbd1738	-0.02308236
149	0xbdf1e46c	-0.11811146
150	0x3d2605ae	0.04053276
151	0xbd267bd1	-0.040645424
152	0xbd477645	-0.048696775
153	0xbcaf764f	-0.021418719
154	0x3d590e2f	0.052992042
155	0xbdc6c8df	-0.09706282
156	0xbd44cd5a	-0.0480474
157	0xbd85952f	-0.06522595
158	0x3d4fef71	0.05076546
159	0xbda3ac69	-0.07991869
160	0xbda6de93	-0.081479214
161	0x3c3164be	0.010827241
162	0xbc363cca	-0.011122892
163	0xbd1d72d7	-0.038439598
164	0x3db68ca0	0.08913541
165	0xbddb6851	-0.10713256
166	0xbd7ea190	-0.062165797
167	0x3d1e2383	0.038608085
168	0xbc5c6314	-0.013451356
169	0xbdae37d7	-0.08506744
170	0xbd9f01e8	-0.077640355
171	0xbd47452d	-0.048649956
172	0xbd909e30	-0.07061422
173	0xbcdbc31d	-0.026826436
174	0xbd85554d	-0.065104105
175	0xbd1ca7a3	-0.03824581
176	0xbdaf01e4	-0.085452825
177	0x3dad5981	0.08464337
178	0xbd34599e	-0.044030778
179	0x3c25fd14	0.010131139
180	0xbd494cfe	-0.04914569
181	0xbd1956ef	-0.037436422
182	0xbd8e7d8b	-0.06957539
183	0xbd2a5c0d	-0.041591693
184	0xbd980b0e	-0.074239835
185	0xbddcd24c	-0.107822984
186	0x3cdee976	0.027210932
187	0x3d73bc6e	0.059505872
188	0xbd825e14	-0.063656
189	0x3d87d2bd	0.06631992
190	0xbd2966f7	-0.04135796
191	0xbd8f075c	-0.069838256
192	0x3d23443c	0.039859995
193	0x3d924914	0.07142845
194	0xbd9598bd	-0.07304523
195	0x3c9b66a6	0.018969845
196	0x3ce7bd70	0.028288573
197	0x3d1fbc7f	0.038998123
198	0xbc8ad90b	-0.016949197
199	0x3d8396ba	0.06425233
200	0x3c3952fc	0.011311289
201	0x3dd5eed9	0.10445947
202	0xbd5f3ecb	-0.054503243
203	0x3cf0333f	0.029321311
204	0xbdc6169d	-0.09672282
205	0xbd906ad4	-0.07051626
206	0xbd5988d5	-0.05310901
207	0xbdfe1cf5	-0.12407867
208	0xbe518439	-0.20460595
209	0x3c08fdf9	0.008361333
210	0xbe637713	-0.22213392
211	0xbe22f9cd	-0.15915604
212	0xbdabcf77	-0.0838918
213	0xbe143d3a	-0.14476481
214	0xbe135250	-0.14386868
215	0xbdef490f	-0.11683857
216	0xbe87ec4d	-0.2654747
217	0xbdc4b625	-0.09605054
218	0x3ce7be8c	0.028289102
219	0x3d70ac65	0.05875816
220	0x3cd20b42	0.025640134
221	0x3d09e485	0.0336652
222	0x3d18c9da	0.037301876
223	0xbb0174d9	-0.0019753485
224	0xbd969c40	-0.07354021
225	0x3d522df1	0.051313344
226	0xbdb53d54	-0.08849588
227	0x3dd46f3e	0.1037278
228	0x3dd16013	0.10223403
229	0xbd717650	-0.058950722
230	0xbcc5f602	-0.024165157
231	0xbd1a077f	-0.037604805
232	0x3d96c886	0.073624656
233	0x3d724302	0.059145935
234	0xbdda77c8	-0.10667378
235	0x3d0f845c	0.035038337
236	0xbda7de54	-0.081967026
237	0x3cdb8536	0.026796918
238	0xbdb04f47	-0.08608871
239	0xbd46e8c2	-0.04856182
240	0xbdc58c8b	-0.09645947
241	0xbd1b4e71	-0.037916604
242	0x3dcd6950	0.100298524
243	0x3c87dda0	0.016585171
244	0xbd6438ea	-0.05571834
245	0x3d0b7696	0.03404864
246	0xbd3eb25d	-0.04655682
247	0xbb083666	-0.0020784377
248	0x3d7e1984	0.062036052
249	0x3dc8aa32	0.09798087
250	0x3da80152	0.08203377
251	0x3d0f8db3	0.035047244
252	0x3e1cb48e	0.15303251
253	0xbc4575a9	-0.012051978
254	0x3d42f160	0.047593474
255	0xbd64a3db	-0.055820327

bias f4 [5]
0	0x3e52f0b6	0.20599636
1	0x3d4e0167	0.050294306
2	0xbd879b35	-0.066214
3	0x3d3e2e92	0.04643113
4	0x3e6057f7	0.21908556
