Models_mario/Mario Bias_exp1_NS_classifier.pth (torch, 10845 bytes, 6 tensors)

weight f4 [3, 1, 7, 7]
0.072427735 0.08655235 0.029643312 0.10968228 -0.013425456 0.04592791 0.1308358 0.20251295
0.099372625 0.01682215 0.07722607 0.052152503 0.13060372 0.095206946 0.1182657 0.19800575
-0.001145155 0.06057937 0.102482386 0.07620616 0.06532223 -0.078465424 -0.07000817 -0.06903713
-0.07761863 -0.07522464 -0.04410803 -0.05769025 -0.08739383 0.120098576 0.14852159 0.15921116
0.13612498 0.115335956 0.13439564 -0.004445307 0.20377347 0.0630383 0.19801566 0.118598685
0.18980296 0.19416828 0.00786495 0.009813246 0.0738519 0.055073634 0.08596743 0.14470589
-0.03853427 0.03138957 -0.057235934 0.19058876 -0.030296782 0.09977283 0.030794537 0.1428288
0.06046722 0.050945062 0.17576475 0.2123039 -0.034048464 -0.06380223 0.089050815 0.10085696
0.10038413 0.20683596 0.13572499 -0.015679613 -0.03807248 0.17076398 0.18467571 -0.011675661
-0.039695945 0.10389354 -0.08066334 0.021472871 -0.09729578 0.10710783 0.0059206514 -0.03745167
-0.07892547 -0.06598174 0.10062621 0.016417352 0.18978935 0.018749345 0.015089723 0.18164407
-0.115653664 -0.009603289 -0.063336074 0.20536788 0.15190925 0.010505295 -0.018019106 0.052333396
-0.012740326 0.04901108 -0.007164403 -0.008914171 0.07680945 0.16882421 0.19534664 0.088187225
-0.040019922 0.16172297 0.14294174 0.13784423 0.012047283 0.027913224 0.12551877 0.1149958
0.1721915 0.0015653742 0.16315398 -0.020967463 0.010441947 -0.02230783 -0.0037765284 0.13836889
0.17905405 0.094343245 -0.08773587 -0.042034436 0.14840735 -0.012502279 -0.09928424 0.10021016
-0.080726445 0.048742484 0.01385661 -0.009578263 -0.06283126 0.03972917 -0.012599066 -0.045540404
0.09749128 0.17973872 -0.07002061 -0.11896409 -0.04361808 0.22281595 0.20699173 -0.07298716
0.09387951 0.072799355 0.13422567
00000000: fe54 943d 5c42 b13d 88d6 f23c 1aa1 e03d
00000010: 72f6 5bbc e71e 3c3d d2f9 053e 8e5f 4f3e
00000020: e083 cb3d 9bce 893c b428 9e3d dd9d 553d
00000030: fbbc 053e dcfb c23d 4a35 f23d 05c2 4a3e
00000040: 0719 96ba 1322 783d 49e2 d13d fa11 9c3d
00000050: a9c7 853d 7bb2 a0bd 7260 8fbd 5763 8dbd
00000060: 84f6 9ebd 600f 9abd 9faa 34bd 9d4c 6cbd
00000070: 89fb b2bd 3ef6 f53d 0b16 183e 4008 233e
00000080: 5964 0b3e 4235 ec3d 039f 093e f0a9 91bb
00000090: fea9 503e 391a 813d 9ec4 4a3e dee3 f23d
000000a0: b55b 423e 0dd4 463e fedb 003c bdc7 203c
000000b0: aa3f 973d e494 613d b10f b03d c82d 143e
000000c0: 1cd6 1dbd 5a92 003d 3a70 6abd b329 433e
000000d0: f530 f8bc b355 cc3d d344 fc3c b741 123e
000000e0: 7aac 773d c5ab 503d adfb 333e 3266 593e
000000f0: 6776 0bbd beaa 82bd 4660 b63d 188e ce3d
00000100: 3296 cd3d cecc 533e 7efb 0a3e 8872 80bc
00000110: e4f1 1bbd c1dc 2e3e a11b 3d3e 464b 3fbc
00000120: 3798 22bd 23c6 d43d d232 a5bd e0e7 af3c
00000130: 0343 c7bd 5a5b db3d 0602 c23b ec66 19bd
00000140: ada3 a1bd 6f21 87bd 1d15 ce3d af7d 863c
00000150: 2458 423e 3a98 993c e33a 773c e700 3a3e
00000160: d4db ecbd 1d57 1dbc 58b6 81bd f54b 523e
00000170: 198e 1b3e 671e 2c3c ce9c 93bc 8b5b 563d
00000180: cdbc 50bc d8bf 483d 5ec3 eabb be0c 12bc
00000190: 464e 9d3d 41e0 2c3e f308 483e 819b b43d
000001a0: eeeb 23bd b59a 253e 525f 123e 0a27 0d3e
000001b0: f861 453c 46aa e43c fe87 003e eb82 eb3d
000001c0: f852 303e 3e2d cd3a d611 273e f5c3 abbc
000001d0: b314 2b3c e9be b6bc a27f 77bb 93b0 0d3e
000001e0: f259 373e 0837 c13d ddae b3bd 4d2c 2cbd
000001f0: 19f8 173e 5cd6 4cbc 8955 cbbd fc3a cd3d
00000200: e853 a5bd 33a6 473d d606 633c 26ee 1cbc
00000210: adad 80bd 0ebb 223d 506c 4ebc 9388 3abd
00000220: 82a9 c73d 6d0d 383e f766 8fbd 72a3 f3bd
00000230: dfa8 32bd dd29 643e a4f5 533e 4b7a 95bd
00000240: e743 c03d d417 953d 7472 093e

bias f4 [3]
0.020262852 0.12739295 0.019560665
00000000: 48fe a53c 4c73 023e b03d a03c

weight f4 [6, 3, 7, 7]
-0.0545846 0.046105247 0.01675795 0.07144453 0.0239052 -0.027640041 0.107189044 0.14794292
0.16279817 0.11883196 0.016391259 0.047200754 0.03558046 0.03894721 -0.007951935 0.11047563
-0.0029242018 0.07282221 -0.037531868 0.057176627 0.043430705 0.089818105 0.10802522 0.043073706
0.13698372 0.026109306 0.10795176 0.019761989 0.08248428 0.10389102 0.095348686 0.051696938
0.14951856 0.13857672 0.04928624 0.07026392 0.11529945 0.17052998 0.17996705 0.17836384
0.1454009 0.120880865 -0.0337802 -0.029540107 0.124991596 -0.012897735 0.05257812 0.095843896
-0.028358525 0.01114452 -0.08160651 0.054742366 0.078048594 0.098042056 0.042103436 0.013934343
0.10365063 -0.028784472 -0.03431823 0.129137 0.1642345 0.013075474 -0.07198779 0.020366242
-0.031379387 0.022257581 0.06661352 0.021131152 -0.010434014 0.0399431 0.06408604 0.068422124
-0.054393444 0.067394294 0.03971506 -0.029868655 0.052794676 0.055613607 0.12695783 0.093238756
0.04618185 -0.022068398 0.10113753 0.0864108 0.096444845 0.08646661 0.06490295 0.010728709
0.047096472 0.08844574 -0.07649766 0.07809 0.052974906 0.05832791 -0.016983911 0.08245725
0.0813824 -0.06983631 -0.04210634 0.01257329 -0.048263952 -0.003759036 0.14166024 0.11920403
-0.092160895 0.03197238 -0.031351656 0.1382963 0.036456957 0.09776691 0.06756383 -0.058322404
0.038089175 -0.1162833 0.0009042088 0.052753694 0.033441123 0.034558162 -0.02501542 -0.06522398
0.07989546 0.09292346 -0.061100822 0.09618394 0.041732237 -0.08499695 0.0669067 0.05632447
0.02202353 0.15372866 0.009636385 0.04555956 0.04780414 -0.056418005 0.0911049 0.057476915
0.06336281 0.04587639 0.005372189 0.08449361 0.04115453 0.010718411 -0.068392135 0.06786979
0.05186342 0.048703477 0.072585806 0.057978064 0.09896522 0.10719877 0.010484493 -0.0621602
0.013883434 -0.030832492 0.014332641 0.01079231 0.023053214 0.0074812258 -0.10852472 -0.054671843
0.039618608 -0.04592988 0.027189365 0.061574183 0.06780487 -0.04187906 0.031871837 -0.0051165796
0.028760394 0.067573234 0.019660497 -0.085601464 0.021900991 -0.06335312 0.04321857 -0.050161432
0.08148085 -0.05070103 0.035435636 0.02298401 0.013962141 0.054487675 -0.028502665 -0.08089053
-0.056451995 0.067824155 0.054368973 0.015204136 -0.02280862 0.051446117 0.028666187 0.020183658
-0.09483687 0.06241943 0.044242647 -0.004457817 0.101713695 0.07173534 0.033031914 -0.05740457
0.025287254 -0.06230636 -0.07903028 0.03771778 -0.10277672 -0.072581135 -0.057262734 -0.04712429
-0.0365395 -0.049479436 0.059985 0.0505626 -0.038700894 -0.049268942 0.02896468 -0.06546455
0.03250056 -0.00016232811 -0.06003439 -0.0073420303 -0.08212745 -0.011206086 0.032352734 0.028207324
0.019307684 -0.05875315 0.03272235 0.036128286 0.0003521066 -0.07206809 -0.06264445 -0.108944625
-0.09606463 -0.057886064 0.007180517 -0.022733623 -0.025454149 0.00837442 0.03687431 -0.044036776
-0.06575028 -0.06881829 0.0277263 -0.027699724 0.05848253 -0.06377704 0.144428 0.04209468
0.05328352 0.035379507 -0.061005767 0.009999625 0.11438997 -0.014348119 -0.012074451 -0.023452407
00000000: 1a94 5fbd dbd8 3c3d f847 893c 8251 923d
00000010: d7d4 c33c 5e6d e2bc ee85 db3d 597e 173e
00000020: 90b4 263e 2c5e f33d f646 863c 9455 413d
00000030: d1bc 113d 1c87 1f3d d548 02bc 0c41 e23d
00000040: f7a3 3fbb d023 953d 04bb 19bd 0a32 6a3d
00000050: 65e4 313d 8ef2 b73d 543c dd3d 0e6e 303d
00000060: 7645 0c3e 2fe3 d53c d015 dd3d e5e3 a13c
00000070: 85ed a83d d1c4 d43d 2c46 c33d 2bc0 533d
00000080: 651b 193e 0ee7 0d3e 5ee0 493d 88e6 8f3d
00000090: 1e22 ec3d 699f 2e3e 4849 383e 03a5 363e
000000a0: f9e3 143e 6390 f73d 1b5d 0abd 18fe f1bc
000000b0: 98fb ff3d 0651 53bc 285c 573d ce49 c43d
000000c0: 2350 e8bc 8197 363c 5021 a7bd 8839 603d
000000d0: f1d7 9f3d 46ca c83d a774 2c3d df4c 643c
000000e0: c846 d43d 6acd ebbc 4691 0cbd 7d3c 043e
000000f0: 172d 283e 833a 563c 566e 93bd 1bd7 a63c
00000100: ac87 00bd 8855 b63c ab6c 883d 3d1b ad3c
00000110: 6df3 2abc 609b 233d 8b3f 833d e620 8c3d
00000120: a9cb 5ebd 0506 8a3d 42ac 223d 1caf f4bc
00000130: 3b3f 583d 18cb 633d 3c01 023e f6f3 be3d
00000140: 2e29 3d3d c9c8 b4bc 3121 cf3d 25f8 b03d
00000150: e084 c53d 6815 b13d d6eb 843d 78c7 2f3c
00000160: 3be8 403d 0a23 b53d ceaa 9cbd a6ed 9f3d
00000170: 37fc 583d 3fe9 6e3d d821 8bbc 59df a83d
00000180: d1ab a63d 5706 8fbd b377 2cbd 3300 4e3c
00000190: 6cb0 45bd 295a 76bb 620f 113e 3e21 f43d
000001a0: dabe bcbd 78f5 023d 986a 00bd 8c9d 0d3e
000001b0: e453 153d 053a c83d e85e 8a3d 79e3 6ebd
000001c0: 6503 1c3d f025 eebd 6d08 6d3a 4214 583d
000001d0: 8ff9 083d dc8c 0d3d 23ed ccbc 2694 85bd
000001e0: 3ba0 a33d a84e be3d db44 7abd 16fc c43d
000001f0: 6cef 2a3d e212 aebd 6106 893d 7db4 663d
00000200: b16a b43c 0c6b 1d3e eee1 1d3c a99c 3a3d
00000210: 46ce 433d 9116 67bd 3595 ba3d ea6c 6b3d
00000220: 5cc4 813d e2e8 3b3d 3009 b03b fc0a ad3d
00000230: a791 283d 469c 2f3c 2d11 8cbd 51ff 8a3d
00000240: bd6e 543d 4c7d 473d dea7 943d 687a 6d3d
00000250: 47ae ca3d 078b db3d 27c7 2b3c b29b 7ebd
00000260: 5877 633c 6c94 fcbc 74d3 6a3c 3bd2 303c
00000270: 18da bc3c 1225 f53b 3542 debd 95ef 5fbd
00000280: 1f47 223d f820 3cbd 3bbc de3c 3635 7c3d
00000290: 48dd 8a3d 6189 2bbd 0b8c 023d fba8 a7bb
000002a0: eb9a eb3c d663 8a3d 0d0f a13c d24f afbd
000002b0: b569 b33c 48bf 81bd f505 313d 1376 4dbd
000002c0: 6fdf a63d e2ab 4fbd f524 113d f648 bc3c
000002d0: 77c1 643c 782e 5f3d 6c7e e9bc efa9 a5bd
000002e0: 353a 67bd 64e7 8a3d 00b2 5e3d c51a 793c
000002f0: 25d9 babc 2ab9 523d 5ad5 ea3c 3358 a53c
00000300: d539 c2bd 84ab 7f3d c737 353d e112 92bb
00000310: 454f d03d fae9 923d 794c 073d 0e21 6bbd
00000320: 3727 cf3c f434 7fbd a1da a1bd f57d 1a3d
00000330: 9a7c d2bd 6ba5 94bd 548c 6abd 6605 41bd
00000340: 71aa 15bd f3aa 4abd d5b2 753d bb1a 4f3d
00000350: d484 1ebd 3bce 49bd 5647 ed3c 4712 86bd
00000360: 4f1f 053d 9f36 2ab9 9fe6 75bd 6a95 f0bb
00000370: 7032 a8bd bb99 37bc 4d84 043d 0c13 e73c
00000380: 262b 9e3c 25a7 70bd df07 063d 41fb 133d
00000390: f39a b839 6f98 93bd bc4b 80bd 5c1e dfbd
000003a0: 88bd c4bd f019 6dbd 8b4a eb3b dd3b babc
000003b0: 3885 d0bc dd34 093c 8409 173d e85f 34bd
000003c0: 15a8 86bd 9bf0 8cbd 4422 e33c 88ea e2bc
000003d0: 618b 6f3d 899d 82bd efe4 133e 796b 2c3d
000003e0: d23f 5a3d 1aea 103d 2fe1 79bd 78d5 233c
000003f0: 4a45 ea3d 5f14 6bbc ebd3 45bc 431f c0bc

bias f4 [6]
0.06463077 -0.07627842 0.07925079 -0.022529203 0.096212305 0.073998146
00000000: 235d 843d dc37 9cbd 3d4e a23d 2a8f b8bc
00000010: f50a c53d 578c 973d

weight f4 [5, 96]
0.094001055 -0.062249232 -0.0043424964 -0.015567555 -0.043572288 0.012358524 -0.09159918 -0.025929421
-0.04858564 -0.070002 0.014330569 -0.08943248 -0.060829464 0.04450829 -0.06245598 -0.045798834
-0.09663397 -0.121641584 0.04980029 0.07104781 -0.050236724 -0.061278846 -0.03719633 0.052344143
0.044259954 0.009245765 0.10950065 0.100083545 0.045605317 -0.006469431 -0.0998606 0.06587976
-0.08579688 0.00911802 -0.09560261 0.03812717 0.04030161 -0.08256254 0.020120703 -0.039735194
-0.0021825095 -0.051887583 0.069618694 0.049246192 0.08291928 0.046490878 0.01881861 0.053290837
0.083000585 -0.0815392 0.055666994 -0.04922928 -0.052218117 0.038078547 -0.10718104 -0.042690683
-0.08115232 0.043255083 -0.15566501 -0.009139046 -0.02313601 0.017309507 -0.036098022 -0.05263961
-0.058076154 0.042515658 -0.08898692 0.04653216 0.044283144 -0.03545167 0.07571376 0.05411469
-0.0030421095 0.06983683 0.01065128 -0.0625903 0.06353755 0.02884753 0.044502556 0.024600845
0.035460014 0.05759437 0.09417462 0.08297352 0.019384257 -0.06973656 -0.09438959 -0.1024701
0.048766367 0.02487941 0.058530573 0.059677 -0.07801415 0.02952599 -0.007030631 -0.085397944
0.0334425 -0.14359443 -0.015648765 0.08624288 0.049205717 -0.063541204 0.1025847 0.07166211
-0.08556903 -0.011103291 0.11216851 0.040094703 -0.09581157 -0.051134426 -0.10428803 -0.09268805
0.11547523 -0.0054516178 -0.011742524 0.016485257 -0.011677148 0.14352791 -0.055027455 0.0122236535
0.06803217 -0.007437612 -0.036123782 -0.010103637 -0.09981993 -0.08189118 -0.044204455 -0.08533755
-0.030172534 -0.12594995 0.0087055145 -0.016356768 -0.09652091 -0.1323274 0.082694136 0.014083375
-0.091307946 0.02725585 -0.007385162 -0.07682702 0.052626397 -0.045142252 0.102511026 -0.083681226
-0.13827302 -0.033545356 0.040370442 0.03802059 0.03488064 0.055347364 -0.08334179 0.06921658
0.060893103 -0.022836836 0.13936985 0.032072112 -0.07356212 -0.06575883 -0.09894277 0.08973402
0.050621714 -0.08216407 0.10421377 0.07240954 0.061836503 -0.024135027 0.034987096 0.060638327
0.051976867 0.11440755 -0.030759854 -0.01705696 0.055448234 0.024292147 -0.01128208 0.09861392
-0.093178384 -0.03442933 -0.14901929 -0.0034678078 -0.10748161 -0.10089817 -0.12118978 0.016106408
0.00151364 0.11341822 0.083063714 -0.006084763 -0.07186272 -0.03655375 0.039499328 0.049381506
0.09364856 -0.105676904 -0.054595772 0.047495082 -0.037457917 -0.053517908 0.07135311 0.031744808
0.046084702 0.06269783 -0.0476974 0.012807522 0.056376606 -0.07117981 0.06411205 -0.10120107
0.021382255 0.06435085 0.036703076 0.068591654 -0.03611367 0.10062638 -0.015411899 0.086574465
0.006463017 -0.02742161 -0.027817443 0.0877605 -0.015611616 0.011768895 0.00472756 -0.08105184
-0.039889276 0.026376447 0.059008334 -0.0156892 -0.0956842 -0.0020220561 -0.026597772 0.08398678
-0.06778572 -0.09234747 0.00034642676 0.08413065 0.057146087 -0.026629705 0.041808162 -0.047474794
0.006329641 -0.107404485 0.03724605 -0.08936133 0.050827313 0.09428158 0.0061213598 0.033930864
-0.009405838 -0.09123068 0.0757216 -0.05544222 0.049280915 -0.098540775 0.023598984 0.05775591
00000000: a083 c03d 0df9 7ebd 804b 8ebb 0f0f 7fbc
00000010: db78 32bd 687b 4a3c 5a98 bbbd f069 d4bc
00000020: bc01 47bd 355d 8fbd c3ca 6a3c 6028 b7bd
00000030: 5128 79bd 534e 363d d7d1 7fbd 8f97 3bbd
00000040: 08e8 c5bd 391f f9bd 64fb 4b3d 8481 913d
00000050: 06c5 4dbd 87ff 7abd 2e5b 18bd d066 563d
00000060: ed49 353d 8d7b 173c e041 e03d 9af8 cc3d
00000070: a4cc 3a3d 85fd d3bb b783 ccbd f8eb 863d
00000080: 46b6 afbd bf63 153c 4dcb c3bd 3c2b 1c3d
00000090: 4d13 253d 8d16 a9bd 2cd4 a43c 5fc1 22bd
000000a0: 6f08 0fbb 1388 54bd 3f94 8e3d 60b6 493d
000000b0: 95d1 a93d 386d 3e3d 7c29 9a3c 7e47 5a3d
000000c0: 36fc a93d 06fe a6bd 1303 643d a4a4 49bd
000000d0: aae2 55bd 40f8 1b3d bc81 dbbd 6ddc 2ebd
000000e0: 3033 a6bd 3e2c 313d a666 1fbe f0bb 15bc
000000f0: bb87 bdbc abcc 8d3c 85db 13bd a29c 57bd
00000100: 43e1 6dbd e624 2e3d c63e b6bd 8298 3e3d
00000110: 3e62 353d c535 11bd d10f 9b3d 5da7 5d3d
00000120: 215e 47bb 9d06 8f3d b582 2e3c 582f 80bd
00000130: fa1f 823d a851 ec3c 5048 363d b687 c93c
00000140: 853e 113d 13e8 6b3d a0de c03d 05ee a93d
00000150: bccb 9e3c 0bd2 8ebd 544f c1bd d8db d1bd
00000160: 3ebf 473d e8cf cb3c c1bd 6f3d df6f 743d
00000170: e2c5 9fbd 7de0 f13c 3561 e6bb 1ee5 aebd
00000180: 01fb 083d 6b0a 13be d731 80bc 1ba0 b03d
00000190: ef8b 493d e421 82bd ed17 d23d 96c3 923d
000001a0: d13e afbd 94ea 35bc 9bb8 e53d 583a 243d
000001b0: db38 c4bd 5572 51bd f694 d5bd 3bd3 bdbd
000001c0: 477e ec3d 7ca3 b2bb b763 40bc 170c 873c
000001d0: 8251 3fbc fbf8 123e 7864 61bd b845 483c
000001e0: 7354 8b3d 36b7 f3bb 88f6 13bd ba89 25bc
000001f0: 646e ccbd 90b6 a7bd bb0f 35bd 74c5 aebd
00000200: 642c f7bc 06f9 00be 93a1 0e3c a1fe 85bc
00000210: c1ac c5bd d580 07be 8b5b a93d f5bd 663c
00000220: a9ff babd a947 df3c 3bff f1bb 7c57 9dbd
00000230: c78e 573d 15e7 38bd 4df1 d13d 1061 abbd
00000240: 7197 0dbe db66 09bd 7a5b 253d 7abb 1b3d
00000250: 01df 0e3d ebb3 623d 1aaf aabd 6cc1 8d3d
00000260: 0c6b 793d 5114 bbbc f8b6 0e3e 0c5e 033d
00000270: bda7 96bd 91ac 86bd 82a2 cabd 78c6 b73d
00000280: b758 4f3d a345 a8bd 076e d53d 744b 943d
00000290: 4648 7d3d d2b6 c5bc a14e 0f3d e55f 783d
000002a0: b2e5 543d 814e ea3d 17fc fbbc 0abb 8bbc
000002b0: b01d 633d 5300 c73c 79d8 38bc 18f6 c93d
000002c0: 4fd4 bebd c505 0dbd 8398 18be 2944 63bb
000002d0: 511f dcbd b3a3 cebd 5932 f8bd 96f1 833c
000002e0: 5565 c63a d047 e83d 4f1d aa3d b162 c7bb
000002f0: c32c 93bd 63b9 15bd 0cca 213d 4344 4a3d
00000300: d1ca bf3d 226d d8bd d19f 5fbd 348a 423d
00000310: 796d 19bd 9835 5bbd 9421 923d d806 023d
00000320: 50c3 3c3d b867 803d 595e 43bd a4d6 513c
00000330: 28eb 663d b8c6 91bd 2e4d 833d 8242 cfbd
00000340: d729 af3c 61ca 833d f755 163d c879 8c3d
00000350: edeb 13bd 3415 ce3d 3182 7cbc f44d b13d
00000360: b7c7 d33b 49a3 e0bc 68e1 e3bc c7bb b33d
00000370: ddc7 7fbc 53d2 403c a6e9 9a3b 82fe a5bd
00000380: f062 23bd 6b13 d83c b9b2 713d a386 80bc
00000390: 14f6 c3bd 7984 04bb 92e3 d9bc 4301 ac3d
000003a0: 3dd3 8abd ac20 bdbd 9da0 b539 b14c ac3d
000003b0: 0412 6a3d 8a26 dabc 093f 2b3d ee74 42bd
000003c0: e168 cf3b e2f6 dbbd 508f 183d 1303 b7bd
000003d0: 4d30 503d b316 c13d b095 c83b 17fb 0a3d
000003e0: f21a 1abc 27d7 babd ed13 9b3d 6217 63bd
000003f0: c9da 493d bfcf c9bd a852 c13c 7691 6c3d

bias f4 [5]
-0.06927893 0.043445826 -0.052565064 -0.017331805 -0.06981209
00000000: 1de2 8dbd 40f4 313d 774e 57bd 6efb 8dbc
00000010: a4f9 8ebd
